model_saved/LINUX/2022-03-28_19-49-36/GSC_GNN_LINUX_checkpoint.pth (torch, 291975 bytes, 61 tensors)

gnn_list.0.nn.0.weight f4 [64, 8]
0	0x3e83a30d	0.25710335
1	0x3e94686d	0.2898592
2	0x3e55f7d1	0.20895316
3	0xbd538a43	-0.05164553
4	0xbe4ac8c5	-0.1980315
5	0x3c138215	0.009003182
6	0xbe0dc15f	-0.13843296
7	0x3d28590d	0.04110055
8	0x3e90723e	0.2821216
9	0x3ee9fba0	0.45699787
10	0x3eb39596	0.35075063
11	0x3e706301	0.23475267
12	0xbcdd57e4	-0.027019449
13	0xbdf04a88	-0.11732966
14	0xbe963006	-0.29333514
15	0x3e45240e	0.19252035
16	0x3e8ee248	0.27907014
17	0x3d245969	0.04012433
18	0xbdec3822	-0.11534144
19	0x3e89d6aa	0.26921588
20	0x3e950b41	0.2911015
21	0xbe399476	-0.1812304
22	0xbd756798	-0.059913248
23	0xbd4375ed	-0.047719885
24	0x3e953848	0.29144502
25	0x3e8917f2	0.2677608
26	0x3e302e9b	0.17205279
27	0x3d735d75	0.0594153
28	0x3d3959f1	0.04525179
29	0xbd90c6b0	-0.07069147
30	0xbefbb9a1	-0.4916506
31	0x3db509db	0.088397704
32	0x3e1d8b92	0.15385273
33	0xbd461ad8	-0.048365444
34	0xbe3426b0	-0.17592883
35	0x3edf9cec	0.4367441
36	0x3dbced62	0.09224965
37	0x3df14e1d	0.11782477
38	0xbe02e39d	-0.1278214
39	0xbdcdb68d	-0.100445844
40	0x3e1df841	0.15426733
41	0x3f0f8202	0.5605775
42	0x3ea122ca	0.31471854
43	0x3d569890	0.05239159
44	0xbd2d35c1	-0.04228759
45	0x3dfb32e6	0.122655675
46	0xbe40a47f	-0.1881275
47	0x3e20dccb	0.15709226
48	0x3da5f93a	0.08104177
49	0x3e471920	0.19443178
50	0x3e374a42	0.17899421
51	0xbe54ded2	-0.20788124
52	0xbeb13131	-0.34607843
53	0xbed60703	-0.41802225
54	0xbebffb53	-0.37496433
55	0x3e73c125	0.23804148
56	0xbe71f3d0	-0.23628163
57	0xbdd9edf3	-0.10641088
58	0xbea60273	-0.32423744
59	0x3ddcbfee	0.10778795
60	0xbe0ca7cd	-0.13735886
61	0xbe09ae72	-0.13445452
62	0xbea1fad6	-0.31636685
63	0xbe75db6b	-0.24009483
64	0x3e8e6c7b	0.2781714
65	0xbee20978	-0.4414785
66	0x3e844b24	0.25838578
67	0x3e657a11	0.22409846
68	0xbe4c8476	-0.19972405
69	0xbe194d0a	-0.14970794
70	0xbe6fc2c2	-0.23414138
71	0xbea38581	-0.31937793
72	0x3cf36109	0.029709356
73	0xbea5aabd	-0.32356825
74	0x3e3c488a	0.18387046
75	0x3d8990f9	0.067171045
76	0xbd7dd4aa	-0.06197039
77	0x3ea113da	0.31460458
78	0xbe63b1c3	-0.2223578
79	0xbdf0a664	-0.117504865
80	0x3dfea832	0.124344245
81	0xbe2f7446	-0.17134199
82	0xbe471f8f	-0.19445632
83	0xbe0f4d1e	-0.13994262
84	0xbe03b72f	-0.12862848
85	0xbe83b0fd	-0.2572097
86	0xbe0cf2da	-0.13764516
87	0x3e99e766	0.30059355
88	0x3e506327	0.20350324
89	0x3ecfdcb3	0.40598068
90	0xbe4e2e16	-0.20134768
91	0xbedc39ad	-0.43012753
92	0xbd9de90a	-0.07710464
93	0x3efa2177	0.48853657
94	0x3d068cf6	0.032849275
95	0x3df7c375	0.12097827
96	0xbe52f08d	-0.20599575
97	0xbe9c2f20	-0.30504704
98	0x3ebfa0a1	0.37427238
99	0xbe14c65e	-0.14528796
100	0xbecfc456	-0.4057948
101	0xbe629e8d	-0.22130795
102	0xbe587533	-0.21138458
103	0xbe9ecbb2	-0.31014782
104	0x3da6f8d9	0.08152933
105	0xbebf0a72	-0.37312657
106	0xbe723422	-0.236527
107	0x3ede1f92	0.4338346
108	0x3ee256e6	0.44206923
109	0x3d889326	0.06668691
110	0x3dda5bdb	0.10662051
111	0x3e6c9448	0.2310344
112	0xbea020ab	-0.31274924
113	0x3dc5ea66	0.096638486
114	0x3daf1aac	0.08550009
115	0x3d5dc5b7	0.054143634
116	0xbdd3c7ad	-0.103408195
117	0xbe27b87f	-0.16378973
118	0xbe97c320	-0.29641056
119	0xbea8e0f2	-0.3298412
120	0xbe8a0f0b	-0.26964602
121	0xbe17269a	-0.14760819
122	0x3e117f5c	0.1420874
123	0x3de9db57	0.11418789
124	0xbc9360d2	-0.017990503
125	0x3d6cb87b	0.05779312
126	0xbed2ca51	-0.4116998
127	0xbe9462da	-0.28981668
128	0xbda1471a	-0.0787489
129	0xbe9af8d8	-0.30267978
130	0x3ec239f3	0.37934837
131	0x3e7dd0a0	0.24786615
132	0x3eb5c1b3	0.35499343
133	0x3eb9b677	0.36272022
134	0x3d203662	0.039114363
135	0xbea18bde	-0.31552023
136	0x3d1ee358	0.03879103
137	0x3cc6e406	0.024278652
138	0x3e42822e	0.18994972
139	0xbe942a2b	-0.28938422
140	0x3e8d3418	0.27578807
141	0x3ef88088	0.48535562
142	0x3f0963bd	0.53667814
143	0xbe966779	-0.29375818
144	0xbe65c2b6	-0.22437558
145	0xbea49cef	-0.3215098
146	0x3ebd573e	0.36980623
147	0xbe8d7451	-0.27627805
148	0x3e581554	0.21101886
149	0x3d4ac5f2	0.04950518
150	0xbea61799	-0.3243988
151	0xbe38f4dd	-0.18062158
152	0xbe5e2526	-0.21693859
153	0xbea8f6c0	-0.33000755
154	0x3c9f1770	0.019420356
155	0x3ea3a9e8	0.31965566
156	0xbea6edd1	-0.32603315
157	0xbea13e6c	-0.31492937
158	0xbe11f844	-0.14254862
159	0xbe598aae	-0.21244308
160	0x3e365c1e	0.17808577
161	0x3ebc836b	0.36819014
162	0xbf473a15	-0.77823
163	0xbecd7143	-0.40125474
164	0x3e9e18e0	0.30878353
165	0x3e2f0cc0	0.17094707
166	0xbeeddf45	-0.46459404
167	0xbc8972df	-0.016778408
168	0x3eb4f27d	0.35341254
169	0xbe7aad18	-0.24480093
170	0x3e59fdf9	0.21288289
171	0x3ccf0842	0.025272492
172	0x3c41ec86	0.011836177
173	0x3e629e59	0.22130717
174	0xbdf42887	-0.119217925
175	0xbd5f3dea	-0.054502405
176	0xbea45de8	-0.32102895
177	0xbee83be9	-0.45358208
178	0xbe75a4b2	-0.23988608
179	0x3edb5461	0.42837813
180	0x3eb4757c	0.35245883
181	0x3e9ea201	0.30982974
182	0xbe91c3d7	-0.28469726
183	0xbde7faac	-0.11327109
184	0xbe099300	-0.13434982
185	0xbe35dc19	-0.17759742
186	0xbe2113b2	-0.1573017
187	0x3e391899	0.1807579
188	0x3e3d4dac	0.1848666
189	0x3ed65c30	0.41867208
190	0xbd96552b	-0.07340463
191	0xbe8503b0	-0.25979376
192	0x3dbb85ad	0.09156356
193	0xbe868db8	-0.26279998
194	0x3de6abf8	0.11263269
195	0x3d735196	0.05940398
196	0x3d495191	0.049150053
197	0x3ee88939	0.45417193
198	0x3e8751d1	0.26429608
199	0xbe2608dd	-0.16214319
200	0xbe77da59	-0.24204387
201	0x3ee0fe0d	0.43943825
202	0x3e976596	0.2956969
203	0x3e09fcf9	0.13475408
204	0xbec88c6c	-0.39169633
205	0x3c87c7e8	0.016574815
206	0x3e333e15	0.17504151
207	0x3d0c5bf1	0.03426737
208	0x3df7596f	0.12077605
209	0x3daf3b10	0.08556187
210	0x3e818b54	0.2530161
211	0x3d9e57e5	0.07731608
212	0x3e192247	0.14954482
213	0x3eee8c4d	0.46591416
214	0x3eebe847	0.4607565
215	0xbe0e0b2d	-0.1387145
216	0xbe3b5560	-0.18294287
217	0x3e0ed68d	0.13949032
218	0xbd4f2ea8	-0.050581604
219	0x3c8888d0	0.0166668
220	0x3ebee339	0.37282732
221	0xbe66ab23	-0.22526221
222	0xbe78f22a	-0.24311128
223	0x3e675626	0.22591457
224	0xbe14f31c	-0.14545864
225	0x3ea3470e	0.31890148
226	0xbe605db0	-0.21910739
227	0xbec2b03f	-0.3802509
228	0xbe2aa803	-0.16665654
229	0x3dace2fa	0.0844173
230	0xbda2e822	-0.07954432
231	0x3ea0f5be	0.31437486
232	0x3dec0b17	0.11525553
233	0x3e70a4b1	0.23500325
234	0xbe137fb1	-0.14404179
235	0xbe77cc7e	-0.24199101
236	0xbeb942c6	-0.36183757
237	0x3e82985e	0.25506872
238	0x3f0098f6	0.502334
239	0x3e17ebe4	0.14836079
240	0xbe22e07c	-0.15905946
241	0x3e6c0e42	0.23052314
242	0xbf18f45d	-0.5974787
243	0xbd72ddf7	-0.059293713
244	0x3e97c339	0.2964113
245	0x3e399d3b	0.18126385
246	0xbd081f6e	-0.0332331
247	0xbd436c8e	-0.047710948
248	0x3eacc897	0.33746788
249	0xbeb3635d	-0.35036746
250	0xbea57b7d	-0.32320777
251	0xbe8c584e	-0.2741112
252	0x3e9ca635	0.30595556
253	0x3de9b3aa	0.11411221
254	0xbe19141f	-0.14949082
255	0x3e7d9595	0.24764092

gnn_list.0.nn.0.bias f4 [64]
0	0x3e1fb93e	0.15598008
1	0x3d884ae0	0.06654906
2	0xbe316dd4	-0.17327052
3	0x3e3e67a1	0.18594219
4	0xbec208de	-0.3789739
5	0xbded70c9	-0.11593778
6	0xbda185b7	-0.07886832
7	0xbe6a7a07	-0.22898112
8	0x3cc5e725	0.02415807
9	0xbe862dd4	-0.2620684
10	0x3dbb6548	0.09150177
11	0x3e67bd7e	0.2263088
12	0x3dfb7d0d	0.12279711
13	0x3e93ed4a	0.28891975
14	0xbecf9e19	-0.40550306
15	0xbe1d344c	-0.15351981
16	0x3e8e71c9	0.27821186
17	0xbea34fb9	-0.3189676
18	0x3d0417fd	0.03224944
19	0xbdfe0d03	-0.124048255
20	0x3db4baa5	0.08824662
21	0xbe91b491	-0.28458074
22	0x3e793ba1	0.24339153
23	0x3e407870	0.18795943
24	0xbdc2d03f	-0.09512376
25	0xbe8d1fca	-0.27563316
26	0xbed0aa69	-0.40755013
27	0xbe99c4fb	-0.30033097
28	0x3e704eec	0.23467606
29	0x3dcf74e5	0.10129718
30	0x3e0110cd	0.12604065
31	0xbe9027b0	-0.2815528
32	0xbeba89fb	-0.36433396
33	0xbe8e7f97	-0.27831718
34	0x3e13b7b9	0.14425553
35	0x3ed2bae8	0.41158223
36	0xbe39bc16	-0.18138155
37	0xbeb43267	-0.35194704
38	0xbe8b7390	-0.27236605
39	0xbd24f57a	-0.040273167
40	0xbeb2cbaf	-0.34921023
41	0xbdf7f00a	-0.12106331
42	0xbec21ad2	-0.37911087
43	0xbdbc100d	-0.09182749
44	0xbe1c65a5	-0.1527315
45	0x3dfcd04c	0.12344417
46	0x3e4b1302	0.1983147
47	0xbeb104c4	-0.34573948
48	0xbc77ab2e	-0.015116496
49	0xbd70cbc5	-0.05878808
50	0x3d861d35	0.065485395
51	0xbe4a2c71	-0.19743516
52	0xbd73c4d3	-0.059513878
53	0xbea2bfe6	-0.31787032
54	0xbe53bfd1	-0.20678641
55	0x3da0e115	0.07855431
56	0x3ef50abe	0.47859758
57	0xbe15593d	-0.14584823
58	0xbee0684b	-0.4382957
59	0x3e71a70c	0.2359888
60	0xbe04843b	-0.12941067
61	0x3ecb5039	0.39709643
62	0xbe80e1dd	-0.2517232
63	0xbde60f29	-0.1123336

gnn_list.0.nn.2.weight f4 [64, 64]
0	0xbd1e0095	-0.038574774
1	0x3e824ba0	0.25448322
2	0xbe0aa8e3	-0.13540988
3	0x3d6c5a25	0.057703156
4	0x3e1a43fb	0.15064995
5	0xbc973713	-0.018458879
6	0xbd1176a0	-0.03551352
7	0x3d2457a8	0.040122658
8	0x3e2341c6	0.1594306
9	0x3e2b278c	0.16714305
10	0x3dacff88	0.08447176
11	0xbd94cb99	-0.07265396
12	0xbd307eec	-0.043089792
13	0x3dd88083	0.10571387
14	0x3e1dd2fe	0.15412518
15	0x3e322b16	0.17399248
16	0x3f0163ac	0.5054271
17	0x3e1aa9a0	0.1510377
18	0x3eb2a08c	0.34888113
19	0x3e788d63	0.24272685
20	0xbdbc7984	-0.09202865
21	0x3eb43511	0.35196736
22	0x3e704631	0.23464276
23	0xbc054ac9	-0.008135506
24	0x3e9da7e4	0.30792153
25	0x3d057e74	0.0325913
26	0x3e8f40b9	0.27979067
27	0x3cc53a70	0.024075717
28	0xbdded85a	-0.108811095
29	0xbde5f43a	-0.11228223
30	0xbd9d971d	-0.07694838
31	0xbdba7ef2	-0.09106244
32	0x3e9324ed	0.2873911
33	0x3db1f3f8	0.086891115
34	0x3e03641d	0.12831159
35	0x3e3b1bf2	0.18272379
36	0x3e245600	0.16048431
37	0x3ab64f00	0.0013909042
38	0x3e6bfdf5	0.23046096
39	0xbd6cf9f8	-0.057855576
40	0xbe905dfd	-0.28196707
41	0x3e0ac92d	0.13553305
42	0x3db72e89	0.08944423
43	0x3d2984e0	0.041386485
44	0xbe1ba043	-0.15197854
45	0xbe33d859	-0.17562999
46	0x3e03d17e	0.12872884
47	0x3d6894c8	0.056782514
48	0x3f04a77a	0.5181805
49	0x3e425561	0.18977882
50	0x3e1c5d27	0.1526991
51	0x3df7aead	0.12093864
52	0xbda4a0ac	-0.08038458
53	0x3e5bbd08	0.21458828
54	0xbdbad399	-0.0912239
55	0x3ea41b2c	0.3205198
56	0xbd055d79	-0.032559846
57	0x3e82b0e1	0.25525573
58	0xbd93788c	-0.07200727
59	0xbd51cddc	-0.051221713
60	0xbd0c1523	-0.034199845
61	0x3d052fe6	0.032516383
62	0x3ec88359	0.3916271
63	0x3d0878ea	0.033318438
64	0x3e6181ae	0.22022125
65	0x3ec04fe2	0.37560946
66	0xbe8e60c1	-0.27808192
67	0x3e02402c	0.12719792
68	0xbe091344	-0.13386256
69	0x3eb3224c	0.34987104
70	0x3cca9105	0.024727354
71	0x3d244be0	0.040111423
72	0x3c3b0816	0.011415502
73	0x3da56bfd	0.08077238
74	0xbd95d8dc	-0.07316753
75	0xbe34e3d0	-0.17665029
76	0x3e274175	0.16333564
77	0x3e6d05ea	0.23146787
78	0xbdc976ea	-0.09837134
79	0x3e618419	0.22023048
80	0x3e292ecc	0.16521758
81	0x3cbfcbbc	0.023412578
82	0xbe01643d	-0.12635894
83	0xbc9d482b	-0.019199451
84	0xbf37afab	-0.71752423
85	0x3dd99f0c	0.10626039
86	0x3eb7d9ba	0.359083
87	0x3cbfb6b7	0.023402555
88	0x3d25c244	0.04046847
89	0x3e962885	0.2932779
90	0x3e24d6a7	0.16097508
91	0xbe87c0cc	-0.2651428
92	0xbe18b109	-0.14911284
93	0xbd6e4d4c	-0.058179185
94	0xbf2d3a84	-0.6766741
95	0x3de2b166	0.11068992
96	0x3d31c996	0.043405138
97	0xbc44bb30	-0.01200752
98	0x3de535fb	0.111919366
99	0xbeb1da00	-0.34736633
100	0x3de6d45a	0.112709716
101	0xbdef6686	-0.11689477
102	0xbdef1213	-0.11673369
103	0xbc3b31f0	-0.01142548
104	0xbf105d57	-0.56392425
105	0x3d62ae88	0.055342227
106	0xbe3021ed	-0.17200442
107	0xbef25a99	-0.47334746
108	0xbeba6946	-0.36408442
109	0xbdf1d36a	-0.11807902
110	0xbe1c9ecc	-0.15294951
111	0xbd890ffe	-0.066925034
112	0x3e24c1f1	0.16089608
113	0x3e805a9a	0.25069124
114	0x3ed6ddf9	0.41966227
115	0x3e84eab7	0.25960323
116	0xbc23baf0	-0.0099933
117	0xbe083b4f	-0.13303874
118	0xbe80f1c3	-0.2518445
119	0x3de32976	0.110918924
120	0x3e8b199c	0.27167976
121	0xbd2a58cb	-0.041588586
122	0xbf00ca6b	-0.50308865
123	0xbddf4d6e	-0.109034404
124	0xbb626f96	-0.0034551374
125	0xbc9195a8	-0.017771557
126	0x3ce68c03	0.028142935
127	0xbdd5f718	-0.1044752
128	0xbd8d1f4a	-0.068907335
129	0xbe1c0c38	-0.15239036
130	0x3d95f796	0.07322614
131	0x3e02f633	0.1278923
132	0xbe3ea1ff	-0.18616484
133	0xbde3e027	-0.11126738
134	0x3d52fc4f	0.05151015
135	0xbdb99a0e	-0.09062587
136	0xbe4a85ad	-0.19777556
137	0xbe58af0a	-0.21160522
138	0x3ce23320	0.027612269
139	0x3e159a96	0.14609751
140	0xbe3ee2df	-0.18641232
141	0x3e987c6c	0.29782426
142	0xbd42d360	-0.047564864
143	0xbea6903b	-0.32531914
144	0xbf08e6a6	-0.5347694
145	0xbd09a97d	-0.033608902
146	0xbe5f8821	-0.21829273
147	0x3eaabc0c	0.33346593
148	0x3e85fc84	0.26169217
149	0xbe9d966b	-0.30778822
150	0x3e9970b5	0.299688
151	0xbd214712	-0.03937442
152	0xbd2138b5	-0.03936072
153	0xbe1c696f	-0.15274595
154	0xbe5886a1	-0.21145107
155	0xbc51a304	-0.012795214
156	0x3ea4908e	0.32141536
157	0xbd5bd64a	-0.05367116
158	0x3d382354	0.044955567
159	0x3d6f2e60	0.058393836
160	0x3d63bf2a	0.05560223
161	0x3dc87d06	0.09789471
162	0xbee4eb5a	-0.4471081
163	0x3c8f9efc	0.017531864
164	0x3cd07ef5	0.025451163
165	0x3d60c428	0.05487457
166	0xbe9e152e	-0.30875534
167	0xbdcbdb76	-0.09953968
168	0xbdc5b349	-0.096533366
169	0x3dc2057c	0.09473702
170	0xbe91e214	-0.28492796
171	0x3e621366	0.22077712
172	0xbe8cafc8	-0.2747786
173	0x3e9bbc1d	0.30416957
174	0xbece7b43	-0.40328416
175	0xbdb54b06	-0.088522
176	0xbe9235ba	-0.28556615
177	0x3cd18241	0.025574805
178	0xbe5fe62d	-0.21865149
179	0xbe3fe59d	-0.18739934
180	0x3df63c94	0.12023273
181	0xbe0704fd	-0.13185497
182	0x3cc8208e	0.024429586
183	0xbecf2bbb	-0.4046305
184	0xbcd8bb33	-0.026456451
185	0xbed811cb	-0.42201075
186	0xbd8a833e	-0.06763314
187	0x3da0097e	0.078143105
188	0x3de3b9ad	0.11119399
189	0xbde212bb	-0.11038729
190	0xbe33806c	-0.17529458
191	0x3e342584	0.17592436
192	0x3e218cc1	0.1577635
193	0x3e0a21e7	0.13489495
194	0x3cafc1f1	0.021454783
195	0x3e7c1463	0.24617152
196	0xbdaec496	-0.085335895
197	0x3df6789e	0.12034725
198	0x3e4b6bfd	0.19865413
199	0xbc3e3330	-0.011608884
200	0xbd45c1b4	-0.048280433
201	0xbf1790fd	-0.5920561
202	0xbc670170	-0.014099464
203	0x3cfdf7f0	0.031002015
204	0xbe36c213	-0.17847471
205	0x3e4dbdd3	0.20091943
206	0xbd4d012d	-0.05004995
207	0x3bc7f754	0.006102482
208	0x3a098e6f	0.00052473595
209	0xbe89ce3b	-0.26915154
210	0xbf23cb7c	-0.6398237
211	0x3ae925fd	0.0017787811
212	0xbe34a479	-0.17640866
213	0xbebb9ca6	-0.3664295
214	0x3e4a126b	0.19733588
215	0xbe527e3a	-0.20555964
216	0xbe80df8e	-0.2517056
217	0xbd8ea05b	-0.06964179
218	0xbe2f7fe2	-0.17138627
219	0x3e4d966f	0.20076917
220	0x3c6d79ec	0.0144944005
221	0x3cc9c877	0.024631722
222	0xbe637904	-0.22214133
223	0xbdf12904	-0.11775401
224	0x3cf91e6a	0.03041001
225	0xbde4c9f6	-0.111713335
226	0x3ce19c0d	0.027540231
227	0xbe07d916	-0.13266405
228	0x3e145ea8	0.14489233
229	0x3d70b0e8	0.05876246
230	0xbf206c41	-0.6266518
231	0x3d8ab762	0.06773259
232	0xbdfe7fb2	-0.124267
233	0xbe4895fc	-0.19588464
234	0xbe35ac13	-0.17741422
235	0xbc3a687f	-0.011377453
236	0xbf0168ca	-0.5055052
237	0x3e2b8729	0.16750778
238	0xbedafce0	-0.42771053
239	0x3df901e4	0.12158564
240	0x3d987e63	0.07445981
241	0x3dfce2da	0.12347956
242	0x3e4e15c0	0.20125484
243	0xbdb29a15	-0.08720795
244	0x3d31e2c8	0.043429166
245	0xbeb2ea30	-0.34944296
246	0x3d2e328b	0.04252867
247	0xbf08b725	-0.53404456
248	0x3d98dcf1	0.07464016
249	0xbefd6f63	-0.49499044
250	0xbeff1674	-0.49821818
251	0xbd742644	-0.059606805
252	0x3cdffac3	0.027341252
253	0x3b7e5e5f	0.0038813574
254	0xbf0f97de	-0.56091106
255	0xbe2e0554	-0.1699422

gnn_list.0.nn.2.bias f4 [64]
0	0x3db1687d	0.08662508
1	0x3e479bb7	0.19492994
2	0xbdd2ade9	-0.10287077
3	0xbc8ca76f	-0.017169682
4	0x3dce72fb	0.100805245
5	0x3d80395e	0.06260942
6	0x3e6f8d7f	0.2339382
7	0x3bb3cb8c	0.005486911
8	0xbbcc2c91	-0.0062308987
9	0x3e2092fa	0.15681067
10	0xbd915e47	-0.0709806
11	0x3e3538d4	0.1769746
12	0x3d3ac9e2	0.045602687
13	0x3d4afda3	0.049558293
14	0xbd0dfcb8	-0.03466484
15	0x3cf88433	0.030336475
16	0x3c534a04	0.012896065
17	0xbd9bd5cd	-0.07609139
18	0x3da7184a	0.0815893
19	0xbdd8192e	-0.10551678
20	0xbdbfe1f2	-0.093692675
21	0xbe173de1	-0.14769699
22	0xbd960876	-0.073258325
23	0x3c94ae98	0.018149659
24	0xbd67292e	-0.056435756
25	0x3dbf14ed	0.09330163
26	0xbd6d40d6	-0.05792316
27	0xbdb79bdf	-0.08965277
28	0xbd8da69f	-0.06916546
29	0x3db67ffc	0.0891113
30	0x3e43eb2d	0.19132681
31	0x3d298079	0.041382287
32	0x3dd5ed4f	0.10445654
33	0x3d8b0b3e	0.06789254
34	0x3dcc0edc	0.09963772
35	0x3d723fb3	0.05914278
36	0x3ca525d5	0.020159641
37	0x3d57904f	0.052627858
38	0x3d6655ec	0.056234285
39	0xbdc307ff	-0.095230095
40	0x3d6648f8	0.056221932
41	0x3c6e6e68	0.01455269
42	0xbd2d7724	-0.04234995
43	0x3c07ace5	0.008280967
44	0xbd513f18	-0.05108556
45	0x3c711742	0.014715018
46	0x3dc61e5c	0.09673759
47	0x3da34f8b	0.07974156
48	0xbdf361f5	-0.11883918
49	0x3d8cc051	0.06872619
50	0x3e11a0e6	0.14221534
51	0x3d83bf35	0.06432954
52	0x397c627e	0.00024069284
53	0x3d219da7	0.03945699
54	0x3c068444	0.0082102455
55	0x3d8a9bc9	0.06767995
56	0x3d09df5b	0.033660274
57	0x3ddc19ce	0.10747109
58	0xbdc8ca74	-0.0980424
59	0xbe1ff39e	-0.15620276
60	0x3e1ba864	0.15200955
61	0xbdb3fb08	-0.08788115
62	0x3d71af81	0.059005264
63	0x3e0a0a31	0.1348045

gnn_list.0.nn.3.weight f4 [64]
0	0x3f32a900	0.69789124
1	0x3edebbcd	0.43502656
2	0x3f1a4ddf	0.6027507
3	0x3f159128	0.58424616
4	0x3efd74c4	0.49503148
5	0x3f0da4db	0.55329674
6	0x3f8031e4	1.0015225
7	0x3f3ad016	0.72973764
8	0x3f1b05ba	0.60555613
9	0x3f5f2fe7	0.8718247
10	0x3f0f004e	0.5585984
11	0x3f5c04b6	0.8594469
12	0x3f37f803	0.7186281
13	0x3f279ba9	0.65471894
14	0x3e9d4c49	0.30722263
15	0x3f6b52f5	0.9192346
16	0x3ed0d899	0.4079025
17	0x3f2624f5	0.6490014
18	0x3f1ab1ff	0.6042785
19	0x3f51ced4	0.8195622
20	0x3f45cda8	0.7726693
21	0x3f3dc9bb	0.7413594
22	0x3f46907f	0.77564234
23	0x3f241a2a	0.64102423
24	0x3ee176ce	0.44035953
25	0x3f067252	0.5251819
26	0x3eca6604	0.39530957
27	0x3ef7e2f8	0.4841535
28	0x3f3b97d0	0.7327852
29	0x3f246bd1	0.64227015
30	0x3f2e50fb	0.68092316
31	0x3f01133b	0.5041997
32	0x3f00253a	0.50056803
33	0x3f385c51	0.72015864
34	0x3f332af9	0.69987446
35	0x3f1c9cd2	0.6117679
36	0x3eee092d	0.46491376
37	0x3f62572f	0.8841428
38	0x3f3158b9	0.69276005
39	0x3f054a98	0.52066946
40	0x3ec825e2	0.39091402
41	0x3f0a2bfa	0.5397335
42	0x3ed3d68d	0.41374627
43	0x3ee27876	0.4423253
44	0x3f0c0735	0.546985
45	0x3f2430cd	0.64136964
46	0x3ee97cf8	0.45603156
47	0x3eb0b3aa	0.34512073
48	0x3ee88dca	0.45420676
49	0x3f3c9966	0.7367157
50	0x3f5ef35a	0.87090075
51	0x3f1c1f61	0.6098538
52	0x3ea570d2	0.32312638
53	0x3f2f6386	0.68511236
54	0x3ef7320b	0.48280367
55	0x3ec6a3da	0.38796884
56	0x3f22b1fe	0.63552845
57	0x3eb57414	0.35440123
58	0x3f5cd1f6	0.86257875
59	0x3f104dcf	0.56368726
60	0x3f305641	0.68881613
61	0x3f3aaf4c	0.7292373
62	0x3f234969	0.6378389
63	0x3f05b399	0.5222717

gnn_list.0.nn.3.bias f4 [64]
0	0xbe949278	-0.29017997
1	0xbeb5939e	-0.35464185
2	0xbe186388	-0.14881718
3	0xbe72a71b	-0.23696558
4	0xbe6c49d1	-0.23075034
5	0xbe0fcdd9	-0.14043368
6	0xbd6cc2e2	-0.057803042
7	0x3dd6bb40	0.10484934
8	0xbd0df2fa	-0.03465555
9	0x3cb98cfa	0.02265023
10	0xbef7e5fa	-0.48417646
11	0xbe2fa1b6	-0.17151532
12	0xbdcb6ee6	-0.099332616
13	0xbee2d4d1	-0.4430299
14	0xbe7a320a	-0.24433151
15	0x3db1894a	0.08668764
16	0xbe0803a4	-0.13282639
17	0xbe89da4c	-0.2692436
18	0xbe28691a	-0.16446343
19	0x3e087398	0.13325346
20	0xbe9dd841	-0.3082905
21	0xbdfb5cc1	-0.12273551
22	0xbe3a8ed9	-0.18218555
23	0xbe9bf9f9	-0.30464152
24	0xbed40bd5	-0.41415277
25	0xbe8a5b51	-0.27022794
26	0xbd3a105a	-0.04542575
27	0xbe85c78d	-0.26128808
28	0xbe3e5e6f	-0.18590711
29	0xbec4caba	-0.38435918
30	0xbe1d8b79	-0.15385236
31	0xbe575589	-0.21028723
32	0xbe9de4af	-0.30838534
33	0xbdfa0bbd	-0.1220927
34	0xbe9fc1cb	-0.3120254
35	0xbe3b28e6	-0.1827732
36	0xbd2670ce	-0.040634923
37	0xbd687023	-0.056747567
38	0xbecc0104	-0.39844525
39	0xbea288b8	-0.31744933
40	0xbea41a46	-0.32051295
41	0xbee00f2d	-0.43761578
42	0xbe713f70	-0.23559356
43	0xbe35dfef	-0.17761205
44	0xbe3cbf89	-0.1843244
45	0x3e2a185a	0.16610852
46	0xbe18f64a	-0.14937702
47	0xbe7bbeb8	-0.24584472
48	0x3d95d85f	0.0731666
49	0x3dcc35cc	0.099711984
50	0x3e4e0d22	0.20122197
51	0xbd8f1e88	-0.06988245
52	0xbeb1e4af	-0.34744784
53	0xbe16eee7	-0.14739572
54	0xbedbb31e	-0.42910093
55	0xbe2d3cf6	-0.16917786
56	0xbdb86657	-0.09003895
57	0x3e0413da	0.12898198
58	0xbdc10c9b	-0.094262324
59	0xbe708f3a	-0.23492137
60	0xbd473cd8	-0.04864201
61	0x3d0a0fef	0.0337066
62	0xbea6840e	-0.32522625
63	0x3d802ef2	0.06258954

gnn_list.0.nn.3.running_mean f4 [64]
0	0x40300ae4	2.7506647
1	0x4021e330	2.5294914
2	0xc02a5321	-2.6613238
3	0xbef2ac0f	-0.47396895
4	0xc02e3a60	-2.722313
5	0xbea8b72c	-0.3295225
6	0x40146fe4	2.3193293
7	0x4009d6f7	2.1537454
8	0x3f23a20c	0.6391914
9	0x3fa2a6a6	1.2707107
10	0xc040fdd4	-3.0154924
11	0xc018c261	-2.386864
12	0x3f22a2e8	0.63529825
13	0xc0275b03	-2.61493
14	0x3f2155e4	0.63021684
15	0xc00ba0f3	-2.1816986
16	0xc027a9bc	-2.6197348
17	0xc018a540	-2.385086
18	0xbff0a7a5	-1.8801161
19	0xc046bcbf	-3.1052701
20	0xc0319f9a	-2.7753663
21	0xc04c1ab6	-3.1891303
22	0xc026fefc	-2.609313
23	0x401b47c3	2.426255
24	0xbf01a409	-0.5064092
25	0x3e879874	0.264835
26	0x3f6f938b	0.9358451
27	0xbfb26e2a	-1.3939869
28	0xbec80257	-0.39064285
29	0x3e2b9dab	0.16759364
30	0xbe918e99	-0.28429106
31	0xc0108644	-2.258195
32	0xbee4dec8	-0.4470122
33	0x3fb53235	1.4155947
34	0xc0354179	-2.8321211
35	0xbfdcce14	-1.725039
36	0xbf6be38d	-0.9214409
37	0xbf8c039e	-1.0938604
38	0x3fe1731d	1.7613255
39	0xbf0f2b55	-0.55925494
40	0xbf9c5c0c	-1.221559
41	0xc02b3e37	-2.6756723
42	0x3e29dc63	0.16587977
43	0xbfb28fd0	-1.3950138
44	0xbfd6ce51	-1.6781713
45	0x3f0a403f	0.5400428
46	0xbf23b9c5	-0.63955337
47	0x3f98ff6c	1.1952949
48	0xbf7ea7dd	-0.9947489
49	0xbf9e8f76	-1.2387531
50	0x401bf606	2.436891
51	0xbf815e09	-1.0106822
52	0xc017e989	-2.3736289
53	0xbfe637e5	-1.7985808
54	0xc0274f88	-2.6142292
55	0x3f2676ab	0.6502482
56	0x3f4b95a7	0.79525226
57	0xc0447f74	-3.0702791
58	0x3fce789f	1.6130561
59	0xc00ae106	-2.1699843
60	0xc0482467	-3.1272218
61	0xbefc90ef	-0.49329326
62	0x4013caf6	2.3092628
63	0xbfbf5a86	-1.49495

gnn_list.0.nn.3.running_var f4 [64]
0	0x4066a58c	3.6038542
1	0x401f6d4c	2.491046
2	0x408ca421	4.3950353
3	0x402530ed	2.5811112
4	0x4013421d	2.3009102
5	0x400b4d5b	2.1765964
6	0x3f4efe4f	0.80856794
7	0x3f7cccf3	0.9875023
8	0x3fbb5368	1.4634829
9	0x3f5273bf	0.82207865
10	0x40d76b86	6.7318754
11	0x3f163641	0.58676535
12	0x400e150c	2.2200346
13	0x40ae6de2	5.4509134
14	0x40a4fa6b	5.1555686
15	0x3ee09ba0	0.43868732
16	0x3f95f1fb	1.1714472
17	0x3fb96ee8	1.4486971
18	0x403a7b76	2.9137855
19	0x40108d87	2.2586381
20	0x407160c8	3.771532
21	0x400b6b7e	2.1784358
22	0x3fd05d70	1.6278515
23	0x3f6bed1b	0.9215867
24	0x40a51737	5.159084
25	0x401111fa	2.2667222
26	0x4019c31f	2.4025342
27	0x3fd07da6	1.6288345
28	0x3fd5fef3	1.6718429
29	0x405585a3	3.3362815
30	0x3fc25558	1.5182295
31	0x4053501a	3.301764
32	0x400cc49f	2.1995008
33	0x40403e6c	3.00381
34	0x40ebe9cf	7.372291
35	0x3fc3b856	1.529063
36	0x40929f36	4.581935
37	0x3f191dfe	0.5981139
38	0x402f7a82	2.7418523
39	0x404c45bb	3.191756
40	0x408f29c1	4.473847
41	0x406643d1	3.5978892
42	0x40aaadb2	5.333703
43	0x40615ab6	3.5211616
44	0x3f88a677	1.0675801
45	0x404040d0	3.0039558
46	0x401b485c	2.4262915
47	0x40458fb3	3.0868957
48	0x40568c6c	3.3523207
49	0x3f76af2e	0.96361053
50	0x3fe75903	1.8074039
51	0x3f7d7e9f	0.99021333
52	0x409ffb4e	4.999427
53	0x40003a27	2.0035493
54	0x403ca012	2.94727
55	0x4000f27e	2.0148005
56	0x3f964ae3	1.1741604
57	0x4001df2e	2.0292468
58	0x3f37d454	0.7180836
59	0x405cb6a0	3.4486465
60	0x3fa3a3bc	1.2784343
61	0x3fd52bdc	1.665401
62	0x408813bd	4.2524095
63	0x40219ff0	2.5253868

gnn_list.1.nn.0.weight f4 [64, 64]
0	0x3c439a1e	0.0119386
1	0x3c8ac55c	0.016939811
2	0x3dcddc61	0.100517996
3	0x3d2a512e	0.041581325
4	0xbd7184ca	-0.05896453
5	0xbe30871a	-0.17239037
6	0x3b90d985	0.0044204616
7	0x3c89fd03	0.016844278
8	0x3e3592f4	0.1773184
9	0x3e0fc66d	0.14040537
10	0x3e0b7c42	0.1362162
11	0xbeb65667	-0.35612795
12	0x3b997c3c	0.0046839993
13	0xbcdc24b3	-0.026872968
14	0x3e66939a	0.22517243
15	0x3f09faa1	0.53898054
16	0x3a34f9ba	0.0006903667
17	0xbf22d67e	-0.6360854
18	0xbe5a6b17	-0.21329914
19	0x3ec72b88	0.389004
20	0x3dc2654e	0.094919786
21	0x3c3e5fc3	0.011619511
22	0x3ddc5680	0.10758686
23	0x3e851efd	0.26000205
24	0x3961822d	0.00021506166
25	0x3d9fe73f	0.078077786
26	0x3e15b7cf	0.14620899
27	0x3e82e752	0.25567108
28	0xbd27ad32	-0.040936656
29	0xbc0afd24	-0.008483205
30	0x3ebf52d8	0.37367892
31	0xbd3f5564	-0.046712294
32	0x3e1bfe60	0.15233755
33	0xbd8cf813	-0.06883254
34	0x3e4a0640	0.19728947
35	0xbca45ac3	-0.02006281
36	0xbd115719	-0.035483453
37	0x3d7ca222	0.06167806
38	0xbcfae95b	-0.03062885
39	0x3cd9686f	0.026539056
40	0x3d0f3476	0.03496214
41	0x3e4ace15	0.19805177
42	0x3d0a894b	0.03382234
43	0xbd72ae3e	-0.0592482
44	0xbf0c2568	-0.5474458
45	0xbd5a4cdb	-0.05329595
46	0x3dcd10c1	0.10012961
47	0xbe0fedff	-0.14055632
48	0x3d962aec	0.073324054
49	0xbc9564a8	-0.018236473
50	0xbd7ace02	-0.06123162
51	0xbd3ae7c8	-0.0456312
52	0x3d4aa6a2	0.04947532
53	0x3e96b0e3	0.2943183
54	0x3e024d0d	0.12724705
55	0xbdfd2480	-0.123604774
56	0x3ea2f3bd	0.31826583
57	0xbe237d73	-0.15965824
58	0x3dda0d2e	0.10647045
59	0x3de43ef6	0.11144821
60	0xbebb720f	-0.36610457
61	0x3e7a13c4	0.24421602
62	0x3d367782	0.044547565
63	0xbc0d305b	-0.008617486
64	0xbc128afc	-0.008944269
65	0x3cebfda3	0.028807467
66	0xbe0b6697	-0.13613354
67	0xbd91d5d8	-0.071208656
68	0xbdf00baa	-0.11720975
69	0xbccd379b	-0.025050929
70	0xbddba955	-0.10725657
71	0xbddfbc11	-0.10924543
72	0x3dc7a01e	0.09747337
73	0x3d158e15	0.036512453
74	0xbe0e3a56	-0.13889441
75	0x3d0e5343	0.034747373
76	0xbe1da8d8	-0.1539644
77	0xbca41557	-0.020029707
78	0xba170e41	-0.0005762317
79	0xbc8f2665	-0.017474363
80	0xbcaadddb	-0.020857742
81	0x3d79e5fa	0.06101034
82	0x3c872522	0.016497198
83	0xbb6e4153	-0.0036354854
84	0xbd50b2ba	-0.050951697
85	0xbd847078	-0.06466764
86	0xbd99e7de	-0.07514928
87	0xbd9302a8	-0.07178241
88	0x3c118803	0.008882525
89	0x3dcd9bf6	0.10039513
90	0xbe1f8096	-0.15576395
91	0xbddaa179	-0.1067533
92	0xbddb12f7	-0.10696977
93	0xbd08f478	-0.03343627
94	0xbdf95274	-0.1217393
95	0xbe0c0a11	-0.13675715
96	0xbd193c71	-0.037411157
97	0x3d312491	0.043247763
98	0x3dccfc50	0.10009062
99	0x3d0f1538	0.034932345
100	0x3d37c23f	0.044862982
101	0xbd6ecaf5	-0.058299024
102	0x3dad7f37	0.0847153
103	0xbdde66f4	-0.108594805
104	0xbce6fb2f	-0.028195946
105	0x3c666b20	0.0140636265
106	0x3d8484e0	0.064706564
107	0xbd932047	-0.07183891
108	0xbd8e5f15	-0.06951729
109	0xbe1d821e	-0.15381667
110	0xbb254a19	-0.0025221168
111	0xbd8c9366	-0.068640515
112	0xbdcb3a29	-0.099232025
113	0xbdbbda47	-0.091724925
114	0xbdda4cbb	-0.106591664
115	0xbda92d9a	-0.08260651
116	0xbe053ca3	-0.13011412
117	0x3d464e01	0.048414234
118	0x3da9cf7d	0.082915284
119	0xbc884e24	-0.016638823
120	0xbe0d1398	-0.13777006
121	0x3bec431d	0.007210149
122	0xbcb1e6b3	-0.021716451
123	0x3d40b9df	0.04705226
124	0xbddf3aa7	-0.10899859
125	0xbd6119a2	-0.054956086
126	0xbc511a24	-0.01276258
127	0x3d19106f	0.037369188
128	0x3ce65eac	0.028121315
129	0x3da15a63	0.07878568
130	0xbf0c3229	-0.5476404
131	0xbee66ae0	-0.45003414
132	0xbefa13f9	-0.48843363
133	0x3dc36fe5	0.095428266
134	0x3e825fc0	0.25463676
135	0xbc14009e	-0.00903335
136	0xbf03e639	-0.51523167
137	0xbe51a8e0	-0.20474577
138	0xbf29a707	-0.6627049
139	0x3e970d11	0.29502156
140	0x3e88b756	0.26702374
141	0xbf3750a4	-0.7160742
142	0xbd198306	-0.03747847
143	0xbdfe5ac3	-0.12419655
144	0xbd204f64	-0.039138213
145	0x3e96ce19	0.29454115
146	0x3de21568	0.11039239
147	0xbe5e9910	-0.21738076
148	0xbf1eedbc	-0.62081504
149	0xbf211383	-0.629204
150	0xbe9bb1d6	-0.30409116
151	0x3e14d98c	0.14536113
152	0x3c09b45f	0.00840482
153	0xbea8d4ec	-0.32974946
154	0xbdabe7d0	-0.08393824
155	0xbf0ad0cd	-0.54224855
156	0xbedb1094	-0.42786086
157	0xbebeda8b	-0.3727611
158	0x3cc75ea2	0.024337117
159	0x3d902ae3	0.0703943
160	0xbf263c1b	-0.64935464
161	0x3e5bf99b	0.21481936
162	0xbebfa377	-0.374294
163	0xbe05004a	-0.12988392
164	0x3d9c11e8	0.07620603
165	0x3eb919d2	0.36152512
166	0x3d3df9e3	0.04638089
167	0xbdaa5f44	-0.08318952
168	0x3d29346f	0.04130977
169	0xbf15bc7a	-0.5849072
170	0xbd3a5df9	-0.045499776
171	0x3cbc46e7	0.022983028
172	0x3e20f6ac	0.15719098
173	0x3d13cd8a	0.03608469
174	0x3db3afe4	0.08773783
175	0x3cd39b0e	0.025830772
176	0x3bb9987c	0.0056639295
177	0x3e04588e	0.12924406
178	0x3e6c1086	0.23053178
179	0x3d876edc	0.066129416
180	0xbeafb548	-0.34317994
181	0xbe89665c	-0.26835907
182	0xbf162022	-0.5864278
183	0x3e0f8bf8	0.14018238
184	0xbd21d694	-0.03951128
185	0x3e076eb7	0.13225828
186	0x3ec1779e	0.37786573
187	0xbea9d436	-0.33169717
188	0x3e0e6ef6	0.13909516
189	0xbf52c142	-0.8232614
190	0x3e0eaa79	0.13932218
191	0xbd06cd9b	-0.032910924
192	0xbe03f807	-0.12887584
193	0xbcea37d4	-0.028591074
194	0x3d3ca9a8	0.046060234
195	0xbce27179	-0.027641999
196	0xbdf1a2be	-0.11798619
197	0xbdf3531b	-0.118810855
198	0xbdc91c99	-0.09819908
199	0xbc0c6acc	-0.008570384
200	0xbc862b4d	-0.01637807
201	0x3d012afe	0.03153514
202	0xbd31053e	-0.04321789
203	0xbdd82281	-0.10553456
204	0xbe00cb76	-0.12577614
205	0xbe087dcd	-0.13329239
206	0xbbf920f2	-0.0076028043
207	0xbdd9196b	-0.10600551
208	0x3dbef977	0.093249254
209	0xbc5fe11a	-0.013664508
210	0xbd44fb14	-0.04809101
211	0xbdd10cce	-0.102075204
212	0x3d994db4	0.07485524
213	0xbd09c224	-0.033632413
214	0xbd80813b	-0.06274649
215	0xbdd77989	-0.10521228
216	0xbda4fb6d	-0.08055768
217	0x3d47a04b	0.04873685
218	0xbe1a83f9	-0.15089406
219	0x3d19c48b	0.037540954
220	0x3b1d880a	0.0024037384
221	0x3d5db1e8	0.054124743
222	0xbdc2aa82	-0.09505178
223	0xbd30e838	-0.04319021
224	0x3d958ee7	0.07302647
225	0x3dd4f3d8	0.10398072
226	0xbe08cb5c	-0.13358825
227	0x3b808158	0.003921669
228	0xbdd48cc3	-0.10378411
229	0xbcb80a85	-0.022465954
230	0xbc6a17f0	-0.014287934
231	0xbd10056e	-0.03516143
232	0xbd0dd32c	-0.034625217
233	0x3c6272a7	0.013821281
234	0xbd096acb	-0.03354911
235	0xbcdcdb02	-0.0269599
236	0xbd0424d0	-0.03226167
237	0x3dc774b5	0.09739057
238	0xbdd7b8a7	-0.105332665
239	0xbc037dbe	-0.008025585
240	0x3d8eb9f2	0.0696906
241	0x3be45c7b	0.0069690323
242	0x3d17ecf5	0.037091214
243	0xbde2ddd2	-0.11077465
244	0xbc03ab00	-0.008036375
245	0xbdf61759	-0.12016172
246	0x3c8c6c31	0.017141433
247	0x3d958db1	0.07302416
248	0xbdf68f33	-0.12039032
249	0xbd2f22cb	-0.04275779
250	0x3d6b8ae6	0.05750551
251	0x3d54e384	0.05197479
252	0xbcad9e2b	-0.021193584
253	0xbd9e7c75	-0.07738582
254	0xbe04a140	-0.12952137
255	0x3d3e3be8	0.04644385

gnn_list.1.nn.0.bias f4 [64]
0	0x3e87933e	0.26479524
1	0x3c678e0d	0.014132989
2	0x3e26635a	0.16248837
3	0x3dae8164	0.08520773
4	0x3d01f35e	0.031726234
5	0x3eb39e37	0.35081646
6	0xbdd99eb7	-0.106259756
7	0x3db6129b	0.088902675
8	0x3e3daf77	0.18523966
9	0xbe497b14	-0.19675857
10	0xbe32558b	-0.17415445
11	0xbdaf0333	-0.08545532
12	0xbcdac201	-0.026703836
13	0x3e7981d7	0.24365936
14	0x3ca77ee8	0.020446256
15	0xbda12f75	-0.0787038
16	0xbdca5482	-0.098794
17	0xbe0daf38	-0.13836372
18	0x3d1112a6	0.035418175
19	0xbdfc9472	-0.12333001
20	0xbe0dedd7	-0.1386026
21	0x3d7bff13	0.061522555
22	0xbe8cd3b9	-0.27505282
23	0xbd959c37	-0.07305186
24	0x3daf6800	0.08564758
25	0x3d2826d7	0.041052666
26	0x3bbf429d	0.0058367983
27	0xbcf73e10	-0.03018096
28	0xbd12a6db	-0.035803657
29	0xbd047b31	-0.032344047
30	0x3e4b1ea3	0.19835906
31	0x3d4be870	0.049782217
32	0xbbb91824	-0.0056486297
33	0x3dfcb0c8	0.12338406
34	0x3d9aa6ee	0.075513706
35	0x3d4d057f	0.05005407
36	0xba4f6c21	-0.0007912536
37	0xbd22d6b6	-0.039755546
38	0xbd6ae9f5	-0.057352025
39	0xbde36ae7	-0.111043744
40	0xbc2521fa	-0.010078901
41	0xbd820478	-0.063485086
42	0x3e23aaed	0.15983172
43	0xbdcec899	-0.10096855
44	0xbda5be8e	-0.08092986
45	0xbd909694	-0.070599705
46	0xbdd011e1	-0.1015966
47	0xbe34993a	-0.17636576
48	0x3e37caf7	0.17948519
49	0x3dbd91f7	0.09256356
50	0x3cc5263e	0.024066087
51	0xbdf9c917	-0.12196558
52	0xbdd97b1d	-0.10619185
53	0x3e10bc3d	0.14134307
54	0x3d44cc22	0.04804624
55	0x3d5776e8	0.052603632
56	0x3a50c7ba	0.0007964332
57	0x3c84e374	0.01622174
58	0x3e47ad46	0.19499692
59	0x3e3636d8	0.17794359
60	0xbd3598f1	-0.04433531
61	0x3ca87bc7	0.020566834
62	0xbe31bb36	-0.17356572
63	0xbd95d930	-0.07316816

gnn_list.1.nn.2.weight f4 [64, 64]
0	0xbef3987f	-0.47577283
1	0x3dac1fa5	0.08404473
2	0x3e590faa	0.21197382
3	0x3df0279d	0.11726306
4	0x3e604a8f	0.21903442
5	0x3b93a64d	0.0045059086
6	0xbd441198	-0.04786834
7	0x3ea7ba32	0.32759243
8	0x3dcdd90d	0.10051165
9	0xbe52a326	-0.20570049
10	0xbdcc7f92	-0.099852696
11	0x3c285b91	0.010275737
12	0x3e294954	0.16531879
13	0xbf22c3de	-0.6358012
14	0xbea1037f	-0.3144798
15	0xbbc8fe6d	-0.0061338455
16	0xbe0ce03c	-0.13757414
17	0x3d8c9207	0.0686379
18	0xbdf07c84	-0.117424995
19	0x3de9c094	0.114136845
20	0xbe0b4eaa	-0.13604227
21	0xbe9d8033	-0.3076187
22	0xbd8a9b90	-0.067679524
23	0x3c3c6952	0.01149972
24	0xbcdfbc91	-0.027311595
25	0x3d69e419	0.057102297
26	0x3c395aed	0.011313182
27	0xbce9a48b	-0.028520843
28	0xbd310b1b	-0.04322348
29	0x3e158bca	0.14604107
30	0xbc0eb261	-0.008709521
31	0x3d94f8d5	0.072740234
32	0xbdb39cc5	-0.08770136
33	0xbe8d14f9	-0.27555063
34	0xbe1f6743	-0.15566735
35	0x3cd22475	0.02565215
36	0x3e6a2a8f	0.22867797
37	0x3bd5b5ee	0.006521932
38	0xbd2085d3	-0.039190125
39	0xbdd04463	-0.10169294
40	0xbd9c9933	-0.07646408
41	0xbd943ca3	-0.07238128
42	0xbe13d2c6	-0.14435872
43	0x3d493809	0.049125705
44	0x3dca26b5	0.09870664
45	0x3e56a231	0.20960309
46	0xbdfd9eb5	-0.123837866
47	0x3d08b2be	0.033373587
48	0x3ea532cf	0.32265326
49	0x3db6338a	0.08896549
50	0x3d8fcedf	0.070218794
51	0xbf04c4ca	-0.51862776
52	0xbdf8b23f	-0.12143373
53	0xbe48b284	-0.19599348
54	0x3de38f03	0.11111262
55	0x3e1f2b9f	0.15543984
56	0x3d6af012	0.057357855
57	0x3ea24b5a	0.31698114
58	0xbcdc01d7	-0.026856346
59	0x3e46c78c	0.19412059
60	0x3d4a5ba9	0.04940382
61	0xbdef6ae6	-0.11690311
62	0x3d390116	0.04516705
63	0xbda43682	-0.08018209
64	0x3d0cd091	0.034378592
65	0x3d8d81f4	0.06909552
66	0xbe13a246	-0.14417371
67	0x3d009e59	0.031401012
68	0x3eae2638	0.34013534
69	0x3db6761d	0.08909247
70	0xbdab6143	-0.083681606
71	0x3dcfc53b	0.101450406
72	0xbda3d595	-0.07999722
73	0xbeacd33d	-0.33754912
74	0xbda1f0f3	-0.079072855
75	0xbdeae05a	-0.11468573
76	0x3e75625a	0.239633
77	0x3e443867	0.19162141
78	0xbe6a0fa3	-0.22857527
79	0x3b1d48e4	0.0023999745
80	0xbea37cee	-0.3193125
81	0x3e15d51c	0.14632076
82	0x3e44b337	0.1920899
83	0x3dc380be	0.0954604
84	0xbe718755	-0.23586781
85	0x3e1c433a	0.1526002
86	0x3d7ac962	0.06122721
87	0x3e65b3a3	0.22431807
88	0xbd090d0c	-0.033459708
89	0xbda1eed5	-0.07906882
90	0x3cbba7bc	0.02290713
91	0xbcf8ad8c	-0.030356191
92	0xbd964d30	-0.07338941
93	0x3e8b9f73	0.27270088
94	0x3c098194	0.00839271
95	0xbd70ceb5	-0.05879088
96	0x3d976c84	0.073937446
97	0x3f31822e	0.69339263
98	0x3c891864	0.016735263
99	0xbe75fb57	-0.2402166
100	0xbde06e3f	-0.10958528
101	0xbcf2c6a6	-0.029635739
102	0xbdfe6c46	-0.12422995
103	0x3d9a7021	0.07540918
104	0xbc1ad8d4	-0.00945111
105	0xbd4efd3a	-0.050534464
106	0xbeb08918	-0.34479594
107	0xbda92ae5	-0.082601346
108	0x3d9af368	0.07565957
109	0x3e48780d	0.19577046
110	0xbd28082b	-0.041023415
111	0x3d9ae109	0.07562453
112	0xbe8f4ec0	-0.2798977
113	0xbe25b4b5	-0.16182216
114	0x3b98ea81	0.004666627
115	0xbd366e67	-0.04453888
116	0xbd08e887	-0.03342488
117	0xbf0e7061	-0.55640227
118	0xbe77bd03	-0.24193196
119	0xbe0751e9	-0.1321484
120	0x3d90c80c	0.07069406
121	0xbe176b03	-0.14786915
122	0x3e2dc6aa	0.16970316
123	0x3ea4bb94	0.3217436
124	0x3d9dfb1c	0.07713911
125	0x3d43680e	0.047706656
126	0xbd2f1662	-0.042745955
127	0xbe18f2fa	-0.14936438
128	0xbe56cc21	-0.20976306
129	0xbd6bda79	-0.0575814
130	0xbee5fce3	-0.449195
131	0x3c2bcdf2	0.010486113
132	0x3ea7f36e	0.3280291
133	0x3d6a7c9b	0.05724774
134	0x3d80294e	0.06257878
135	0x3e1259d4	0.14292079
136	0xbce480a2	-0.027893368
137	0xbec4dc52	-0.3844934
138	0xbe9d52ed	-0.3072733
139	0x3c1d93b0	0.009617731
140	0x3d9fe8a1	0.07808042
141	0x3cb191a4	0.021675892
142	0xbeb45ad6	-0.35225552
143	0xbe4f3231	-0.2023399
144	0x3d639bee	0.055568628
145	0x3e360bee	0.17777988
146	0x3e320640	0.17385197
147	0xbd40a581	-0.047032837
148	0xbe38083b	-0.1797189
149	0x3e147cb2	0.14500692
150	0x3d8a0e42	0.06741001
151	0x3dc1dd33	0.094660185
152	0xbc0b41e2	-0.008499594
153	0x3df3e602	0.11909105
154	0xbe0b4787	-0.13601504
155	0xbdc12cc6	-0.09432368
156	0xbe05abc7	-0.13053809
157	0x3e87a3df	0.2649221
158	0xbd75e0ea	-0.060028948
159	0x3de94b87	0.11391359
160	0xbdaede17	-0.08538454
161	0x3e954a6c	0.29158342
162	0x3d26c712	0.040717192
163	0xbe9576d5	-0.29192224
164	0x3e05e385	0.13075073
165	0x3ca904eb	0.020632228
166	0x3c93f08b	0.018059036
167	0xbd7536dc	-0.05986677
168	0xbdd03e5f	-0.10168146
169	0x3e154e9c	0.14580768
170	0xbe83b6e7	-0.2572548
171	0x3dca81e5	0.09888057
172	0x3e194f95	0.14971764
173	0x3e1bdeb3	0.15221672
174	0x3d941900	0.07231331
175	0xbdc216d0	-0.094770074
176	0xbd0d5430	-0.034504116
177	0xbd332983	-0.04374076
178	0xbc42a351	-0.011879758
179	0xbdb060d7	-0.08612221
180	0x3cce3883	0.025173431
181	0xbf272884	-0.65296197
182	0xbf1f8f94	-0.6232846
183	0xbd2cbffd	-0.04217528
184	0xbdc0cfae	-0.09414612
185	0xbe11cd6f	-0.14238523
186	0x3e448bdf	0.19193982
187	0x3e7d1ea4	0.2471872
188	0x3ca5ee47	0.020255221
189	0x3e0fffa2	0.1406236
190	0xbdaedb05	-0.085378684
191	0x3d940dfb	0.07229229
192	0x3e861f65	0.26195827
193	0xbc1b0735	-0.0094621675
194	0xbece5517	-0.40299293
195	0x3be02932	0.0068408484
196	0xbef7084d	-0.4824852
197	0xbe245d06	-0.1605111
198	0xbdac9a78	-0.084279
199	0xbe353f75	-0.17699988
200	0xbd9070e8	-0.07052785
201	0x3e1480eb	0.14502303
202	0xbdfcec28	-0.12349731
203	0xbe8e2ebd	-0.27770033
204	0xbb71c582	-0.0036891405
205	0xbbce09a0	-0.0062877685
206	0xbdbba036	-0.09161417
207	0xbf19bf56	-0.6005758
208	0xbec8882f	-0.391664
209	0xbda655d5	-0.0812184
210	0x3d7ae806	0.06125643
211	0x3c476883	0.012170914
212	0xbcbc5b16	-0.022992652
213	0xbea30880	-0.31842422
214	0xbdd6e9ec	-0.10493836
215	0xbe35e6f6	-0.17763886
216	0x3d33a02a	0.043853916
217	0x3dd2e8d0	0.10298312
218	0xbdd7a79f	-0.10530018
219	0x3db1bb64	0.0867832
220	0x3e131799	0.1436447
221	0xbe087c92	-0.1332877
222	0xbd1cd6ae	-0.038290672
223	0x3defbd5c	0.11706039
224	0x3d759d48	0.05996445
225	0xbe96b342	-0.29433638
226	0xbe863c22	-0.26217753
227	0xbc7c6e09	-0.015407094
228	0x3d6d7c2a	0.05797974
229	0xbd5b13f3	-0.053485822
230	0x3e00c5e3	0.12575488
231	0xbdca81ec	-0.09888062
232	0x3cad4afc	0.02115392
233	0x3e01c093	0.12671117
234	0x3e0fe9f3	0.14054088
235	0x3bb30634	0.005463386
236	0xbd109c7f	-0.035305496
237	0xbdd09896	-0.101853535
238	0xbc740c3b	-0.014895494
239	0xbd9c3148	-0.07626587
240	0x3e8c0ec8	0.27355027
241	0x3e371e5d	0.17882676
242	0x3d928fb8	0.071563184
243	0xbf237b1e	-0.63859737
244	0xbf091566	-0.53548276
245	0xbee1b01c	-0.44079673
246	0xbeb5acad	-0.35483304
247	0xbd6c98e9	-0.057763014
248	0x3c6968f0	0.01424621
249	0xbdcddfa7	-0.10052424
250	0xbe85fe8e	-0.26170772
251	0xbe1c6078	-0.15271175
252	0xbd9e5ecb	-0.07732924
253	0x3d857a5d	0.065174796
254	0x3d4228b1	0.047402088
255	0x3ba5b765	0.0050572627

gnn_list.1.nn.2.bias f4 [64]
0	0x3c13e8b8	0.009027652
1	0xbdca4b75	-0.098776735
2	0x3b502603	0.0031760938
3	0xbdae8f5b	-0.08523437
4	0xba880597	-0.0010377642
5	0xbd8d2a8c	-0.06892881
6	0xbd443cea	-0.047909655
7	0x3e1705e3	0.1474834
8	0xbdd791ea	-0.10525878
9	0x3dbc2e60	0.09188533
10	0x3d21e9f0	0.03952974
11	0xbd502560	-0.050816894
12	0x3d28cc41	0.041210417
13	0xbd307ecc	-0.043089673
14	0xbdc7c7e0	-0.0975492
15	0x3ddc91df	0.1077001
16	0x3de81c5f	0.11333536
17	0xbd3eb27a	-0.046556927
18	0xbb9e16ed	-0.0048245103
19	0xbc696f43	-0.014247718
20	0xb8ea92cd	-0.00011185333
21	0x3dde241d	0.10846732
22	0xbdeea190	-0.11651909
23	0x3db61663	0.08890989
24	0x3e09a1d2	0.13440636
25	0x3d76792d	0.060174156
26	0x3dbc4ccb	0.091943346
27	0xbcb0131f	-0.021493493
28	0x3d993308	0.074804366
29	0xbdbc2c82	-0.09188177
30	0xbd3d4fc4	-0.04621865
31	0xbd059dcd	-0.032621194
32	0x3d07bb03	0.033137333
33	0xbcfc310c	-0.030785106
34	0xbc909353	-0.017648375
35	0xbda12e05	-0.07870106
36	0x3df39803	0.11894228
37	0xbdd28884	-0.102799445
38	0x3dd92c26	0.10604124
39	0x3c7b5a3b	0.015341337
40	0xbdaa3c10	-0.08312237
41	0x3d347b9b	0.04406319
42	0x3dbecd12	0.09316458
43	0x3e102dbf	0.14079951
44	0x3d2345b1	0.039861385
45	0x3d7db388	0.061938792
46	0x3d390525	0.04517092
47	0x3c330d93	0.010928529
48	0xbc75ed27	-0.015010155
49	0x3d23df56	0.04000791
50	0x3d1beefe	0.038069718
51	0xbd52bf28	-0.051451832
52	0xbdb5dac6	-0.08879618
53	0x3dc87e23	0.09789684
54	0xbc9784ad	-0.018495882
55	0xbd146ea2	-0.03623832
56	0xbde49106	-0.111604735
57	0xbd4ebab7	-0.050471034
58	0xbd41e8ca	-0.047341146
59	0x3db698c8	0.089158595
60	0xbce5779f	-0.028011141
61	0xbd8931ad	-0.06698928
62	0xbdd16c29	-0.10225708
63	0xbbce195a	-0.0062896432

gnn_list.1.nn.3.weight f4 [64]
0	0x3f2d7225	0.67752296
1	0x3f1b39a1	0.6063481
2	0x3f0c8c2d	0.5490139
3	0x3f3b3c1b	0.7313859
4	0x3f15928a	0.58426726
5	0x3f358e23	0.7092001
6	0x3f3d8e77	0.7404551
7	0x3f6590a8	0.8967385
8	0x3f474989	0.7784658
9	0x3f2492f9	0.6428676
10	0x3ee0d661	0.43913558
11	0x3f0609bd	0.5235861
12	0x3f253c8e	0.64545524
13	0x3ee55181	0.44788745
14	0x3f5f478b	0.8721854
15	0x3f5b91be	0.8576926
16	0x3f319444	0.6936686
17	0x3f0328f1	0.51234347
18	0x3f1c7ff4	0.6113274
19	0x3f4eff73	0.80858535
20	0x3f13d5cd	0.5774811
21	0x3f2a3bab	0.66497296
22	0x3efe8029	0.49707153
23	0x3f1ad625	0.6048301
24	0x3f467044	0.77515054
25	0x3f1f383c	0.6219518
26	0x3f1e08f3	0.61732405
27	0x3f549c58	0.8305106
28	0x3f12fc2d	0.5741604
29	0x3f12888d	0.5723961
30	0x3f08c115	0.5341962
31	0x3f3fec5e	0.7497004
32	0x3f2fa99b	0.6861817
33	0x3f034d20	0.5128956
34	0x3f2238bd	0.63367826
35	0x3f3c5a5a	0.73575366
36	0x3f285e24	0.6576865
37	0x3f00be8b	0.50290745
38	0x3f12cdef	0.5734548
39	0x3f5a4ad8	0.8527045
40	0x3f38854e	0.72078407
41	0x3f2ed34b	0.6829116
42	0x3f3b1e33	0.73092955
43	0x3f2df2fe	0.679489
44	0x3f468cb9	0.77558476
45	0x3f345c20	0.7045307
46	0x3ee72d1e	0.4515161
47	0x3f31c1ef	0.69436544
48	0x3f6444e3	0.8916761
49	0x3f037682	0.51352704
50	0x3eed17b0	0.46307135
51	0x3f34ce17	0.7062697
52	0x3ed73d49	0.42038944
53	0x3f03323d	0.5124853
54	0x3f3eecbb	0.7457997
55	0x3f205f2b	0.62645215
56	0x3eea1bdc	0.4572438
57	0x3f18e808	0.5972905
58	0x3f1bd6d8	0.608747
59	0x3f0d87fe	0.5528563
60	0x3ebf68be	0.373846
61	0x3eda7530	0.42667532
62	0x3f06e260	0.5268917
63	0x3f2716aa	0.6526896

gnn_list.1.nn.3.bias f4 [64]
0	0xbd9f131b	-0.07767316
1	0xbe53e0c8	-0.20691216
2	0xbe976efe	-0.29576868
3	0xbe0da198	-0.13831174
4	0xbebfcc8a	-0.37460738
5	0xbdf95a11	-0.12175382
6	0xbe266751	-0.1625035
7	0xbe849ba5	-0.25899997
8	0xbe0df02c	-0.1386115
9	0xbe65e75a	-0.22451535
10	0xbe6d3bb8	-0.23167312
11	0xbe58dbb7	-0.21177565
12	0xbe711601	-0.2354355
13	0xbe90e508	-0.28299737
14	0xbd66c88c	-0.0563436
15	0xbdcded9d	-0.10055087
16	0xbe680f3e	-0.22662064
17	0xbe11a66c	-0.14223641
18	0xbe3b81c0	-0.18311214
19	0xbdee5846	-0.116379306
20	0xbe993629	-0.29924133
21	0xbe4763c4	-0.19471651
22	0xbeb17d51	-0.3466592
23	0xbde8d3ee	-0.113685474
24	0xbe92d743	-0.28679857
25	0xbdf8015c	-0.12109634
26	0xbe034e75	-0.12822898
27	0xbe063f33	-0.13110046
28	0xbe3d1210	-0.18463922
29	0xbe738cf9	-0.23784246
30	0xbe66bdd4	-0.22533351
31	0xbe30d59b	-0.17268984
32	0xbe4e4dea	-0.2014691
33	0xbe492c17	-0.19645725
34	0xbe1296f1	-0.14315392
35	0xbe58a32b	-0.21155994
36	0xbe9736b6	-0.2953393
37	0xbec9217e	-0.39283365
38	0xbe585e85	-0.21129806
39	0xbe89dc38	-0.26925826
40	0xbeaf3aee	-0.34224647
41	0xbe803faf	-0.25048587
42	0xbdcf4a33	-0.10121574
43	0xbf050429	-0.5195947
44	0xbe190e6b	-0.14946906
45	0xbe5a3b61	-0.21311714
46	0xbeee3046	-0.46521205
47	0xbda7c4c0	-0.08191824
48	0x3dd62d23	0.10457828
49	0xbe715ad2	-0.23569801
50	0xbec00062	-0.37500292
51	0xbdba3cdd	-0.0909364
52	0xbe44c1e7	-0.19214593
53	0xbccf81cd	-0.025330449
54	0xbdd18584	-0.10230544
55	0xbd9b147b	-0.07572266
56	0xbea0cddd	-0.3140706
57	0xbdbe6d8f	-0.092982404
58	0xbeaa615f	-0.33277413
59	0xbeaf87e3	-0.3428336
60	0xbea2250d	-0.31668893
61	0xbe4cc8c2	-0.19998458
62	0xbe6591fd	-0.22418971
63	0xbe4f6bae	-0.2025592

gnn_list.1.nn.3.running_mean f4 [64]
0	0xc0c3e7ac	-6.1220303
1	0xc06ada24	-3.6695642
2	0xc0c2ceec	-6.087759
3	0xc0b14b6d	-5.5404572
4	0xc0182626	-2.3773284
5	0x3f8a1105	1.0786444
6	0xc154691e	-13.275663
7	0x40f5df57	7.683513
8	0xbf9042a1	-1.1270334
9	0xc1508fdb	-13.035121
10	0xc11aa51f	-9.665313
11	0xc0c1a57e	-6.0514517
12	0xbf1d68b6	-0.614879
13	0xc11643b4	-9.391529
14	0x40bc5f86	5.8866606
15	0xc044bccc	-3.0740232
16	0x3ffa7023	1.9565471
17	0xc0a91e1f	-5.284927
18	0xc0954b8a	-4.665471
19	0x40000326	2.0001922
20	0xc1442d67	-12.261085
21	0xbeaaa187	-0.3332636
22	0xc10e65ba	-8.899836
23	0xc140d6bd	-12.052426
24	0x41239b31	10.225389
25	0xc0800015	-4.00001
26	0xbff75c15	-1.9324976
27	0x4035930e	2.8371005
28	0xc0fd2f52	-7.9120264
29	0xc0a6918b	-5.2052665
30	0xc13946b0	-11.579758
31	0x40a7b4cb	5.2408195
32	0x4015579f	2.333473
33	0xc0476a2a	-3.1158547
34	0xc11ae761	-9.681489
35	0xc0213b92	-2.519261
36	0xbd98581b	-0.0743868
37	0xc153376b	-13.20103
38	0xc0e46815	-7.1377053
39	0xc0e6ddf6	-7.214595
40	0x405a7ff5	3.4140599
41	0xc06415f4	-3.56384
42	0xc1180a47	-9.502509
43	0x418cea60	17.61444
44	0xc0504379	-3.2541182
45	0x3f958f92	1.1684439
46	0xc09645ee	-4.6960363
47	0x40c91a15	6.284434
48	0xbff01a07	-1.8757943
49	0xc0c91f32	-6.285058
50	0xc098da8f	-4.7766795
51	0x3ed07cba	0.4072016
52	0x40072494	2.1116076
53	0xc19a1bb3	-19.263525
54	0xc0c3a5b2	-6.1139765
55	0xc1272928	-10.447548
56	0x4142446d	12.1417055
57	0xc0b7742d	-5.7329316
58	0xc10cd929	-8.803018
59	0xc0ac8019	-5.390637
60	0xc11014bb	-9.005061
61	0x40ef1bb6	7.4721327
62	0x40c60290	6.187813
63	0xc0e9e41b	-7.309095

gnn_list.1.nn.3.running_var f4 [64]
0	0x41c76273	24.92307
1	0x420ef7e7	35.742092
2	0x428610df	67.03295
3	0x416fc521	14.985627
4	0x420bc95d	34.946644
5	0x41f62b3f	30.771116
6	0x41d65845	26.7931
7	0x4151e61a	13.118677
8	0x419040b9	18.031603
9	0x4260af1a	56.170998
10	0x425918fa	54.27439
11	0x427e5757	63.585293
12	0x41ee5c49	29.795061
13	0x4188d224	17.102608
14	0x41b725a8	22.893387
15	0x40f6f2f5	7.717158
16	0x41318544	11.095036
17	0x41d61179	26.758532
18	0x425110ed	52.26653
19	0x41451e73	12.319934
20	0x42a2ccd6	81.40007
21	0x41c023fd	24.017572
22	0x422f7630	43.865417
23	0x42218dd3	40.3885
24	0x4143a22d	12.227094
25	0x420e60c6	35.594505
26	0x4233fd77	44.997524
27	0x411d3fc2	9.828066
28	0x420b623f	34.845943
29	0x42650958	57.259125
30	0x419760ac	18.922203
31	0x41cc92da	25.571705
32	0x421cf834	39.242386
33	0x4227d570	41.958435
34	0x42418e7f	48.389156
35	0x41f59e0b	30.70217
36	0x41f8b926	31.090405
37	0x4166e7f3	14.431628
38	0x41d6c5d1	26.84659
39	0x4134e530	11.305954
40	0x412a5773	10.64635
41	0x419c9582	19.573002
42	0x41e6d5d7	28.854414
43	0x412c69f1	10.775865
44	0x42049c2c	33.15251
45	0x41905744	18.04261
46	0x4288e883	68.454124
47	0x416fcf1d	14.988065
48	0x420b9407	34.894558
49	0x421c2ead	39.04558
50	0x428a24fa	69.07222
51	0x42a17efd	80.748024
52	0x41b90108	23.125504
53	0x416d03df	14.813445
54	0x423a8142	46.62623
55	0x425effc9	55.74979
56	0x41c4074e	24.503567
57	0x420ae947	34.72781
58	0x4164ce1b	14.300319
59	0x423f3598	47.802338
60	0x41d187da	26.191334
61	0x4222f1d8	40.736176
62	0x4182a58d	16.330835
63	0x417bd4ba	15.739435
