model_saved/IMDBMulti/2022-04-04_12-45-03/GSC_GNN_IMDBMulti_checkpoint.pth (torch, 509845 bytes, 41 tensors)

gnn_list.0.nn.0.weight f4 [64, 89]
00000000: c792 4db9 8aa7 84bd 7acd a73d 5d89 fdbd
00000010: c55a f6bd b0d0 17bf cc29 313d 6e02 d83c
00000020: a923 00bc e8e1 6e3e e777 943e 0315 533e
00000030: 1c0c 94bd 80ea 8fbd 44dd 80bd 18bf e13d
00000040: 31a1 7f3e 6e60 603e 29ef a93d 0fac 84be
00000050: 4046 11be 5f2d b2be 6f7e 893c 8f5f e0be
00000060: 7664 a7bd 7d05 653e 9d39 b5be aca2 ebbd
00000070: 5c8b 3ebe 6250 ebbc 49a3 ecbd 07d7 6dbe
00000080: 50de f8bd 5603 2f3d 63e6 05bb b571 b53d
00000090: b247 acbe 23ab a1bc 218f 8cbe b3f9 61be
000000a0: 9447 ff3d 0b11 2abd 3761 0fbe c92e 483e
000000b0: 9aef b8bd 74fc 39be 29e7 8c3d 4c7b f4be
000000c0: 2bc0 af3c 330f 2fbd 727f 31bd 07a0 913d
000000d0: 0ee8 613d 8e08 abbd 2d8c 89bd f5c5 bbbd
000000e0: 0307 ba3c 047a 993d 6a29 113e 2849 41be
000000f0: e3ac 08bd 7132 b7bb dd87 103e d052 a93b
00000100: 46df 0cbd 02e8 c4bd 7bc8 743d 805b 7e3d
00000110: b6a2 a4bc 13c9 c63d f6ee 8d3d 55b7 933d
00000120: 1e6f 0dbd 8332 edbc 4681 c9bc 34f2 0ebc
00000130: 59a3 15be db97 58bc 8ff3 a4bb 2d22 86bd
00000140: 855a e6bc a578 9cbd abda 843b 275a aebc
00000150: bb50 8c3c 23c9 03bd bd78 abbc a1f6 3a3d
00000160: 8dcb 493e 9994 b2bd 6f01 47be bfc2 843e
00000170: 256b 9d3e 16f9 43be ff50 133e 2f91 84bf
00000180: 84e1 c33c 4313 843e 939d 39be dd47 1dbf
00000190: cb99 003e c5e7 1b3d 842c 1bbf 9812 503e
000001a0: 7b1d 413e 19a7 26bd 057c 06bd 507f 8dbe
000001b0: 66d3 cd3d 7e86 a0bd 81ee 92bc 0d37 8bbd
000001c0: 0372 86bd 857b 653e bea5 1f3e 5691 1a3e
000001d0: d8aa 3fbe 009b d43c 6011 dcbd c694 853e
000001e0: abb2 fe3d 44c3 70bd c554 aa3a 8b57 9cbe
000001f0: 61c9 88be 93fd abbd fc51 84be 0c7b 1f3e
00000200: c912 eabd 07d1 aa3d 2a3c b13d 34a6 973d
00000210: e204 af3e a12d c1bd 0529 4ebb 7c76 7c3d
00000220: 6412 d03e 0527 c83d 7b16 363e 3fc4 c43d
00000230: 498e 793b 3218 a7bd 4246 0c3e c1c2 093d
00000240: 1696 89bd 408c 7f3d 9845 a3bd 0f7c 30be
00000250: 4461 fbbc de3d bebd 6916 4d3d f480 653e
00000260: 6843 c83c 94ab 34bc 02fc 6fbd 4ed3 30bd
00000270: ea65 c4bd f3cf d1bc 5eaf 3ebd e0d7 e03c
00000280: ad91 6fbd 7057 0dbd 8bde c9bd 1e9d 153b
00000290: 2d10 87bb 9c35 493e ffac 843d 3dd0 aa3d
000002a0: ba79 4a3d e914 ccbc 64c6 b03d 16eb 6abc
000002b0: 6149 d7bd 88b9 d1bd 1aba 9d3d cb48 063c
000002c0: 71a2 c73d a844 483e fd52 9cbd 71bb 163f
000002d0: 7997 1d3f 6ec4 993e c9cc af3e c91c 413e
000002e0: d6ab 243e 1cba e93d d033 8a3d 2630 bb3d
000002f0: 09fb 00bf 0457 f5be 0a6d 3fbe ba53 4cbe
00000300: 7f30 a9be 36b8 efbe 198d 38bf bb70 abbe
00000310: 6b33 c5be 39b8 f4be 418b 62be c88c 17bf
00000320: 31eb 1abf e50c 84be 83d0 a2be 245a c6be
00000330: 389d b9be 337f 97be 1867 91be eade 30be
00000340: 7e63 e5bd 7698 08be 0db9 033e 63f1 cdbe
00000350: d67a 00bf 990b edbe 14d9 febe c9f6 e3be
00000360: b2dd b9bd 118c 203d 2e7a ba3d a4f2 05bd
00000370: 0dab ec3e 88b1 6ebe 1c05 013f 7147 a5be
00000380: 6648 8dba 36bc 783f a167 a73d cbea 02bf
00000390: fad0 a13c b429 c6bd 0dc2 ba3d 7fda 0e3f
000003a0: 587f 07bd 6fae 533c c00f 303d 71ea ac3d
000003b0: d0ab f13d e447 4d3c dea2 45bd e8c7 2abd
000003c0: cef1 8dbd ad44 8cbd 0d79 4bbd b6f4 bcbc
000003d0: 5438 5f3d ed9f d13d 4658 b8bc 1200 4dbd
000003e0: b30a a03d f5ce 91bd dd87 10bc a5df ccbd
000003f0: 6bf9 a7bd 99aa 6a3d 7896 bdbd ed9e ef3c
-0.00019605002 -0.06477268 0.081934884 -0.123797156 -0.12029032 -0.59302807 0.04325275 0.026368346
-0.007821002 0.23328364 0.28997728 0.20613484 -0.07228872 -0.07027149 -0.06292203 0.11022776
0.24963833 0.21911785 0.08297569 -0.2591252 -0.14186954 -0.3480024 0.016783921 -0.43822905
-0.08173458 0.22365375 -0.35395518 -0.115056366 -0.18607849 -0.028724853 -0.11554582 -0.23226558
-0.12151778 0.04272779 -0.002043151 0.088595785 -0.3364845 -0.019734925 -0.2745295 -0.22067909
0.12464824 -0.04152016 -0.14001928 0.19549097 -0.09030075 -0.1816271 0.06880028 -0.47750318
0.021453938 -0.042739104 -0.043334432 0.07110601 0.055152945 -0.08351241 -0.067161895 -0.09168617
0.022708422 0.07493976 0.14175954 -0.18875563 -0.033368003 -0.00559073 0.14114328 0.0051673427
-0.034392618 -0.096145645 0.059761506 0.06209898 -0.020097118 0.097063206 0.06930344 0.07212702
-0.034529798 -0.02895475 -0.024597775 -0.008724738 -0.14613093 -0.013219799 -0.0050339173 -0.06549487
-0.028119335 -0.076401986 0.0040543876 -0.021283222 0.017128339 -0.03217424 -0.020931596 0.04564536
0.19706555 -0.08719749 -0.1943414 0.2592983 0.30745807 -0.19137987 0.14386366 -1.0356807
0.023911245 0.25795946 -0.18126516 -0.6143778 0.12558667 0.03806283 -0.606148 0.20319593
0.18858902 -0.0406867 -0.032833118 -0.27636194 0.10050087 -0.07838152 -0.017935993 -0.067976095
-0.06564715 0.224104 0.1559057 0.15094504 -0.18717515 0.025952816 -0.107455015 0.26090068
0.12436422 -0.05877997 0.0012995234 -0.3053554 -0.2671614 -0.08397975 -0.258438 0.15574282
-0.11429364 0.0834065 0.086540535 0.074047476 0.34183413 -0.09432531 -0.0031457555 0.061636433
0.4063903 0.097730674 0.17782013 0.096077435 0.0038079193 -0.08158912 0.13698676 0.033632997
-0.0671808 0.062389612 -0.07972258 -0.17234825 -0.030686028 -0.09289144 0.0500702 0.22412473
0.024446204 -0.011027236 -0.058589943 -0.043170266 -0.09589751 -0.025611853 -0.046553962 0.027446687
-0.058488537 -0.034507215 -0.098569 0.0022829245 -0.0041218014 0.19649357 0.06478309 0.083404996
0.049432494 -0.024912314 0.0863159 -0.014338275 -0.10512043 -0.102404654 0.07701512 0.008196066
0.0974778 0.1955744 -0.07633016 0.5887976 0.61559254 0.30032676 0.34335926 0.18858637
0.16081175 0.11412451 0.06748164 0.09140043 -0.5038305 -0.4791795 -0.18693939 -0.19953814
-0.33044812 -0.4682023 -0.720903 -0.33484444 -0.3851579 -0.477968 -0.22123434 -0.5919919
-0.60515124 -0.25791088 -0.31799707 -0.38740647 -0.3625276 -0.29589233 -0.28398967 -0.17272535
-0.11200617 -0.13339409 0.1286356 -0.40223226 -0.5018743 -0.4629791 -0.49774992 -0.4452422
-0.09075488 0.039196078 0.09105335 -0.032702103 0.4622425 -0.2330991 0.5039842 -0.32281068
-0.0010779023 0.9716219 0.081740625 -0.51139516 0.019752968 -0.09675923 0.091190435 0.5580215
-0.03308043 0.012920006 0.04298377 0.08443154 0.11800349 0.012529347 -0.048251025 -0.04169455
-0.06930886 -0.06849036 -0.04967599 -0.023065906 0.054497078 0.102355815 -0.02250303 -0.050048895
0.07814541 -0.07119552 -0.008821455 -0.10003594 -0.082018696 0.0572916 -0.09257215 0.029250586

gnn_list.0.nn.0.bias f4 [64]
00000000: 872d a03d 8b39 433e 7a14 393e 43a2 86bd
00000010: 9c8d 74be 0219 8dbe 4dec 45bd 2124 ca3a
00000020: 6438 c1bc 2fa4 f9bd 7e5e 123b 695d e53d
00000030: 46c7 08be 6689 673d 44d1 bbbd e570 8f3d
00000040: ae5c 94bd 9639 083c 5dda 2cbe d284 3abd
00000050: 69b5 c6be 08ae c0bc db67 cebd d77a abbe
00000060: a5a6 1bbe a85b 83bc 57f7 77be 3066 973d
00000070: 5964 d43d 190d 5cbe 86d5 83be 202e 39be
00000080: 7518 3bbe 3399 3dbd dc95 dcbd 1499 f0bd
00000090: 4a80 82bd c1e2 6abd 5440 2ebd 290f db3d
000000a0: c619 753e 0af5 50be 7e01 dbbd e550 063d
000000b0: ea52 093e f7d3 85bd c430 a03d cb66 3bbe
000000c0: 574e 57be 51c9 27bd e4e2 bb3d 0ff2 43be
000000d0: 214e 873e 3af3 b93d 8054 81be fe51 06be
000000e0: 4998 333d 21e8 ffbd 9ea3 283c 7a10 313e
000000f0: f303 703e ca8c 60bd 3507 debd ee9f 93be
0.07821184 0.1906492 0.18074217 -0.06573918 -0.23882145 -0.27558142 -0.048321057 0.0015422144
-0.02358646 -0.12189519 0.0022334154 0.11199457 -0.13357267 0.056527518 -0.091707736 0.07003955
-0.0724424 0.008314511 -0.16880174 -0.045536824 -0.3881028 -0.023520485 -0.100784026 -0.33492157
-0.15200289 -0.016034916 -0.24215446 0.073925376 0.10370702 -0.21489371 -0.25748843 -0.18084002
-0.18271048 -0.04628868 -0.10770771 -0.11747947 -0.063721254 -0.057345156 -0.042541817 0.10696251
0.23935613 -0.20405975 -0.10693644 0.03279199 0.13410535 -0.0653457 0.07821801 -0.18300931
-0.21025978 -0.040963475 0.09174135 -0.19135307 0.26426795 0.09079595 -0.2525978 -0.13117215
0.043846402 -0.12495447 0.010292916 0.17291442 0.23439007 -0.054821767 -0.108412184 -0.28832954

gnn_list.0.nn.2.weight f4 [64, 64]
00000000: 4c45 ecbd c767 18be 860f 903e 8ef9 113e
00000010: 868c d7be 8dba 283c 2715 1e3e c995 203e
00000020: 4010 693d 436e 82bd 0b67 2c3c 4b8d 5fbe
00000030: 5c3e 32bd edf2 cbbe e1fa d93d 3650 123e
00000040: 5ed8 3cbe 2a7a f7bd 6b7d e6bc 0194 afbe
00000050: 2df5 203e 6616 b8bd ba1d 7dbc 9497 86bc
00000060: c511 0c3c 7db2 023c 953f cb3d 96b1 c23d
00000070: 2a46 a1bc 6a36 12be f78d 45be 4262 0cbe
00000080: d643 5c3e 7ca5 bc3d 767a 76bd a85b 02be
00000090: 3c1f 5dbe 67c2 463e 9a6d 80be 23fe 93bd
000000a0: 41ed 913e b72a ff3d f757 123e 5c1b 64be
000000b0: 166c 603e 2371 fb3c 6760 a8be b561 673e
000000c0: df2a 553e b33d e8be 04ab fcbd eab9 873e
000000d0: ec66 023d 3463 f0bb 5fa7 08be 6a4f 6e3e
000000e0: 9b9b dd3c 1ab4 3a3d a0f1 4e3e 842a dc3d
000000f0: 5b0a 383d 359b c4bc 5208 573e bf28 88be
00000100: d1b6 033e 5f0b a5bd 38c3 7bbc 5430 263e
00000110: 7cf7 96be 90fd b7be e857 04be 2912 a4be
00000120: 777b acbd 1ea9 013d 9e89 cc3e 5673 c63c
00000130: a643 b9bd e1ac 6bbd 2c5c 28bd d4a2 bebd
00000140: 124f cdbd 391e d43d 0ba1 ce3d 6077 6ebe
00000150: e26c 113e ebb3 00bf b4b5 fd3d e738 a5be
00000160: 9e71 ddbe 2c0f 483e b892 a8bc e556 b3bd
00000170: eed8 173e 30fd 353d 77f9 d8bd 6828 a9be
00000180: c40a b0bd d236 43be 69b5 dbbd 23f2 1d3e
00000190: d668 01be 2c35 b03e 72aa 64be 24c6 013e
000001a0: 0cfe 8e3e 9159 843d a674 e9bc aeb2 1d3e
000001b0: 658c d13d b81b debd fd78 b1be b7b6 7dbe
000001c0: 3f0e 5dbe 823c 1d3e 512d 1a3e 79ab 083e
000001d0: d6fc 513e e8e1 bc3d 5918 76be 349a 863d
000001e0: 098d 883d a75d 7dbe a8f1 92be 62e3 00be
000001f0: 92d2 763e 7384 e83d 9cf0 f1bc 5147 06bd
00000200: 8b85 48be 44c9 4f3d ef4e a83e b606 d73d
00000210: 70ec ec3c 48a2 6ebd 0115 f93d 32ed 0f3e
00000220: 1719 9e3e 0bb4 5dbe ec25 f63c fc30 a2bd
00000230: 318a a839 20cf f33d 12dd 16be 1edb 3b3e
00000240: de4a d7bd 7244 5d3d 5251 143e 9482 813c
00000250: 23cd ff3d 35d7 cb3d 1a9d 94be c59a 56be
00000260: e214 3fbd 5ad1 99be 9261 b13c 08e3 fb3e
00000270: 299e 783e 0166 8cbe eb85 e13d 22b4 443e
00000280: ba20 353d 1ead b7be 423c 5fbd 7cc9 443e
00000290: 13c3 4e3d 0b1e 713e b6df b7bd 0466 15be
000002a0: 95ca ec3d 3ab5 ce3c f46e 2e3e 80fd f83d
000002b0: 4222 77bd 144c 013e d79b 0bbe ed53 af3e
000002c0: e921 3abe cd64 23be 5688 40bf 58a9 293e
000002d0: 1475 663e 32c1 8a3d d4b4 06be 82cd d1bc
000002e0: 8fb0 f5bb 0ebf b0bd 0f02 70bd 6f45 edbd
000002f0: 02a6 2f3e 8d07 48bd a611 98bd 1f86 b9b9
00000300: c5b2 44be 55ab d3bd aa35 d13d 60ac af3d
00000310: c7f8 a43c ba76 5ebe 62ff 20bd 9a13 03bd
00000320: 7e73 b1be 0707 b8bd 6029 69bd a03a f93d
00000330: a405 0bbe d1c8 0bbc 5844 73be b06f 82be
00000340: da87 eebd d816 bdbe 601f 58be 5f2a 78bc
00000350: b452 a43b f26b fabc 9702 1abf 3bfc 7e3d
00000360: 4f96 d3bd c62c 0d3e 4624 a63d a602 753d
00000370: 19cc 75be 3786 63be a4a2 95bd fbc1 813d
00000380: 51f4 723c bd53 6ebd 7ed6 e63d d439 e5bd
00000390: 71ab 9fbc 480c 333e 7e75 b83d 161c e93d
000003a0: fca1 dd3e b489 d3bc 8711 77be cc5e 183e
000003b0: aada ec3e fd8c 85be 89fc 72bd f532 73be
000003c0: 3e88 36bd 4119 abbe 7687 91bd dd45 b03d
000003d0: 7968 01bc 45a3 d6bd 6e89 ffbd 197c bfbd
000003e0: 021a d83c 1774 bebe ab28 7ebe b946 f4ba
000003f0: fb3d 713e 051d 47bd 65c9 743e 7e41 213c
-0.11536655 -0.14883338 0.28136843 0.14255354 -0.42099398 0.010298383 0.15437756 0.15682139
0.056900263 -0.06368687 0.010522614 -0.21831243 -0.0435165 -0.39833775 0.106435545 0.1428841
-0.18441913 -0.12083848 -0.028135976 -0.34292606 0.15718527 -0.08988647 -0.015448982 -0.0164297
0.008549158 0.007977125 0.09924237 0.09506528 -0.019686777 -0.1427857 -0.19292437 -0.13709357
0.21510252 0.09211251 -0.06017538 -0.12730277 -0.21593946 0.19410096 -0.2508362 -0.07226207
0.28501323 0.12459319 0.14291368 -0.22276062 0.21916232 0.030693596 -0.3288605 0.22595866
0.20817135 -0.45359573 -0.12337306 0.2650903 0.031836435 -0.0073360447 -0.13345097 0.23272482
0.027051738 0.045581914 0.2020936 0.10750297 0.04493175 -0.02399979 0.20999268 -0.26593587
0.12862708 -0.080588095 -0.015366368 0.16229373 -0.2948569 -0.3593564 -0.12924159 -0.32045105
-0.084219866 0.031655423 0.39948744 0.024224918 -0.09046106 -0.057537917 -0.041103527 -0.09308401
-0.10024847 0.10357327 0.1008931 -0.23287725 0.14201692 -0.50274533 0.12388173 -0.32269976
-0.43250746 0.19537038 -0.020577773 -0.08756808 0.14828846 0.04443091 -0.10594457 -0.3303864
-0.085958034 -0.19063881 -0.107279606 0.15424399 -0.12637648 0.34415567 -0.22330645 0.12673241
0.27928197 0.06462396 -0.028498005 0.15400192 0.10231856 -0.10845131 -0.3466262 -0.24776731
-0.21587466 0.15355113 0.1505635 0.13346662 0.20506606 0.09222776 -0.24032725 0.06572381
0.06667525 -0.24742757 -0.28699994 -0.1258674 0.24103764 0.11353388 -0.029533677 -0.032782856
-0.19582193 0.05072905 0.32872722 0.10499327 0.028921336 -0.058260232 0.12162209 0.14055327
0.30878517 -0.21650712 0.03004738 -0.07919499 0.00032146418 0.1190474 -0.14732769 0.18345305
-0.10512327 0.054020353 0.14484146 0.015809335 0.124902986 0.09953157 -0.2902611 -0.20957477
-0.046650775 -0.30042535 0.02165297 0.4919665 0.24279083 -0.27421573 0.11011871 0.1920934
0.044220664 -0.35874265 -0.054500826 0.19217485 0.050479006 0.23546617 -0.08978216 -0.14589697
0.11562077 0.0252329 0.17034513 0.12157726 -0.060335405 0.12626678 -0.13633667 0.34243718
-0.18176998 -0.15956421 -0.7520803 0.16568506 0.225056 0.0677513 -0.13154918 -0.02561069
-0.007497854 -0.08630191 -0.058595713 -0.11585509 0.1715317 -0.048835326 -0.07425241 -0.00035385878
-0.1920882 -0.10335413 0.10215314 0.085778 0.020138158 -0.21724978 -0.039306052 -0.032001115
-0.34658426 -0.08985715 -0.056924224 0.12169385 -0.1357637 -0.008531765 -0.2375654 -0.25475836
-0.116470054 -0.3693149 -0.21105719 -0.015146821 0.005014742 -0.03056905 -0.601602 0.062252264
-0.103314035 0.13786611 0.08112387 0.05981698 -0.24003638 -0.22219168 -0.07306412 0.06335827
0.014828757 -0.058185328 0.1127138 -0.111926705 -0.01949093 0.17485154 0.09006785 0.1138231
0.43287647 -0.025822498 -0.2412778 0.14879912 0.46260577 -0.26084128 -0.059322868 -0.23749907
-0.044563524 -0.33417705 -0.07105915 0.08607075 -0.007898443 -0.1048036 -0.124773845 -0.093498416
0.026379589 -0.37197945 -0.24820201 -0.00186368 0.235588 -0.04861166 0.23904951 0.009842275

gnn_list.0.nn.2.bias f4 [64]
00000000: 036e cb3d 5fe2 e13d 6de5 3b3c d047 243e
00000010: d194 5a3e e186 303e b336 2a3e 3a4c f5bd
00000020: ee5c 52bd 648a 88bc 6aa2 8b3e 80e5 5c3e
00000030: 87e7 eabd b764 39bc 60d3 6ebd a792 8a3e
00000040: 693e 373e b800 e8bc 2163 d83c 43e5 dabd
00000050: 5388 4d3e 8fb4 423e 134a 2d3e 24c0 cabc
00000060: 66a6 173e 49c5 35bd 3464 703e 53fc 16be
00000070: 2be8 a2be 8392 143d 7ed2 cebd 5617 023e
00000080: 531c dabd 366f 9c3d ceb4 543e 30d5 f23b
00000090: 407c 44bd 173d ddbd 9c0d 16be 4785 8a3c
000000a0: 8a1e 683d 86e4 863b bb93 a33d b532 e93d
000000b0: 6218 0c3e 82b4 40be e2ec 01be a662 aebd
000000c0: 9b23 133d 8721 7dbd fa2f dbba 964d 573d
000000d0: 91ae cdbd b61c 683e 3d64 b0bb 585c 80be
000000e0: 1782 453d f402 8a3e 17be 063e f120 433e
000000f0: 75d2 c63c eb94 293e d514 acbd d61c 463e
0.099330924 0.11029505 0.011468274 0.1604302 0.21345831 0.17238952 0.16622429 -0.1197743
-0.051358156 -0.016667552 0.2727235 0.21571922 -0.114699416 -0.011315516 -0.05830705 0.27065012
0.17894901 -0.028320655 0.026414456 -0.106882595 0.20071535 0.1901419 0.16922788 -0.024749823
0.1480957 -0.0443776 0.23475724 -0.14744692 -0.31817755 0.036272537 -0.10098742 0.12704214
-0.10649934 0.07638399 0.20772097 0.007410668 -0.047970057 -0.108026676 -0.14653629 0.016909255
0.05666975 0.0041165976 0.07987162 0.11386625 0.13681176 -0.18818858 -0.1268802 -0.085149094
0.035922628 -0.061799552 -0.0016722672 0.052564226 -0.100430615 0.22667202 -0.005383043 -0.25070453
0.048219766 0.26955378 0.13158451 0.19055535 0.024270276 0.16560714 -0.08402411 0.19346938

gnn_list.0.nn.3.weight f4 [64]
00000000: aba7 013f 7bba ee3e 199d fc3e 5bc8 103f
00000010: 5ed1 083f 18b5 073f 5862 1a3f 5e34 ed3e
00000020: babb 283f 2771 0c3f 1f52 d63e 86a3 283f
00000030: ba1c 1f3f 9248 d83e 13aa 213f 4261 003f
00000040: d04a 173f 5438 f43e 697d 103f 9c54 0d3f
00000050: e04b a53e fd4f fd3e e40f 0e3f f86a 233f
00000060: 4fb6 163f 8c67 113f 043e fe3e eb36 263f
00000070: 35dd bf3e 6b89 3e3f a3fe ea3e 0f49 fd3e
00000080: 6381 193f 9759 123f ff6c 243f 6236 b93e
00000090: dae5 1f3f ced6 bc3e e18b 113f dd07 213f
000000a0: 95ed 2c3f 9740 0c3f 1618 1b3f 493f c33e
000000b0: 96d0 043f 72cb e73e 87aa 053f a9cd 153f
000000c0: e061 3e3f 8ca1 073f 19bf 213f fb87 f13e
000000d0: e16f fd3e 8f9c 163f 1747 de3e c151 e33e
000000e0: 2ee1 003f 4202 fd3e 9532 273f 6d4a 393f
000000f0: fe99 153f 1ac2 0a3f 8b99 173f 9a08 203f
0.50646466 0.46626648 0.49338606 0.5655572 0.5344447 0.530107 0.6030631 0.46329015
0.6591145 0.54860157 0.41859528 0.65874517 0.6215321 0.42242867 0.6315014 0.50148404
0.5909853 0.47699225 0.5644136 0.5520723 0.3228445 0.4947509 0.55493 0.63835096
0.5887193 0.56798625 0.4965669 0.6492755 0.37473455 0.74428433 0.45897397 0.49469802
0.59963053 0.57167953 0.64228815 0.36174303 0.624601 0.36882633 0.56854063 0.62902623
0.6755002 0.54786056 0.6058363 0.3813422 0.51880777 0.45272404 0.5221333 0.5851694
0.74368095 0.52980876 0.63182217 0.47174057 0.4949942 0.5883264 0.43413612 0.4439831
0.50343597 0.49415785 0.6531156 0.7237919 0.584381 0.54202425 0.5921866 0.62513125

gnn_list.0.nn.3.bias f4 [64]
00000000: 5f05 e7be ae6a 1abe 4b86 5fbe 1524 983c
00000010: 7270 9ebe 981a 2bbc 5ab0 7bbe 0a82 f2be
00000020: 2f33 35be d8c8 bbbd 5d0f 20be fb11 40be
00000030: 49f7 d4be 49e1 04bf d4a4 debe 18d1 98bd
00000040: e157 04be ad23 773c fc69 c3be a2c4 d6be
00000050: 9ea9 15bf f2fd 93be 14ed e8bd 8996 cebe
00000060: 3c87 a2bc b28e a1be 2ac9 2bbe 660c 0cbf
00000070: ea60 a4be 64df 80be 0e92 a2be 2254 3abe
00000080: ac61 a7be 6615 d83d 04a7 29be 107b f8be
00000090: ef6d 5cbd 34f0 21bf b109 05bf 7bc7 d7bd
000000a0: bb39 89be 81ae 56be 89f4 abbe c8ed 9cbd
000000b0: 83aa 6ebe 4410 9bbe 0ec8 e4be 5690 ffbe
000000c0: 9e3a 0cbf 6f24 19bf 2922 63be 1755 b5be
000000d0: 7724 e1be 543f 34be 6cb3 2fbe 48e9 cdbe
000000e0: 70ce 61be 953b 7dbd ad05 15be d3c2 b7be
000000f0: af1d 83be 6175 42be 62e5 b1be 35e7 9ebd
-0.45121285 -0.15079758 -0.21828572 0.018571893 -0.30945164 -0.010443352 -0.24578992 -0.47364837
-0.17695306 -0.09169167 -0.1563086 -0.18756859 -0.41594914 -0.5190626 -0.4348513 -0.074617565
-0.12924148 0.015084189 -0.38166797 -0.41946894 -0.5846194 -0.28904682 -0.11373344 -0.40349224
-0.019839875 -0.3155418 -0.16775957 -0.5470642 -0.3210519 -0.25170434 -0.31752056 -0.18196157
-0.32691705 0.105509564 -0.16567618 -0.4853139 -0.05381578 -0.63257146 -0.5196791 -0.10536095
-0.26801857 -0.20965005 -0.33585003 -0.07662541 -0.23307233 -0.30285847 -0.4468388 -0.49914807
-0.5477694 -0.5982122 -0.22181 -0.3541648 -0.43973133 -0.17602283 -0.17158288 -0.40217042
-0.22051406 -0.0618244 -0.14552946 -0.35890827 -0.25608584 -0.18990089 -0.34745318 -0.07758943

gnn_list.0.nn.3.running_mean f4 [64]
00000000: 8fcd 053e d1c6 02c0 3b1a 5f3c 04fd 2ac0
00000010: a9a1 4ac0 2ede 6ac0 e26b f8bf 13d7 bf40
00000020: d8b2 0dc0 d13a 4e3f 220e 7bc0 201d 91bf
00000030: f0ad 8140 7ce7 9bbd 8e35 9240 819d c5c0
00000040: 31d2 d8be dca7 31c0 ec43 c0c0 46b5 0040
00000050: 790d a3bf d5eb 5cbd 3ca7 49c0 c215 8e40
00000060: bc02 3dc0 84c7 bd3f d9a8 89c0 ea27 1240
00000070: bd4e ed3f ba8c 8c40 7c1a 8840 917d acbf
00000080: cbed afbf ddb9 53c0 ebda 07c0 b923 32c0
00000090: a632 05c0 6084 4a40 0b82 b63f daea 31c0
000000a0: d7ac b2c0 a7a7 813f 6b8d 44c0 11f3 83c0
000000b0: fcb2 08c0 5437 6940 6153 3d40 05ba 933f
000000c0: f059 0041 ba38 14c0 d72f 87c0 e8ca 97c0
000000d0: df87 323f 6fae 1e40 09f8 f1bf 4990 1a40
000000e0: 3c46 2ac0 f6ad b5c0 6874 8bc0 b124 dc40
000000f0: 5f56 8440 834c 46c0 b82f 3540 f63e 41bf
0.13066696 -2.0433848 0.013617094 -2.6716928 -3.166117 -3.6698108 -1.9407923 5.995004
-2.2140408 0.80558497 -3.9227376 -1.1337013 4.0524826 -0.076125115 4.5690374 -6.1754766
-0.42347863 -2.7758703 -6.0082912 2.011064 -1.2738487 -0.053935844 -3.1508322 4.440156
-2.953292 1.4826512 -4.3018613 2.2836862 1.8539654 4.3921785 4.253233 -1.347582
-1.3744444 -3.3082192 -2.1227367 -2.7834303 -2.0812163 3.1643295 1.4258436 -2.7799592
-5.5835986 1.0129288 -3.0711315 -4.123421 -2.1359243 3.644002 2.958214 1.1541144
8.021957 -2.3159623 -4.22459 -4.743519 0.6973857 2.4793966 -1.8903819 2.4150565
-2.6605368 -5.6774855 -4.3579597 6.879479 4.1355433 -3.09842 2.8310375 -0.75486696

gnn_list.0.nn.3.running_var f4 [64]
00000000: 7003 9140 c188 0c41 67a8 0641 b4a3 e840
00000010: 4841 9040 f278 6a41 1d3c e840 21be ff40
00000020: e763 d740 493d fe40 d65e d840 fd81 0141
00000030: c2f8 2b41 d3b8 0741 bde4 ee40 fd29 6241
00000040: 8ed8 ce40 0e73 1241 932c c740 77a2 0c41
00000050: d923 e740 a4e6 2841 8b65 0941 b9ba 4e41
00000060: fc68 db40 d340 1041 1d9d fd40 ee7d cf40
00000070: 78e0 2f41 cb2a 4d41 b069 0041 a493 1341
00000080: e614 ef40 2135 4441 146e 3b41 866c 1641
00000090: 9a84 1541 b676 3341 87d0 0141 8108 ee40
000000a0: 1e3e cc40 80a0 fc40 d5b8 b840 a9ea 2a41
000000b0: 4cac 1041 f265 1141 1614 dc40 7daf 2740
000000c0: e479 3f41 8e4d d040 e4b6 0241 e9b8 e040
000000d0: 0467 e140 c2f0 d940 c406 f540 eb0e 3941
000000e0: e81a 7741 5c04 1041 1a9d 0041 7763 be40
000000f0: ab95 eb40 8d06 ad40 23b5 2f41 90b1 e240
4.5316696 8.783387 8.416114 7.2699833 4.507969 14.654528 7.257338 7.991959
6.730945 7.944981 6.7615767 8.094235 10.748232 8.482623 7.465422 14.135251
6.463935 9.15309 6.224191 8.789664 7.223126 10.556309 8.587291 12.920587
6.8565655 9.015826 7.925429 6.4841223 10.992302 12.8229475 8.025803 9.223545
7.471301 12.262971 11.714375 9.401495 9.344873 11.216482 8.11341 7.438538
6.3825827 7.8945923 5.7725625 10.68229 9.042065 9.087389 6.877452 2.620086
11.967258 6.509467 8.169651 7.022572 7.043825 6.8106394 7.657076 11.566142
15.444069 9.001064 8.038355 5.9496417 7.36202 5.4070497 10.981723 7.084175

mlp_list_inner.0.mlp_list.0.weight f4 [64, 64]
00000000: 318f f63c c344 dbbd 3047 3cbd 24ea a13d
00000010: 2a11 35bd ba73 6c3d 0528 aebd bdc5 c9be
00000020: e24b a2bb 0489 43bd e329 b2bd 6c3d 81bd
00000030: 0512 45be 440b ebbd 579e 13bd f464 abbc
00000040: 1f45 26bc 0ca4 5fbe 8e10 1cbe fa56 05be
00000050: c793 fabd b7f5 9939 e43f a0ba 33b3 c6bd
00000060: 0a25 5bbe e671 2e3d c1c8 00bd 9368 5bbd
00000070: eeef 32bd 861c 033e 2dc0 32be 3486 be3c
00000080: 794a 413d aea1 583d b2a3 ae3d 2790 dc3d
00000090: 870f dabc 4c1c b8bc c34e a3bd 6c6f 81b9
000000a0: 0730 0fbe e930 8fbd 82a6 d73d 54c7 633e
000000b0: 6cd2 4dbe 30c8 d6bd 3b3c 52be 0de2 a8be
000000c0: 8953 93bd d8bf 793c 72d7 09be dc86 b1bd
000000d0: 017e a1bd cfb7 9fbd 9f7a 08bc dcb0 91bd
000000e0: e7f3 89be 871e 40be f5af 91bd fd80 453e
000000f0: e79a 08be 3409 c63d c969 0dbe 0562 a6be
00000100: ebf8 d53d a278 01be b56e 10be 606c bf3b
00000110: 0af0 e43d 9cde 82be 4f03 bc3d 1f8b fe3d
00000120: ca87 eabe fd82 c03c 72d8 aabe 2294 183e
00000130: fb50 34be 315a 153d c2b6 9b3d ec05 cfbe
00000140: 5337 e2bd c292 083e 9719 c3bd c888 40bd
00000150: b79f ea3d a2fd 13bf 35d5 19bb 9a0b 113e
00000160: 5f00 00be 99ea a03c bf8b aebe a0b4 563e
00000170: b283 323e ff2a f83d b0ad e43d 1e3f 42bd
00000180: a233 5b3e 5200 2cbd 77f9 143c 6474 9ebd
00000190: 1928 b0be d5cf 1a3e f06e 0f3e e528 8fbe
000001a0: 497e 093e e96b 1b3d c450 5e3d 03e6 89be
000001b0: 53a2 a5be 6774 febd 30d3 f6bd 7154 e43d
000001c0: 58b0 943e 0188 91bb aeda f03d 6b15 33bd
000001d0: f41c dd3d 056d 2dbe 9a85 8d3c 49da 8dba
000001e0: c87f 19bd 9efd 8abd 4a10 57be ad73 293e
000001f0: e4da ffbc 476c 37be db48 9c3c e1bc 8a3e
00000200: 90ee 51bd 4c44 ef3c cb33 6f3e 849a 02be
00000210: fdd7 c7be 0aa2 adbd 2ebb 543e 3f61 90be
00000220: eb1a f93d 28d9 063e fbcb 4abf 9af3 453d
00000230: 8252 ea3c 4f58 9abe 32cc 47be 68e7 633e
00000240: 553d 873d 4f98 57be 475f 9dbe ff61 d2bd
00000250: c618 b0bd f21c 8dbe abce a9bc 2418 b53d
00000260: 363f 003d 1b9f 2dbd b762 1a3b 4969 d13c
00000270: b594 8a3d 53d5 a03d 7519 0ebe 9415 bebe
00000280: d74a 1dbe 202c 3cbf 23bd 8d3d d2e5 053b
00000290: 4fb6 133b 9cbc 4fbe 9311 dbbe 33a3 bfbd
000002a0: 54b9 25bf babd e93c d875 3dbe 063d 323e
000002b0: 292e 8ebd e3b7 28bd 34c9 67be 2aca 9ebd
000002c0: d361 203d 5a06 60bd 642f e23c 67d9 dfbd
000002d0: 57e7 33be 9dc8 933d 0ecd e83d a952 d8bc
000002e0: 6b39 5fbd 3068 5fbf 61a4 d8bd 38be dd3c
000002f0: 5b69 883b d0a3 73be 2c8a 723d bb3f 293e
00000300: 2a61 823d c5b6 353d 0da8 5cbe c60e 553d
00000310: d9f3 993e 3d23 24bd ad54 ab3d 6c6d f73d
00000320: 5be8 b0bc 6da8 5abe 8b5b 80bd d350 053e
00000330: ca26 6dbd ccd4 cf3d 554c bc3e da27 023c
00000340: 5575 75bc c6ce 88bd b616 573c 3853 3bbe
00000350: 24ae c9bd d0ae 0e3d c371 453d d0cf 41bc
00000360: 3e4e ae3d 2330 3bbe f100 e63d e811 54be
00000370: 7db7 403b fbc0 ef3d efe5 94bc 9b5d 77be
00000380: 1457 febd acb1 6fbd 027c c33d 1f5a 3bbd
00000390: 10ae 50bd b166 9b3c e9bd a2bd d0a4 79be
000003a0: 4f72 2f3e 835c 44be 80fd 8f3e 7301 9d3d
000003b0: 6c13 34be 0787 2ebd 11a3 cc3d 1b71 7a3e
000003c0: ea0f 08be cb39 d1bd d877 bbbd dba8 8bbb
000003d0: 6d38 3c3d 1b62 92be 4343 aebd fa2b 54be
000003e0: 7abe 36be e349 5c3d b326 a9bc 58c3 30be
000003f0: 1bff 57bd d86d 94be 2776 36bd f36c f8bd
0.030097576 -0.10706475 -0.045966327 0.07905987 -0.044205822 0.057727553 -0.08503727 -0.39408675
-0.0049528936 -0.04773809 -0.086993955 -0.063105434 -0.19245155 -0.11476758 -0.036039677 -0.020922162
-0.010148316 -0.21839923 -0.1524069 -0.1302146 -0.122352175 0.00029365506 -0.0012226072 -0.09702148
-0.21400848 0.04258909 -0.031441454 -0.053566527 -0.043685846 0.1280385 -0.17456122 0.023257352
0.047190163 0.052888565 0.08527316 0.107696824 -0.026618732 -0.02247443 -0.07974007 -0.00024687813
-0.13983165 -0.06991751 0.10529806 0.22244006 -0.20099801 -0.104874015 -0.20530789 -0.32984963
-0.071936674 0.015243493 -0.13461092 -0.086683005 -0.078853615 -0.077987306 -0.008330016 -0.071138114
-0.26943895 -0.18761645 -0.07113639 0.19287486 -0.1334034 0.09669724 -0.13809885 -0.32496658
0.10447868 -0.12643674 -0.14104731 0.0058417767 0.11178596 -0.25560462 0.091803186 0.12428879
-0.45806724 0.02349996 -0.3336826 0.14900258 -0.17609017 0.036462966 0.07603218 -0.40434206
-0.110457085 0.13337234 -0.09526365 -0.047005445 0.114562444 -0.5780889 -0.0023473029 0.14164582
-0.12500142 0.019643115 -0.34090993 0.2096734 0.1743305 0.12117576 0.11165941 -0.047423474
0.21406415 -0.041992493 0.00909268 -0.077370435 -0.34405592 0.15118344 0.14007163 -0.27960888
0.1342708 0.037944708 0.054276243 -0.26933298 -0.32350406 -0.12424546 -0.120519996 0.111489184
0.2904079 -0.0044412618 0.1176046 -0.043721598 0.10796538 -0.16936119 0.01727562 -0.00108225
-0.037475377 -0.06786655 -0.21002308 0.16548033 -0.031232305 -0.17912398 0.019077709 0.27097228
-0.0512529 0.029207371 0.23359601 -0.12754256 -0.39031973 -0.08478172 0.20774528 -0.28199193
0.12163337 0.13168776 -0.792175 0.04832802 0.028603796 -0.301455 -0.19511488 0.22256243
0.06603495 -0.21054195 -0.30736753 -0.102725975 -0.08598475 -0.27561146 -0.02072843 0.08842495
0.031310283 -0.042388063 0.0023557374 0.0255629 0.06766645 0.07853188 -0.13876899 -0.37125838
-0.1536058 -0.7350483 0.069208406 0.0020431173 0.0022539084 -0.20286793 -0.42786846 -0.093573
-0.64735913 0.028532851 -0.18501985 0.17406091 -0.06942398 -0.041190993 -0.22635347 -0.077534035
0.039155792 -0.054693557 0.027610488 -0.10930138 -0.17568718 0.07215998 0.11367236 -0.026406603
-0.054498117 -0.8726835 -0.10578228 0.027068242 0.00416295 -0.23792958 0.059213802 0.16528217
0.06366189 0.044363756 -0.21548481 0.052016042 0.30068853 -0.04007267 0.0836576 0.120814174
-0.02159517 -0.21353312 -0.062674604 0.13019113 -0.05789832 0.1014801 0.36776987 0.007944072
-0.014981587 -0.06680064 0.013127973 -0.18293464 -0.09847668 0.034834683 0.048204195 -0.0118293315
0.08511017 -0.18280081 0.11230648 -0.20709956 0.0029406243 0.1170673 -0.018176047 -0.24156801
-0.124189526 -0.05851905 0.09545137 -0.045740243 -0.05094725 0.018969866 -0.07946379 -0.24379277
0.17133449 -0.19175915 0.28123093 0.07666292 -0.17585534 -0.04260924 0.0999204 0.24457209
-0.1328732 -0.10216101 -0.09153718 -0.0042620725 0.04595225 -0.28590474 -0.08508923 -0.207199
-0.17846099 0.0537814 -0.020648336 -0.17262018 -0.052733522 -0.28990054 -0.044546273 -0.121301554

mlp_list_inner.0.mlp_list.0.bias f4 [64]
00000000: 119a b23e ce86 91be d1ed 753d e662 64be
00000010: 4878 d5bd f50e aabd 675e fb3d bd5f 8b3e
00000020: 9761 543e 7180 c43d d8de 133f d37c 88bc
00000030: 4226 5f3d 0a47 23be 809e ce3d a5e5 f53d
00000040: 09af e33d 6c31 ddbe 68ae d8bd 4b2f 8c3d
00000050: 2f44 6fbd 6c7e 473e d01a 073e 0e27 6bbd
00000060: a50c 0d3e 81c6 34be e376 043f abae 243e
00000070: 0520 03be 6e3e 3e3e 6112 603d 5754 6bbe
00000080: ee27 813d 4840 6e3e b287 bf3e 514e 25bb
00000090: e4e5 053d 3bc2 65be 0cf7 8e3e d7fd 92bc
000000a0: bc6e 05be aacb 64be 3a1f 313e 0fb0 e1bd
000000b0: 09fd 673c 1038 4e3d 486e 1fbe b876 8c3e
000000c0: d26b 89be d400 643e 6a17 b33d dbb6 5ebe
000000d0: 2423 3c3e c8b4 b83d acd2 7bbd 5e17 d13e
000000e0: d050 7fbd 454a fe3e 3408 053e f125 a9bd
000000f0: 818c 9c3d a1d3 6ebe 463a 8bbd a371 873e
0.34883168 -0.2842316 0.060041253 -0.22303352 -0.104233325 -0.08303634 0.12273865 0.2722148
0.20740353 0.09594811 0.5776191 -0.016661083 0.054479845 -0.15945068 0.10088825 0.12006692
0.1111737 -0.43201768 -0.1058014 0.06844958 -0.058414634 0.1948182 0.13193822 -0.057410292
0.13774355 -0.17653848 0.51743907 0.16082256 -0.12805183 0.18578503 0.054705027 -0.22981392
0.06306444 0.23266709 0.37408215 -0.0025223682 0.032689944 -0.22437374 0.27922857 -0.017943306
-0.13030523 -0.22343317 0.17297068 -0.11019909 0.014159449 0.050346434 -0.15569413 0.27434325
-0.26840073 0.22265941 0.087447 -0.21749441 0.1837278 0.09018856 -0.06148021 0.4083814
-0.06233293 0.49666038 0.1299141 -0.0825919 0.076439865 -0.23322918 -0.06798224 0.26453885

mlp_list_outer.0.mlp_list.0.weight f4 [64, 64]
00000000: 310e 823d 3fb0 633e ea0c 1dbe 83e7 bb3d
00000010: 6479 5a3e 9f60 623d 708b 68be 61c1 583d
00000020: 4b3b 1dbc 5f66 833b 9834 68bd 9ed1 94bc
00000030: fc0f 8bbd 68c5 26bc 59ca 473e fd21 8fbd
00000040: 5024 12be 815b 813e 192c d4bd 0286 423c
00000050: 9bf9 9dbd 6825 1d3e 797a 9c3d 7e1c efbd
00000060: aba2 4abc 213e 65be 4c1e a8bd 3808 483e
00000070: a3fc b3bd f5e6 873e 413e 1dbe 02f4 26bd
00000080: 5015 cc3b 50c7 093d 7344 80be 29e8 9a3e
00000090: 5ecf dabc 4f1f 7d3c 17b5 ac3e 484f bb3e
000000a0: df53 973c 7d0c 803c 5dc2 ff3d 9b10 f3bd
000000b0: 63bf 3a3e a227 47bc 56eb 453e 8f27 883b
000000c0: 689a 9cbe 9c84 82be b17b 8d3e b151 96bd
000000d0: b8ce 963e bb9e 283e 9692 243d d0cd dabd
000000e0: 98f7 083e 418c f1bd 2232 34be 26b6 393d
000000f0: 545e 1abd b606 1a3e 7960 8fbb bb61 ff3d
00000100: d1f7 3b3d 0ebc 1abd 92db 44bd 0661 783d
00000110: a8bd 7d3a 456f 423d 6bec 6d3d 23be 17bb
00000120: fe32 20be 61f5 b3bc 0a27 2ebd 390b bbbd
00000130: 60de 833d 2964 01be 0adc b43d f027 d2bd
00000140: 4ddf 243b 712a 653c 9559 2dbe f619 29bd
00000150: 6fc9 62bd 0e2c e1ba 5f3e 4f3d 1320 34bd
00000160: b0c9 653d af41 f2bd 5c7f 2cbd e370 a2bb
00000170: b3ed 0bbd 234a abbd 469f 133d 11cf b13b
00000180: 1a01 9abd 7d21 943d bc4f 45bc f22f c4bd
00000190: bdb4 ddbc 4b19 8e3d 8900 cbbd 05e5 6f3c
000001a0: 3300 4ebd 86f3 4cbc c7c3 3fbd db31 b13c
000001b0: ee67 09be 054e f2bd 18a5 833c 474b 313d
000001c0: 24cc fdbd 47fb 503b 970d c2bd b22e dabd
000001d0: 7e39 e7bd e013 10be f67d 3f3c 9fbb 823d
000001e0: dbd3 b0bd 9440 93bd ee50 0cbe b976 92bd
000001f0: 2073 88bd 9851 d9bd fcca e3bd 6e3e cfbc
00000200: 9f77 38bf b27f 6cbf d320 0b3f 6be6 0abe
00000210: af4e 58be 2e33 d9be 06d9 523e b5cc 3ebe
00000220: d95a 05bf e499 dfbe 0385 70bd 2198 ad3d
00000230: a480 0abf 8321 b43a 2e03 cdbd fa4c 1abe
00000240: 1fc0 8a3e f238 26bf c336 75bf 2dcc 203d
00000250: 4aea 5fbf 15c9 01bf 1e91 ca3d 8d9d 11bf
00000260: fa2a dfbe 8384 9fbf b334 913d 30b2 113e
00000270: d75b 84bd 72c5 31bf 079d 88bd 617f 863d
00000280: 78d2 8cbe 0b3f 433e 44cc 5bbd 0d86 79be
00000290: c342 91be 2e69 98bf 5407 e3bb d19b 06be
000002a0: d956 37be eef5 6abe 73ce 59bf b70b 8cbe
000002b0: 256f 9e3c 2841 d9be 215e 6dbf 7bf0 ad3c
000002c0: 69cc acbe ec03 a0bd bb1c edbe b71f bdbd
000002d0: 719f a73d fdb1 18bf 134a e0bb eb9d 9bbd
000002e0: 303f e0be a10a 693c f829 4e3e 1233 df3c
000002f0: 4608 31bf 7870 06bf 94d8 07bf 0e8d 54be
00000300: ced0 8e3c 3833 59bd ef6e 45be 8cde 58bd
00000310: 2259 02be 859e 2dbd f0fb 8fbd 7436 d5bd
00000320: 10fd 303c 0327 763c 4e61 fdbd e19d e13b
00000330: 5753 003d cecf 8a3c 7f35 3f3d e7e0 5d3d
00000340: b3fd 30bd c59d 85bc 3207 e3bd 08e3 983c
00000350: b1a9 b9bd 4db0 15be 8ad3 86bd 1299 5cbd
00000360: 43e7 ec3b fe91 1a3c 15aa 90bc 5608 233b
00000370: 4183 9bbc 6136 8fbd 35b6 98bd 65d7 dc3c
00000380: 071b 74bd d3b2 83bc 3283 f8bd 870e 1fbe
00000390: 9266 1bbd f655 d63d fc5e 823d ea53 6abb
000003a0: 1af9 b6bd dd50 0abe 5161 4a3d 081a 0ebe
000003b0: 70f0 2c3d ae44 e3bd 7913 89bd b2e4 823c
000003c0: 43b6 0dbd 5b6e 4f3d a5c4 bfbd 5400 adbc
000003d0: 8d13 3b3c a9d1 5fbd 969d f1bd 27ed 1ebe
000003e0: 441d 2cbc f1a8 94bd 91ae f5bc 45d1 16bd
000003f0: 010c 343d 0fa8 23be da8d a2bc 0e77 32be
0.06350363 0.22235201 -0.15336958 0.09175017 0.2133537 0.055267926 -0.22709441 0.052918795
-0.009596656 0.0040100063 -0.056690782 -0.01816636 -0.06790158 -0.010178901 0.19510783 -0.069889046
-0.14271665 0.25265124 -0.103599735 0.01187277 -0.07713624 0.153463 0.07640547 -0.11675356
-0.012367885 -0.22386982 -0.08208904 0.19534385 -0.08788421 0.26543394 -0.15355779 -0.040760048
0.0062281266 0.033637345 -0.25052223 0.3025525 -0.026710209 0.015449359 0.3373191 0.36583924
0.01847261 0.015630955 0.12488244 -0.118684016 0.1823707 -0.012155445 0.19328055 0.0041551064
-0.30586553 -0.25491798 0.27633432 -0.073398 0.2945459 0.16466801 0.040178858 -0.10683787
0.133757 -0.117943294 -0.17597249 0.045339726 -0.037687615 0.15041623 -0.004375514 0.124698125
0.045890633 -0.037777 -0.04806096 0.060639404 0.0009679445 0.047469396 0.058086794 -0.0023154102
-0.15644452 -0.021967592 -0.0425177 -0.09133 0.06438899 -0.12635864 0.088310316 -0.10261524
0.0025157512 0.01398717 -0.16928704 -0.041284524 -0.055367883 -0.0017179267 0.05059659 -0.0439759
0.056100547 -0.118289344 -0.042113647 -0.004957305 -0.034162235 -0.0836375 0.036040567 0.0054262956
-0.07519741 0.0723295 -0.012042936 -0.09579457 -0.027063722 0.06938418 -0.099122114 0.014642005
-0.05029316 -0.012509232 -0.046817567 0.021630218 -0.13418552 -0.11831287 0.016069934 0.04328468
-0.12392452 0.0031888054 -0.09475248 -0.10653438 -0.11290263 -0.14070082 0.011687746 0.06383442
-0.08634158 -0.07190052 -0.13702747 -0.07151551 -0.06662583 -0.10611266 -0.111227006 -0.025298323
-0.7205753 -0.9238235 0.5434696 -0.1356446 -0.21123765 -0.4242186 0.205906 -0.18632777
-0.5209175 -0.43672097 -0.0587206 0.08476282 -0.5410254 0.0013742897 -0.10010372 -0.15068427
0.27099702 -0.6493064 -0.95786685 0.039257217 -0.8746687 -0.5069745 0.0989096 -0.5688103
-0.43587476 -1.2462314 0.0709013 0.1422813 -0.064628296 -0.694419 -0.066705756 0.06567264
-0.27504325 0.19067018 -0.0536616 -0.24367543 -0.28371248 -1.1907098 -0.006928364 -0.13145377
-0.17904224 -0.22945377 -0.8508064 -0.27352688 0.019340107 -0.42432523 -0.92721754 0.021232834
-0.33749703 -0.07813248 -0.46310982 -0.09234565 0.08184708 -0.5964659 -0.006844768 -0.0759848
-0.43798208 0.014223726 0.20133197 0.027246032 -0.6915325 -0.52515364 -0.53064847 -0.20756933
0.01743355 -0.05302736 -0.19280599 -0.052946612 -0.12729314 -0.042387504 -0.07030475 -0.10410777
0.010802522 0.01502395 -0.12372075 0.0068852757 0.03132948 0.016944792 0.046681877 0.05416956
-0.043210696 -0.016310582 -0.11085357 0.018662944 -0.09065569 -0.14618035 -0.065833166 -0.053856917
0.007229717 0.009434221 -0.017659226 0.0024876795 -0.018983485 -0.06992794 -0.07456628 0.026958177
-0.059596088 -0.016076481 -0.121343985 -0.15532885 -0.037939616 0.104656145 0.06365773 -0.0035755583
-0.08934231 -0.1350741 0.049409214 -0.13877118 0.042221487 -0.11097084 -0.06693167 0.015978191
-0.034597646 0.050642353 -0.09363679 -0.02111832 0.0114182355 -0.054643307 -0.11797635 -0.15520154
-0.010505024 -0.072587855 -0.029990466 -0.03682067 0.04395676 -0.15982078 -0.01984303 -0.17428228

mlp_list_outer.0.mlp_list.0.bias f4 [64]
00000000: d926 c9be 92dd 893a 065c f53e 7113 96bd
00000010: 7649 56bf 38dd 143f 5302 db3e 4830 9b3e
00000020: 4348 573f 3165 8d3c a15d 84bb f9bb 433e
00000030: 6534 e03d 823d cbbe d437 78bf 3ed5 95be
00000040: 2e94 e03a 1358 2e3e 7f98 b9bd 3ff5 3c3f
00000050: 11ef c03c 7f92 7d3e e69c 333f 45b7 4b3d
00000060: f000 553e 9adf a33e 9a98 c7bc 7a09 1d3f
00000070: 1f1c cabf 6cc0 793f 8f9e a9bf e957 1dbb
00000080: 144b d8bf 8705 153f 9915 983e b6f4 76be
00000090: b0ab 283f 3e93 19bd 489c 6fbf c7ad e63e
000000a0: d3a8 4e3d d2a6 87bd ae4a a93c a870 a9bd
000000b0: c237 0abe 93fa 9ebf 7974 3cbf ec8e e73e
000000c0: 4e6b 9ebf ee31 bbbc 4ab7 883f e915 e2be
000000d0: aa4e 82be 1446 473f 447a 7bbc a443 f63c
000000e0: 36f7 5c3e b481 653f 1b9d d33d b26c a43e
000000f0: 7948 8f3e 30ff 963d 1910 afbe f65b b33e
-0.3928745 0.0010518304 0.4792177 -0.07327927 -0.8370584 0.58150053 0.4277521 0.30310273
0.8409464 0.017260166 -0.0040394817 0.19114675 0.109474935 -0.39695364 -0.96960187 -0.29264253
0.0017134005 0.17025785 -0.090622894 0.73811716 0.023551496 0.24762915 0.70161283 0.049735326
0.20801139 0.32006532 -0.024364758 0.61342585 -1.5789832 0.9755924 -1.3251513 -0.0024008697
-1.6897912 0.5821156 0.29703978 -0.24116787 0.65886974 -0.037493937 -0.9359784 0.45054457
0.050453972 -0.06623615 0.020665493 -0.082734406 -0.13497832 -1.2420219 -0.73615223 0.45226228
-1.2376497 -0.022850957 1.0680935 -0.4415734 -0.2545064 0.77841306 -0.015348975 0.03006155
0.21578678 0.89651036 0.103327 0.32114178 0.2798498 0.07372892 -0.3419197 0.35031098

NTN.weight_matrix f4 [64, 64, 16]
00000000: 0fd9 44be a6d3 db3d 8e88 0ebd f80e 8ebe
00000010: d985 a7be fc74 b0bd 6f1e 013d 5d0f 1cbe
00000020: 7c87 4c3e eb91 8e3c ae8c 39be 1314 cebc
00000030: afc1 8f3d 37af 2c3d a080 a4be 66ee aabb
00000040: 1ddb 4c3c e334 303d ceee 98bc 5ef7 66bc
00000050: 155f 983b dd30 033d 45a5 40bd f212 7ebd
00000060: f7cd 133d 62e9 7c3d c6b3 89bd 10a7 14bd
00000070: f999 163d a37b 633d 1dc7 9bbc 1f9c 463d
00000080: 26dc 44be 9a66 3bbc b19f 87bd d371 8bbd
00000090: 3838 a53d ad9e 8e3d 36ba 4a3c 07cd c2bd
000000a0: cc9b 18bd 0bcd 7e3c 8eff 033b e45f a33e
000000b0: 96c9 63bc e42a 343c a194 863e 7011 8bbd
000000c0: c711 c7bc 5c8e 2bbb f5d1 883c 783f c3bc
000000d0: 7579 313b ae4b 31bc 39f2 dcbc bf85 8ebc
000000e0: 6331 0fbd 2ead 773c 0035 933b 874f 213d
000000f0: 7acb 9eba 6aa7 103d d63f 14bb 2e02 273d
00000100: 1366 8cbd 4f1a 1d3b 0d60 a0bd 3df3 05be
00000110: 675f 1bbe f65b 92bd 6590 58b9 df1f c2bd
00000120: 1c5c 8e3d b32c 1dbd 5b1d 1ebe a450 92bc
00000130: dab9 5e3c 3516 353d cb40 91be 3464 e03b
00000140: 108b 31be 702b 6fbe 32a6 823c 1601 39be
00000150: c080 5dbe 1068 a13b 0479 8d3c aeda 863d
00000160: 918f 7fbd 7015 d4bd 9734 04be 863c 513e
00000170: 50dd 29bd c409 30bd 0946 203e 127a 98bd
00000180: 318b e0be 53c9 bfbd 039b 843d 2d4c d23a
00000190: 39b1 75bc e865 74be 1e8f 9dbc 2d5e 8b3c
000001a0: c164 4e3c a5b3 41bc 2d01 8cbc d9dc 7d3f
000001b0: f795 f8bc 3dd8 57bc 20e2 323d 9379 2b3d
000001c0: d81c c63d 0282 ddbd 67e9 c8bb 8a9f 1a3e
000001d0: 02cc 833c 77d1 563e 8550 7fba 214f e73d
000001e0: 1a66 adbd 4919 16bd 93e3 0fbe fd7f f03e
000001f0: 9699 d63a 4438 ac3c c07f 4d3e 2ab8 dd39
00000200: b219 b4bd 579b b8bd 214d e4bd 3a8d 5fbe
00000210: 6b61 c5be 432d 5bbc c6d2 3fbd 7a08 2f3e
00000220: bc94 593d afcd f93a 210f 103e b151 4d3e
00000230: bcfc 7abc 1c70 79bc 89d6 5b3d 3cd2 733b
00000240: b07b 873d a717 413d 383b d43c e5f9 1cbd
00000250: 18d3 d73b 3ca6 81bd 2626 0e3d 3092 dd3c
00000260: 0a27 06bc 1733 0a3d 25f3 243d ccd5 3a3d
00000270: 5d75 febc 34dd 013d 303f a7bc dcbe f73b
00000280: 9cd9 90bd 6cde 793c 5d7c 673d e471 1ebd
00000290: b1d1 27bd 30f5 c2bc 4289 41bc e55f 95bc
000002a0: b21b 3c3d e9e5 103d aeb8 3dbd b7d9 15bd
000002b0: 2394 953d 3ad6 8a3d 37fa 95bd f657 9b3d
000002c0: a543 483e c662 febd 029e 133d 9d8a c7bc
000002d0: 83e6 a7bc 0191 093e 9cd8 e6bc 7441 0b3c
000002e0: 2147 dfbd 222e 6bbd 91c1 333e 3739 8c3e
000002f0: 9bb6 2fbe 50f6 0a3c cf13 083f aa46 49bb
00000300: 1045 56be 21d5 28bd 37ea b93b 0045 12be
00000310: f8b7 15be 7dcd 873d 8c88 02bd 8f6b f03d
00000320: 0f8c 00bd 5f62 27bd ef73 2a3d d4c7 463e
00000330: b743 a23d 4749 0fba e3b2 8a3e 9dbe 263d
00000340: 47c6 edbd 84b5 36be e030 e7bc 1762 20be
00000350: 3a71 dd3c e28a 7a3d ea28 afbc 74da 3fbe
00000360: 379d 85bd 8fb6 7bbc 695f f9bd 8d59 d3bc
00000370: bbf5 f83d 5c73 01bd 5175 ad3d 2a2a b8bb
00000380: 947e 0abe 8e50 39be b354 5bbc fbb9 d3bc
00000390: deb1 a3bd 8b8c 813d d4b7 eebc 4c15 8f3d
000003a0: 7438 0ebe c4f2 97bd 8198 06bd d227 513d
000003b0: 9ab8 e53d 5c59 2cbd 14f4 833d f156 a4bd
000003c0: 3aeb 1d3b 2dac 68bd 8d66 89bd a9ff 55be
000003d0: 8097 0f3e 6756 ae3d 261b 9e3d 2c32 6a3c
000003e0: 3aac 11bd 146d b2bd 7adf 763d 9d55 8f3b
000003f0: b1f4 4ebd 6d7e d5bd 2b42 373e 818c 42bd
-0.19223426 0.10733728 -0.034798197 -0.27745795 -0.32719305 -0.08616063 0.031523164 -0.15240236
0.19973558 0.017403563 -0.18120071 -0.025156057 0.07019364 0.042159285 -0.32129383 -0.0052164076
0.012503413 0.043019187 -0.018668558 -0.014097063 0.0046500065 0.03202902 -0.047032613 -0.062029786
0.036085095 0.06174601 -0.06723742 -0.036292136 0.036767934 0.05553783 -0.019015843 0.048488732
-0.19224605 -0.011438036 -0.066222556 -0.068088196 0.080673635 0.06963859 0.012373498 -0.09511762
-0.037257954 0.015551816 0.0020141336 0.31909096 -0.013903042 0.010996554 0.2628527 -0.06790435
-0.02430047 -0.0026177382 0.016701678 -0.023833975 0.002708045 -0.010821266 -0.02697097 -0.01739776
-0.03495921 0.015116973 0.004492402 0.039382484 -0.0012115084 0.03531591 -0.0022621057 0.040773563
-0.068554066 0.002397198 -0.0783082 -0.1308107 -0.15173112 -0.071464464 -0.00020653156 -0.09478735
0.06951162 -0.038372707 -0.15440886 -0.017860718 0.013594115 0.04421063 -0.28369746 0.0068478826
-0.17338204 -0.23356414 0.015948389 -0.1806682 -0.21631145 0.0049257353 0.017269619 0.065846786
-0.062392775 -0.103556514 -0.12910686 0.20433244 -0.041470826 -0.042978063 0.15651716 -0.07445158
-0.43856195 -0.093645714 0.06474879 0.0016044431 -0.014995866 -0.23866999 -0.019233283 0.01701268
0.012597264 -0.011822616 -0.017090404 0.9916511 -0.030344946 -0.013174114 0.04367268 0.04186399
0.0967347 -0.10815813 -0.0061313394 0.15099922 0.01608849 0.20978342 -0.00097394764 0.112943895
-0.0846674 -0.036645208 -0.14051656 0.46972647 0.0016372676 0.021022923 0.20068264 0.00042289618
-0.087939635 -0.09014004 -0.11147524 -0.21831217 -0.38550887 -0.01337749 -0.04683187 0.17093077
0.05312036 0.0019058491 0.14068271 0.20050694 -0.015319046 -0.015224483 0.053671394 0.0037204167
0.066153884 0.047141697 0.025907144 -0.038324255 0.0065864436 -0.06330535 0.03470435 0.027047247
-0.008188019 0.03374013 0.040270943 0.04561405 -0.031061823 0.031705096 -0.020415872 0.007560594
-0.07072756 0.015250783 0.056515086 -0.038682833 -0.04097146 -0.023798555 -0.01181251 -0.018234203
0.04592485 0.03537551 -0.046318702 -0.036584582 0.073036455 0.06779142 -0.07323115 0.075851366
0.19557054 -0.12421183 0.03603936 -0.024358088 -0.020495659 0.13434221 -0.02817946 0.008499492
-0.10902239 -0.057417043 0.17554308 0.273874 -0.17159502 0.008481577 0.53155226 -0.0030712285
-0.20924783 -0.04121888 0.0056736725 -0.14284134 -0.1462096 0.06630991 -0.031868502 0.11739265
-0.03138357 -0.0408653 0.04161447 0.19412166 0.07923072 -0.0005465936 0.27089605 0.040709127
-0.11610084 -0.1784268 -0.028221548 -0.15662418 0.02703153 0.061167605 -0.021381814 -0.18735677
-0.06524127 -0.01536335 -0.12176401 -0.025799537 0.12156244 -0.031604156 0.08469642 -0.0056202607
-0.13524848 -0.18097135 -0.013386893 -0.025845518 -0.0799291 0.063256346 -0.02914039 0.06986484
-0.13888723 -0.07419351 -0.032860283 0.051063366 0.112168506 -0.042077407 0.064430386 -0.08024395
0.0024096505 -0.056804825 -0.06709013 -0.20898308 0.14022636 0.08512574 0.07720022 0.0142941885
-0.03556464 -0.08712211 0.060271718 0.0043742196 -0.050526325 -0.104245044 0.17896335 -0.047497276

NTN.weight_matrix_block f4 [16, 128]
00000000: 445f afbe 9d31 db3d 37ce 1f3e 3feb 18be
00000010: e52b 69be 4286 a03d f383 bbbd 1f26 adbc
00000020: ad6a a1bd f144 0abe d6eb d53d 79ea b7bd
00000030: 8a58 f6bd 322b 223e 6140 7b3e 0350 c1bc
00000040: 06e1 113e 30cf 7b3d 3a86 6fbd 3aa8 42be
00000050: cd0a 383e e5bb 5c3d 4b7d 633d 03b5 45bd
00000060: ffad 023e be94 2b3e c0c6 7c3d 5bfd 0b3e
00000070: d711 97bd 0414 6abe 6c27 373e 8716 6abb
00000080: a35f 533d 5c2b 113d 126b e5be 4e65 973e
00000090: a504 983d 9f36 493e 231e 69be 5e52 aebd
000000a0: 1606 d6bd 4846 c4bd e72b 0e3e 7bb9 dfbe
000000b0: a901 493e 5b67 913e 7e00 75bd e23f 3ebe
000000c0: 25b3 513e 5c2b 39be a9db 81be a396 353e
000000d0: 5d8e a13a fe42 8ebe 29c1 cbbd 1f63 2abe
000000e0: 8e72 063e d1d2 993e 7e61 fbbd 0ccb f9bb
000000f0: c0a8 0f3e be23 94bd 839e ec3d 312c 06be
00000100: eb1e 97be f8c7 1b3e 4cbb 1d3e 0ab5 553d
00000110: 84eb 253e 1e4a 3cbc 4765 ae3d 0a0e 813c
00000120: 601c b43d 86b7 90bc f2ca 4d3e 69a4 58be
00000130: 7903 8f3d 9485 9fbd c28b 503e 6e69 39bd
00000140: f9f3 f33d 57c8 a9bd fdb5 6c3e 43d0 993d
00000150: 64c9 75bc 6c48 c9bc afcb 42bd 090e 083e
00000160: 0f76 d63d b4c8 073e ad1b 1cbe 7e52 863e
00000170: 0403 67be 8984 f93c 42f5 60be 376a 7cbe
00000180: c752 03be 0654 343b 2e7a 23be ac8b 073e
00000190: 6d1b 3e3d 68a8 e63e b8a1 3e3e fef6 d2bc
000001a0: f7e3 c8bd 4e8b f4bd 4d84 333e ad56 cb3c
000001b0: 22b7 74bc 5d0d 143b 3a4e a53d 6c19 fbbd
000001c0: d1cc ffbd fdcb 3cbe 2ba8 c33d 78c1 d8be
000001d0: 02eb 9c3e 67b7 713d 7726 363e 7ca1 cc3d
000001e0: 3d8e 9e3d 8e9d dc3d cc41 1c3e c8a7 753e
000001f0: 6904 00be 130b ee3d 0134 07be 197e d73c
00000200: 5e84 d3be 4000 993d ee88 263d d384 263e
00000210: b01e cfbd 93b3 333e 1e4c 2f3d 612f 413e
00000220: 6ffd 8a3e ab96 533d 498e fd3c 0ce6 073e
00000230: d3a6 dfbc 4e4c 49bc efb9 0ebe 2c8a 053e
00000240: db02 153e 9ce6 cf3d 7a01 20be 3e51 6c3e
00000250: 0ed5 10be e748 a0bd 672a 0c3e a829 5f3e
00000260: a080 a53d 2c78 76be 3e4b 17be 58fe 673e
00000270: 7e2b 683e 4793 b63e 35b9 813e ee70 0b3e
00000280: 16f0 f9ba e132 9c3d 5986 e73d b534 063e
00000290: 08a2 a83e 8c56 c93c eb34 033e 8ffd 8ebe
000002a0: d6de 4d3d 2ffc 67bd e6ab 1f3d f116 383d
000002b0: eb4c 4a3e 6640 ca3c 0a78 3bbe 5b13 ed3c
000002c0: 86b6 e6bd 3ff0 1cbd 1e30 823e 9169 2abe
000002d0: 9525 56bd 7857 853e e77f b5bc c235 693e
000002e0: 9064 9d3d 302c 8c3e cbeb 2d3e e055 c4bd
000002f0: 237a 3ebb ab27 fcbc b6b0 28be f8f1 1cbe
00000300: cb04 48bd 6358 51bd 141b 1c3d 20a3 523d
00000310: 36af 15bd 80de 903e 7776 a83d 39d9 67be
00000320: a0f6 083d 5927 0fbb d135 1d3d c08d e33d
00000330: b34c 06be 994a 313e 36ad 803c 775a 043c
00000340: b0a5 b93c 986e f33d 99dd 16be afbd e83d
00000350: f544 18bd a865 993c 0262 2b3e acc2 48bd
00000360: 37ac 8f3d d38a 263e b3fb ad3c c8d7 adbd
00000370: 0d2c f43d 1c26 933e 73dc 823d c0d6 2c3e
00000380: 77fc 3a3e 9d0d de3d f1f1 62bd d5a1 e2bd
00000390: 6b6f 67bd 9212 343e a3b2 2fbe 65d7 66bd
000003a0: 1bd8 f3bc 21de 313e c413 cebd f217 a13e
000003b0: 9be8 083d 539f e1bd fb54 07be 047d 333e
000003c0: 60b4 e23c 833b 0abd 1f0a 1b3e 835b 1dbe
000003d0: 8f34 d7be 721c 013d 40f8 e9bc 5be0 013e
000003e0: f7b6 393e b63f 42be 981a 87bd e869 91bb
000003f0: 4f77 fcbd ece2 103e b59d 8bbc cd80 06be
-0.3425237 0.10702822 0.15606008 -0.1493349 -0.2277065 0.07838108 -0.09156027 -0.021136342
-0.07881675 -0.13502862 0.10445373 -0.08980269 -0.12028606 0.1583679 0.24536277 -0.023597723
0.14245996 0.061476886 -0.058477618 -0.19009486 0.1797287 0.053890128 0.05553941 -0.04826833
0.12761687 0.1675596 0.06171298 0.13670866 -0.073764496 -0.22859198 0.17886132 -0.0035718994
0.05160488 0.03544174 -0.4480825 0.29569477 0.07422761 0.19649743 -0.22765402 -0.08511804
-0.104503796 -0.095837176 0.13883935 -0.43696198 0.1962954 0.28399166 -0.059814923 -0.18579057
0.20478494 -0.18082947 -0.253629 0.17733245 0.0012325753 -0.27785486 -0.09948952 -0.16639374
0.13129637 0.30043653 -0.122744545 -0.007623082 0.14029217 -0.0723338 0.11553671 -0.13102795
-0.29515776 0.15213001 0.1540348 0.052174605 0.16203123 -0.01149228 0.08515411 0.015753765
0.087944746 -0.017665636 0.20096949 -0.21156467 0.06983084 -0.0778915 0.20365813 -0.04526656
0.119117685 -0.08290165 0.23116298 0.07510426 -0.015001629 -0.024570666 -0.04755753 0.13286604
0.10471737 0.13260156 -0.15244932 0.26234812 -0.22559744 0.030458705 -0.21968558 -0.24649893
-0.12824546 0.0027515902 -0.15964577 0.13236874 0.046412874 0.4505036 0.18616378 -0.02575254
-0.09809106 -0.11940633 0.17530937 0.024821604 -0.01493624 0.0022590973 0.08071561 -0.12260708
-0.124902375 -0.1843719 0.0955356 -0.42335105 0.30648047 0.059012797 0.1778811 0.09991738
0.077419735 0.10772239 0.15259475 0.23989785 -0.12501682 0.11623206 -0.13203432 0.026305245
-0.41311926 0.07470751 0.04065793 0.16261606 -0.10113275 0.17548971 0.0427972 0.1886573
0.2714648 0.05165736 0.030951636 0.1327135 -0.027301228 -0.012286259 -0.13938116 0.1304099
0.1455187 0.10151407 -0.15625563 0.23077866 -0.14143774 -0.07826405 0.1368805 0.21793234
0.08081174 -0.2406928 -0.14774796 0.22655618 0.22672841 0.3565924 0.25336614 0.13617298
-0.0019068744 0.07626892 0.11304922 0.13106044 0.3293612 0.024577402 0.12813155 -0.27927825
0.05026134 -0.056636985 0.038982294 0.044943754 0.19755904 0.02468891 -0.1830751 0.028939893
-0.11265282 -0.038315054 0.25427336 -0.16641833 -0.052281935 0.26043296 -0.022155715 0.22774413
0.076851964 0.27377462 0.16984479 -0.09586692 -0.0029064498 -0.030780634 -0.1647366 -0.15326679
-0.048832696 -0.051109683 0.03811176 0.0514251 -0.036544047 0.28294754 0.082257204 -0.22641458
0.033438325 -0.0021843521 0.0383814 0.11111021 -0.13115196 0.17313613 0.015707593 0.008078209
0.022662014 0.118863285 -0.1473297 0.11364304 -0.037175138 0.018725231 0.16736606 -0.04901378
0.07015269 0.16263895 0.021238184 -0.08488423 0.119224645 0.28740013 0.063897036 0.16878796
0.1826037 0.1084244 -0.055406515 -0.11066023 -0.05650274 0.17585209 -0.17157988 -0.05635776
-0.029766133 0.17369892 -0.10062364 0.3146358 0.033424955 -0.11016717 -0.13216011 0.17528158
0.0276739 -0.03374816 0.1514058 -0.1536694 -0.42032287 0.03152127 -0.028560758 0.12683241
0.18136202 -0.18969616 -0.06596869 -0.004437674 -0.12327444 0.14149064 -0.017042974 -0.13135071

NTN.bias f4 [16, 1]
00000000: 3bbc a0be 0edd a3be 65d7 923e cb65 d53e
00000010: aa4d cb3e 3df5 913e a65d ac3e ea75 8cbe
00000020: fb94 3c3e 663d df3e 59bc 0d3f fbc7 803e
00000030: ae0d 0abd d475 09bf 329b b83e 4fc9 45bd
-0.31393608 -0.3200459 0.28679958 0.41679224 0.3970769 0.28507414 0.33665198 -0.2743371
0.18416207 0.4360153 0.5536552 0.25152573 -0.033704452 -0.53695416 0.36055905 -0.048287686
