model_saved/IMDBMulti/2022-03-27_13-17-13/GSC_GNN_IMDBMulti_checkpoint.pth (torch, 593729 bytes, 65 tensors)

gnn_list.0.nn.0.weight f4 [64, 89]
000000 6e 55 30 bd fa 83 d7 bd 9e c7 12 bf 85 18 86 be
       -0.043050222 -0.105232194 -0.5733584 -0.26190582
000010 43 31 cf 3e ab c7 2c 3e fb f4 a4 bd 60 74 61 3e
       0.4046727 0.16873042 -0.08054539 0.2201705
000020 f8 35 c3 bd 0c 83 22 3e 86 92 24 3e bd 0e e9 bd
       -0.09531778 0.15870303 0.1607152 -0.11379764
000030 d3 91 d5 bd fe d9 27 3d 5e 2d e4 3e 9f 64 d4 3d
       -0.104282044 0.040979378 0.44565862 0.103707545
000040 ef d5 09 bd a3 47 d8 3c 1f 14 ce bd 54 70 dc 3e
       -0.03365129 0.026401347 -0.100624315 0.4305445
000050 23 08 e0 3e 8c fd 89 3e 05 15 4e 3e 95 e3 7d be
       0.43756208 0.26951253 0.20125206 -0.24793847
000060 61 f2 85 3e 2a 89 93 be 2f a3 fd be 36 0e 82 be
       0.26161483 -0.28815585 -0.49538562 -0.25401467
000070 9b 3a 9c 3d a4 f8 51 be f5 49 3b 3e 8f 3b 31 be
       0.076283656 -0.20505005 0.18289931 -0.17307876
000080 d0 ea 60 3e 26 8b cd be d4 33 10 3f ee 6c 8e be
       0.21964574 -0.40145224 0.56329083 -0.27817482
000090 b1 11 da 3d 1d 4f aa 3d 11 0b fd 3d a6 a6 a5 3c
       0.106479056 0.08315871 0.123556264 0.020221066
0000a0 0e 6c c4 3d e0 47 c9 bb e2 ae c6 be f2 f6 52 be
       0.09590922 -0.0061426014 -0.388053 -0.20602015
0000b0 34 06 a8 3d c6 a6 99 3e ae 4b ca bb c6 73 e3 bc
       0.08204308 0.3001005 -0.0061735725 -0.027765166
0000c0 e5 ae ac bc 02 77 3c be 92 74 80 be de 04 bb 3d
       -0.02107949 -0.18404773 -0.25088936 0.09131788
0000d0 6e ba 3d bc a1 b8 a0 3c 8a 35 67 bc 26 49 b6 bd
       -0.011580093 0.019619288 -0.014111886 -0.08900671
0000e0 a0 8d ee bd 58 b9 73 bd 7d e7 93 3b 08 36 ec 3c
       -0.116481066 -0.05950293 0.0045136795 0.028834358
0000f0 d1 32 55 bd 1d b7 91 bd 36 35 cd be 0c 37 ef bb
       -0.052050415 -0.07115004 -0.4007966 -0.0073002633
000100 70 d9 5b bd 35 f9 99 3d d1 ac 2d bd 44 3b 10 3d
       -0.05367416 0.075182356 -0.04240114 0.03521277
000110 5b d6 15 bc 73 1b 45 3c 4c 53 99 bc f5 a2 79 3c
       -0.009145345 0.01203047 -0.018716477 0.015236606
000120 3f f7 20 bd b2 c1 94 bb e1 c0 b2 3c 8a 6b 88 3d
       -0.039298292 -0.004539692 0.021820487 0.066611364
000130 e4 a2 03 be b8 23 be 3d bc 40 dc 3c 6c 38 78 bd
       -0.12855107 0.092841566 0.026886337 -0.060600683
000140 56 46 c8 3d e4 b7 8a 3c 6c a0 18 bc ca a5 c6 bd
       0.097790405 0.016933389 -0.009315591 -0.096995905
000150 9e 80 b2 3c 6b 6f 37 bd 7f dd bb 3d e3 d2 94 3d
       0.021789845 -0.04478399 0.091731064 0.07266786
000160 91 48 6b be 40 a1 9a bd 97 62 e7 3d 42 19 26 bf
       -0.229769 -0.07550287 0.112981014 -0.6488229
000170 03 04 70 bf 61 a1 66 3e e9 92 c2 3c 05 b5 12 3e
       -0.9375612 0.22522499 0.023751693 0.14326866
000180 a0 22 1d 3e f9 a1 aa bd 68 b6 52 3e f1 ca c8 3e
       0.1534524 -0.08331675 0.20577395 0.39217332
000190 15 3f fd 3e bf ae cc 3d c0 86 b5 3e b8 59 95 3e
       0.4946219 0.09994268 0.3545437 0.29170012
0001a0 f8 df d9 3e 76 a3 55 3d 87 70 28 be e3 93 54 bd
       0.42553687 0.05215784 -0.16449176 -0.05189885
0001b0 e7 e5 1d bf c5 87 aa 3d 13 52 ca 3d 0b f9 2c be
       -0.6167893 0.08326677 0.09878936 -0.16891877
0001c0 cf 60 b9 be 58 66 7e bc f9 ae c7 be f3 68 0f bf
       -0.36206672 -0.01552733 -0.3900068 -0.56019515
0001d0 61 17 46 be 63 56 5f bd 46 3b 4b be a5 5d 79 bd
       -0.19344856 -0.054525744 -0.1984683 -0.060880322
0001e0 03 17 85 be ed 5d 8f be 2e 0f 2f bc 90 15 ae 3d
       -0.2599412 -0.28001347 -0.010684771 0.085002065
0001f0 fb af 4c bf 8f 96 ec bd 18 67 0c bf 1e 33 d6 be
       -0.79956025 -0.11552154 -0.5484481 -0.41835874
000200 5e ac 58 3e b9 34 0c bf cc 0c c0 bd 76 a2 05 bf
       0.21159503 -0.5476795 -0.09377441 -0.5220102
000210 f4 ed a6 3c b5 23 a7 bd ca bd a1 3d 24 95 b0 bd
       0.020377137 -0.081611075 0.078975275 -0.08622196
000220 20 50 25 be a0 53 af bd b5 cf bb be 99 1a 1f 3d
       -0.16143847 -0.08560872 -0.36681905 0.038843725
000230 1c 5a 14 bd 9e 7b 57 3d 1c a5 a6 be 3f 1f 4c bd
       -0.036218747 0.052608125 -0.32547843 -0.049834486
000240 4a 0e 65 bc ca cb bd be da 50 8a bd 17 86 05 3e
       -0.013980458 -0.3706954 -0.067537025 0.13039432
000250 71 fb 7e 3d 42 f8 85 bc cb 53 77 3b 7d f9 2e 3b
       0.062251512 -0.01635373 0.0037739153 0.0026699
000260 b4 d6 11 3d b6 f6 32 3d 1f ec 09 bd b6 74 8e bd
       0.035605147 0.043692313 -0.03367245 -0.069558546
000270 59 ec b6 bd f9 18 10 bd 62 e5 63 3d a9 87 9b 3d
       -0.089317985 -0.035180066 0.05563868 0.075942345
000280 f3 48 98 bd 0e c1 08 bd 77 49 c8 3d a0 a2 6b bd
       -0.07435789 -0.033387236 0.09779637 -0.05752814
000290 2f 72 66 bd c9 ef 85 be 8b 1f 8a 3d b0 32 65 3d
       -0.056261238 -0.26159504 0.067442976 0.055956542
0002a0 05 be 38 bd e2 ae a8 3d a2 02 a8 bd 3e bf 39 3c
       -0.04510309 0.08236481 -0.08203627 0.0113371
0002b0 0b 25 b1 bd ca 5f ae 3d 22 52 84 bd 06 3f 9f 3d
       -0.086496435 0.08514364 -0.06460978 0.07775693
0002c0 be 9f 1f 3d f4 ed 46 be 38 ae 19 3d 96 a7 be bc
       0.0389707 -0.1942671 0.037519664 -0.02327327
0002d0 a2 07 93 bd 56 eb ec bd 97 a4 72 be 26 34 9e be
       -0.0717919 -0.11568324 -0.23695599 -0.3089916
0002e0 ff 55 b0 3e 7d cd 4c bf 16 78 3f 3e a8 a7 c3 bd
       0.3444061 -0.8000105 0.18698153 -0.09553462
0002f0 8f 87 46 3e 37 39 98 3e 42 4f 4e be dc 3c d5 be
       0.19387649 0.2973115 -0.20147422 -0.41647995
000300 70 c8 80 bd 33 50 4d 3e e9 fd cb bd 8d 9e c9 bc
       -0.062882304 0.20050125 -0.09960539 -0.024611736
000310 10 84 98 3d e9 0f 55 3d 15 0c 7d be a3 f4 0c be
       0.07447064 0.052017126 -0.2471164 -0.13765197
000320 7d ae 59 bf 9f 6d a2 bd 1c 2f c3 3e 30 6d b1 be
       -0.85031873 -0.07931065 0.3812188 -0.34653616
000330 4b 0a b5 be 09 ef ba be b7 41 15 bf 3a ed 6c bd
       -0.35359415 -0.36510494 -0.583034 -0.057843424
000340 77 7f aa be 4f a0 06 be c9 ba be 3d 67 49 e8 3c
       -0.33300373 -0.1314709 0.0931297 0.028355313
000350 2b ae 52 3e 2c 79 19 bd b8 7f 22 3d 90 66 be be
       0.20574252 -0.037469074 0.039672583 -0.37187624
000360 9e a1 49 be ef 25 60 3d 30 d3 32 bd 11 01 e5 3c
       -0.19690558 0.054723676 -0.043658435 0.02795461
000370 6d 28 3c 3e 33 ac 0f 3f b7 a7 e3 bd a9 c3 84 bb
       0.18374796 0.5612213 -0.111159734 -0.004051645
000380 ca f5 64 bd 84 ec a5 bd 4d 5e b5 3d 84 32 6b 3e
       -0.055898465 -0.081017524 0.08855877 0.22968489
000390 ff 01 74 be b9 82 91 bd 8d e0 8b 3d da 4f b9 bc
       -0.23828886 -0.071050115 0.06829939 -0.022621084
0003a0 5c e3 55 3d dd b3 c4 bd b4 4b 1e 3c 23 e7 89 3d
       0.05221878 -0.09604619 0.009661604 0.06733539
0003b0 1d c9 06 bc 53 ca 1e 3e 10 ca a9 3d 68 1d 30 bd
       -0.00822666 0.15506868 0.082904935 -0.042996794
0003c0 e2 6d ee bc 69 3a 97 3b 77 43 8b 3d 77 7e c9 3a
       -0.02910513 0.0046151173 0.06799977 0.0015372772
0003d0 11 10 f4 bc c7 54 c7 bd 07 a9 62 3d a0 a3 0d 3d
       -0.029792817 -0.09732967 0.05533698 0.034579873
0003e0 dc 4e a2 bd d2 ac bb bd eb 1b d7 3d 28 e4 34 3d
       -0.079251975 -0.09163822 0.10503372 0.0441629
0003f0 7d 96 75 bc fa 8f 17 3d 80 5a e4 bd c6 34 ad 3b
       -0.0149894925 0.03700254 -0.11150074 0.005285832

gnn_list.0.nn.0.bias f4 [64]
000000 f0 7c d2 bd 86 50 09 3e a3 08 2a be 65 fa 79 3d
       -0.10277736 0.13409624 -0.16604857 0.06102981
000010 45 5c ea 3d 8e 3f 57 3e 0f 64 03 bd 95 d9 b1 bd
       0.1144338 0.21020338 -0.032077845 -0.086840786
000020 1c 32 d8 3d 82 8c 42 3e 28 8e 27 be fb 94 e6 3e
       0.105564326 0.18998912 -0.16362822 0.45035538
000030 22 60 af be 70 7d 89 3d 92 32 a4 be e7 f7 34 be
       -0.3425303 0.067133784 -0.32069832 -0.17672692
000040 95 55 7a bd 74 0f 2b bd c6 62 ce be 62 8d 87 bd
       -0.061116774 -0.041762784 -0.40309733 -0.066187635
000050 f8 d3 e1 3d 0c d3 b4 bd 98 54 8c 3e 2f 55 81 bd
       0.11026758 -0.088293165 0.2740829 -0.063150756
000060 77 33 b4 bc ef 85 ab 3e 3b df ec 3c e5 ee ca bb
       -0.021997197 0.3350062 0.028915038 -0.006193029
000070 1a fd 2b 3d 7d 60 6d 3d 5e b0 cc 3d 55 c6 eb bc
       0.041989423 0.057953347 0.09994577 -0.028781096
000080 18 c5 91 3e ec 58 89 bd e3 76 4d be be 91 77 be
       0.28470683 -0.067064136 -0.20064883 -0.2417669
000090 3f 20 31 be e5 81 1d 3e 24 81 fc bc 66 e2 d7 3e
       -0.17297457 0.15381582 -0.030823298 0.42164916
0000a0 59 45 cd 3c 76 7f af 3d d0 e9 79 bd 93 7a 2c 3d
       0.025057482 0.08569233 -0.061013997 0.042109083
0000b0 f2 e1 84 bd 78 02 d4 3d 2f e2 4c 3e ae d6 55 be
       -0.06488408 0.103520334 0.20008157 -0.20882675
0000c0 10 b7 82 be d3 fb 1c be 41 f1 5c 3e a2 e8 3c be
       -0.2553029 -0.15330438 0.21576406 -0.18448117
0000d0 f3 ec 65 3d 89 02 a2 3d 54 1a 02 3e af 4b bd 3e
       0.056134176 0.0791064 0.12705356 0.36971804
0000e0 a3 c2 04 bf e6 1b bc 3c c3 fd 54 3e 6a 11 84 be
       -0.5185949 0.022962522 0.20799927 -0.25794536
0000f0 1b da 57 3e 5b 05 17 be fa 48 73 3e ad 1e 28 3b
       0.21079294 -0.14748137 0.23758307 0.002565305

gnn_list.0.nn.2.weight f4 [64, 64]
000000 01 bd d8 bc c6 0c 78 3e b5 fb 58 3e 3e 85 25 3e
       -0.026457312 0.24223623 0.21189769 0.16164109
000010 0f 9f df be e0 ea 85 be 68 28 b6 be 74 6c c3 3e
       -0.4367604 -0.26155758 -0.35577703 0.3816868
000020 dc 49 99 bd 43 8a d9 bd 2d 75 8b be 36 77 b1 3e
       -0.07484791 -0.106220745 -0.27237836 0.34661263
000030 bf 92 9a 3e 0d 0c 1b be 2a 6e b5 3e ba 4f 29 be
       0.30190083 -0.15141316 0.3543561 -0.1653432
000040 6d 55 5f bd 32 d7 08 3e 74 9e 7a 3d 23 ff 47 3e
       -0.054524828 0.1336334 0.06118627 0.1953092
000050 66 f2 ac 3d 0a 23 1a 3c 42 ce ac bd f2 8f bd bd
       0.08444671 0.009407768 -0.08437778 -0.09255971
000060 3c 8a 93 3e 37 49 d4 3e 6e d2 9e bd 57 53 95 3e
       0.28816402 0.41462108 -0.0775498 0.29165146
000070 e3 73 1b be b7 cc 96 3e 88 be 2f 3e 0c 27 62 be
       -0.15180926 0.2945306 0.17162526 -0.22085208
000080 de 85 a4 bd 5a c8 11 be c3 fc 4b be cf fe 75 be
       -0.08033346 -0.14236584 -0.1992064 -0.24022983
000090 b5 23 52 be 89 ab de 3e fc d0 94 be 9f 56 17 3f
       -0.20521434 0.43490246 -0.29065692 0.5911655
0000a0 aa ea a9 bc 22 b3 e6 3d c4 d8 a3 be cd e8 79 3e
       -0.02074178 0.112646356 -0.32001317 0.24405213
0000b0 d6 91 cb 3c 1c cc 86 bc 8a 2c d0 bd 50 00 40 3e
       0.024849813 -0.016454749 -0.10164745 0.18750119
0000c0 a1 7c ae 3d 7a 28 87 bc 72 d0 2f 3e 77 ec 0d bf
       0.08519865 -0.016498793 0.1716936 -0.5543894
0000d0 b1 81 bb 3e a2 8a 8b 3e eb 5c 83 bd b5 00 4c bf
       0.36622384 0.27254206 -0.06414207 -0.7968858
0000e0 2a 84 f4 3d 07 31 d9 3d 51 7d 15 bd 6a d4 8c bd
       0.11939271 0.10605054 -0.036496464 -0.06876452
0000f0 00 02 f1 3e f2 92 a4 3e 05 e7 f6 3d de 31 cb bd
       0.47071838 0.3214336 0.12055782 -0.09921621
000100 8e 74 a0 3d 31 09 52 be b3 38 ab 3a 80 73 0b 3e
       0.07834731 -0.20511319 0.0013063162 0.13618279
000110 7b 9b 2f be 11 d7 40 be 85 46 3b be e2 9d 01 bf
       -0.17149155 -0.18832041 -0.1828862 -0.50631535
000120 4d 38 e4 3d 17 bd 80 bd 2f f0 b2 3e 4f 3f 20 3e
       0.11143551 -0.06286066 0.3494887 0.1564915
000130 37 31 b9 3e 5d 11 d6 be 4d 38 60 3e 81 07 8f be
       0.3617036 -0.41810122 0.21896477 -0.27935413
000140 6a fa d3 3d 5c 99 28 3d 64 25 91 3e fd 03 1b be
       0.10350497 0.04116188 0.2834884 -0.1513824
000150 43 3b 0b bf 19 a2 cd bd ba 08 de be 46 53 b3 be
       -0.543873 -0.10040683 -0.43366033 -0.3502447
000160 73 24 9e 3d ad 31 39 3e 5e 54 c3 bd 0c 83 17 bf
       0.07721796 0.18085356 -0.09537576 -0.59184337
000170 bb 2b e4 3c 0a d5 4f 3c 88 55 39 be 23 3e 11 3e
       0.027852884 0.01268507 -0.18099034 0.1418386
000180 8f b1 0a bf 38 5b dc be 33 9f ea bb d6 74 84 3d
       -0.5417718 -0.43038344 -0.0071600913 0.06467597
000190 5e 3b bb be 2a 22 4d 3e 42 95 b0 3e 56 cd 8f 3d
       -0.3656873 0.20032564 0.34488875 0.070215866
0001a0 87 a1 b3 3d 74 3c ad be a3 cc 6c 3d 70 58 91 be
       0.08771043 -0.33835185 0.057812344 -0.28387785
0001b0 d2 31 a5 bd 20 84 7d be a8 34 85 3e 2d 61 15 3e
       -0.08066143 -0.24757433 0.26016736 0.14587851
0001c0 2a 4c 96 be 45 0d 82 3d 2f 4c c3 3c 9f bd fc be
       -0.29354984 0.06350187 0.023840038 -0.4936342
0001d0 d7 c9 0c 3f 34 85 be bd 54 46 8f bf ed c3 7b 3c
       0.54995483 -0.0930275 -1.1193337 0.015366537
0001e0 4f 15 90 3e 72 5f 83 3e 0c d6 40 be 7e 26 a9 bc
       0.28141257 0.25658756 -0.18831652 -0.020648237
0001f0 f2 07 0d be ef 23 94 be e9 23 43 3e 27 e8 bc 3d
       -0.13772562 -0.28933665 0.19056667 0.09223967
000200 88 56 45 be a3 a5 a7 be b6 ff 0c 3e 94 b0 8f be
       -0.1927129 -0.32743558 0.13769421 -0.28064406
000210 bc 3b b7 3d 11 e8 d4 be 2e d7 2e be 8b 5e 1b bf
       0.0894694 -0.41583303 -0.17074272 -0.60691136
000220 d5 6f 16 be c3 b5 9f be 29 34 2a 3f e8 5a 7c bb
       -0.14691098 -0.3119336 0.6648584 -0.0038506333
000230 8b 3a 18 3f f1 1f 44 3e 38 6f 10 3a 7c 34 52 bd
       0.5946433 0.1915281 0.0005509737 -0.051319584
000240 9a ee 50 bd f4 08 fa 3d 6d df 16 bc dd 63 02 3e
       -0.0510088 0.12208739 -0.009208542 0.12733407
000250 e3 1f 7f 3d da 15 79 3c 3e cf 2e 3e b6 56 12 3e
       0.06228627 0.015202964 0.17071244 0.1429089
000260 f3 60 07 3f b2 ca bd 3e 21 0e 17 3e b0 47 71 bd
       0.5288231 0.37068707 0.14751484 -0.058906257
000270 c4 b3 e5 3d f0 93 d0 be 79 29 8d be 40 c7 8e 3d
       0.11215928 -0.40737867 -0.27570704 0.06971598
000280 11 54 b7 be 15 c9 ed be b9 95 4c 3e 15 07 b7 bc
       -0.35806325 -0.46442476 0.1997899 -0.022342244
000290 ac 70 37 be 22 fc 97 3e 0f 02 43 3e 3a eb 83 3e
       -0.17914075 0.2968455 0.19043754 0.257654
0002a0 09 d6 75 be 74 24 a0 be 4d 15 9d 3e 5d ef 95 be
       -0.24007429 -0.31277812 0.30680314 -0.29284182
0002b0 bb 68 bf be 7a bd cb be 2c 0a 54 3e 65 89 bc bb
       -0.3738459 -0.39792997 0.20707005 -0.0057536834
0002c0 01 bc 54 bd f1 54 05 3f 77 46 a4 bd 6c 87 61 be
       -0.051937107 0.52082735 -0.080212526 -0.22024316
0002d0 4c 57 61 3e 4a c0 12 be 1c 7f 7f be 5e 5a cf be
       0.22005957 -0.14331165 -0.24950832 -0.40498632
0002e0 fa 8a e3 3d eb 5f 08 3f 25 99 2c 3e 6c fd 37 3c
       0.11110492 0.5327136 0.16855295 0.011229854
0002f0 11 ff 80 3e d8 9f 5f 3e 10 f1 c7 3d b4 4d cf 3c
       0.251946 0.2183832 0.09762776 0.025305606
000300 92 9e 00 be f0 a8 b5 be 29 5d ab bc 90 96 d6 bc
       -0.1256049 -0.35480452 -0.020918446 -0.02619484
000310 2b c4 e0 3e b5 42 80 3d 2b fa 9e 3d 55 c0 f5 bd
       0.43899664 0.06262723 0.077625595 -0.11999575
000320 d5 8e 5c bf f3 94 e1 3d b2 62 98 3e 33 c5 6e be
       -0.86155444 0.11014738 0.297628 -0.23317413
000330 5f 38 71 bd 67 9a a3 be 58 61 87 be 9d a9 db 3d
       -0.05889165 -0.31953737 -0.26441455 0.107257105
000340 f8 b1 99 3e ac fb 56 3e 61 75 dd 3e 8e 7c 9a bd
       0.30018592 0.20994443 0.43253615 -0.07543288
000350 5a ae 80 3e 18 eb bf bc f6 c0 65 bd 18 31 bd be
       0.2513302 -0.023427531 -0.056092225 -0.36951518
000360 db f2 fa be 83 99 29 be ef 9c 06 3f 6a 9d 78 be
       -0.4901341 -0.16562466 0.5258321 -0.24278799
000370 1f 26 1e 3e 02 53 7d bd 46 c1 a3 3d ff 70 12 be
       0.1544423 -0.06184674 0.07995848 -0.14300917
000380 33 40 a2 3e 1b 14 cb be 1f ca c6 bc b7 0e ee 3e
       0.31689605 -0.39663777 -0.0242663 0.46495602
000390 9b 6a 00 3f b8 23 26 3e 28 85 db bd 82 28 8a 3d
       0.5016267 0.16224563 -0.10718757 0.067460075
0003a0 e5 37 d4 3e 87 7f dd be c4 81 4e bd eb 73 9c be
       0.41448894 -0.43261358 -0.050416723 -0.30557188
0003b0 d8 51 e3 3e 76 d6 6a bc 2d 16 87 3d 96 a5 3b 3e
       0.4439838 -0.014333358 0.065960266 0.18324885
0003c0 bb 15 14 be 2a 5c 48 bd 35 81 5c bd ed c1 d3 bd
       -0.14461415 -0.04891602 -0.05383416 -0.10339723
0003d0 c3 6b c0 3d ed 69 b2 be 9a 92 6c 3e c8 d7 94 be
       0.09395554 -0.3484644 0.23102799 -0.29070878
0003e0 17 5d 86 3e 46 5a a1 be 52 90 98 be 53 e5 44 be
       0.26242897 -0.31514186 -0.29797608 -0.19228105
0003f0 58 63 b9 bd 81 97 04 bd a9 96 9c 3e b7 02 45 be
       -0.090521514 -0.032371048 0.30583695 -0.19239317

gnn_list.0.nn.2.bias f4 [64]
000000 33 df 8e be de f2 20 bd 50 a3 3d bd 24 9c 05 be
       -0.27904662 -0.039294116 -0.046298325 -0.13047844
000010 ba db d1 3d 1a 12 ac bd e4 31 e6 3c f4 78 dc bd
       0.10246988 -0.0840189 0.028099962 -0.107652575
000020 49 29 85 3d f5 d1 3b bd ae 9c 66 bd b8 5f c4 bd
       0.06502015 -0.045854528 -0.056301765 -0.095885694
000030 e4 41 93 3e 5d 6d 07 be a9 01 d5 bd cb a2 29 be
       0.28761208 -0.13225313 -0.10400707 -0.16566007
000040 b6 ae 05 bd 8d 18 aa bc b4 7c 12 bd f0 89 b6 3d
       -0.03263732 -0.02076366 -0.035763457 0.08913028
000050 da 7f 2c be 0b 65 dc 3c c2 79 57 3d 23 36 63 3d
       -0.16845647 0.02690365 0.05260635 0.05547155
000060 9f 40 fe 3d f3 d9 ea 3d 9c 34 c6 3c b2 23 fe bd
       0.12414669 0.11467352 0.024195008 -0.12409152
000070 58 02 d1 bd ca 3a dd 3d 21 e0 e2 bc 26 9a 0a 3e
       -0.10205525 0.10802229 -0.027694764 0.13535365
000080 67 6a 41 bd ac 48 88 bd 5d ab 48 bb 83 dd ab 3d
       -0.047220614 -0.06654486 -0.0030619719 0.083918594
000090 fb a6 2e be 85 fa de bd 6b 82 0d be 42 1d 9e 3d
       -0.17055885 -0.108876266 -0.13819282 0.07720424
0000a0 e3 69 37 3d 70 5f cd 3d c2 64 2d be c2 c1 2a bd
       0.044778716 0.10027969 -0.16932967 -0.041688688
0000b0 06 a2 2d be 7d 84 10 3e f4 e4 bc bc 8a 93 69 3e
       -0.16956338 0.1411304 -0.023058392 0.22810188
0000c0 a1 cf d9 3d 4e 9d 7d be fb f1 82 bd ef f5 81 bc
       0.10635305 -0.24767038 -0.0639381 -0.01586434
0000d0 7f 4e da 3c d0 a3 b7 bc c5 51 df 3d fa 2e c7 3a
       0.026648758 -0.02241698 0.10904268 0.0015196495
0000e0 38 37 d3 bd 47 a3 e3 3d b1 72 3c be d7 33 58 3d
       -0.103132665 0.11115127 -0.18403126 0.052783813
0000f0 cd d8 92 bd fa 95 9c bc a3 bd b6 3d 8b c5 cd 3d
       -0.07170258 -0.019114483 0.08922889 0.10047444

gnn_list.0.nn.3.weight f4 [64]
000000 48 a4 bf 3e de 6c 1f 3f 9a f7 b7 3e b6 c9 fa 3e
       0.37430024 0.62275493 0.35931093 0.48982018
000010 3f 94 13 3f 09 07 c7 3e 14 7a b9 3e a2 44 18 3f
       0.5764808 0.38872555 0.3622595 0.59479725
000020 bf e4 cd 3e d9 e1 0a 3f f5 82 34 3f 7c d5 8e 3e
       0.40213582 0.54250866 0.70512325 0.2789725
000030 ac b9 ed 3e 56 d7 44 3f bc fb ec 3e e5 10 77 3e
       0.4643072 0.76891077 0.46285808 0.24127539
000040 f0 e0 23 3f cb 19 86 3e 47 ac 94 3e 34 d5 0a 3f
       0.640151 0.26191553 0.29037687 0.5423157
000050 c4 61 ec 3e 0c 35 ee 3e 39 5a 0b 3f f6 dd d7 3e
       0.4616834 0.46524847 0.54434544 0.4216153
000060 84 00 c7 3e 75 cc af 3e dd 79 fd 3e fe 46 0d 3f
       0.3886758 0.34335676 0.49507037 0.5518645
000070 b4 ce e5 3e 70 6e f6 3e a0 3c bf 3d c7 89 f2 3e
       0.44884264 0.48131132 0.09337735 0.4737074
000080 2b 1c 98 3e 52 b9 0f 3f a0 8a 99 3e 75 3c b4 3e
       0.2970899 0.5614215 0.29988575 0.35202375
000090 4e 6f 21 3f 58 56 00 3f d7 ce e8 3e ae b7 17 3f
       0.6306046 0.5013175 0.45470306 0.5926465
0000a0 79 4e 94 3e 87 c4 23 3f 1c ce 2e 3f f6 5a b8 3e
       0.2896612 0.6397175 0.6828325 0.36006898
0000b0 91 b3 ba 3e ea 3d ed 3e 99 13 25 3f c7 64 33 3f
       0.36465123 0.463363 0.6448303 0.7007565
0000c0 33 eb da 3e 98 41 96 3e 2a 31 05 3f 01 06 d9 3e
       0.42757568 0.2934692 0.52028143 0.42387393
0000d0 ab ca 1c 3f 21 26 be 3e 61 b6 0a 3f c2 7c ca 3e
       0.61246747 0.37138465 0.5418454 0.39548308
0000e0 90 48 0e 3e e9 13 1f 3f 59 6f 05 3f c2 ee 26 3f
       0.13894868 0.62139755 0.5212303 0.65208066
0000f0 70 bd 0a 3f a8 2c ce 3e bb 5e d8 3e 9b ca c3 3e
       0.5419531 0.40268445 0.42259774 0.38240513

gnn_list.0.nn.3.bias f4 [64]
000000 5c ac 77 3e df c6 8d be 17 99 da be 68 28 44 be
       0.24186844 -0.2769079 -0.42694923 -0.19156039
000010 d7 08 3e be ba 7a b8 be 25 08 0f bf aa 83 65 be
       -0.1855806 -0.36031133 -0.558718 -0.22413507
000020 c6 de 3b bf 7c a4 81 be 19 38 61 be 5f 08 8c be
       -0.733868 -0.25320804 -0.21994056 -0.27350137
000030 e8 18 a3 bc 55 d5 10 3d c0 6d 6f bd ef a3 2b bd
       -0.019909337 0.0353597 -0.058454275 -0.041904386
000040 73 ff fd bd ec 38 2c be a1 38 3b 3e cd 14 0c bf
       -0.12402239 -0.16818589 0.18283321 -0.5471924
000050 61 e3 c7 bd 0c 72 3f be 08 c2 66 be 8a 86 59 3d
       -0.09760166 -0.18695849 -0.22534955 0.053106822
000060 98 cd fa 3d ef 45 ee 3c 3b 09 a2 be 1f 05 e6 be
       0.12246245 0.029086081 -0.31647667 -0.44925782
000070 35 66 dc bd 9d fd 25 be 43 b5 0a bf 1a 8c a2 be
       -0.10761682 -0.16210027 -0.54182833 -0.31747514
000080 0f e5 de be ee cd 4f bd e6 fd e7 bc 3b 50 e3 be
       -0.43534133 -0.0507335 -0.02831931 -0.44397148
000090 01 29 93 be f9 26 59 3d 36 8a 0c bf ca 78 3d bc
       -0.2874222 0.053015683 -0.54898393 -0.011564443
0000a0 94 5f 2b 3e 4f f2 23 be e5 ab cd bd 4d 7c 61 be
       0.16735679 -0.16010402 -0.10042552 -0.22020073
0000b0 b5 ad ab be 76 7d 50 3d 63 01 02 3b ca a4 86 3e
       -0.33530965 0.0509009 0.0019837252 0.262976
0000c0 d9 f3 d2 be c9 66 f2 3b 9f 52 0d bf 85 4b 8f be
       -0.41201666 0.007397507 -0.55204195 -0.27987304
0000d0 a9 69 a6 3c 6f 81 e6 bd 07 fe d7 3c 7d f8 19 be
       0.020314055 -0.11255156 0.026366247 -0.15036197
0000e0 3e 8a b7 be cf 19 42 be cb 62 29 be ca db b2 3e
       -0.35847658 -0.18955158 -0.16541593 0.3493331
0000f0 b0 9d d9 bb 84 24 44 be a7 13 4e bd bb 5a c1 3d
       -0.0066411123 -0.19154555 -0.05031171 0.094411336

gnn_list.0.nn.3.running_mean f4 [64]
000000 1c 99 04 40 d7 35 d5 c0 57 57 c6 bf 05 78 11 c0
       2.071845 -6.6628222 -1.5495404 -2.2729504
000010 f4 c1 e8 c0 5e b7 57 c0 5c a6 9b c0 bb 3f e3 3f
       -7.273676 -3.3705668 -4.8640575 1.7753824
000020 f2 c0 81 40 1b 54 ae c0 62 35 26 3f 42 a8 d8 3f
       4.054803 -5.447767 0.64925206 1.6926348
000030 62 75 c8 40 9f a0 b6 bf 6c 19 1f 40 e9 0f d5 3e
       6.264329 -1.4267768 2.4859266 0.416137
000040 5b 66 83 3f 60 e0 4f c0 59 8f 22 c1 0a 94 86 c0
       1.0265611 -3.2480698 -10.159997 -4.205571
000050 6f d8 af c0 9f 87 e9 c0 3e 39 c2 c0 a7 05 e3 c0
       -5.49517 -7.2978053 -6.0694876 -7.09444
000060 55 27 85 40 64 a7 70 40 60 42 e4 be ad da c8 bf
       4.1610513 3.7602167 -0.4458189 -1.5691735
000070 f1 27 df 3f 6e ad c1 be d5 80 37 3c 58 e1 82 40
       1.7434064 -0.3782763 0.01120015 4.090008
000080 ff 42 07 bf 8e d7 b7 c0 07 68 6a 40 bb 25 89 c0
       -0.528366 -5.745063 3.6625993 -4.285856
000090 a2 40 07 c1 e4 25 29 c0 f5 bc 87 bf 5e c4 4c c0
       -8.4532795 -2.6429377 -1.060454 -3.1994853
0000a0 b3 ce ba c0 7a 2b 02 c1 ac c2 f4 c0 ec 97 5f c0
       -5.837732 -8.135614 -7.6487637 -3.4936476
0000b0 0d ef 80 bf bd 9d e7 bd fa 70 8b 40 58 e7 12 40
       -1.0072953 -0.11309383 4.357541 2.29537
0000c0 71 37 90 c0 c0 c7 76 c0 0d fc bf 3e dd e7 93 40
       -4.5067677 -3.8559418 0.37496987 4.6220536
0000d0 9d 44 00 c1 17 a1 ad 40 c1 71 4f 40 0a d0 96 c0
       -8.016751 5.4259143 3.241318 -4.7128954
0000e0 d0 29 d4 c0 0f 7d 19 c1 4a 54 1a c1 14 21 ed 3e
       -6.630104 -9.593032 -9.645578 0.463143
0000f0 0d 42 57 be cb c5 6a 40 45 de 49 c0 eb e3 b0 c0
       -0.2102129 3.6683223 -3.1541913 -5.527822

gnn_list.0.nn.3.running_var f4 [64]
000000 a7 4b af 41 9c cd dc 41 9f ce 8a 41 b1 fe c3 41
       21.91194 27.600395 17.35089 24.499361
000010 dd 83 ff 41 db 12 cb 41 98 41 ad 41 b9 55 16 42
       31.939386 25.384207 21.657028 37.583714
000020 c7 97 83 41 f8 a8 bf 41 0c cb c7 41 5e 7e db 41
       16.44911 23.957504 24.974144 27.436703
000030 a7 df e6 41 95 7e a5 41 51 8d 18 42 fc e0 cd 41
       28.859205 20.686808 38.138004 25.734856
000040 21 54 af 41 f7 c3 c8 41 e7 08 2f 42 38 9e b2 41
       21.916079 25.095686 43.758694 22.327255
000050 33 ac 20 42 d4 8a 9d 41 b8 eb ca 41 fa 5d c5 41
       40.168163 19.692787 25.365097 24.670887
000060 18 a0 e3 41 03 ce d3 41 e1 70 0a 42 f6 1d fc 41
       28.45317 26.475592 34.610233 31.51463
000070 19 ab cd 41 99 e2 9a 41 ce 9a 2d 41 19 20 3c 41
       25.708544 19.360643 10.850294 11.757836
000080 29 38 1e 42 60 af b2 41 9c d1 8a 41 40 ed 3c 42
       39.554844 22.335632 17.352348 47.23169
000090 d6 c2 ac 41 2f dc ca 41 fb cc c6 41 cf 35 8d 41
       21.595135 25.357512 24.850088 17.651274
0000a0 d2 93 ce 41 a0 32 bc 41 af 9d 99 41 ff 0a b4 41
       25.822178 23.52472 19.201994 22.50537
0000b0 42 87 df 41 70 65 30 42 40 78 c5 41 df 9a 0c 42
       27.941044 44.09906 24.683716 35.15124
0000c0 ba 85 cd 41 c8 ee 1c 42 24 85 df 41 2f 06 fc 41
       25.690296 39.233185 27.94001 31.50302
0000d0 fa d2 f3 41 50 a6 1f 42 7e 15 13 42 31 95 d4 41
       30.478016 39.912415 36.77099 26.572847
0000e0 39 1f 53 41 21 33 4f 41 1b 1d 84 41 ab fd db 41
       13.195123 12.949983 16.514212 27.498861
0000f0 ce 3d a4 41 89 f4 bb 41 08 e2 e9 41 d6 ee a3 41
       20.530178 23.494402 29.235367 20.49162

gnn_list.1.nn.0.weight f4 [32, 64]
000000 eb c6 4c be 27 e1 ef bd 85 2c 8a 3e 0c 24 d9 be
       -0.19997756 -0.11712866 0.2698709 -0.42410314
000010 22 76 aa 3e b2 4a 40 3e 22 8d 81 3e c6 2d a8 3e
       0.33293253 0.18778494 0.25302988 0.32847422
000020 81 83 d6 3e ea 45 43 3e c9 03 c6 3d 3f 90 f1 be
       0.41897205 0.19069639 0.09668691 -0.47180364
000030 28 e0 63 bc 2c d4 8b bc 08 e3 7e 3e a5 c8 e0 bc
       -0.0139084235 -0.017068945 0.24891293 -0.027439425
000040 3d ed d6 3e 32 ca 3e 3e 65 94 cd 3e fc 3c 0c bd
       0.41977873 0.18631819 0.4015228 -0.034237847
000050 f3 f2 ce 3d b0 56 38 3f 71 b3 af 3e a5 4b 14 3e
       0.10104933 0.72007275 0.3431659 0.14481981
000060 18 26 9a 3e cc 03 f2 be 9d 2f 6c be 6c 3c a6 3d
       0.30107188 -0.47268522 -0.23065038 0.08116993
000070 4e 25 44 3f 66 0c f6 3e 2b cb a1 be 7f 7e 00 bf
       0.7661942 0.48056334 -0.31600317 -0.5019302
000080 f2 60 26 be 3d c5 b1 bd c0 b6 bd 3e 51 70 11 3e
       -0.16247919 -0.08680198 0.3705349 0.14203002
000090 31 1c 18 3f ea 22 62 3e 42 94 a4 be 9e 2e b2 bb
       0.59418017 0.22083631 -0.32144362 -0.005437686
0000a0 90 ae d8 3d 24 46 5d 3e 34 b6 9d 3d 85 7f f3 3e
       0.1058017 0.21608788 0.07700768 0.47558227
0000b0 9d b5 65 bd 46 4d 9c bd 03 e5 e4 be 2c d5 81 3e
       -0.056081403 -0.07631926 -0.44705972 0.2535795
0000c0 8c a7 2d 3d 51 5d 90 3d cd 8d 25 be a4 0b 08 be
       0.042396113 0.07049049 -0.16167374 -0.1328569
0000d0 af 8a cc 3d c3 13 17 bf db 7d cb be 78 d4 d7 3b
       0.09987389 -0.5901453 -0.39744458 0.0065866075
0000e0 f1 eb 04 3f a2 5c 17 be 76 91 a1 3e ff df b3 be
       0.5192252 -0.1478143 0.3155629 -0.35131833
0000f0 ff e8 ae 3d 9f d8 42 be 6d 51 04 3d b5 28 45 be
       0.08540534 -0.19027947 0.032304216 -0.1925381
000100 9e 4c 8f bd b0 6c 53 be 81 f9 06 be 4b 68 c3 bd
       -0.069970354 -0.2064693 -0.13181116 -0.09541377
000110 a9 b9 c7 bc 6c f6 df bd 50 0c 9c bc 07 68 f2 bc
       -0.024380522 -0.10935673 -0.01904884 -0.02959062
000120 2f 17 54 bd d8 b3 b1 bc 93 b6 fc bd 0d 23 3b 3d
       -0.051779922 -0.021692201 -0.12339511 0.045687724
000130 56 90 de bd 86 73 21 be ba bd b7 bc da 46 0e be
       -0.10867374 -0.15766725 -0.022429336 -0.13894215
000140 e8 e2 24 3d ca 23 c3 bd ef b5 bd bc 29 24 a2 bd
       0.040255457 -0.095283106 -0.023158042 -0.07917053
000150 71 ff 8a 3d 04 d3 8f bd 7e 5f 1c 3d 35 17 b8 3c
       0.06787003 -0.0702267 0.038177006 0.022472003
000160 59 f6 54 bb d8 b9 43 bd 69 5c ec bd ad d3 06 be
       -0.0032495467 -0.047784656 -0.11541063 -0.13166685
000170 e9 83 cf bc 68 e0 fb bb 10 21 d3 bd 85 33 89 bc
       -0.025331454 -0.0076866634 -0.103090405 -0.0167482
000180 a3 d1 69 3d 7f 7c e6 bd 54 31 2f 3d 0f 5e 2c bb
       0.05708469 -0.112542145 0.042771652 -0.002630118
000190 db 93 06 bd 1a b8 98 3d 75 b7 a6 3c ca ef c2 bd
       -0.03285585 0.074569896 0.020351151 -0.095183924
0001a0 87 71 18 be 8d f0 f3 bd f6 a1 21 3d 0e bc e5 bd
       -0.14887057 -0.11911116 0.0394611 -0.11217509
0001b0 74 8d be bd 3c 8f fb bd 5f 80 bd 3d 34 0d 5b 3d
       -0.09304324 -0.12283179 0.092530005 0.05347939
0001c0 13 c0 ee bd 67 14 ee bd b7 6b cb bd 8b 09 b2 bd
       -0.11657729 -0.11624985 -0.09932654 -0.086932264
0001d0 28 e2 8a 3d 7b 5b d7 bd 8a 71 2a bc b2 e1 e5 bd
       0.06781417 -0.105154954 -0.010403046 -0.112246886
0001e0 c3 5a cc bd 8d 21 7f 3d a6 85 1a bd 97 9f 54 bd
       -0.09978249 0.062287856 -0.037725113 -0.05191001
0001f0 a8 74 af bc b0 e5 8e bd 1f be b2 bd f5 99 f1 bc
       -0.02141793 -0.06977403 -0.08727669 -0.029492358
000200 2c 2b 9f bd 13 67 da 3e 06 ca 81 3e 95 9d f4 39
       -0.07771906 0.42656764 0.25349444 0.00046656714
000210 73 05 14 3f fe e4 fa bd 8c a8 c6 3d 21 19 12 3e
       0.57820815 -0.12250708 0.097001165 0.14267398
000220 34 03 8b bd be 7c d0 3e eb 8d a5 be 98 a3 94 be
       -0.0678772 0.4072017 -0.32334837 -0.29031062
000230 94 a2 19 bf 16 fc cd 3e 37 77 70 be 98 69 02 bf
       -0.600137 0.4023139 -0.23482977 -0.50942373
000240 1e ff 8f bc f1 fa db bd de 6c f8 bd f7 a3 28 3d
       -0.017577704 -0.10741223 -0.1213014 0.041171994
000250 8f 89 cc 3e 51 65 f9 bd 02 db f9 bd c3 10 c6 bd
       0.399487 -0.12177528 -0.121999756 -0.09671166
000260 ed d0 ff bd 99 4c 98 bd c2 9f b6 3c 8e 18 dd be
       -0.12491021 -0.07436485 0.022292975 -0.43182796
000270 04 d5 00 bd f3 5a 3f be 09 05 81 bd d7 18 5d be
       -0.031453148 -0.18687038 -0.062997885 -0.21591507
000280 15 e9 d7 bd f4 39 a1 bd c0 bc 53 3e 1f f4 e8 be
       -0.10542504 -0.07872382 0.20677471 -0.4549875
000290 7d 85 d1 3e 15 72 17 ba c3 09 9d bc 8d fd c0 3e
       0.40922156 -0.00057771924 -0.019169694 0.37693444
0002a0 c3 23 f1 bd 71 d0 cf 3e a6 b0 59 be b0 13 8e be
       -0.11774399 0.40588716 -0.21258792 -0.27749395
0002b0 ba 81 95 be 8f 5b f7 bd 58 40 89 3d d2 f7 bc be
       -0.29200536 -0.1207801 0.06701726 -0.36907822
0002c0 eb 15 fa be 0c bc d9 3e 99 90 e3 be 7e 64 6b be
       -0.48844847 0.4252628 -0.44446257 -0.22987553
0002d0 d4 b9 9e 3e 5b 46 7a 3d ad c5 b5 be 6d 48 bc 3d
       0.3100115 0.061102252 -0.35502377 0.091935016
0002e0 9e 81 32 3e 35 44 a5 3e 7b 0a 25 be 74 b4 cf bd
       0.17432258 0.322786 -0.16117279 -0.101418406
0002f0 33 a4 48 bd 7f 4e 8f be 9d 51 1b 3f 79 72 43 be
       -0.048984718 -0.27989575 0.60671407 -0.19086637
000300 43 ae 4d 3d 80 67 20 3e 56 b0 68 3e 0d 89 de 3c
       0.050215017 0.15664482 0.22723517 0.02716496
000310 d4 8a 05 bf 21 a0 52 3e 15 a1 03 3c 98 b5 73 3e
       -0.5216496 0.20568897 0.00803401 0.23799741
000320 34 ba 9d be e0 0f f9 be 0b ac f6 3e a5 b5 52 bd
       -0.30806124 -0.48644924 0.48178133 -0.05144276
000330 c3 50 2f bd 6f 8d f9 3e 6f d0 d7 be ac ec 7d bd
       -0.04280163 0.48740718 -0.4215121 -0.061993286
000340 97 58 f9 3d d2 49 d7 be 3c 2a 77 bd cd d4 9b 3d
       0.121751 -0.42048508 -0.060343012 0.07608948
000350 3d 50 f9 bc 22 96 e8 3e d1 00 9f 3d c3 88 43 3e
       -0.030433768 0.45427042 0.077638276 0.19095139
000360 27 26 63 bc d2 c7 13 3e 31 fd 9c 3d b0 73 b8 bd
       -0.013864077 0.14431694 0.0766548 -0.09006441
000370 2f 6a 5f be a6 02 20 3e 03 0c 29 bd da 45 2f 3f
       -0.2181785 0.1562601 -0.04127122 0.6846596
000380 10 5d 3b 3c 3c 16 d3 be f5 84 fd 3e ac 96 76 bc
       0.011435762 -0.412279 0.495155 -0.015050571
000390 95 9d cc 3e 7d 01 a2 be 0c c2 fa 3d 3c 2d 20 bf
       0.39963976 -0.3164176 0.12244043 -0.6256902
0003a0 6e 2d c5 bc 0f dd 4b bf d2 65 d6 be 20 37 7a be
       -0.024069514 -0.79634184 -0.41874558 -0.24435091
0003b0 d6 f2 0e 3d 15 2f c7 be b4 26 3b 3e 46 74 49 3e
       0.034899555 -0.38903108 0.18276483 0.19673261
0003c0 44 fa 3b be 8d fb 83 bd d8 0b ec bc d5 bf 34 bd
       -0.18357188 -0.06444464 -0.028814241 -0.044128258
0003d0 2e 4e d9 be e1 21 7a 3e 35 25 1e 3e ee ae 86 be
       -0.4244246 0.24426986 0.15443881 -0.26305336
0003e0 92 d9 b2 be b3 6d ad bf e7 5b 8d 3d 57 6d bf bb
       -0.34931618 -1.3549103 0.069022946 -0.0058418917
0003f0 c8 e3 a6 3e fd a7 f1 3c 10 05 6c be 81 44 a7 be
       0.32595658 0.029499048 -0.23048806 -0.32669452

gnn_list.1.nn.0.bias f4 [32]
000000 63 9d fd 3d ae 29 34 be 67 97 b9 3e 92 a9 e0 bd
       0.12383535 -0.17594025 0.36248323 -0.10969843
000010 71 7c 02 be d1 b5 24 bf 5b eb 1f be c6 df 61 bd
       -0.12742783 -0.6433993 -0.15617125 -0.055145048
000020 69 32 bc be 86 cd fa bd a7 74 1b 3d 07 30 92 3d
       -0.3675721 -0.12246232 0.037953045 0.07138067
000030 e1 cc a0 be 7c 7b 0d bd 02 b5 e4 3e c3 57 da bd
       -0.3140631 -0.034541592 0.44669348 -0.106612705
000040 23 53 a2 bd 9b 0a c1 be 0c bc 25 bd 3b fb a6 bd
       -0.07926013 -0.37703404 -0.04046254 -0.08153387
000050 ef b5 02 bd da de 16 bf 11 16 c6 3d 5d 1d a2 3e
       -0.031911787 -0.58933794 0.096721776 0.31663027
000060 e5 a5 1b 3e da 2d b8 3e d4 8f a0 bd aa 7d 10 be
       0.15200002 0.35972482 -0.07839933 -0.14110437
000070 a2 9a 53 be 22 9b 9c be 0f bd 89 3e 45 63 16 bf
       -0.20664456 -0.30587107 0.26902053 -0.58745223

gnn_list.1.nn.2.weight f4 [32, 32]
000000 32 c6 e8 3e 61 8b e5 3d 8d 79 59 be f2 95 ee be
       0.4546371 0.11208225 -0.21237774 -0.46598774
000010 9b d7 07 3e c6 a2 c1 bd 87 04 e4 be 1d 50 49 3e
       0.1326584 -0.09454875 -0.44534704 0.19659467
000020 40 c8 08 3e 38 97 02 be 80 d0 ff 3e 3e 13 dc 3c
       0.1335764 -0.12752998 0.4996376 0.026864644
000030 69 3d d8 3d 64 a5 36 3e d8 dc 70 bd 0e 50 5e 3e
       0.10558588 0.17836529 -0.058804363 0.21710226
000040 bb b7 07 3e 76 13 31 3e a6 e1 1d bf 2e 1d e7 3e
       0.13253681 0.1729258 -0.6167244 0.4513945
000050 bf f7 0c be a0 2d 22 bf fa a4 cd be 88 4d 00 3e
       -0.13766383 -0.6335087 -0.4016493 0.12529576
000060 3f 45 a5 be d2 aa 2e 3c 57 22 ce be 72 af 96 be
       -0.32279393 0.010660844 -0.40260574 -0.2943073
000070 88 b4 46 3e 39 73 f2 3c e2 15 14 3e 01 70 ba 3e
       0.19404805 0.029595958 0.14461473 0.36413577
000080 de 05 2b 3e ce ff 5a 3d 21 5c b5 be d0 30 02 3d
       0.16701457 0.05346661 -0.3542185 0.031784832
000090 98 3e 87 bb a4 9b 06 3e a7 65 1e be 46 70 a7 3e
       -0.004127335 0.1314531 -0.15468465 0.32702845
0000a0 ed 09 70 bb c3 97 99 3d 91 d7 ad bd 00 39 fa be
       -0.003662701 0.074996494 -0.08488382 -0.48871613
0000b0 e1 98 42 bd c4 30 67 bc 7d da 50 be 56 ff 38 bd
       -0.047509078 -0.014110748 -0.20395847 -0.045165382
0000c0 b6 58 09 3e fe 79 2c 3e b0 bc 20 3f ca 5c f1 3d
       0.13412747 0.16843411 0.62787914 0.11785276
0000d0 f5 d4 33 bd 2f 55 c9 3e 60 74 57 3e a3 78 4f 3e
       -0.043904264 0.39322802 0.21040487 0.20260863
0000e0 1c 3e bd bd d6 73 78 3e d2 ba be 3d b5 5b b2 bd
       -0.09240362 0.24262938 0.09312977 -0.08708898
0000f0 fb c6 06 3f 47 74 56 be b5 b4 e2 3e 51 94 b7 3d
       0.5264737 -0.20942794 0.44278494 0.08963836
000100 ca a7 67 3e 98 dd 35 be fa ba d4 be 4c 2f 69 be
       0.226226 -0.17760313 -0.41548902 -0.22771949
000110 ce 96 e8 bd 0c c3 2d 3d a6 06 01 be 59 62 cf 3d
       -0.11356889 0.04242234 -0.12600192 0.1012618
000120 e4 34 82 be aa 3f 01 bd 40 4a 24 be 3b e4 5d be
       -0.25430977 -0.031554855 -0.16043949 -0.21669094
000130 0d ab bf 3e 68 16 13 3e b2 57 b2 3e 82 02 1f bf
       0.3743519 0.14364016 0.3483253 -0.621132
000140 90 6e 96 3d 04 0e f6 bd 92 9a ac be 2d 9b b5 be
       0.07345307 -0.12014392 -0.33711678 -0.35469952
000150 05 2f 62 bd 9b 7e b6 be 8c e0 46 3e 08 7d 0a 3d
       -0.055220623 -0.35643467 0.19421595 0.033810645
000160 b0 a9 88 3c d4 a1 5d be 0a db b8 be 88 b7 87 3d
       0.016682476 -0.21643764 -0.36104614 0.06626803
000170 bf c4 20 bd 93 c2 ac be 3a 5c 9d 3e b8 f0 d0 3e
       -0.03925013 -0.33742198 0.30734426 0.40808654
000180 f1 f5 9d bd 6a 4f e4 bd 6f 72 5c be 7a 90 56 3e
       -0.07712925 -0.111479595 -0.21528028 0.20953551
000190 f1 01 f4 ba 4f b8 96 be c6 a0 4e be a5 06 db be
       -0.0018616301 -0.2943749 -0.20178518 -0.42778507
0001a0 08 46 e6 bc 60 6a 64 bf db 34 97 3e fd 86 d1 3e
       -0.028109565 -0.89224815 0.29532513 0.409233
0001b0 4e 2a 69 bd 33 0e 86 3d 7f 29 bc be ca 43 95 3e
       -0.05692511 0.06545677 -0.3675041 0.2915328
0001c0 c2 a4 cb 3c f4 a0 f4 3c 3b ea 00 bf c4 d0 2e bd
       0.024858836 0.029861905 -0.5035741 -0.042679563
0001d0 2b d5 d1 3c 52 c6 8e be da ef 98 be 20 3c ec be
       0.025614342 -0.2788568 -0.29870492 -0.46139622
0001e0 a0 9d 0c be e3 5f 6f 3d ca e2 30 be 97 7e be bd
       -0.13732004 0.058441054 -0.17274013 -0.09301489
0001f0 bd e0 c9 3c 27 58 dd 3d c5 d3 b7 3e 97 19 70 bd
       0.024643296 0.10807829 0.35903755 -0.058618154
000200 04 a3 2c bf 99 1f 36 be b3 bc ce 3e e5 f1 a0 3e
       -0.6743624 -0.17785491 0.4037834 0.3143455
000210 55 d2 23 bd ed 6c 30 bd 47 8c f9 3c 0d d0 0b be
       -0.03999551 -0.04307263 0.030462397 -0.13653584
000220 18 86 43 3f 96 af a8 be 59 eb 39 be c2 4d 6e 3e
       0.76376486 -0.3294646 -0.18156184 0.2327185
000230 a8 b6 b3 bd 35 9d 1d bd 50 4e 20 be 32 01 e9 bd
       -0.08775073 -0.038480002 -0.15654874 -0.11377181
000240 78 20 ec bd 5b 0d c0 3e 3e 2e 9c 3e 26 7c 7a 3e
       -0.115296304 0.3751019 0.3050403 0.24461421
000250 89 db ff 3d a3 e5 55 bd 51 5e c9 be fd 36 50 be
       0.12493045 -0.05222095 -0.3932977 -0.20333476
000260 5d 41 33 bd 9b e7 a4 3e d7 86 16 3e 30 8e d2 3c
       -0.043763507 0.3220795 0.14699875 0.025702566
000270 bf 1a 00 bf 2d 74 c3 be ec f5 c9 be c2 a7 41 3c
       -0.5004081 -0.38174573 -0.39445436 0.011819782
000280 ad 97 f0 bd ab 66 5e 3d fe 7e b9 bd ec cc 16 bf
       -0.1174768 0.05429713 -0.09057425 -0.58906436
000290 64 21 aa 3b 93 c9 d8 be 45 c7 df be a1 3f 02 3e
       0.0051919688 -0.4234129 -0.43706718 0.12719585
0002a0 29 49 88 3d dc fe f6 be f0 47 24 3e 1d 9b 87 bd
       0.06654579 -0.48241317 0.16043067 -0.066213824
0002b0 ad 1b 51 3e 3a 74 8e bd 10 b6 44 3e b8 4e ae be
       0.20420714 -0.06955762 0.19210076 -0.34044433
0002c0 ad 99 39 be 59 21 a4 3e da 15 76 be cb 0f d5 3d
       -0.18125029 0.32056692 -0.24031773 0.10403403
0002d0 77 f5 07 3e 0e b0 1c bf 36 ec 13 be 11 a8 06 bf
       0.13277231 -0.6120614 -0.14445576 -0.526002
0002e0 b2 37 9b be 46 21 82 be 2c 7d 46 be a3 1f 4f bd
       -0.3031593 -0.2541601 -0.19383687 -0.05056728
0002f0 77 e5 41 3c b2 c9 a7 be d8 b6 d4 3e 90 2f 33 be
       0.011834494 -0.3277107 0.4154575 -0.17498612
000300 6c 01 99 3e 24 38 07 be e0 81 35 3d 2a 2a ab be
       0.29883897 -0.1320501 0.04431331 -0.33430606
000310 b3 24 8b bc c7 ea 39 3e 6a aa d5 bd f0 ba 73 be
       -0.016985273 0.18155967 -0.104328945 -0.2380178
000320 7f c2 b9 bd 94 fe 2b 3e 84 f4 7f 3e f2 bf ab 3e
       -0.090703 0.16796333 0.24995619 0.3354488
000330 cc 3c 42 3e c1 ca 50 3e 80 28 65 3e 0a de 2c be
       0.18968505 0.20389844 0.22378731 -0.16881576
000340 9c 1b 99 bd f4 b1 f4 3e 9b 71 18 be 14 55 60 3e
       -0.07475969 0.47792017 -0.14887087 0.21907455
000350 1e f9 94 3d 2c 03 6c be e7 21 d1 bd 3a 96 ed bc
       0.07274078 -0.23048085 -0.102115445 -0.029002298
000360 e0 db 19 be b0 2b 26 3f 33 ca cf 3e f0 6d 8a be
       -0.15025282 0.6491041 0.40583953 -0.27037
000370 b6 0c 45 3e ab f8 06 3c 8e 37 46 be 54 bc a5 3e
       0.1924313 0.008237998 -0.1935713 0.32370245
000380 78 df a3 be 8f 2a 10 3e 91 13 db 3d a0 e3 a5 3e
       -0.3200643 0.14078735 0.10697091 0.32400227
000390 ca 21 e0 3d f2 b2 24 bd f1 b9 a0 be f6 e8 dc 3e
       0.10943945 -0.040209718 -0.31391862 0.43146485
0003a0 84 5a 05 3e e2 a9 88 be 69 30 7e 3e 6d c6 f4 39
       0.1302281 -0.2669211 0.24823155 0.00046687145
0003b0 05 72 f0 3d 15 69 e1 3d 48 69 53 3e c8 3d 49 bf
       0.117404975 0.11006371 0.2064563 -0.78609896
0003c0 6c 8a 12 3e dc 92 a5 3d fb 94 23 be be 67 ed be
       0.14310616 0.08084652 -0.159748 -0.46368212
0003d0 57 be ec bc c8 b7 63 be ee b4 d9 3d c7 54 b3 be
       -0.028899355 -0.22238076 0.10630213 -0.35025617
0003e0 16 1b 61 3e 6d 13 b3 3e 90 cd ca 3d 51 d1 01 3e
       0.21982989 0.34975758 0.09902489 0.12677504
0003f0 54 d5 39 be f1 a9 45 bf 94 30 d2 be 3d de 09 be
       -0.18147784 -0.77212435 -0.41052687 -0.13463683

gnn_list.1.nn.2.bias f4 [32]
000000 bd 94 91 3d 08 5c e4 bd 14 bb 21 3e 09 7e a8 3d
       0.07108448 -0.11150366 0.15794021 0.08227164
000010 c4 03 9d bd 5c 23 73 bc 01 7e ff 3d 04 29 c1 3c
       -0.07666734 -0.014839973 0.12475205 0.023579128
000020 92 c9 ae bd 04 56 1a be 40 02 1a be 74 99 ed 3d
       -0.0853454 -0.15071875 -0.15039921 0.116015345
000030 0d 81 17 be c2 8c 2e be cb e8 cb bd cc ed cc bd
       -0.14795323 -0.17045882 -0.09956511 -0.10006294
000040 23 4a 04 3d 14 74 3e be 08 71 00 be f1 b0 42 3c
       0.032297265 -0.18598968 -0.12543118 0.011883006
000050 4a 50 2a 3e ab 78 90 3d 7f c0 00 3b 80 a5 bf bd
       0.1663219 0.070542656 0.0019645987 -0.093577385
000060 29 87 65 bc a0 0c 39 3e ad be 84 be 60 55 1c be
       -0.0140092755 0.18071222 -0.25926724 -0.15266943
000070 1b 50 25 3c 40 e2 53 bd 0d 8c b6 bd ce 05 bc 3d
       0.010089899 -0.05172944 -0.08913431 0.09180795

gnn_list.1.nn.3.weight f4 [32]
000000 9a 92 9d 3e f5 3c 0d 3e 43 5c ae 3e b9 63 95 3e
       0.3077591 0.13792785 0.34054765 0.29177645
000010 ff 97 ca 3e 41 e6 a2 3e d4 73 76 3e 2d 89 06 3f
       0.3956909 0.31816295 0.24067622 0.52553064
000020 d7 a6 ff 3e 2d d1 01 3e 83 93 e0 3e 18 70 d1 3e
       0.49931976 0.1267745 0.43862543 0.40905833
000030 82 df d6 3d a8 ac 8a 3e 7c fa b7 3e 2d 6f 5a 3e
       0.104918495 0.2708485 0.35933292 0.21331473
000040 fb 2d 10 3f 4a 88 b7 3e 89 70 88 3e 03 a3 be 3e
       0.5632016 0.35846168 0.26648358 0.37233743
000050 6f 9b 1a 3f c8 55 9e 3e c8 aa 0a 3f 9a f0 d1 3e
       0.6039342 0.3092482 0.5416684 0.41003877
000060 bd 4f cf 3e 53 36 dc 3e b1 29 93 3e b8 cf dc 3d
       0.40490523 0.43010196 0.28742746 0.10781807
000070 c9 f0 75 3e 30 49 92 3e ad 84 f0 3e 0a fc e3 3e
       0.24017633 0.28571463 0.46976224 0.44528228

gnn_list.1.nn.3.bias f4 [32]
000000 54 02 c8 3c ab 19 e2 be 64 83 03 3e 54 90 32 3e
       0.024415173 -0.44160208 0.1284309 0.1743787
000010 74 9b a6 be d3 69 a5 bd cc 33 35 bf e2 ea 9a bd
       -0.32540476 -0.08076825 -0.7078216 -0.075643316
000020 14 5d 7d 3e 24 95 14 bd 36 39 9c bd b0 e1 50 bd
       0.24742538 -0.036275044 -0.076280996 -0.050996482
000030 c1 97 e9 bd b5 a6 96 be 84 a7 55 be f2 be 69 3c
       -0.11405898 -0.29424062 -0.20864683 0.014266716
000040 e4 80 25 be 98 7f 84 be 07 ef 1c bf 91 17 82 3e
       -0.16162449 -0.25878596 -0.61302227 0.25408605
000050 68 93 1b be 3a a0 1a bc db 1a 30 be 31 7a f1 be
       -0.1519295 -0.009437615 -0.17197745 -0.47163537
000060 5f f7 bd bd fb 72 87 3d c5 f9 70 3d c8 5e b0 3e
       -0.09275698 0.06613728 0.05883195 0.34447312
000070 08 24 3a bb 38 73 a9 be 57 0b 5e be ae bb bd bd
       -0.0028402824 -0.33095717 -0.21684013 -0.09264313

gnn_list.1.nn.3.running_mean f4 [32]
000000 96 86 00 c0 3c 3e 3d 41 b8 bb 27 c1 27 92 8c c1
       -2.0082145 11.827694 -10.48333 -17.571363
000010 90 2e c5 c0 f2 f1 ed c1 74 43 dc 41 91 3f a3 c1
       -6.161934 -29.743137 27.532936 -20.406038
000020 9b 5d 22 c2 6c 83 a6 c0 3d 60 b1 c1 11 6f 89 c1
       -40.59141 -5.2035427 -22.171991 -17.179232
000030 e9 43 db c1 d4 ed 08 c2 4e a7 23 42 25 b9 b4 c1
       -27.40816 -34.232254 40.913383 -22.590403
000040 2a af 65 c1 e7 55 4f c1 2d 27 f1 c1 c0 1b 98 c1
       -14.355265 -12.958472 -30.144129 -19.01355
000050 91 bf 2e c2 ae a0 22 3f ed fa 17 c1 6a 5a ae c1
       -43.687077 0.6352643 -9.498761 -21.794147
000060 bc 3d e7 c1 ec 0c 1a c2 8f 12 01 41 c7 f2 e4 41
       -28.905144 -38.51262 8.067031 28.618544
000070 64 c2 e5 c1 bf 6b 42 c1 ab cd ef c1 eb db 40 41
       -28.719917 -12.151305 -29.975424 12.053691

gnn_list.1.nn.3.running_var f4 [32]
000000 24 87 44 44 bc 5a 57 43 5b 2a 63 44 1a f1 c7 43
       786.1116 215.35443 908.6618 399.8836
000010 84 b7 8a 43 4d 02 c6 44 c1 da 92 43 9c f1 64 44
       277.43372 1584.0719 293.709 915.77515
000020 28 65 2a 44 0e 4b cb 43 45 26 1e 44 e7 66 f5 43
       681.58057 406.58636 632.59796 490.80392
000030 2f 34 2a 44 02 92 5b 44 c6 d7 a2 43 85 b9 67 44
       680.81537 878.2814 325.68573 926.89874
000040 af cd a5 43 46 33 71 44 9e f1 10 44 f1 79 53 44
       331.6069 964.80115 579.77527 845.90533
000050 ca 16 b0 43 24 20 86 43 ca 40 d1 43 3f 27 c2 44
       352.17804 268.2511 418.50616 1553.2264
000060 a1 b1 8e 44 30 37 af 44 9e ee 66 44 75 a2 37 44
       1141.5509 1401.7246 923.7284 734.5384
000070 52 2d 63 43 4d 05 1a 44 a2 41 06 45 57 11 cf 43
       227.17703 616.0828 2148.102 414.13547

gnn_list.2.nn.0.weight f4 [16, 32]
000000 d4 42 17 bc e3 0c d5 bd 7a 88 eb bc 36 6a 34 be
       -0.009232242 -0.104028486 -0.0287516 -0.17618641
000010 31 99 25 3e ac 8f ea bc 3e 3e 4c 3d ba 64 e8 bd
       0.16171719 -0.028632961 0.049864046 -0.11347337
000020 4b 43 c0 be 6e bc 28 be 43 dd f3 bc 04 ee 2f 3c
       -0.3755134 -0.1647813 -0.029768592 0.0107379
000030 c0 fd 12 be 0d f0 f3 bc 95 bc 09 be c2 19 48 3d
       -0.1435461 -0.029777551 -0.13450845 0.04885269
000040 56 3e b9 be 56 d5 0c 3d 56 65 40 3e 3d 9c 28 be
       -0.3618037 0.03438314 0.18788657 -0.1646585
000050 a6 61 2b bd 1c 33 75 be cd 2a 1e bd 07 d4 db 3d
       -0.04184117 -0.23945278 -0.038615037 0.107338004
000060 f4 8b 87 be 05 76 b7 be f8 11 4e bd 3d 4c 51 be
       -0.26473963 -0.3583223 -0.050310105 -0.20439239
000070 4b fc c8 bd a1 d9 29 3d d8 fa 38 be dc a8 ad bb
       -0.09813746 0.041467313 -0.1806444 -0.0052996706
000080 66 04 4c be cb 86 0e 3f 5e c4 40 be cf d5 8b bc
       -0.19923553 0.5567443 -0.18824908 -0.017069725
000090 5f 16 a2 3d aa 63 de be 75 50 ae 3d 57 9c fb bd
       0.07914423 -0.43435413 0.0851144 -0.12285679
0000a0 2f 35 4a 3e 42 77 d0 3e d9 ee 1f 3d 0b 57 6e 3e
       0.1974685 0.40715986 0.039046142 0.23275392
0000b0 bb 3d b4 3c 92 3f 14 3d 01 47 9d 3d ba c1 a8 bd
       0.022002092 0.036193438 0.076795585 -0.082400754
0000c0 54 0e 87 3e c0 60 fd 3d 39 1f 9a 3d d1 5f a0 3e
       0.2637812 0.12371969 0.075254865 0.31323102
0000d0 89 3f b7 3e 11 05 0b 3d af a7 60 3e 0f 32 87 3d
       0.3579066 0.03394038 0.21938966 0.06601345
0000e0 e7 fc e7 be 39 f6 ef bd 6a 0d cc 3e a7 69 02 3f
       -0.45310137 -0.11716885 0.39853984 0.5094246
0000f0 8f 3a 5c 3e 1e 77 aa ba f9 f9 c3 3d f4 c8 f4 3d
       0.21506713 -0.001300547 0.09569163 0.11952391
000100 42 c1 77 be 3b fd 8c be 32 1a 98 be 6c 6f d7 be
       -0.24194816 -0.2753695 -0.29707485 -0.42077196
000110 4a d2 89 3b e7 cc 1d bf 50 08 6c be 7d 46 c3 be
       0.0042059766 -0.6164078 -0.23050046 -0.38139716
000120 d6 06 cf 3e 17 22 d1 bc 3f 8b 03 3e 03 9a 80 be
       0.40434903 -0.02552895 0.12846087 -0.25117502
000130 2f b8 1c bf 6d 6e aa bd c6 9a 17 3d c8 39 21 3e
       -0.6121854 -0.08321843 0.037012838 0.15744698
000140 51 4c a7 3e 45 ec ae be 3c 91 28 bd c6 83 d1 be
       0.32675412 -0.34164634 -0.04115413 -0.40920848
000150 1a aa d2 3d 59 89 45 3e a7 34 11 bf d8 65 f9 3d
       0.102863505 0.19290675 -0.56720966 0.12177628
000160 4c 55 5b be e0 12 b3 bc 39 b1 fb bd db f7 40 be
       -0.21419257 -0.021859586 -0.12289662 -0.1884455
000170 a0 a8 25 3d d4 3d c7 bd ed e0 94 be 52 8f b1 bd
       0.040444016 -0.0972859 -0.29077855 -0.08669914
000180 ee 0c 9b be 7e 46 37 be 8e 19 93 be 48 8a 5d be
       -0.30283302 -0.17897984 -0.28730434 -0.21634781
000190 09 41 37 3e e4 35 0d be 7d 71 a8 bd 9a d8 3b 3e
       0.17895903 -0.13790089 -0.08224771 0.18344346
0001a0 9f 2c e7 3e ea 51 a4 bd d8 31 5c bc 0a 63 7b 3c
       0.4515123 -0.08023436 -0.013439618 0.015343437
0001b0 4e 96 c9 3d 34 60 8a 3e ba 8d 88 be 8f ab 3c be
       0.098431215 0.27026522 -0.2667063 -0.1842482
0001c0 d1 e2 a7 be 80 5e a2 3e 61 22 65 3e 27 9c 14 bd
       -0.32790235 0.31712723 0.22376396 -0.03628173
0001d0 b3 ff d5 3e 4b 8a bd be e0 a3 93 3e e7 52 58 3e
       0.41796646 -0.37019572 0.28835964 0.21125375
0001e0 ad 1e 36 bd a7 d1 f2 3e 2b b6 5e bd 39 4b 22 be
       -0.04446285 0.47425577 -0.054372948 -0.15849008
0001f0 d8 c6 b2 bd 22 48 49 be dc d3 b0 bd 31 4a 28 3e
       -0.08729333 -0.19656423 -0.08634159 0.16434552
000200 8f 8f 97 3e 13 b8 a1 bd 93 87 f0 3d 3c cf 17 3f
       0.29601714 -0.078964375 0.11744609 0.5930059
000210 0d 6a 15 3e c9 f5 07 3e b8 cd 84 be b0 dd bd 3d
       0.14591236 0.13277353 -0.259382 0.09270799
000220 ae b7 42 be ce c3 bf 3d ea ab 45 3e 7c 80 4c 3d
       -0.1901538 0.09363519 0.19303861 0.04992722
000230 00 98 a1 3d 21 6f 6c 3e 51 24 ae 3d 41 aa d5 bd
       0.0789032 0.23089267 0.085030206 -0.10432864
000240 1a 34 97 be 8f f4 59 bc 39 51 6a be 48 f8 1a 3f
       -0.29531938 -0.013302936 -0.22882546 0.605351
000250 ba ed 1a bf 87 3f 0c bd 4f 0c 44 be 2e 8c 00 bf
       -0.6051899 -0.034240272 -0.1914532 -0.502139
000260 93 ff 96 be f7 2b 85 3d db 0d 0c 3d 5a 82 f8 3e
       -0.29491863 0.06502526 0.0341929 0.4853695
000270 2a d4 16 3e 84 ca d8 bc 1e c9 fe be 27 97 7c 3e
       0.14729372 -0.026463754 -0.49762815 0.24667035
000280 56 67 26 3f ee 1f 02 3d bb 07 d6 bd b0 bf a2 3e
       0.6500143 0.03176873 -0.10450693 0.3178687
000290 f4 27 45 be 75 07 05 3f 49 48 cf 3d 9e e8 79 3d
       -0.19253522 0.51964504 0.10121209 0.061012857
0002a0 28 19 1e 3e e9 e0 8c bb 6e bc ea 3e 21 a7 20 3f
       0.15439284 -0.0042992723 0.45846885 0.6275502
0002b0 1b 6e 85 3e 42 c9 44 be a0 c3 5f 3e c7 72 0c 3e
       0.26060566 -0.19217399 0.21851969 0.13715659
0002c0 d7 3d 4e be a8 a4 06 3e 71 ce 8d 3d 51 06 13 3f
       -0.20140778 0.13148749 0.06924141 0.57431513
0002d0 bd 6f ce bd ed f2 75 bd e1 c0 30 bf 35 be d1 be
       -0.10079906 -0.060046125 -0.6904431 -0.4096543
0002e0 a1 41 0b 3f a5 cd a1 3e ec 69 ec be cd cd a0 3d
       0.54397017 0.31602207 -0.46174562 0.078517534
0002f0 09 ef 90 3e 2d a6 bc bd ca 8f ac 3d 40 dd 19 3d
       0.2830737 -0.09211383 0.08425863 0.037564516
000300 e9 dd 05 bf 20 30 47 be 09 bf e7 3d 93 02 9a be
       -0.52291733 -0.19451952 0.11315734 -0.3008009
000310 f8 9d 07 bf 8f be b4 bd 70 cd c2 bd ec 5a 79 3e
       -0.52975416 -0.08825409 -0.0951184 0.2435109
000320 99 08 2a 3e f2 3f ea bd 94 f8 11 be 75 e3 0b 3e
       0.16604842 -0.11437978 -0.14254981 0.13660987
000330 ca 2c 00 be 1f 33 b2 be 70 87 b0 bf 16 46 06 3e
       -0.12517086 -0.34804627 -1.3791332 0.13112673
000340 d0 dc b2 3e 00 ec bf 3e 06 07 f7 bc a4 0b d2 bd
       0.34934092 0.3748474 -0.030154716 -0.102561265
000350 ff 4e b0 bd ce 64 60 bd 05 e5 8d 3e 6c 17 0b be
       -0.08608817 -0.054783635 0.2771379 -0.13583153
000360 07 11 c7 bc 1e e6 3b 3e e1 1e 10 3e a9 e9 a2 be
       -0.024300111 0.18349501 0.1407428 -0.31818894
000370 35 40 57 bd 36 79 07 be 40 e1 33 3e f2 e4 83 be
       -0.052551467 -0.13229832 0.17566395 -0.2576061
000380 89 0f 6d bf 41 4c 02 3e 07 84 a6 3e ef 6f 30 bf
       -0.9260183 0.12724401 0.32522604 -0.689208
000390 bf 9c 59 be 50 f9 4b bf 66 6e d0 3d 3e 3a a3 3d
       -0.212512 -0.79677296 0.10177307 0.07970093
0003a0 d2 c3 cc 3d 44 d9 82 3e 65 5f 12 be ff 61 0a bf
       0.09998287 0.25556386 -0.14294203 -0.5405578
0003b0 cc ae e0 bd 0a 7a d9 be 49 75 95 be 38 95 97 3d
       -0.1097084 -0.4247592 -0.29191044 0.07401508
0003c0 89 4f 00 3e 8c a9 2e 3f b6 8e 6e be 39 f3 28 be
       0.1253034 0.6822746 -0.23296627 -0.16499032
0003d0 a5 10 e1 bd c4 8b de 3e 9e fa ae 3e d0 84 49 3e
       -0.10989503 0.43466008 0.3417558 0.1967957
0003e0 fa 88 19 3e 6e 42 2b 3e 1d 0c e4 bc 30 09 20 bf
       0.14993659 0.1672456 -0.027837807 -0.6251402
0003f0 ba 78 38 3d d8 50 4e be d9 33 e9 3e b9 7f d2 be
       0.04503701 -0.20148027 0.4554737 -0.4111307
