model_saved/IMDBMulti/2022-04-04_12-43-12/GSC_GNN_IMDBMulti_checkpoint.pth (torch, 792193 bytes, 65 tensors)

gnn_list.0.nn.0.weight f4 [64, 89]
00000000: 0a21 dcbc 8602 ee3e 9522 d03e d511 4d3d
00000010: 4d23 3f3d dfc9 763e f9bd 44be 09e6 3b3e
00000020: 9f1e 8a3e 1c2f d73c fc08 b83e 9d6e dfbc
00000030: 0e69 cc3d 71fe e6be e3a7 b2be 8de5 913d
00000040: fdeb a23d c688 e1bc 2748 c93d 9a73 13be
00000050: dd65 80be 8113 60bd c918 14be a0f6 843e
00000060: f2b8 e3bb 2523 5e3c 5a5e 183b 57bb 06bd
00000070: 45bf e9bd e379 c13d fd30 e83d 0c22 d3bd
00000080: 058a f93d 6c8d ce3b d529 fd3d bc85 0d3e
00000090: 224b d63c 6e70 7cbd 43b5 0d3e c643 b53d
000000a0: 6951 f33d 86d2 8a3d eb44 7abe adb6 15be
000000b0: 23d0 103c a057 0b3c e4f9 45bc 32b7 273e
000000c0: 3271 46bc 20ae 033d b07f 213e ecf3 1b3c
000000d0: 5727 b63d 2b08 e63d f17f 833d 8675 673d
000000e0: 511c d73d d4b7 2d3d f794 823e 0d34 553d
000000f0: f490 a6bd f55a b8bd fe90 023e 0a1d a2bb
00000100: 026a 993c 97f4 a03d 040c 713d a4b0 babd
00000110: 83f3 b1bd de1a 7e3d 6d20 b4bd 50ba c03d
00000120: 2821 923d 84c3 323d b663 d4bd 9227 853d
00000130: b6df 063e ef80 10bd f3d5 503c 98bd da3c
00000140: 2413 27bd 2e4a 22bd 801d 8e3d de2e a0bb
00000150: b52a a53c 030b a5bc e668 02bc 53bd d83d
00000160: 3c48 e73d 7e07 903d a884 3e3f 1f90 2e3e
00000170: 53e7 acbd ee5e 04bc 6e1e 40be 3890 63bd
00000180: 4044 1fbe 7bb3 683e 5976 a5bc 6c10 f33d
00000190: 25ab 74be 25c8 99bd db64 a8bd 6233 9dbe
000001a0: 130b ea3d e6a2 5abd 034c 02bd bb74 353d
000001b0: d5be 063e 10e0 d5bc 6479 cc3e bfcd f3bd
000001c0: ac96 803e 2459 57bc 3e5a fe3d b046 0c3e
000001d0: 7048 c1be 0143 88bd c963 87bc edc2 dabb
000001e0: a50c 24be 0446 493d 7b47 d8bd 73e2 3f3d
000001f0: 3a8a debc da9e a5be 6e79 6f3e 4057 a7be
00000200: d5e6 bb3d e287 6b3e c85c e03c 7706 25be
00000210: 134b b6bd d27d 443e 9460 523c a04d 9dbd
00000220: ab30 433e b178 c23d a55e 533d 9801 a6bd
00000230: 1c1f 5d3d 50ba 93bd 76fa eebe ad83 c7bd
00000240: 6ccd a23d 41ba 40be f5d5 bb3b c4f1 5abe
00000250: 9dbd bf3c ca6b 3c3d 159e c53d 3eb9 c6bd
00000260: ece8 803d b5f2 a23d 58b3 9a3d b499 bbbd
00000270: 76fc 94bd 07dc c03d 74f9 793c 1028 c63d
00000280: 79e6 513c 95cc 83bd 15ee 873d 9363 b0bd
00000290: 82ac 09bd c781 4dbd 7263 393d f05a 9e3d
000002a0: 1216 863c b0e1 2abb 52eb 8abd 5128 cabd
000002b0: 03dd 0dbb fc5b 5bbc 07f1 19ba bc1a 9bbd
000002c0: 6de5 a5bc 9f5d f9bd 3159 48bd 4a4f 2f3e
000002d0: eb97 d33e 3d57 563d 08fc ae3e 8559 6dbf
000002e0: a467 71be 814f 3a3e 35cb d9bd c065 323e
000002f0: 3bfa 34bf 9e47 40bd 8603 8fbe de8e 67bd
00000300: 609f 71be 681c 74bd 73c0 9a3e 02a9 eb3d
00000310: b82b a9be c0b3 abbd 5d80 50be 054b b2bd
00000320: aa29 f5bc 6aa8 4bbe 4f11 083e c760 0ebe
00000330: 8994 0c3e 1e1b 6ebe 344f bb3c 5bd4 dfbe
00000340: 1863 ecbc b6ee e43d 1cd5 52be f7f5 69be
00000350: 3d4c 833e b60c 343e c5ab ab3d da52 6bbc
00000360: b7e6 813e bbde 96bd 5ac0 81bd ef5b 003b
00000370: ca80 873e c519 36be 006b e83d 3d47 12bd
00000380: b5df b83d ffa8 62bd caeb f8bb a039 143e
00000390: e928 7f3c 4516 67bd 944a 743d 1469 873d
000003a0: 0f3c cfbd 89b6 1c3c dd38 253e 0bed b5bd
000003b0: e122 b6bd 671d ffba b5ac 80bb a1e6 913d
000003c0: 9979 903e fb9e b83d aee2 073d 8277 8ebd
000003d0: ca9a 51bb 4973 9e3c 875c ca3d 7b2c 373d
000003e0: d3e4 75bb 3b09 babd 169f efbc 5503 f83c
000003f0: 848a 503d d727 9fbd bfe4 813d 62e2 9b3d
-0.026871223 0.464863 0.40651384 0.050065834 0.046664525 0.24100445 -0.19213094 0.1834947
0.26976487 0.02626758 0.35944355 -0.027274424 0.09980975 -0.45115998 -0.34893712 0.071238615
0.079551674 -0.027531039 0.09828215 -0.14399567 -0.25077716 -0.0547061 -0.1446258 0.2596941
-0.0069495374 0.013558184 0.0023249597 -0.032893505 -0.11413435 0.09447076 0.11337469 -0.10309228
0.12184528 0.00630348 0.123614945 0.13820547 0.026158873 -0.06163066 0.13838677 0.088508174
0.11880762 0.067784354 -0.24440353 -0.14620467 0.008838686 0.008504778 -0.012083504 0.16378477
-0.012111949 0.03214848 0.15771365 0.009518605 0.08894222 0.11232027 0.06420887 0.056508563
0.10503448 0.04241164 0.25504276 0.052051593 -0.08133116 -0.09001724 0.12750623 -0.0049473094
0.018727306 0.07859152 0.05884935 -0.09115723 -0.08689024 0.06203734 -0.08795247 0.09410536
0.0713523 0.04364349 -0.10370581 0.06501688 0.13171276 -0.03527921 0.012746322 0.026701733
-0.04078974 -0.039621525 0.069392204 -0.0048883995 0.020161966 -0.020146852 -0.00795958 0.10582986
0.112930745 0.07032679 0.7442117 0.17047165 -0.08442559 -0.008079274 -0.18761608 -0.05555746
-0.15553379 0.22724716 -0.020198034 0.118683666 -0.23893411 -0.07508878 -0.08222362 -0.30703264
0.114278935 -0.05337801 -0.03181077 0.044300776 0.13158734 -0.026107818 0.39936364 -0.11904477
0.25114954 -0.013143811 0.12419556 0.1369884 -0.37750578 -0.06653405 -0.016527073 -0.006676069
-0.16020449 0.049139038 -0.10560509 0.04684682 -0.027165521 -0.32347757 0.23386165 -0.32683754
0.09174887 0.23001054 0.027387992 -0.16115747 -0.08901038 0.19188622 0.012840409 -0.076808214
0.19061534 0.09495676 0.051603932 -0.08105773 0.053984746 -0.07213271 -0.46675462 -0.09741912
0.07949337 -0.1882105 0.005732293 -0.21381289 0.023405844 0.046001233 0.096492924 -0.09703301
0.06294426 0.07956449 0.07553738 -0.09160176 -0.072747156 0.09416967 0.015257228 0.0967561
0.012811297 -0.06435505 0.066372074 -0.08612742 -0.033611782 -0.050172593 0.045260854 0.07732189
0.016367946 -0.0026074462 -0.06783165 -0.09870971 -0.0021646626 -0.01338863 -0.00058724027 -0.075734586
-0.020251 -0.1217606 -0.048913185 0.1712009 0.41326842 0.05232929 0.3417666 -0.9271472
-0.23574692 0.18194391 -0.10634462 0.17421627 -0.7069432 -0.0469433 -0.27932376 -0.056532733
-0.23595953 -0.059597403 0.30224952 0.11506845 -0.33041167 -0.08383894 -0.20361467 -0.08705715
-0.029927094 -0.19888464 0.13287853 -0.13904105 0.13728537 -0.23252532 0.022864915 -0.43716702
-0.028855845 0.11178343 -0.20589107 -0.22847734 0.25644103 0.17582974 0.08382372 -0.014363015
0.25371334 -0.07366701 -0.06335516 0.0019586047 0.26465446 -0.17783268 0.11348534 -0.03571247
0.09027044 -0.05533695 -0.0075964676 0.14475107 0.015573719 -0.056417722 0.059641436 0.06611839
-0.10118877 0.009565004 0.16134973 -0.08883103 -0.088933714 -0.0019463719 -0.0039268383 0.07124067
0.28217772 0.09014698 0.033175163 -0.06956388 -0.003198313 0.019342082 0.098809294 0.044720154
-0.0037520423 -0.09083792 -0.029250663 0.030275026 0.05091335 -0.07771271 0.06342458 0.076115385

gnn_list.0.nn.0.bias f4 [64]
00000000: a63c 35bc 0d8b 84bc 30b6 973e fcbb 39bd
00000010: 9414 90bb b9a9 2fbd c530 433e 139c 0abe
00000020: 7f85 913e b82b b33d 81df 2d3d 3fea 063d
00000030: 7dd5 483e 53bd dc3d 3bb6 493e a875 d93d
00000040: 20c5 8dbc 1c1e 203d 496e c2bc b9ae 2abe
00000050: 92a0 773e 52a2 d23d da08 1b3e f86b ae3d
00000060: fbe8 27be e94a 4ebe 023f 513d 9450 003d
00000070: 3ea7 c1bd 6632 e63d 4014 5c3e e7d3 5c3e
00000080: dfee b1bc fbdd fd3d 8a12 e5bd abe9 93bd
00000090: 1c12 8d3e 0060 52be ff2a 60bd 0550 b23c
000000a0: 1d1b 6cbd 950d 07be 5c1c 46bd e4d5 dabc
000000b0: ebb5 ffba dfe1 3fbe 1316 53bd b991 953d
000000c0: 3db2 07be 8662 c2be bf86 103e 73e0 58be
000000d0: 239f 3c3e a783 4fbe c0c3 e8b9 67ef 6fbc
000000e0: f409 3c3c 820a 03be 2f25 dabd d8be 523d
000000f0: 46e0 473e 1340 b2bd 8bbb 2e3e 768e 5dbe
-0.011061823 -0.016179586 0.29631186 -0.04534529 -0.0043969844 -0.04288647 0.19061573 -0.135361
0.28422162 0.08748573 0.042449478 0.03293824 0.1961269 0.10778298 0.19698422 0.10618144
-0.01730591 0.039091215 -0.023734229 -0.16668214 0.24182346 0.102848664 0.15140095 0.08516687
-0.16397469 -0.20145763 0.05108548 0.031326845 -0.09455727 0.112400815 0.214921 0.2156521
-0.021720348 0.12395855 -0.11185177 -0.07222303 0.2755288 -0.20544434 -0.054728504 0.021766672
-0.057643045 -0.13188775 -0.04836689 -0.02671332 -0.0019509172 -0.18738507 -0.051534723 0.07303185
-0.13251586 -0.37965792 0.14113902 -0.2117937 0.18420081 -0.20265065 -0.00044396333 -0.01464448
0.011476982 -0.12796977 -0.106516235 0.051451534 0.19519147 -0.087036274 0.1706373 -0.21636376

gnn_list.0.nn.2.weight f4 [64, 64]
00000000: df54 aa3d 8238 df3c 89c5 c4be dfa8 98bd
00000010: aba2 4b3e a7e7 153e 412c 21bd 4523 933d
00000020: e47d 3fbe 5c9a 0bbe 9d90 7abd 60a3 0cbe
00000030: 8881 81bc e26f 823d 590b 5c3c f1b4 87be
00000040: 581a 903e 928d 993e 9919 e2bd 1bfc 423c
00000050: 0c5f f43c 0f35 75be f060 123e 9988 babc
00000060: 1465 453d 523f 1dbe 19e4 c4bd 9331 8d3e
00000070: aa73 b3bd 41da c53d f3fd 0b3e 36a0 2cbe
00000080: 8c67 0cbd 96e0 cfbc eb2e 3d3e 2b6d 2fbe
00000090: adc7 9e3c 783b 0f3e 1632 6dbe e3da 663d
000000a0: 4a11 933e 410e 8fbe 7a9f de3d a990 843e
000000b0: e25d 893d ecdd 023d 61ae aabe ee1e 9bbe
000000c0: dab9 0c3e c7a4 8e3d 4f62 1bbd 5c82 1cbe
000000d0: a9c7 2b3b 1f09 91bd c83d 82bd a826 9bbc
000000e0: eaea ad3e 7dac c73d f9e5 b7be 7490 af3d
000000f0: 0af2 e7bd ecaa efbe f6fc e3bd 972a 68bc
00000100: d69e 293d c4e1 06bd bb0d 073e 11af a33e
00000110: 6803 89bc 9380 3fbe d096 8c3e bcc6 d43c
00000120: a2f8 e6ba 7f57 8a3e 01c1 58be 2a3d 37be
00000130: a987 6b3e 90cb ef3d eb1e ab3e fbdc 243e
00000140: 7ab8 1d3d 19e5 e7bd be82 5a3c 3867 ffbb
00000150: 02c3 3abe 2f80 c53e 9ea5 b7bc 20e1 603d
00000160: a5db 9f3d fcae a2bc 80f0 15be 7406 4dbe
00000170: b2f5 023e 7d10 b73d 2ecf 7c3e ec10 f63d
00000180: b73a 0d3d ebb0 053e faeb c6be 3f36 4e3d
00000190: 0738 debe 5098 193e 4779 043e ac27 923a
000001a0: 077c 7e3d 081f 983d a821 c03c 8c45 3bbe
000001b0: 6e2b 70be bec8 d33d eca6 063d 79db f3be
000001c0: 6632 2a3d f8af abbd 9df7 943b 69b3 313e
000001d0: fb15 1dbe a95e 21be 90b2 b3bd 7d51 6c3e
000001e0: ccb9 0e3c 7734 c8bd abd7 ce3e 343c 1ebd
000001f0: 5de4 0f3e 90a9 8dbd 97ce 8ebd 6099 99bd
00000200: b485 92bd c6d4 9a3c 841c 5d3d 67fc d5bd
00000210: d5b0 85be db99 85be 406a 29be c16d 31be
00000220: 5811 2a3d 0f56 b0be 51ce c1bd bc71 dcbd
00000230: 5427 5e3e 912d 6a3e 127e e73d 1974 3fbe
00000240: d2dd 94bd aeda acbd 5ff3 90be be81 203d
00000250: e5a7 aebd 583b 58bd 78eb 4b3d fefb 8b3c
00000260: 2100 4bbd 1a7d cb3c d2fd 003e 4e2d 0cbe
00000270: b39c 29bd 6e9d 04bd 900c 05be 26b8 19be
00000280: 2b3d 583e 810e cdbd f4ee 86be ac3d c0bc
00000290: 2e3d 883d 9032 e5ba 95a4 c3bd fe22 1dbd
000002a0: 5f60 3dbe 792e 153e e391 b6be d495 45be
000002b0: 51c1 16be 7583 6ebd 1de1 8a3e 610a 413d
000002c0: 1aa5 7dbe 3332 c1bc 773f d33e 609f 263e
000002d0: bb14 ad3e b42f babd 64ae 0f3f 193a 51be
000002e0: f45d 01bd 8920 513d f9a8 f8bc e6f9 473e
000002f0: 5a93 afbd cd6a 333d b893 413d 0a28 6fbd
00000300: 4c6d 99be b0af 1ebe cc02 573e 6681 de3c
00000310: 2582 7b3e 9ea0 823e 0354 0e3d 0881 aebe
00000320: 269c 873e 9cb3 d83c 345a 8a3e 84a2 92bb
00000330: 5e6d 4e3e deb6 77be 163a 89bd 3163 5fbd
00000340: a6b8 80be 9783 9bbd c09a bbbc 13cd 393c
00000350: de23 8ebe 3ce3 133e ef5f a63d 0739 27bd
00000360: f04b 42be 8522 bebe e4e1 f83d b756 37be
00000370: c665 9abd 5d30 cfbd c20d 48be c091 b43d
00000380: f044 923e 09ee 2e3e 7703 b33c 33a2 c63d
00000390: 240b a1be 9ac7 e03d 124f b23d c815 9a3d
000003a0: 9f8f b9bd 89ce 51be 16df 4fbe c3d0 493e
000003b0: d7d8 9cbd eb38 7abe c6b3 46be 3815 6339
000003c0: 857c a6bc 7003 923c fb7b 5a3e 61d4 a6be
000003d0: 65aa 22be 7805 52be f2d3 403e 71eb 903e
000003e0: 80c5 d1be b3cc 12be a1a1 7ebd 9492 2abe
000003f0: 2c25 2abe 6d6a 6bbe e0bd 5f3d 727f d2be
0.08316969 0.027248625 -0.38431957 -0.074540846 0.19886272 0.1463915 -0.039348844 0.071844615
-0.18700367 -0.13633102 -0.06117307 -0.13734198 -0.015808836 0.06368996 0.01343044 -0.26505235
0.281451 0.29990822 -0.110400386 0.011900927 0.029830478 -0.23946021 0.14294791 -0.022770213
0.0481921 -0.15356186 -0.09613819 0.27576885 -0.087622955 0.09660769 0.13671093 -0.1685799
-0.034278437 -0.025375646 0.18474929 -0.17131488 0.019382322 0.1398753 -0.23163638 0.05636109
0.28724128 -0.27940562 0.108702615 0.25891617 0.0670736 0.031949922 -0.33336166 -0.30297035
0.13742772 0.069650225 -0.03793555 -0.15284103 0.0026211536 -0.07081818 -0.0635944 -0.018939331
0.33968288 0.097496964 -0.35917643 0.08572474 -0.11325462 -0.4681009 -0.11132233 -0.01417031
0.041411243 -0.03293015 0.13188832 0.31969503 -0.016725257 -0.18701391 0.2745881 0.02597367
-0.0017621706 0.2701988 -0.21167375 -0.17894426 0.23000969 0.11708748 0.33422026 0.16099922
0.03850601 -0.11322994 0.013336835 -0.007794287 -0.18238452 0.3857436 -0.02241784 0.054902196
0.07805566 -0.01985883 -0.14642525 -0.20021993 0.12789038 0.08938692 0.24688408 0.12014946
0.034479823 0.1305577 -0.3885191 0.0503447 -0.4340212 0.14999509 0.12936889 0.0011150739
0.06213 0.07427794 0.023453549 -0.18288249 -0.23454067 0.10341023 0.032874033 -0.47628382
0.04155197 -0.08383173 0.0045461194 0.17353596 -0.15340416 -0.15758766 -0.087742925 0.2307796
0.00871129 -0.09775632 0.40398917 -0.038631633 0.14051957 -0.06917107 -0.06972998 -0.07499957
-0.07154408 0.018900286 0.053982273 -0.104485326 -0.26111475 -0.26093945 -0.16544437 -0.17327024
0.041520447 -0.34440657 -0.0946318 -0.107638806 0.2169469 0.22868945 0.11303343 -0.18696631
-0.07268871 -0.08440147 -0.28310677 0.03918623 -0.08528117 -0.05279097 0.049785107 0.017087933
-0.04956067 0.024839927 0.12596825 -0.13689157 -0.041409206 -0.0323767 -0.12993073 -0.15011653
0.21117084 -0.10012532 -0.26354182 -0.023466907 0.06652294 -0.0017486382 -0.09552876 -0.03836345
-0.18493794 0.14568509 -0.35658178 -0.19295436 -0.14722182 -0.058230836 0.27124873 0.04712904
-0.24770012 -0.023583507 0.41259357 0.16271734 0.3380488 -0.0909113 0.56125474 -0.20432319
-0.03158374 0.05105642 -0.03035401 0.19528922 -0.08573027 0.043803025 0.047260016 -0.058387794
-0.299662 -0.15496707 0.2099716 0.027161311 0.24561365 0.25513166 0.03474809 -0.34082818
0.2648632 0.026452832 0.27021945 -0.00447494 0.20158908 -0.24190852 -0.06700532 -0.054537956
-0.25140876 -0.07593458 -0.022900939 0.011340397 -0.2776174 0.14442152 0.08123767 -0.04082587
-0.1897428 -0.3713571 0.1215246 -0.17904173 -0.07538943 -0.101166464 -0.19536498 0.08816862
0.2856822 0.1708299 0.021852238 0.09698906 -0.31453812 0.10975571 0.08706488 0.07523686
-0.09060597 -0.20488943 -0.20299944 0.19708543 -0.076585464 -0.24435775 -0.19404516 0.00021656312
-0.020323047 0.017823905 0.21336357 -0.32583907 -0.15885313 -0.20509899 0.1883085 0.28304628
-0.40970993 -0.14335899 -0.06216586 -0.16657478 -0.16615742 -0.22989817 0.05462444 -0.41112858

gnn_list.0.nn.2.bias f4 [64]
00000000: 2026 ca3d cb53 cc3d 70dd 5c3e 9e96 4a3d
00000010: 455d c33d 9e5c a2bc 98b9 b0bd 7ad5 3c3e
00000020: ec9f 223c caa3 3fbe a31c a3bd dc04 83bd
00000030: 7586 833d 9bcd 883b 9e82 61bd c55f f43d
00000040: d3d7 5d3d 7b43 f93c 1cde ab3d d29d ba3d
00000050: 71ce 933d 7109 b33c ce42 683e 954c 1dbc
00000060: 757e 8f3d 7997 eabd f41c 953e c0f7 14be
00000070: 77e1 253e ac9f 3a3e 9c20 7abd a179 ff3d
00000080: 9bdb 0a3e 1155 dabc f92a 4a3c fd3e 3dbc
00000090: c111 5b3d 3589 2abd a2f2 223e 53c1 babd
000000a0: 322d a53c c56b bcbd 13a3 a83c b778 71bd
000000b0: ba19 b83d 1d23 98bd 828c 383d d4c5 753e
000000c0: f3a9 c73d 962e 3b3e 048d 403c e76c f33d
000000d0: 011e 873e 0f54 d5bc f86c dcbd e30a f33d
000000e0: 4a63 d3bd f68f bf3d 8fea 0ebe 56dc 91bd
000000f0: 8214 2c3c 0365 2b3e 9a6a 513d 0bc5 203e
0.09870553 0.0997692 0.21568847 0.049460046 0.09539274 -0.019819554 -0.08629149 0.1844081
0.009925824 -0.18714824 -0.079644464 -0.06397411 0.0642213 0.0041749007 -0.055056207 0.11932329
0.054160904 0.030427685 0.083919734 0.09112133 0.0721711 0.021855088 0.22681734 -0.009600778
0.07006542 -0.11454672 0.29123652 -0.14547634 0.1619929 0.18224972 -0.061066255 0.12474371
0.13560335 -0.026651891 0.012339347 -0.011550662 0.05348373 -0.041634757 0.1591287 -0.09118905
0.020163152 -0.09200243 0.020585572 -0.058953013 0.08989282 -0.07428572 0.045055874 0.24001247
0.09749212 0.1827949 0.011752371 0.11886006 0.2639008 -0.026041059 -0.10762972 0.11867311
-0.10321672 0.0935363 -0.13956665 -0.07122104 0.010502936 0.16737752 0.051127054 0.15700166

gnn_list.0.nn.3.weight f4 [64]
00000000: 7d42 643f b09e 9e3f 5df6 8b3f 0bbe 6f3f
00000010: c89a 593f e16e 843f 4846 5a3f 2389 943f
00000020: 2037 6a3f 8da5 1e3f 32d3 613f c496 7d3f
00000030: 9998 8a3f abfb 6a3f 0524 793f c9ec 503f
00000040: 14a9 7d3f e21e 833f 00e5 953f 72fe 843f
00000050: a758 9a3f 32a3 2f3f f3ff 5d3f 9e28 933f
00000060: 8b95 8c3f 58bb 7f3f 1490 863f ae37 8f3f
00000070: 9e20 843f b10f 733f c9d7 6e3f 5149 8f3f
00000080: b0b4 7b3f e65a 913f c1ee 663f 73ce a93f
00000090: 4975 773f a64e 6e3f e15c 913f 4946 843f
000000a0: 80d3 923f 22ca 7a3f a03a 7d3f 3bb0 a83f
000000b0: 162d 993f b49c 7d3f 11a3 363f c872 813f
000000c0: d8a3 683f 19cb 5d3f ab7a 893f 2e09 703f
000000d0: 45da a73f 73ef 913f b90f 943f 8cba 883f
000000e0: 7347 5e3f aeaf 9a3f c701 953f 1c37 843f
000000f0: 0730 603f 64e3 533f 3b85 493f bc31 a73f
0.89163953 1.2392178 1.0934559 0.9364936 0.850018 1.0346338 0.8526349 1.1604351
0.91490364 0.6197136 0.88212883 0.99058175 1.0827819 0.91790265 0.97320586 0.81611305
0.9908612 1.02438 1.171051 1.039015 1.2058305 0.6860839 0.8671867 1.149677
1.0983137 0.9989524 1.0512719 1.1188867 1.0322454 0.9494582 0.9329801 1.1194249
0.9832258 1.1355865 0.9020806 1.3266128 0.9666334 0.9308876 1.1356469 1.0333949
1.1470795 0.9796468 0.9891758 1.3178781 1.1966884 0.99067235 0.7134257 1.0113153
0.90875006 0.8663803 1.074056 0.9376401 1.3113486 1.1401199 1.1567298 1.068193
0.8682777 1.2084863 1.1641167 1.0329318 0.87573284 0.82768846 0.7871892 1.3062053

gnn_list.0.nn.3.bias f4 [64]
00000000: 97d3 efba a04c c53e f26f 9dbd f50b 26bd
00000010: 5349 2abe 5b2a 2dbe 2888 b7bd 9ed7 973e
00000020: 1baa 923d 6cb9 a4be d9c6 edbd a5f6 3bbe
00000030: 324c 563e 5a8d 8fbe 4004 26be 8621 14bc
00000040: 230e ecbd ad2f 44be 7549 353e 1761 803e
00000050: f48e 71bd 447d 81be dc73 2f3e a76d a33d
00000060: a8af f23d 964f 00bc 0f84 3e3b 1b45 80bb
00000070: 4c19 a0bd 5597 e6bc 9101 59bd 1787 873d
00000080: 8350 afbd 58ce 533e c430 a4bd bf20 b23d
00000090: 71fd f33c cad3 393e c66f e5bc b2cc 9a3c
000000a0: ed7f 233e c3dc 363e 2227 c53d 72d5 9b3d
000000b0: 03a9 5d3e ed7d 37bd a6ca cbbd 7205 e73d
000000c0: e1d7 683e ae2c 9a3d 0ab6 f53d 7157 99bc
000000d0: a75a 0c3e b686 6bbd eac6 f13e 3e12 a23d
000000e0: 5975 afba fdeb 823e 9e36 843b 0e70 e0bd
000000f0: 2ad2 1abe d276 8dbd 6ad6 e6bd e9fe ee3e
-0.0018297312 0.38535023 -0.076873675 -0.040538747 -0.16629533 -0.16910689 -0.089615166 0.2965669
0.07161351 -0.32172716 -0.11610193 -0.18355806 0.20927504 -0.2803753 -0.16212559 -0.009041196
-0.11526134 -0.19158812 0.17703803 0.25074074 -0.05897422 -0.25290883 0.1713404 0.07979899
0.1184991 -0.007831475 0.0029070412 -0.003914488 -0.07817325 -0.028148333 -0.05298001 0.06617563
-0.08560278 0.20684183 -0.08017114 0.08697652 0.029783936 0.18147197 -0.0280074 0.018896434
0.15966769 0.17857651 0.096266046 0.07609071 0.21646504 -0.044797827 -0.099507615 0.112803355
0.22738601 0.07528053 0.11997612 -0.018718453 0.13706456 -0.057501517 0.47222072 0.07913636
-0.0013386413 0.2557067 0.004034831 -0.10958873 -0.15119234 -0.06907429 -0.11271365 0.46678856

gnn_list.0.nn.3.running_mean f4 [64]
00000000: f285 c1be b982 ca3f f2de f0be 8a1b bfbf
00000010: 7815 b53f e5bd 5b3f 0098 3c40 63ea 67bf
00000020: e5cb 9cbf 35e4 56be 2e7d 053f 3a99 a63e
00000030: 867f 33bf cbfa 3940 9c3a 0b3e 1742 e13f
00000040: eb9f d3bf ca07 f93f 0362 7bbe 7540 a2bf
00000050: 613d 133f 0bd0 1fbf f331 c2bf b5bf 983f
00000060: a1be f1bf 5f6d 77c0 0674 a5c0 16e6 f93f
00000070: 6118 3ebe ba2c 62c0 08ef b1bf 68b1 2cc0
00000080: eaf5 c0bf a4d3 13c0 ec5d a7bf f53c 7140
00000090: 4d62 4fc0 72e3 84c0 4f8d 6040 35c6 08c0
000000a0: 60c1 debf dd72 9fbe 5719 d53f 8687 a9bf
000000b0: a4d3 1cc0 6cdd a03f 7006 92bd d9f4 13c0
000000c0: 75e2 51bf a7b6 11bf b8e5 09bf 1634 0340
000000d0: 6233 993f 966d 9e3e c2ca 83c0 45f5 3abf
000000e0: 6ead 0740 c414 7cbe 879d b03f a0bd c640
000000f0: 3c2d c83f d026 e3bf 1b0d 87bf d334 17bf
-0.37797505 1.5821143 -0.47045094 -1.4930279 1.4147177 0.8583663 2.9467773 -0.9059202
-1.2249724 -0.20985492 0.52144134 0.32538778 -0.7011646 2.9059322 0.13596576 1.7598294
-1.6533178 1.9455502 -0.24549107 -1.2675921 0.5751553 -0.62426823 -1.5171493 1.1933504
-1.88863 -3.8660505 -5.170413 1.9523342 -0.18563987 -3.53398 -1.3901072 -2.698328
-1.5075047 -2.3097925 -1.3075538 3.7693455 -3.2403748 -4.1527643 3.5086248 -2.1370976
-1.7402763 -0.3114232 1.6648358 -1.3244483 -2.4504175 1.2567573 -0.07130134 -2.3118193
-0.8198617 -0.5691933 -0.5386615 2.050054 1.1968806 0.30942982 -4.1185007 -0.730305
2.1199603 -0.24617296 1.3798074 6.2106476 1.5638804 -1.774622 -1.0550874 -0.5906498

gnn_list.0.nn.3.running_var f4 [64]
00000000: ecf1 1441 c23a 2b41 3a40 0c41 7e3e 0241
00000010: 656f 2b41 8b84 d440 98c9 2d41 cf3e de40
00000020: e545 3c41 5a82 4b41 5fec e240 9eb8 0541
00000030: 8ee5 2041 d5fa c640 c7f0 f640 5991 3241
00000040: 8513 0541 d435 e040 3478 9540 fa83 1641
00000050: d105 0041 4d1e ef40 4bf5 b240 4fc9 ff40
00000060: a15c ea40 1b4b 1441 df09 cb40 3bf7 1941
00000070: d8c5 6540 c411 b640 8128 1e41 0d68 8141
00000080: 97b5 1441 b117 0e41 7fe2 db40 cc87 0341
00000090: c9be 0241 0fef 1e41 583a e340 20ce 0b41
000000a0: 4779 1941 a1cd c340 51c4 dd40 c785 a240
000000b0: 08c3 ad40 5886 1941 29d7 0b41 4253 4f41
000000c0: f3e9 1f41 7dfe 2d41 11eb 2641 fbbc f940
000000d0: 05f1 9f40 19ae 1541 7bde bc40 58a0 7d41
000000e0: 76e1 1141 fb08 1c41 b7fb 2541 0c6b 2641
000000f0: 6bb7 e140 ff04 0c41 a0c2 0f41 aab7 1c41
9.309063 10.701845 8.76568 8.140257 10.714696 6.6411796 10.861717 6.945167
11.767064 12.719324 7.091354 8.357573 10.056044 6.218119 7.716892 11.160485
8.3172655 7.006571 4.670923 9.407221 8.00142 7.472449 5.592443 7.993324
7.3238072 9.268336 6.344955 9.622859 3.5902004 5.6896687 9.884889 16.175806
9.294333 8.880784 6.8713984 8.220654 8.171578 9.933364 7.100872 8.7378235
9.592109 6.118851 6.9302144 5.0788302 5.4300575 9.595299 8.740029 12.957827
9.9946165 10.874631 10.432389 7.804319 4.9981713 9.355004 5.9021583 15.851646
9.117544 9.7521925 10.373954 10.4011345 7.05364 8.75122 8.985016 9.79484

gnn_list.1.nn.0.weight f4 [32, 64]
00000000: 72d1 92be 4ce3 be3d 726b 7a3e a0ec c3be
00000010: cb2f 373e dc20 cebe e540 51be 94e6 273e
00000020: 6807 83be ec8b 9c3e 4ae1 04be 980f 8dbe
00000030: eb60 a6be 645c 28bd 88c1 173e 1854 b13d
00000040: a110 ddbe 8562 9fbd 84cb 30bf e82e e03e
00000050: 302b 333e 521b b2be 4e3c a23e e54f 853d
00000060: 7d0e b7be d512 f53e 2602 503e 5458 4cbb
00000070: 9b8b dc3e a719 eebe 5077 2d3e e323 9a3e
00000080: 8918 d1bb 7098 9dbd 80c0 29be 0505 18be
00000090: 2ab0 0b3e ce1c 503e 4b58 a8be 37e8 863e
000000a0: 0b8b 7abe fe0c 663e b631 573e 111b 34be
000000b0: 978f 7a3e 49a2 913d 124f 46be 5811 aa3c
000000c0: 3e5e e7bd b6ec 003e d7d8 bbbd cc24 0c3d
000000d0: 4db5 61be 0068 c7be e590 223e 9e1d 36be
000000e0: 02e6 6b3d 0653 2d3e 910b a4bc 2da2 95be
000000f0: cfd5 273e 5f55 a3bc 2bd6 b8be 9e73 fe3d
00000100: 3e04 ca3d e4f3 3bbe f27c d53e 7430 0dbe
00000110: bbb8 c0bd aaae c9be 2c76 98bc d45b a53e
00000120: 1e26 e9bd 0ca1 6cbe ef8a f9bd 48d9 bebd
00000130: 4619 663e da88 9cbe 4425 173e 1250 debd
00000140: 99cc 1c3d be83 85bc 685f 493d 35c5 373e
00000150: 64e2 43bd 0c41 7f3d 536a bfbe 7244 ccbd
00000160: c3fb eabc df8e 7d3e f99e 403e 5a7b 8dbd
00000170: 1560 2bbc 50d4 af3e 0164 b13c fe5e c0bd
00000180: ff94 afbd 67a4 903e 2783 4bbe 9ec9 6ebd
00000190: e017 be3d 3ba4 e73d 125d 4cbc 17d6 8abd
000001a0: 9f7d 38bc 597a 18bf d5ab 01be a264 59bd
000001b0: 9ae9 0cbe 32fa 8fbd 93fa 57be cf96 e73d
000001c0: eb1b dbbd b751 9d3d 7bfb 773e b1fa 5b3d
000001d0: 52c7 093f 83b8 04be 1c9a 33be 58cc 033e
000001e0: 6c5d 643e b7f1 903d c8b1 513d a265 e5be
000001f0: 8a6e 36bd 0f21 cabd 3eed d6bc 9060 b53d
00000200: a399 e53c f53f 8f3d d4e2 fd3d ec16 e23e
00000210: 8c5e 3bbe aeb2 163e b90b cb3c 5e99 07bf
00000220: c65a 703e a6be 293c e0c0 7abe 4a67 4dbe
00000230: 8e17 0dbc c8ba dcbe 3c00 03be c090 17be
00000240: 1617 ecbd b9cf 0ebe 192b 303e a8a1 50be
00000250: 76de a7bd 8483 8dbe ab89 8cbe a30c c3bd
00000260: ee7e a23e b119 c4be ef53 583e 4be5 9e3e
00000270: 1e3e ffbe d158 2b3e f302 ae39 a76e 403e
00000280: f86f ed3d 3c91 58be 6df2 c13e 9bfe af3d
00000290: 0ab8 10be 66c6 f13e 1e3c 84bd 1952 54bd
000002a0: df82 c83e e7ef 93bd 1cfa 5abd 58d5 893e
000002b0: b748 fa3d 0ed2 13be bb11 463e f44d 72be
000002c0: ebef cf3d a2aa 123d c506 593e 72da 3bbd
000002d0: ea35 30be e468 51be 66c9 3bbd bcdf 6d3d
000002e0: faa1 293c 2acb 77be 86eb 83be 28ed 1dbe
000002f0: 2b80 1ebd 1804 453e 3845 ec3e 737a f83d
00000300: dedc 04bc 7a3b f33d 43d8 1f3e 0584 9b3e
00000310: 35b5 433e 2577 88be 0c30 58bd baf6 823e
00000320: 13db 6e3e 94d3 fdbd 8407 d63d 1985 82bd
00000330: 34cf 3d3d a3c2 22be f8fa 933e 5548 d33c
00000340: e42e 7cbe 3f09 663d cc45 e43d aee6 21bc
00000350: 17d3 c3bd 5b3f 35bd 6c03 413e 3d9c 21be
00000360: c1fe 4b3e 9907 b73e ae45 3b3e 4202 853e
00000370: 0948 aa3c 3ad8 da3e ff4f 87bd bfc3 27be
00000380: af7b 703d cddb 953d cc57 3a3e 00d9 7c3c
00000390: e5d9 973e e3e1 723e 4203 bbbd f630 86be
000003a0: 74f8 4f3e fcee dd3e d938 25be cfa6 2ebe
000003b0: f6ee ee3e 08d6 b0bd 720f 6bbc 34c6 f1bd
000003c0: 66c3 aa3e b69d 663e 231a 743e a736 9e3d
000003d0: 6503 27be 406c a1bc 4b35 ea3e 0c4d 283d
000003e0: 0b6c 2c3e 5eb7 073e 6684 1dbe a571 d7bc
000003f0: 6ff8 de3b f514 fe3d 754e 283e 4ec4 e03e
-0.2867542 0.09320697 0.2445505 -0.38266468 0.17889325 -0.40259445 -0.20434912 0.16396552
-0.25591588 0.30575502 -0.12976566 -0.2755096 -0.32495818 -0.041103736 0.1481992 0.08658618
-0.4317675 -0.07782463 -0.6906054 0.43785787 0.17496943 -0.3478647 0.31686634 0.06509379
-0.3575324 0.4786593 0.2031332 -0.0031180577 0.4307526 -0.46503946 0.16940045 0.30105504
-0.0063810986 -0.07695091 -0.16577339 -0.14845665 0.1364142 0.20323488 -0.32879862 0.2634904
-0.24467103 0.22465894 0.21015057 -0.1758845 0.24468838 0.071110316 -0.193661 0.020760223
-0.11297272 0.12590298 -0.09172218 0.03421478 -0.22041817 -0.38946533 0.15875585 -0.17784736
0.0575924 0.16926202 -0.020025047 -0.29225293 0.16390155 -0.019938169 -0.36100897 0.12424396
0.098640904 -0.18354756 0.41696888 -0.13788015 -0.094102345 -0.3939107 -0.018611036 0.32296622
-0.113842234 -0.2310831 -0.121847026 -0.09318787 0.22470579 -0.3057316 0.1476031 -0.10855116
0.038281057 -0.016298171 0.049163252 0.17946322 -0.047823325 0.062317893 -0.37385806 -0.099739924
-0.028684502 0.24761532 0.18810643 -0.06908293 -0.010459919 0.3434167 0.02165413 -0.09393118
-0.085733406 0.2825043 -0.1987425 -0.058297746 0.092818975 0.11310621 -0.012473362 -0.06779116
-0.011260419 -0.5956169 -0.12663205 -0.053074487 -0.13760987 -0.07030143 -0.2109168 0.11308061
-0.10698684 0.076816015 0.24217026 0.053705875 0.53819764 -0.1296101 -0.17539257 0.1287092
0.22301263 0.070773534 0.051194936 -0.44804102 -0.044539012 -0.09869587 -0.026236173 0.088563085
0.028027361 0.06994621 0.1239678 0.44158113 -0.18297786 0.14716598 0.024785863 -0.52968395
0.23472127 0.010360396 -0.24487638 -0.20058933 -0.008611573 -0.43111253 -0.12793058 -0.14801311
-0.11527841 -0.13946427 0.1720394 -0.20374167 -0.08196728 -0.276394 -0.27448782 -0.09523895
0.31737465 -0.3830085 0.21125768 0.31034312 -0.4985208 0.167331 0.00033190064 0.1879221
0.11593622 -0.21149153 0.3788027 0.08593484 -0.14132705 0.47221678 -0.06456779 -0.051836107
0.39162347 -0.07223492 -0.05346118 0.2692058 0.122209005 -0.14435598 0.19342701 -0.2366255
0.101531826 0.03580726 0.21193989 -0.045862623 -0.17208067 -0.20450169 -0.045846365 0.058074698
0.01035356 -0.24198595 -0.25765628 -0.15422499 -0.03869645 0.19239843 0.4614656 0.1213273
-0.0081092995 0.11876579 0.15609841 0.3037416 0.19112094 -0.266534 -0.052780196 0.25578862
0.23325758 -0.12393871 0.10450652 -0.063730426 0.046340182 -0.1589456 0.2890241 0.025791327
-0.24627262 0.05616116 0.11146125 -0.0098816585 -0.095617466 -0.044249874 0.18848962 -0.15782256
0.199214 0.35747984 0.182883 0.25978285 0.020786302 0.42743093 -0.06607055 -0.16383265
0.058711704 0.07317314 0.18197554 0.015432596 0.29658428 0.23718981 -0.09131481 -0.2620923
0.20309621 0.43346393 -0.16134967 -0.1705582 0.46666688 -0.08634573 -0.014346944 -0.11805382
0.33352202 0.225211 0.23838095 0.07725268 -0.16309889 -0.019704938 0.45743784 0.041089103
0.1683809 0.13253543 -0.15382537 -0.026299307 0.006804518 0.12406341 0.16436179 0.4389977

gnn_list.1.nn.0.bias f4 [32]
00000000: 316a ab3e ad4c 213e 5f5f 833e 7136 6f3e
00000010: f0ba 2a3c 2a6c 03bd 9d02 e9bd 0be5 0dbd
00000020: 62b1 12bd f544 84bd bfc5 4cbe efe2 563e
00000030: 50d2 24be 0ceb 443e 0085 c0bd fb96 dabd
00000040: 7810 3fbd 0784 733e 9056 073e ad0a 193e
00000050: ff3c 08be afae 23bd 514e ab3e 6ad3 5c3e
00000060: 79e8 2e3e ba19 10bd 64f8 7e3d ece1 643e
00000070: a52a 613e 957a 5bbe c0a6 a2bd 80f0 cbbe
0.33479455 0.15751906 0.256587 0.23360611 0.010420546 -0.032085575 -0.113774516 -0.03464226
-0.035813697 -0.06458465 -0.19997309 0.20985006 -0.16095853 0.19230288 -0.09400368 -0.106733285
-0.046646565 0.23780833 0.13216615 0.14945479 -0.13304518 -0.039961513 0.33458188 0.21565023
0.17080869 -0.035180785 0.062248603 0.22351807 0.21988924 -0.2143348 -0.07941961 -0.39831924

gnn_list.1.nn.2.weight f4 [32, 32]
00000000: 845e a4be 329f 5b3d 8341 d9be 5977 69be
00000010: c27a 283e c223 9dbe dc57 e03c 5f4e c7bc
00000020: e0b6 d93c d9e2 0f3e cb3b 13be a8d4 5a3e
00000030: f67e 8a3a 67a7 2f3d 3e61 9dbd 461f bcbc
00000040: 4f43 ebbe 3bca 12bd 759c 81bc 0752 673d
00000050: 7b17 d0be 73ad ccbe 9768 2dbe 33dd eabe
00000060: 9923 a7be bee0 cbbc 7149 6dbe 1a4c 10bf
00000070: 8ffa bebd d911 5abe 363b f93c 51ce 81bd
00000080: 5bc2 d83e ba12 77be 433c 1ebd 8d48 213e
00000090: 8072 8abe 8ac6 a93c 1512 0fbe fa4a e8bd
000000a0: a594 013e e15b a4bd a3b1 c1bd 8a92 bfbe
000000b0: 1dfa 0dbd be83 2f3e 6251 9c3c 12d3 2d3e
000000c0: f4bd 81be 6b6c 8a3d 9b38 69be 0d37 07be
000000d0: 9ef3 6dbc 9a58 23bf 5387 00be b11d 83bb
000000e0: bf5c 863d 02a8 1abe 0ab3 433c e577 913e
000000f0: 3bfa 33be 56c6 09bd 2403 2e3d abde 74be
00000100: 5319 b53e 04bc 94be a9d6 04bf d696 4d3e
00000110: 200f 213d ad6b 683d 796e 8ebd 3316 db3b
00000120: 221a b1bc 1c0f 3bbd 072b 0b3c 80bf d6be
00000130: 0b9d 73bc 96c0 493d c235 8abe 6102 20be
00000140: b2be 0dbe ad53 a6be d611 4ebc 2c8e 6e3e
00000150: c547 73be 8d96 a3be 306e 9cbe 5d06 5bbd
00000160: 43b2 1b3e 7faf 1d3e 049c 5dbe 6c4a 2a3e
00000170: 1245 97be e86b a73b 522f 553e 39d6 08be
00000180: 5e49 153e f813 0ebf e47f 4f3c 1f7d 7b3e
00000190: 2d30 553e 6c86 3a3d 0b3f 073e 89b8 5f3e
000001a0: 30c1 21be 9516 cabd 2303 b6bd c518 dabe
000001b0: 3353 43be 0330 9cbe 2175 5dbe b41c 933c
000001c0: 3899 26bf efc5 29bd 3e9b d4be b390 febe
000001d0: d703 bfbc 5776 c53d 7146 5e3d 954e 7bbd
000001e0: e4be dabb bc8e 99be 1982 e23c 118b 33be
000001f0: 0ea0 3e3e b22a 4e3e 4ba1 0b3e 38bf 2fbe
00000200: e76a 55be ac3f a83d 3e6c a33e 1d64 cfbc
00000210: a971 233e 09ab 01be 2bd2 9b3d 32f3 2f3e
00000220: 6dd3 f3bc a7e1 df3d 873c 723e 556c 05be
00000230: f634 b43e 26ff 15be d3c2 233e cc75 94bd
00000240: edc9 543e bb6a 323e 7ef3 91bd d2a5 39be
00000250: b776 113e a667 3e3d 00b8 03bc c1f9 ac3e
00000260: ec1f edbc c4ad 6fbe c709 b6bc 3121 d3be
00000270: 524c 663c 9538 76bd 8404 dc3d 1b44 ba3d
00000280: 3da0 4dbf 205f 033d 7b7c 963e 42f2 d33e
00000290: 66c6 943d e6fd d1bd be64 d83d ca59 e53d
000002a0: ffeb 483e fa20 bb3d 4941 333e 446a 8b3e
000002b0: e30c 4fbe fd77 acbd 4e84 6dbd 0e8d da3d
000002c0: b686 2fbe 4cc7 66be 8141 483e df1b 5abe
000002d0: b794 f7be 6ba8 853e 86a1 8f3e 7f55 24bd
000002e0: 5cbb dfbe 6f6a aebd c0f0 363d f1dd 09bd
000002f0: 88ef bc3c 9d17 25bc c39f 123e c4c8 e53b
00000300: 7b1d 96be 4687 02bd b27b 163e 6eb9 2bbe
00000310: 6b2d 0a3e fc40 42bd 12c1 d33e f8a7 ae3d
00000320: a830 21bd 851b 07bd a504 24be 4020 4f3d
00000330: dfaf da3e d94e 363e 1b84 733d fb1a 1d3e
00000340: d170 e73d 77a8 f3bd 5ee4 163e de51 143e
00000350: 2e0b 8abd 9128 123d 3648 a4bd 98f7 c43d
00000360: 1dd5 c43d e58c 9c3c 7f48 393e b344 2cbe
00000370: fab0 f23d 0f17 bf3d 4c79 0dbd 6ca4 383e
00000380: fee4 9aba c567 90bd 9af5 d93d a9cd 32be
00000390: 366b 153e eeb7 55bb 2967 0c3f bd23 503b
000003a0: 6d4f 38be 492b 0b3e 3f57 85bd 60b0 bb3d
000003b0: 0ba3 673e d020 a53d 99ff 57be 4838 973d
000003c0: 5ba1 593d c4d9 05be a1c8 cf3d 3e7c 883e
000003d0: 273c 913d 897c 98bc 11ce d7bd 6d9e 5f3e
000003e0: 6449 2bbd 7157 d33d 5dde ed3d bfaf 4abe
000003f0: 0d60 8dbc 1d63 983d fad0 21be fa64 8d3e
-0.3210336 0.053618617 -0.42432794 -0.22799434 0.16453078 -0.30691344 0.027385645 -0.024329362
0.02657646 0.1405138 -0.14378278 0.21370184 0.0010566402 0.042884257 -0.07684563 -0.022964131
-0.4594979 -0.035837393 -0.015821675 0.05647471 -0.40642914 -0.3997608 -0.16934429 -0.45871887
-0.32644346 -0.024887439 -0.23172547 -0.5636612 -0.09325134 -0.21295871 0.030423742 -0.0633818
0.4233578 -0.24128237 -0.03863169 0.15750332 -0.27040482 0.020724554 -0.13971741 -0.11342426
0.1265436 -0.08025337 -0.0945771 -0.37416488 -0.034662355 0.171401 0.019081775 0.16975048
-0.25340235 0.0675896 -0.227755 -0.13204594 -0.014523415 -0.6380707 -0.12551622 -0.004001342
0.06560659 -0.15103152 0.011944542 0.28411785 -0.17575924 -0.033636414 0.042483464 -0.23913066
0.35370883 -0.29049695 -0.51890045 0.2007707 0.039321065 0.056743313 -0.06954665 0.006685996
-0.021618906 -0.045668706 0.008494145 -0.41942978 -0.014868985 0.04925593 -0.2699414 -0.15625907
-0.13842276 -0.32485715 -0.012577495 0.23296422 -0.23757847 -0.319508 -0.30552816 -0.053472865
0.1520472 0.15398978 -0.21641546 0.16629952 -0.29544884 0.005109299 0.20818833 -0.1336297
0.14578769 -0.5549922 0.012664769 0.24559449 0.20819159 0.04553835 0.13207643 0.21847738
-0.15796351 -0.098675884 -0.08887317 -0.42597023 -0.19074707 -0.3050538 -0.21626712 0.017958023
-0.65077543 -0.04144853 -0.4152469 -0.49719772 -0.02331726 0.09641712 0.054266397 -0.06135424
-0.006675588 -0.2999171 0.027649926 -0.17533518 0.18615744 0.20133474 0.13635747 -0.17162788
-0.20841561 0.082152694 0.3191852 -0.025316292 0.15961327 -0.12662901 0.07608446 0.17182615
-0.029763902 0.10931712 0.23655902 -0.13029607 0.35196656 -0.14648113 0.15992288 -0.072490305
0.20780154 0.17423527 -0.071265206 -0.18129662 0.14205442 0.046485566 -0.0080394745 0.33784297
-0.028945886 -0.2340613 -0.02222146 -0.4123626 0.014056282 -0.060112555 0.10743049 0.09095021
-0.8032263 0.03207314 0.29391846 0.41395766 0.07264404 -0.102535054 0.1056609 0.111987665
0.19621275 0.09137149 0.17505373 0.27229512 -0.2021976 -0.084213234 -0.057987504 0.10671435
-0.17141232 -0.22536963 0.19556238 -0.21299694 -0.48355648 0.26105055 0.2805292 -0.040120598
-0.4369763 -0.08516394 0.04466319 -0.033658925 0.023063436 -0.010076431 0.14318757 0.0070124585
-0.29319367 -0.031867288 0.14695624 -0.16769955 0.13493888 -0.047425255 0.41358238 0.08528131
-0.039353043 -0.03298523 -0.16017397 0.050567865 0.42712304 0.17803515 0.059452157 0.15342323
0.11300815 -0.118973665 0.14735553 0.14484355 -0.067404136 0.03568322 -0.08021586 0.09617537
0.09610961 0.019110152 0.18094061 -0.16823082 0.11850162 0.0933057 -0.034539506 0.18031472
-0.0011817513 -0.070510425 0.10642548 -0.17461266 0.14591679 -0.0032610851 0.5484491 0.0031759583
-0.17999049 0.1359073 -0.065107815 0.091645 0.2262079 0.08062899 -0.21093597 0.07383782
0.053132396 -0.13071352 0.10145689 0.2665729 0.07091551 -0.01861407 -0.10537351 0.21837778
-0.041818038 0.103194125 0.11614678 -0.19793604 -0.017257715 0.07440779 -0.15802374 0.27616102

gnn_list.1.nn.2.bias f4 [32]
00000000: b5df 163d 88c6 dd3d 737c 013c 7ed5 353e
00000010: a780 5e3d 6a00 9c3d e289 efbd d8d8 4d3c
00000020: f5d1 2cbe 7f4d e4bd d3d2 d63d 7aa0 23bc
00000030: fc2d 013e 8a10 a93c b4fa 193e 4484 a4bd
00000040: bda8 15be 695e 413d 299e d1bd 3c7e 083e
00000050: 8667 013e 2674 0c3e 4491 c9bd e115 81bd
00000060: 17e8 eb3d 78c3 31be 916a 133d 6725 9a3c
00000070: 077c f1bd 5caa 13be 5d5e 4bbd 8a65 e1bd
0.036834437 0.108288825 0.007903206 0.17757222 0.05432191 0.076172665 -0.11696221 0.012563907
-0.16876967 -0.11147594 0.1048943 -0.009986991 0.12615198 0.02063777 0.15037042 -0.0803304
-0.1461515 0.047209177 -0.10235245 0.13329405 0.12637147 0.13716182 -0.0984216 -0.06303001
0.11518877 -0.17359722 0.0359903 0.018816663 -0.117912345 -0.14420456 -0.04965054 -0.11005695

gnn_list.1.nn.3.weight f4 [32]
00000000: 5bfd 753f da1e 323f 1a6f 423f 275a 363f
00000010: ed7d 563f d93d 473f 8a8a 6b3f fbad 723f
00000020: 7d96 683f d70c 523f 87a3 343f 860c 4c3f
00000030: ba21 773f 0d87 183f f6e7 093f dbda 5c3f
00000040: 3a18 163f 795c 6e3f 885e 073f d9f6 383f
00000050: cfae 563f e40f 513f 84f8 1c3f 5e4b 383f
00000060: 64b8 6e3f 38df 5b3f 8d21 d23e 8c55 373f
00000070: c714 523f 1b4b 743f e0cf cd3e ed91 433f
0.96089715 0.69578326 0.7595078 0.7123131 0.837859 0.7782875 0.9200827 0.94796723
0.90854627 0.8205084 0.7056202 0.7970661 0.9653584 0.5958107 0.5386957 0.86271447
0.58630717 0.9310985 0.5287862 0.7225166 0.83860487 0.8166487 0.61316705 0.7199
0.9325011 0.8588748 0.41041222 0.7161491 0.82062954 0.954271 0.4019766 0.7639454

gnn_list.1.nn.3.bias f4 [32]
00000000: aff4 3dbe 3d4e 25bd d734 5a3d 378d 4c3e
00000010: 3d5d 693d 9b5f 473e b6ff cfbe d005 f2be
00000020: 0436 edbe 50ac cdbd 9a71 89bd 65b1 d4be
00000030: b24b 21bf c72b 53bc 6ceb aebe 4cd5 0d3d
00000040: 902f 0abd b1a7 95be abfc 51bf 0602 06be
00000050: 5195 0fbf fe09 783e 8d3a 823e beba cebd
00000060: ade3 a3be be50 ad3d f963 2abf 6418 fdbe
00000070: 0c39 823e 42fc 513d 2fa0 f73e e286 833e
-0.1855037 -0.040357817 0.05327305 0.19975744 0.056973685 0.19470064 -0.4062478 -0.4727006
-0.46330273 -0.100426316 -0.06711121 -0.4154159 -0.63006127 -0.012888855 -0.34163988 0.034627244
-0.033736765 -0.292295 -0.82026166 -0.1308671 -0.56087214 0.24222562 0.25435296 -0.10094212
-0.3200964 0.08462666 -0.66558796 -0.4943267 0.25434148 0.051265962 0.48364398 0.25688845

gnn_list.1.nn.3.running_mean f4 [32]
00000000: b611 75c2 e3dd e9c0 2f93 30c1 9a9f e1c0
00000010: e6df 0f41 a05c 993d 5500 8e41 724a 6341
00000020: 0cce 2441 45c5 dd41 1c6b 4ac1 a174 26c0
00000030: 9d64 aa41 511d 7d40 9635 0942 5e1e 8a41
00000040: 8061 a041 2ef3 673f 36d7 bd41 c644 8c40
00000050: 6d2b ea41 9838 8241 148d a4c1 34d3 6441
00000060: d70a 1241 3542 36c1 a7ca b6c0 2656 bf41
00000070: 077a 56c1 852e 05c2 9a6d bfc1 df92 2542
-61.267296 -7.308336 -11.0359335 -7.0507326 8.992163 0.0748837 17.750162 14.205675
10.300304 27.721323 -12.65115 -2.6008685 21.299128 3.9549143 34.30233 17.264828
20.047607 0.9060544 23.730083 4.383395 29.271204 16.277634 -20.568886 14.301563
9.127646 -11.391164 -5.712238 23.917065 -13.404792 -33.29543 -23.928516 41.39343

gnn_list.1.nn.3.running_var f4 [32]
00000000: 925b 6344 5fc3 7144 9194 c144 49c4 ff43
00000010: 0e51 d744 9a4f 7044 faea 6d45 3e34 4845
00000020: 1d2f 1545 89e7 8245 4388 1044 50be 0645
00000030: 8343 1445 8ead 1545 6980 fc44 0143 1544
00000040: 59d2 1645 bfca f344 6782 1545 3b25 3345
00000050: 77fb 4445 96fe 4845 0f9a 6044 b8b7 0545
00000060: 5576 2445 8a5d a544 4bcf 3a44 cf97 7f45
00000070: 91e2 5e44 8215 5f44 b64f d644 9aa1 4445
909.4308 967.0527 1548.6427 511.53348 1722.533 961.2438 3806.686 3203.2651
2386.9446 4188.942 578.1291 2155.8945 2372.2195 2394.8472 2020.0128 597.04694
2413.1467 1950.3358 2392.1501 2866.327 3151.7166 3215.9116 898.40717 2139.4824
2631.3958 1322.9231 747.23895 4089.488 891.5401 892.33606 1714.491 3146.1

gnn_list.2.nn.0.weight f4 [32, 32]
00000000: a363 9e3d 12db a93e a3b0 d2bd 1cd6 bebd
00000010: 8058 963d de18 603e 8e6c d53d eac9 3f3e
00000020: 6dab 113e 29f5 0fbe 22b2 063e 2ad9 2ebe
00000030: d99a 3b3d c635 0fbd 1f07 87be f70e 9cbe
00000040: aa2b 16be 2aea 533e e7c3 c03d d954 25bd
00000050: cf2a 94bc 2a75 e33d 3f12 6a3d 6c7d 4c3d
00000060: 810c 4e3c 32ab a83d 98d7 8fbd c72f 2b3d
00000070: 7774 37be d90b d6bc 33a9 66be 5c20 243e
00000080: fbc2 99bd d753 9abe db0e cabe 4fbf 72bd
00000090: f5e9 5f3d dab3 ce3d 5cd4 8c3e db08 603e
000000a0: 1b5f 853d c689 eabd 6900 8f3d 9d7b 1ebe
000000b0: 96f4 673e 5de8 963d 9198 6fbc ef9c 4bbe
000000c0: 9aa0 c1bc 231e 863e 823b 523e 5691 cc3d
000000d0: 2cb5 553e 4962 663e 082c e4bd 1796 21be
000000e0: 945d d3bd cf8b eebd b7db 763c 0a65 ce3b
000000f0: 864e b23d bf36 dfbd b329 16bc d6bd e0bc
00000100: 2829 91be 30dd 95bb 57b2 e0bd f9fa 0d3d
00000110: 2d17 903d 085f 58bd d75a a83e 78bf 113e
00000120: 9117 5abd 082c 463e 9768 7e3d caa8 933d
00000130: c78b aa3e 58a5 2cbe 4060 34bd b743 8b3b
00000140: f308 35be 5408 1d3d 3c8b 9d3e d2f0 2dbb
00000150: c525 8f3e 2c4a 543e ecb7 ecbe 3a70 053e
00000160: fbfc 763e 2d6a 14be effb 2ebe 38dc 263e
00000170: 20e4 903c 9913 a8bd b48c a4be b5b1 49bc
00000180: e6a8 08bd 8d6f f83d be1b bbbd f4b0 a5bd
00000190: 0609 58be a101 28be 2209 cd3d 1710 a7bd
000001a0: deab d0bd 7b3c 65bd 26c8 173d d424 32be
000001b0: 24fc fd3d 7d38 e6bd dcec 41be cad9 733c
000001c0: a235 70bd c0c6 c4bc abe3 7fbe 18eb 803d
000001d0: ccb7 6abd b99d 13be a8ca 3dbe 4f2a 38bd
000001e0: 42ac 8d3d 38d6 bbbd e331 083e 2821 12bd
000001f0: 4caa 63bd c037 a83d 521a f7bc f11b 1bbd
00000200: 4097 6dbe b0df 423d bc13 2ebe c3de 70be
00000210: e9d6 8b3e 9aac 38be 5279 403e 61b0 753e
00000220: ac0f 34be 335e 5a3e 1bbd 02bd 794d 87be
00000230: a2d0 b73e 8e49 e1be da84 73be 5f0a e03d
00000240: 3879 c5bc 5806 44bd 8f1e 0b3e 7457 b7bd
00000250: 42fe 713e ebea f3ba ac43 9ebe 0ea2 9c3d
00000260: 0ab9 213e bd27 edbd 67e6 a23c 5b10 973e
00000270: 07b5 26be 6e42 cd3d ab6b 97be 5da3 623d
00000280: c1c9 fe3e 9f1b 49bd 02b2 843d 36c5 01bd
00000290: ec6f b93b 2c1a e23e d462 78bd d994 48bd
000002a0: 2303 34be 6e1c 8cbe 9316 583c de3b 8f3e
000002b0: 712b 12be 3918 773e 9b5e 6e3e 46f1 95be
000002c0: a7a1 1a3e 56b8 483d 170c 44bc ea5e d83d
000002d0: dfe1 9dbd 0fa5 003e 2caa 353e def2 a43c
000002e0: 870d 6abe ab4b 563e e434 2ebe b8cd 0dbe
000002f0: 7b2b 5ebd bc71 5e3e 8858 193e 8652 753e
00000300: b194 f1be 0d61 653e db97 32be eb8c 9e3e
00000310: 3f0c 363e 1a19 f5bd a41b c13c a1e1 72be
00000320: df52 7f3e 1fc4 aabd a221 f5bd e89c 08be
00000330: e2e7 f2bd 71f0 bbbd 03a6 6c3e d287 4ebd
00000340: 7c46 c7bd 3f12 8cbe 5dc0 94bd d206 b03d
00000350: e941 9cbe 3ba4 babe dfec 963e 6a6e 703d
00000360: 6841 54be 5e80 f83e cec4 ebbe 0032 55be
00000370: 4641 babe 2984 fe3d 8d6f 4bbe 80fc 483e
00000380: e29c 473e 2af0 89bd b8dd c63e 019c 20be
00000390: fd3a f73d ef58 1e3e 2bd0 2ebe 379e 0e3e
000003a0: 8b3b 6ebe 63f2 1ebd 1819 473e b61e ab3d
000003b0: b622 18be e48b 523e 6dc4 13bd 8dd9 7d3d
000003c0: fafc 2d3e faed e43d 724a 98be ec2b d53c
000003d0: f606 33be 0b57 413e 3d7e 3a3e a873 4ebd
000003e0: e4fd 633d ea0b 09bd 2005 69bd 9a31 1abe
000003f0: e8be 9b3d 1799 d53e 1c19 b03e 0b51 343e
0.07733848 0.3317495 -0.10287597 -0.09318182 0.07341099 0.21884486 0.10421096 0.18729368
0.1422555 -0.14058365 0.1315389 -0.17075029 0.04580197 -0.03496339 -0.2637262 -0.30480167
-0.14665094 0.20694795 0.094123654 -0.04036412 -0.018086819 0.11106332 0.057146307 0.0499243
0.012576223 0.08235778 -0.07023543 0.04179361 -0.17915522 -0.026128696 -0.22525482 0.16027969
-0.07507893 -0.3014209 -0.3946446 -0.059264477 0.05466648 0.10092898 0.27505767 0.21878378
0.065122806 -0.114520594 0.069825 -0.15476842 0.22651896 0.073685385 -0.014623777 -0.19884084
-0.023636151 0.26194867 0.20530513 0.09988658 0.20869893 0.2249843 -0.11141211 -0.15779911
-0.10320583 -0.1164776 0.015067033 0.006298666 0.087063834 -0.10899114 -0.009165215 -0.02743427
-0.28351712 -0.0045734867 -0.109715156 0.034663174 0.070356704 -0.052825004 0.32881805 0.14233196
-0.05324513 0.19352734 0.062111463 0.07209928 0.33309767 -0.16859949 -0.044037104 0.0042500156
-0.17679195 0.03833802 0.3077029 -0.0026541245 0.27958503 0.2073142 -0.4623407 0.13031092
0.24119942 -0.14493628 -0.17088293 0.16294944 0.017686903 -0.08206863 -0.32138598 -0.012310435
-0.0333642 0.121306516 -0.09136151 -0.08090392 -0.21097192 -0.16406871 0.100115076 -0.08157366
-0.10189031 -0.05596588 0.03705611 -0.17396861 0.12401608 -0.11241243 -0.18938011 0.014883468
-0.0586449 -0.024020553 -0.24989192 0.062948406 -0.05730419 -0.14415635 -0.18534338 -0.044962224
0.06917621 -0.09171718 0.1330028 -0.03567615 -0.05558233 0.082137585 -0.030163918 -0.037868444
-0.23202229 0.047576606 -0.16999716 -0.23522477 0.273124 -0.18034592 0.1879628 0.23993064
-0.17584103 0.21324997 -0.031918626 -0.26426294 0.35901362 -0.4400143 -0.23781148 0.10939478
-0.024105653 -0.047857612 0.13585876 -0.08952227 0.23632148 -0.001860944 -0.30911005 0.07648097
0.15793243 -0.11579845 0.019885255 0.29504666 -0.16279994 0.10022436 -0.29574332 0.055331577
0.497633 -0.049098607 0.06479265 -0.031682216 0.005659094 0.44160593 -0.060641125 -0.048970077
-0.17579322 -0.2736544 0.013188976 0.27975363 -0.14274384 0.24130334 0.23278277 -0.2928564
0.15100728 0.04900392 -0.011965773 0.105649784 -0.07709097 0.12562965 0.17740697 0.02013534
-0.22856723 0.20927303 -0.17012364 -0.13848007 -0.054240685 0.21723074 0.14975178 0.23957261
-0.47183755 0.22400303 -0.17440741 0.30966887 0.17778109 -0.11967678 0.02357275 -0.23718883
0.24933957 -0.083381884 -0.119693056 -0.13341105 -0.118606344 -0.0917672 0.23110203 -0.050422497
-0.09730241 -0.2735767 -0.07263253 0.08595051 -0.30519035 -0.36453423 0.29477593 0.05869905
-0.20728076 0.48535436 -0.46048588 -0.20819855 -0.36377925 0.12427551 -0.19866772 0.19627571
0.1949344 -0.06735261 0.38841033 -0.15684511 0.12071798 0.15463613 -0.17071597 0.13927542
-0.23264901 -0.038805377 0.19443166 0.08355467 -0.14856991 0.20561177 -0.036075998 0.06197505
0.16991034 0.11178203 -0.29744297 0.02602192 -0.17483124 0.1888086 0.18212219 -0.050403267
0.05566205 -0.033458628 -0.056889653 -0.15057984 0.07604772 0.4171836 0.34394157 0.1760904

gnn_list.2.nn.0.bias f4 [32]
00000000: b319 8cbe 52a2 fd3d fc26 a4be 36bb 0dbe
00000010: 8e2b 8dbe f7f9 5abe 3eb9 a03e c58b 4dbe
00000020: 872b 46be b569 06be cfd7 c93e d832 2abe
00000030: 7313 4dbe 7c87 68be 0202 38be 78b0 02bf
00000040: b42d 91be 640f 713e 45d6 b4be d91d 713e
00000050: 8a5a bc3e e1d2 12bf be25 a6bd 4371 ee3e
00000060: 7578 21be b607 f9bc 1e22 d4be 723f 28be
00000070: 2e0d 283e 0f8a 26bd ff4e b8be 6255 3abe
-0.27363357 0.12384476 -0.32060993 -0.13840947 -0.27572292 -0.21384417 0.3139133 -0.20072849
-0.19352542 -0.13126262 0.3942246 -0.16620958 -0.2002695 -0.22707933 -0.17969516 -0.5105052
-0.2835518 0.23541027 -0.35319725 0.23546542 0.36787826 -0.57353026 -0.081126675 0.46570787
-0.15768607 -0.030399185 -0.4143228 -0.16430452 0.16411278 -0.040659007 -0.3599777 -0.18196633
