model_saved/IMDBMulti/2022-03-31_11-21-55/GSC_GNN_IMDBMulti_checkpoint.pth (torch, 516843 bytes, 53 tensors)

gnn_list.0.nn.0.weight f4 [64, 89]
0.023084974 -1.6054293 -2.378672 -0.3378735 -0.76805913 0.24845904 0.25094748 -0.158359
-0.15349339 -0.1545957 0.19028834 0.24908572 0.3150442 0.05350274 -0.41276315 0.050689407
0.36118743 0.3306713 -0.29156807 0.50576884 -0.4787707 -0.033661876 -0.0013244777 -1.0624807
-1.4734902 -0.89907295 -0.5321027 0.27093652 -0.8132936 -0.7735666 -0.56634843 -0.3258968
-0.9059787 -2.1628578 -0.1495809 -0.88239455 -0.55592996 -0.2983851 0.23382328 0.09226865
-0.35938153 -0.09987171 -0.01891669 -0.7425014 -0.4587798 0.4361736 -0.016040493 -0.8717352
-0.104787715 -0.5732979 0.016884016 -0.034097515 0.09331491 -0.052949917 0.09191133 -0.019264609
-0.050516456 0.086986214 0.32811972 0.031006709 0.08806118 -0.027920833 -0.23458116 0.104520336
0.05528638 -0.06251097 0.015284345 -0.015257165 0.08029261 -0.01290047 0.07849591 0.018206203
0.09253058 0.038130105 -0.028037073 -0.07082762 0.033223893 0.03186358 0.061800476 0.083436325
0.096283875 -0.015411844 0.028281609 -0.016857509 -0.042566244 0.057897013 0.0030960867 0.05813551
0.0061590862 -0.10230101 -0.7701085 -0.99258614 0.69900054 -2.3076704 0.16021912 -0.13800646
0.13513108 -0.58349186 0.21136133 0.4387636 0.24191451 0.45264408 0.01913984 -0.1511913
0.56558 0.16913293 0.120345734 -0.7626266 -0.32472742 -0.7720107 -0.8089036 -0.19523557
-1.031189 -0.2202124 -0.8990644 0.16374274 0.024238763 0.13245392 0.09808657 -0.6995283
-0.33795488 0.017712481 -1.2136176 -0.11604133 -0.3560077 -0.22646843 -0.6088636 0.061577406
-0.0230101 -0.8214097 -0.0047757355 0.48971507 -0.33618066 -0.9170551 0.10145031 -0.048554584
-0.87374747 0.023244305 -0.1597877 -0.24838732 -0.10338676 0.016546015 -0.36892787 0.057981044
-0.09033463 0.13062406 -0.041256025 0.041483004 0.24474317 0.032084562 -0.00245561 0.010555111
0.08442605 0.0355182 -0.09539425 -0.077122144 0.028946068 0.074393466 0.028374106 0.09430361
-0.014494358 -0.05155011 -0.07205267 0.018186253 -0.051932797 0.32053536 0.06490934 -0.021532813
0.07971865 0.02842451 0.058548637 -0.059966322 0.10349782 0.08707391 -0.050719738 -0.0052422876
0.06434396 0.31655037 -0.044371206 0.5859567 0.13753605 0.34532788 -0.7512583 -0.14460966
-0.13575065 0.0024008513 0.27628258 -0.16778854 -0.25158834 -0.40392253 0.20042926 0.23760593
0.15576573 0.2739346 -0.09562261 0.23907822 0.23862171 0.027075201 -0.09815746 -0.26911652
-0.3462347 0.022208177 -0.06636677 0.026839692 0.026159476 -0.123361886 -0.3094906 0.06645391
-0.10824165 -0.17737487 -0.3466321 0.22190061 0.06562087 -0.17697863 -0.33985195 0.011128198
-0.31487152 0.054356214 0.5519733 0.026733123 0.14016077 0.29691815 -0.5167063 0.091915965
-0.097185425 0.24011172 -0.002078522 0.1732417 0.3256346 -0.08397453 -0.06936587 -0.23337746
0.074345544 -0.07644438 -0.10570604 0.04995866 0.035601303 -0.22905424 0.05806961 0.06309645
-0.05273631 -0.066507496 0.032644395 0.014397324 -0.06589214 0.04925114 0.056694508 -0.057778474
-0.017993525 0.058648728 -0.07104833 0.07703953 0.055655688 0.061141513 0.017950602 0.019787317
00000000: b31c bd3c b57e cdbf 293c 18c0 c1fd acbe
00000010: 869f 44bf 0c6c 7e3e 307c 803e dd28 22be
00000020: 5f2d 1dbe 564e 1ebe f2da 423e 5410 7f3e
00000030: 794d a13e b025 5b3d b155 d3be b29f 4f3d
00000040: 8fed b83e c04d a93e 6948 95be 117a 013f
00000050: 6f21 f5be 09e1 09bd 199a adba 5eff 87bf
00000060: 549b bcbf a529 66bf e237 08bf 31b8 8a3e
00000070: 0234 50bf 7608 46bf 36fc 10bf f2db a6be
00000080: 38ee 67bf 436c 0ac0 bc2b 19be 9ce4 61bf
00000090: 6d51 0ebf efc5 98be 5f6f 6f3e 59f7 bc3d
000000a0: db00 b8be 8a89 ccbd 2df7 9abc 9214 3ebf
000000b0: 30e5 eabe 2552 df3e 5a67 83bc 0a2a 5fbf
000000c0: f19a d6bd a7c3 12bf 5950 8a3c d6a9 0bbd
000000d0: e31b bf3d 03e2 58bd 023c bc3d d0d0 9dbc
000000e0: 58ea 4ebd d425 b23d 4fff a73e c801 fe3c
000000f0: 6c59 b43d 3bba e4bc 0b36 70be c20e d63d
00000100: f973 623d c005 80bd 306b 7a3c 30f9 79bc
00000110: 7470 a43d 7e5c 53bc 77c2 a03d 2d25 953c
00000120: ac80 bd3d 502e 1c3d 01ae e5bc 120e 91bd
00000130: c715 083d 6383 023d 7f22 7d3d aae0 aa3d
00000140: 7b30 c53d f581 7cbc d5ae e73c c218 8abc
00000150: f159 2ebd 6b25 6d3d b7e7 4a3b 801f 6e3d
00000160: 29d2 c93b 3183 d1bd d525 45bf 201a 7ebf
00000170: b3f1 323f dfb0 13c0 7b10 243e 9151 0dbe
00000180: cd5f 0a3e b95f 15bf 1b6f 583e 9fa5 e03e
00000190: 70b8 773e f7c0 e73e 27cb 9c3c e4d1 1abe
000001a0: dac9 103f 2f31 2d3e d377 f63d 7f3b 43bf
000001b0: ac42 a6be 7ea2 45bf 4e14 4fbf d5eb 47be
000001c0: 00fe 83bf 5c7f 61be 1629 66bf 2dac 273e
000001d0: 5f90 c63c 00a2 073e 9de1 c83d 4914 33bf
000001e0: 6c08 adbe c419 913c d257 9bbf 14a7 edbd
000001f0: a446 b6be 57e7 67be 7cde 1bbf 9738 7c3d
00000200: ad7f bcbc e847 52bf c67d 9cbb efbb fa3e
00000210: df1f acbe 1fc4 6abf 2ec5 cf3d 2ce1 46bd
00000220: eaad 5fbf d76a be3c 639f 23be 3f59 7ebe
00000230: 70bc d3bd 828b 873c 1de4 bcbe 887d 6d3d
00000240: 5d01 b9bd 50c2 053e 14fc 28bd 15ea 293d
00000250: f49d 7a3e 1a6b 033d 4dee 20bb 58ef 2c3c
00000260: 91e7 ac3d 887b 113d 0f5e c3bd 37f2 9dbd
00000270: 4e20 ed3c 9a5b 983d d070 e83c 4022 c13d
00000280: be79 6dbc 3526 53bd 5a90 93bd 56fb 943c
00000290: 7cb7 54bd 361d a43e 30ef 843d 9565 b0bc
000002a0: 8843 a33d 85da e83c b2d0 6f3d 3f9f 75bd
000002b0: aaf6 d33d ce53 b23d 80bf 4fbd 7fc7 abbb
000002c0: c4c6 833d e412 a23e 95be 35bd 4201 163f
000002d0: 40d6 0c3e d1ce b03e 7752 40bf 8e14 14be
000002e0: 3802 0bbe 9a57 1d3b e974 8d3e c2d0 2bbe
000002f0: 30d0 80be efce cebe 543d 4d3e f84e 733e
00000300: 0d81 1f3e 2841 8c3e c9d5 c3bd ecd0 743e
00000310: 4059 743e d0cc dd3c c706 c9bd a4c9 89be
00000320: ad45 b1be eced b53c 4deb 87bd eade db3c
00000330: 664c d63c 28a5 fcbd 8d75 9ebe fd18 883d
00000340: ccad ddbd c2a1 35be c379 b1be ea39 633e
00000350: 3c64 863d e339 35be 1301 aebe 0c53 363c
00000360: d736 a1be 9fa4 5e3d 1f4e 0d3f 6cff da3c
00000370: 4e86 0f3e a805 983e dd46 04bf 703e bc3d
00000380: 2709 c7bd d9df 753e d037 08bb 4666 313e
00000390: 94b9 a63e d7fa abbd b10f 8ebd 80fa 6ebe
000003a0: 7a42 983d df8e 9cbd 697c d8bd 74a1 4c3d
000003b0: acd2 113d 328d 6abe 66da 6d3d b638 813d
000003c0: 0702 58bd 1535 88bd 21b6 053d c1e2 6b3c
000003d0: 75f2 86bd 90bb 493d 8038 683d 1fa9 6cbd
000003e0: 2867 93bc a639 703d c981 91bd e7c6 9d3d
000003f0: 38f7 633d 866f 7a3d 240d 933c 0319 a23c

gnn_list.0.nn.0.bias f4 [64]
0.119352415 0.19169658 -0.67418003 -0.017162004 -0.27958658 0.0943058 -0.39850608 0.2855884
0.040427566 -0.23567294 0.3313862 -0.30945873 0.018231709 -0.10660881 0.021961227 -0.13827792
0.45514527 0.09456369 0.5125694 0.3865466 0.27684167 0.051096413 -0.022590928 0.32131454
-0.18420777 -0.20911446 -0.09486869 0.17437686 0.4965293 0.110849164 0.45691228 -0.7428461
0.3919672 0.105199635 -0.41754413 0.24622013 0.07512195 -0.2034312 -0.13943543 0.31214327
0.025454331 0.094917975 0.3906213 0.1518593 0.50720364 0.097078994 -0.19962713 0.05704438
0.2806 0.1421258 0.07266719 0.16434048 0.31266212 0.22549292 0.21144606 0.47731537
0.43049175 -0.052070435 -0.22785248 0.44984546 -0.23452036 0.16173886 -0.2320888 -0.28657776
00000000: 0a6f f43d 1c4c 443e 1097 2cbf 5597 8cbc
00000010: f925 8fbe 6623 c13d fd08 ccbe a538 923e
00000020: 6097 253d 3f54 71be 74ab a93e 6071 9ebe
00000030: aa5a 953c b855 dabd 08e8 b33c ba98 0dbe
00000040: cd08 e93e 9caa c13d c037 033f 70e9 c53e
00000050: 31be 8d3e 794a 513d 9c10 b9bc 5783 a43e
00000060: f6a0 3cbe 1a22 56be 844a c2bd d98f 323e
00000070: 1739 fe3e e304 e33d 68f0 e93e 292b 3ebf
00000080: edaf c83e e872 d73d 58c8 d5be 2121 7c3e
00000090: 89d9 993d 4550 50be 29c8 0ebe 3ed1 9f3e
000000a0: 9a85 d03c 5b64 c23d 84ff c73e 0181 1b3e
000000b0: 19d8 013f 5ad1 c63d 0e6b 4cbe 5ea7 693d
000000c0: ceaa 8f3e 6d89 113e 89d2 943d df48 283e
000000d0: 4015 a03e 9ee7 663e 5185 583e ae62 f43e
000000e0: 6a69 dc3e cf47 55bd 2952 69be 2552 e63e
000000f0: 1b26 70be df9e 253e b0a8 6dbe 52ba 92be

gnn_list.0.nn.2.weight f4 [64, 64]
-0.06702451 0.13114041 -0.029707458 -0.22843935 -0.1500025 -0.43927726 0.3097745 0.17910641
-0.12727393 -0.20351565 -0.1269934 -0.22379561 0.038429398 0.03030484 0.120947756 0.44069323
-0.1482049 -0.10903406 -0.48009953 0.22537938 -0.28287068 0.013404539 -0.41549832 -0.25065577
0.18782626 -0.11822925 -0.038973488 -0.44332656 -0.33742702 -0.55392605 -0.52959883 -0.24373108
-0.35000435 -0.17162351 -0.15741162 0.0069724927 -0.08243506 -0.28355613 -0.10902609 -0.24043764
-0.49070868 -0.36887744 -0.4473987 -0.75281394 -0.14741363 0.059249524 0.010667246 -0.39694253
-0.37303126 0.19295844 0.05041494 -0.43767506 -0.19661419 -0.5424843 -0.46154836 -0.7434408
0.018690947 -0.7735785 0.12993172 -0.062244356 -0.22793716 -0.3529344 0.33552724 -0.10784976
0.65666634 0.020412343 0.033915628 0.5148545 0.5655014 0.7268061 -0.10894962 -0.024285877
0.21986315 0.17018797 0.080591865 0.372127 0.22741115 0.13706517 0.15731826 -0.05043834
0.040955912 0.124442555 0.2762258 -0.32532883 -0.4510775 0.5712916 -0.10859986 0.13261652
0.06137478 0.15941718 0.27626488 -0.37255663 0.42986456 0.17579731 0.018514765 -0.1790175
-0.023495823 0.48845962 -0.45921847 -0.11471881 0.14670072 0.06649439 0.09896128 -0.3216763
0.01253 0.14188582 0.46319073 -0.32263154 -0.6639096 0.089480035 0.027439049 -0.697743
0.34514573 -0.60723656 0.15807237 0.10579667 0.10292251 0.047397498 -0.053737484 -0.4247485
-0.5485427 -0.5525558 0.315012 0.10635605 0.1689105 0.27555388 0.5222914 -0.09229149
-0.50582266 -0.31540108 0.12874782 0.11187687 0.30872563 -0.7269356 0.26706702 -0.5529745
-0.22813576 0.08318557 -0.3412784 -0.16042681 -0.091640696 0.07458804 -0.2605739 0.114227496
0.108698934 0.2073366 0.017404089 -0.24525192 -0.23698828 0.13708033 -0.5627479 0.15729158
-0.2862018 0.27409288 -0.26551217 -0.011343558 0.19291875 0.16397588 -0.33871272 0.0063683456
0.027709315 -0.15178387 -0.22759771 -0.36595884 -0.37059557 -0.2823636 -0.09414733 -0.1867206
-0.1899613 0.46837473 0.11156922 0.26344293 0.37175694 -0.17646147 0.28659186 0.40235758
0.0731201 -0.17713048 -0.33905935 -0.674364 -0.034200832 -0.169836 -0.4962243 0.85715383
0.36547592 -0.37711555 -0.38132656 0.557518 0.20001073 -0.7421087 0.14440005 -0.07259764
0.24164447 0.3904374 -0.28740564 -0.039299373 -0.05283622 0.009423185 -0.043425392 0.0041377083
-0.040540118 0.06488518 -0.20530608 0.37875915 0.19232765 -0.2463661 -0.380682 -0.2894861
-0.28957942 -0.00041553864 -0.38529894 -0.27165616 0.029869916 -0.15336056 0.07216137 -0.38492116
-0.4600348 -0.25033662 -0.27483925 -0.19138093 -0.2032152 0.071397066 -0.036741674 -0.40237212
-0.30788073 -0.26325703 -0.21226045 -0.59637123 -0.006782979 -0.23916714 0.47988433 -0.32730144
0.19452468 -0.40962487 0.17496063 0.56094277 0.36142984 -0.6819605 -0.43169096 0.02809744
-0.5997248 0.15171614 -0.12152842 0.5432261 -0.63141257 -0.33540258 -0.34154227 0.59363383
-0.08836828 -0.19126706 -0.3713502 -0.20899479 0.2955448 0.0046869065 -0.0665602 -0.7725012
00000000: 2544 89bd ac49 063e 0e5d f3bc 01ec 69be
00000010: 419a 19be f3e8 e0be c39a 9e3e ac67 373e
00000020: 1954 02be 6866 50be 8f0a 02be ad2a 65be
00000030: 2568 1d3d db41 f83c 75b3 f73d 8ba2 e13e
00000040: 06c3 17be 404d dfbd 9bcf f5be dac9 663e
00000050: 6dd4 90be b69e 5b3c 32bc d4be f455 80be
00000060: 8755 403e 2d22 f2bd aaa2 1fbd b3fb e2be
00000070: 3cc3 acbe 19ce 0dbf ca93 07bf a494 79be
00000080: c533 b3be 13be 2fbe 8330 21be 8279 e43b
00000090: b6d3 a8bd 452e 91be 1249 dfbd 4935 76be
000000a0: 2b3e fbbe 81dd bcbe 7111 e5be 6ab8 40bf
000000b0: 99f3 16be a1af 723d acc5 2e3c 0d3c cbbe
000000c0: f4fd bebe e696 453e e57f 4e3d f216 e0be
000000d0: 3b55 49be 40e0 0abf 1150 ecbe 2352 3ebf
000000e0: c21d 993c 3e09 46bf d20c 053e f0f3 7ebd
000000f0: 5c68 69be d1b3 b4be 3aca ab3e 56e0 dcbd
00000100: 491b 283f c937 a73c 1deb 0a3d 81cd 033f
00000110: b3c4 103f f70f 3a3f fa20 dfbd 2df3 c6bc
00000120: ce23 613e c145 2e3e 590d a53d 6e87 be3e
00000130: 78de 683e d05a 0c3e 0a18 213e 6f98 4ebd
00000140: 63c1 273d bddb fe3d 786d 8d3e 8091 a6be
00000150: a1f3 e6be 2b40 123f 9a69 debd a0cc 073e
00000160: 1f64 7b3d 423e 233e 9772 8d3e bebf bebe
00000170: 3517 dc3e 3604 343e 47ac 973c 5d50 37be
00000180: 507a c0bc 6117 fa3e af1e ebbe b2f1 eabd
00000190: b738 163e 362e 883d 36ac ca3d c2b2 a4be
000001a0: a14a 4d3c 844a 113e 5627 ed3e f62f a5be
000001b0: fbf5 29bf 4f41 b73d dbc7 e03c 499f 32bf
000001c0: f1b6 b03e db73 1bbf b9dd 213e edab d83d
000001d0: 09c9 d23d e123 423d d61b 5cbd a378 d9be
000001e0: 4b6d 0cbf 4c74 0dbf 4149 a13e 33d1 d93d
000001f0: e0f6 2c3e 6615 8d3e e4b4 053f 5203 bdbd
00000200: 987d 01bf 407c a1be 78d6 033e b31f e53d
00000210: 4911 9e3e 7418 3abf 02bd 883e bd8f 0dbf
00000220: 6c9c 69be 325d aa3d 0bbc aebe ed46 24be
00000230: 1eae bbbd 9dc1 983d f169 85be 1bf0 e93d
00000240: 8c9d de3d 0c50 543e 0593 8e3c 5223 7bbe
00000250: 0ead 72be c95e 0c3e 3f10 10bf 0b11 213e
00000260: 0b89 92be e755 8c3e 36f1 87be 55da 39bc
00000270: 7e8c 453e 4be9 273e c16b adbe 8ead d03b
00000280: a5fe e23c 3b6d 1bbe 600f 69be f55e bbbe
00000290: b4be bdbe f691 90be 51d0 c0bd af33 3fbe
000002a0: 3785 42be d0ce ef3e 677e e43d fee1 863e
000002b0: ed56 be3e 51b2 34be 2bbc 923e d001 ce3e
000002c0: febf 953d b161 35be 3099 adbe 1ea3 2cbf
000002d0: 2c16 0cbd 7de9 2dbe 1d11 febe 6f6e 5b3f
000002e0: a91f bb3e 4a15 c1be 3c3d c3be 80b9 0e3f
000002f0: 9dcf 4c3e d6fa 3dbf 9bdd 133e 12ae 94bd
00000300: a671 773e 69e7 c73e d526 93be 61f8 20bd
00000310: cb6a 58bd b463 1a3c d3de 31bd 9d95 873b
00000320: 650d 26bd 85e2 843d c23b 52be b8ec c13e
00000330: 8af1 443e 6547 7cbe c0e8 c2be 8637 94be
00000340: c143 94be a7dc d9b9 e745 c5be 8416 8bbe
00000350: c1b1 f43c 8d0a 1dbe 57c9 933d 6314 c5be
00000360: ae89 ebbe 1f2c 80be bbb7 8cbe 5df9 43be
00000370: a517 50be a038 923d 707e 16bd b803 cebe
00000380: 8ba2 9dbe a0c9 86be ce5a 59be c9ab 18bf
00000390: c043 debb 3be8 74be 66b3 f53e 0e94 a7be
000003a0: 7a31 473e 5aba d1be e128 333e f299 0f3f
000003b0: 550d b93e f794 2ebf 9906 ddbe 9a2c e63c
000003c0: 9187 19bf 7a5b 1b3e e4e3 f8bd de10 0b3f
000003d0: 41a4 21bf e3b9 abbe a1de aebe 63f8 173f
000003e0: 6efa b4bd 83db 43be 9d21 bebe bb02 56be
000003f0: a651 973e 9f94 993b b750 88bd a3c2 45bf

gnn_list.0.nn.2.bias f4 [64]
0.010879507 -0.045661714 -0.072239876 -0.10626798 -0.056691486 -0.12634051 -0.054587662 -0.06872024
-0.15265344 -0.106726654 0.08098774 -0.18466377 -0.08732486 -0.056884453 0.21653622 -0.19515312
0.17884344 0.115429446 0.02513465 -0.04354803 0.033643775 0.09311055 0.011488096 -0.10937181
-0.0037158816 0.098772466 0.1581656 0.046158865 0.00079668354 0.08603119 -0.043728206 0.025783956
0.00053252745 0.046889752 -0.27076074 0.11614362 0.0937373 0.084421396 0.010014508 0.10563695
-0.28271 -0.01152503 0.11252555 -0.05969811 -0.0016970945 0.049439598 -0.17116423 -0.011219469
-0.013886045 0.070740096 0.07122665 0.09324819 -0.13302335 0.06085691 -0.14903122 -0.053674392
0.06576037 -0.06692091 0.086515844 0.12822936 0.043892838 -0.047209553 0.24859591 0.006169606
00000000: f63f 323c c707 3bbd 80f2 93bd 07a3 d9bd
00000010: 5535 68bd 685f 01be 5097 5fbd 32bd 8cbd
00000020: 2f51 1cbe 8193 dabd e6dc a53d 8018 3dbe
00000030: 60d7 b2bd acff 68bd acbb 5d3e 38d6 47be
00000040: bc22 373e 4666 ec3d 2ee7 cd3c 6b5f 32bd
00000050: 0ece 093d beb0 be3d 9138 3c3c 54fe dfbd
00000060: 2686 73bb 3849 ca3d 2af6 213e 1411 3d3d
00000070: 87d8 503a 1f31 b03d 591c 33bd e038 d33c
00000080: 5099 0b3a 780f 403d 27a1 8abe b5dc ed3d
00000090: 57f9 bf3d 20e5 ac3d e413 243c 2f58 d83d
000000a0: 5dbf 90be 7bd3 3cbc cc73 e63d 0186 74bd
000000b0: 0b71 deba 2d81 4a3d ad45 2fbe ddd1 37bc
000000c0: 4b82 63bc 2fe0 903d 47df 913d e8f8 be3d
000000d0: 4637 08be 1845 793d a49b 18be aed9 5bbd
000000e0: 5fad 863d d40d 89bd 382f b13d 8f4e 033e
000000f0: fac8 333d ce5e 41bd ed8f 7e3e 682a ca3b

gnn_list.0.nn.3.weight f4 [64]
0.7940992 0.98270154 1.2605314 1.1765796 1.4322293 1.1440902 0.9931537 1.0266331
0.8487637 0.7493144 1.1128213 1.1094846 0.90949667 1.1071204 1.2424325 1.6421758
1.0152503 0.5669921 1.0791855 0.22632141 0.96150064 0.53210586 0.9189745 0.65573627
0.95940346 1.0290527 1.0329318 1.181684 0.6675793 1.2174579 1.1918683 1.614641
1.3511344 0.9270557 1.1608958 1.1076899 1.2220004 0.5769179 1.3163304 1.2121824
1.266559 1.1689626 0.96942776 0.57334644 1.3668206 1.1168301 0.6679503 1.1191986
0.9921277 1.6939359 1.3344634 0.36365885 0.3623479 1.0478269 0.87945646 1.1420096
1.3377529 1.0976948 0.8268821 0.9352495 0.5229095 1.4059691 1.2495459 0.48255503
00000000: 164a 4b3f 5492 7b3f 1859 a13f 299a 963f
00000010: 4a53 b73f 8c71 923f 523f 7e3f b768 833f
00000020: 9448 593f 12d3 3f3f ee70 8e3f 9703 8e3f
00000030: c6d4 683f 1fb6 8d3f 0708 9f3f d132 d23f
00000040: b9f3 813f 6526 113f c022 8a3f cdc0 673e
00000050: e824 763f 1738 083f ea41 6b3f 55de 273f
00000060: 779b 753f 00b8 833f 1c37 843f 6c41 973f
00000070: 7ae6 2a3f a9d5 9b3f 248f 983f 8eac ce3f
00000080: f9f1 ac3f 8653 6d3f 3c98 943f c8c8 8d3f
00000090: 826a 9c3f e4b0 133f 847d a83f cb28 9b3f
000000a0: 9b1e a23f 91a0 953f 6b2c 783f d5c6 123f
000000b0: faf3 ae3f 4af4 8e3f cafe 2a3f e641 8f3f
000000c0: 15fc 7d3f e4d2 d83f b2cf aa3f 7e31 ba3e
000000d0: aa85 b93e 311f 863f 0f24 613f 5f2d 923f
000000e0: 7d3b ab3f 4381 8c3f 8cae 533f 836c 6f3f
000000f0: 66dd 053f ccf6 b33f 1ff1 9f3f 7411 f73e

gnn_list.0.nn.3.bias f4 [64]
-0.62209815 -0.05549851 0.5021368 0.12686826 0.22761084 0.33379298 -0.3700672 -0.30255458
-0.25998592 -0.17812583 -0.23660567 -0.2973282 0.13553734 -0.10050385 0.2021401 0.10261354
0.32137448 -0.6406011 0.19005351 -0.8728838 0.23311414 -0.7947138 -0.15288423 -0.4692939
0.12527508 0.09856797 -0.2848829 0.06880522 -0.5895705 0.008301741 0.36249712 0.64880246
-0.0011106802 -0.3206896 0.097479165 -0.102230035 0.5952284 -0.7411242 -0.05826225 0.013880022
0.2695118 0.19581163 0.39033318 -0.80284643 0.26263496 -0.06686407 -0.5843065 0.06613667
-0.12914026 0.63309705 0.032283816 -0.78149897 -0.78079075 0.06158384 0.064402394 -0.06088611
0.29223546 -0.20334645 -0.21375841 0.12972319 -0.391353 0.296299 -0.0050664833 -0.72547203
00000000: d341 1fbf 6852 63bd 0a8c 003f c1e9 013e
00000010: d112 693e eae6 aa3e 7379 bdbe 6fe8 9abe
00000020: e01c 85be 9e66 36be c248 72be 673b 98be
00000030: 4dca 0a3e f6d4 cdbd d0fd 4e3e 0c27 d23d
00000040: 328b a43e 6ffe 23bf 639d 423e 5075 5fbf
00000050: 79b5 6e3e 5d72 4bbf af8d 1cbe 4a47 f0be
00000060: 1c48 003e 01de c93d 2cdc 91be c0e9 8c3d
00000070: 18ee 16bf 0704 083c 3999 b93e eb17 263f
00000080: 3e94 91ba 6d31 a4be 28a3 c73d fb5d d1bd
00000090: e360 183f 51ba 3dbf 66a4 6ebd 0869 633c
000000a0: 73fd 893e d882 483e c0d9 c73e 5887 4dbf
000000b0: 1778 863e 08f0 88bd 1c95 15bf aa72 873d
000000c0: 583d 04be a612 223f 093c 043d 5110 48bf
000000d0: e7e1 47bf 563f 7c3d 67e5 833d b763 79bd
000000e0: e39f 953e 0d3a 50be 7ce3 5abe 28d6 043e
000000f0: 6c5f c8be 81b4 973e be04 a6bb 89b8 39bf

gnn_list.0.nn.3.running_mean f4 [64]
-20.260817 1.9049158 -9.423598 -11.17598 4.6029387 4.581104 8.181301 -1.8142132
-11.504122 -9.033569 -1.1511688 7.5315394 -6.3917475 -17.780993 12.722663 -14.312035
-6.996063 -0.5151203 5.3190103 0.38009205 -10.898519 -4.4105983 -11.711955 4.8533454
-7.99812 0.9225229 -7.8638263 2.0874355 9.009027 5.0991225 -4.547714 -3.3319032
-1.806402 7.5507393 -16.39095 -0.11104234 -1.1709625 10.538414 -13.406905 -0.5888323
-8.08695 -6.1415114 -12.7200365 7.498402 2.8810215 -11.364996 -3.367782 10.359184
1.8806068 8.180059 -2.9411485 10.977635 11.35382 -0.38011685 -7.6745434 -5.42097
-7.913025 -15.891188 -4.2757587 -8.072647 2.7882965 0.2324401 0.03515021 5.0924463
00000000: 2716 a2c1 48d4 f33f 0fc7 16c1 d0d0 32c1
00000010: 464b 9340 6798 9240 9ce6 0241 2338 e8bf
00000020: e210 38c1 8089 10c1 8059 93bf 5f02 f140
00000030: 3289 ccc0 793f 8ec1 0790 4b41 18fe 64c1
00000040: c0df dfc0 edde 03bf 5535 aa40 6d9b c23e
00000050: 5560 2ec1 9f23 8dc0 2b64 3bc1 9b4e 9b40
00000060: 99f0 ffc0 762a 6c3f 77a4 fbc0 8b98 0540
00000070: f924 1041 032c a340 e086 91c0 e73d 55c0
00000080: 2e38 e7bf a89f f140 aa20 83c1 2b6a e3bd
00000090: 19e2 95bf 589d 2841 af82 56c1 b7bd 16bf
000000a0: 2664 01c1 4387 c4c0 4585 4bc1 e9f2 ef40
000000b0: a862 3840 06d7 35c1 be89 57c0 38bf 2541
000000c0: b9b7 f03f 86e1 0241 c73b 3cc0 65a4 2f41
000000d0: 3fa9 3541 ad9e c2be dc95 f5c0 9678 adc0
000000e0: 8037 fdc0 4e42 7ec1 04d3 88c0 9029 01c1
000000f0: 7373 3240 c704 6e3e abf9 0f3d 52f5 a240

gnn_list.0.nn.3.running_var f4 [64]
71.110085 92.236855 94.099815 31.70449 119.962814 52.79102 45.2054 45.645393
73.69718 61.214 64.25545 95.47298 100.62829 79.729836 103.25894 61.36282
77.59823 44.828575 93.51539 49.283768 56.90772 61.1745 67.92769 68.190674
77.70266 46.954594 84.68914 73.71229 87.86396 94.69662 106.83582 49.661594
62.122128 61.832264 60.324863 106.07436 95.33736 65.78077 56.284233 78.898506
82.96221 76.409325 84.65628 25.324224 79.70092 53.32135 74.10307 43.326942
136.42683 94.943375 68.91128 44.519432 32.936787 56.1246 53.63656 68.26958
73.70283 46.642006 64.26688 59.08606 67.169136 103.718864 78.13117 93.1405
00000000: 5d38 8e42 4579 b842 1b33 bc42 cca2 fd41
00000010: f6ec ef42 012a 5342 54d2 3442 e294 3642
00000020: f564 9342 23db 7442 ca82 8042 2af2 be42
00000030: af41 c942 ad75 9f42 9484 ce42 8773 7542
00000040: 4b32 9b42 7650 3342 e107 bb42 9422 4542
00000050: 81a1 6342 b0b2 7442 fada 8742 a061 8842
00000060: c367 9b42 81d1 3b42 d760 a942 b16c 9342
00000070: 59ba af42 ab64 bd42 f1ab d542 79a5 4642
00000080: 0f7d 7842 3d54 7742 a94c 7142 1326 d442
00000090: baac be42 c18f 8342 0e23 6142 09cc 9d42
000000a0: a7ec a542 93d1 9842 0450 a942 0398 ca41
000000b0: df66 9f42 1049 5542 c634 9442 ca4e 2d42
000000c0: 456d 0843 02e3 bd42 93d2 8942 e613 3242
000000d0: 45bf 0342 977f 6042 d68b 5642 068a 8842
000000e0: d967 9342 6a91 3a42 a488 8042 2058 6c42
000000f0: 9956 8642 0f70 cf42 2943 9c42 f047 ba42

gnn_list.1.nn.0.weight f4 [32, 64]
0.13189404 0.07500049 -0.15214166 -0.33055362 -0.16992486 0.11377884 0.17846815 -0.06238235
-0.08070775 0.10155963 0.21843143 -0.13052906 -0.083450526 -0.19204468 -0.15540926 -0.18021946
-0.06855691 -0.043149937 -0.15282804 0.009324942 -0.16271228 -0.1873527 -0.09007842 -0.058470674
0.0056630806 -0.09717325 -0.13317363 -0.116568126 -0.099673904 -0.07153212 -0.10677267 -0.018566677
0.04198617 -0.109378695 -0.004341337 -0.28786153 -0.22220945 -0.16163956 -0.17660561 -0.18573515
-0.15253112 0.081204526 -0.011423903 0.091973275 -0.045424324 -0.06533983 0.031565063 -0.21060549
-0.035376426 -0.15923853 -0.08680029 -0.11275642 -0.14542569 -0.022224953 -0.2303495 -0.16382584
-0.04034739 -0.16161674 -0.10568594 -0.122372165 0.22681195 -0.1700935 0.055649046 0.04242914
-0.11582265 -0.87958205 -0.067718156 0.31764895 -1.0692697 -0.17412992 0.5201644 -0.17215693
-0.38812238 -0.5540642 0.542028 -0.17532544 -0.7649283 -0.24103057 0.05068191 -0.21705073
0.31399974 0.4213913 -0.84074384 0.11721398 -0.9925245 0.4406063 -0.66244924 0.31881115
0.38228384 0.42215574 -0.12918371 -0.23925972 -0.9920044 -0.462249 -0.63042647 -0.05251298
-0.30884025 0.47649825 -0.11974637 0.45442542 -0.002135338 0.68453485 0.007499825 -0.12531003
0.23962288 0.16212231 -0.47194552 0.016426135 0.015270625 -0.58091253 0.14337282 0.10810329
-0.41167063 0.24866313 0.40034047 1.0320044 -0.004986617 -1.2437928 -1.1246424 -0.108070865
-0.2604299 -0.419383 -0.28731757 -0.07534838 0.5236325 -1.169488 -1.2667171 0.23462705
0.3336547 -0.1824234 -0.011266827 -0.21630828 0.35976315 0.06456273 0.9371212 -0.09520227
0.15301253 0.29342744 -1.2131262 -0.21934628 -0.97655797 0.441376 0.20331591 0.22545987
0.06214831 -0.2974793 0.20304558 -0.16619618 0.6312961 -0.45724317 -0.1660318 -0.06159298
-0.043577857 -0.09861509 -0.0893488 0.38277963 -0.17311326 0.6611855 -0.21926318 0.39895543
-0.48433474 -0.09830918 0.36791158 -0.2132783 -0.19018596 0.0351436 -0.46688238 -0.39985782
-0.31535846 -0.1086717 -0.052097946 0.13737363 0.19633916 0.28538445 -0.2891105 -0.048139077
0.014917925 0.3945144 -2.3379965 -0.34822202 0.30059084 0.027650764 -0.4072685 0.14239667
0.7045662 0.39839694 0.007171477 -0.29066998 -0.300309 -0.037729625 -0.160321 -0.47942466
0.4005171 -0.10593818 -0.19751556 -0.5094978 0.59283566 0.1960541 0.49798203 0.033666905
0.7243204 -0.3029317 0.06612281 0.18974271 -0.18903536 0.109661035 -0.9932095 0.63214046
-0.7213626 0.26757315 0.119216695 -0.21496469 -0.8762094 -0.6111449 -0.102702275 0.01544784
-0.77963805 -0.4247322 0.12916318 -0.61885136 -0.010510983 0.46242613 -0.25484443 0.249904
0.3670682 0.20404303 -0.70906097 0.06405402 -0.41775933 0.34075338 -0.22653753 0.19825125
0.18420452 0.029201582 0.053655595 -1.2164252 -0.5846918 0.018864652 -0.83556813 0.057491962
0.75214654 0.3118806 0.41240683 0.5979616 -1.1449877 0.069834284 -0.2572659 0.25242776
-0.17500736 -0.35411382 -0.16227286 -0.16341239 -0.30754694 -0.08046988 0.62751585 -0.37600577
00000000: 3b0f 073e db99 993d 06cb 1bbe 533e a9be
00000010: c800 2ebe e104 e93d 5bc0 363e a384 7fbd
00000020: 1b4a a5bd 7ffe cf3d 7dac 5f3e 69a9 05be
00000030: 1ce8 aabd 5ca7 44be 9b23 1fbe 738b 38be
00000040: 9167 8cbd fdbd 30bd f47e 1cbe a4c7 183c
00000050: 0c9e 26be 63d9 3fbe 097b b8bd f27e 6fbd
00000060: 5d91 b93b c502 c7bd ab5e 08be 45bb eebd
00000070: d521 ccbd 6f7f 92bd a1ab dabd 2519 98bc
00000080: b1f9 2b3d f001 e0bd c641 8ebb 9662 93be
00000090: e08a 63be d784 25be 1ad8 34be 5b31 3ebe
000000a0: 1e31 1cbe 8f4e a63d 522b 3bbc 7c5c bc3d
000000b0: db0e 3abd e4d0 85bd 5e4a 013d f7a8 57be
000000c0: dfe6 10bd 6d0f 23be 5ac4 b1bd d7ec e6bd
000000d0: 79ea 14be 1b11 b6bc bde0 6bbe f6c1 27be
000000e0: 4e43 25bd dc7e 25be df71 d8bd 429e fabd
000000f0: 6441 683e fe2c 2ebe 41f0 633d 2eca 2d3d
00000100: 6d34 edbd 4a2c 61bf d1af 8abd e2a2 a23e
00000110: d4dd 88bf 1d4f 32be 7e29 053f e849 30be
00000120: fab7 c6be 27d7 0dbf 59c2 0a3f 8388 33be
00000130: 57d2 43bf b8d0 76be d697 4f3d 8c42 5ebe
00000140: 93c4 a03e 9ac0 d73e fd3a 57bf e20d f03d
00000150: 1616 7ebf 2697 e13e 4696 29bf 373b a33e
00000160: b5ba c33e cc24 d83e bc48 04be 8000 75be
00000170: 00f4 7dbf e7ab ecbe a163 21bf da17 57bd
00000180: 4f20 9ebe 94f7 f33e 963d f5bd 73aa e83e
00000190: 07f1 0bbb ad3d 2f3f 18c1 f53b 4651 00be
000001a0: b35f 753e 6403 263e d8a2 f1be 1a90 863c
000001b0: a531 7a3c afb6 14bf 53d0 123e 4265 dd3d
000001c0: 7ec6 d2be 8ca1 7e3e 6df9 cc3e b818 843f
000001d0: c666 a3bb 9a34 9fbf 48f4 8fbf 4254 ddbd
000001e0: 1157 85be 5eb9 d6be 4a1b 93be 4050 9abd
000001f0: c80c 063f c8b1 95bf c923 a2bf 1342 703e
00000200: cad4 aa3e 33cd 3abe 7f98 38bc eb7f 5dbe
00000210: e032 b83e 7739 843d 2de7 6f3f 68f9 c2bd
00000220: 51af 1c3e 1f3c 963e b847 9bbf 509c 60be
00000230: b4ff 79bf 09fc e13e 0c32 503e f4de 663e
00000240: 3a8f 7e3d 354f 98be 2eeb 4f3e 552f 2abe
00000250: 9f9c 213f c71b eabe 3d04 2abe ec48 7cbd
00000260: b27e 32bd b5f6 c9bd 81fc b6bd b1fb c33e
00000270: 9a44 31be 7443 293f 8786 60be e343 cc3e
00000280: b9fa f7be 5356 c9bd e85e bc3e a065 5abe
00000290: 1cc0 42be bcf2 0f3d 350b efbe 2aba ccbe
000002a0: aa76 a1be 458f debd a864 55bd acab 0c3e
000002b0: 220d 493e e91d 923e 4b06 94be 7b2d 45bd
000002c0: 506a 743c cbfd c93e bca1 15c0 284a b2be
000002d0: 0be7 993e db83 e23c 7f85 d0be 6fd0 113e
000002e0: 735e 343f affa cb3e b6fe ea3b b2d2 94be
000002f0: 1ac2 99be 618a 1abd 302b 24be 2677 f5be
00000300: 9410 cd3e 1ef6 d8bd 8541 4abe 736e 02bf
00000310: 14c4 173f 68c2 483e 80f7 fe3e 4fe6 093d
00000320: 106d 393f dd19 9bbe 656b 873d ea4b 423e
00000330: 7c92 41be f795 e03d fa42 7ebf f5d3 213f
00000340: 38ab 38bf 59ff 883e e227 f43d b41f 5cbe
00000350: 424f 60bf fe73 1cbf 9255 d2bd f018 7d3c
00000360: 5c96 47bf 8076 d9be 5a43 043e 0b6d 1ebf
00000370: 4236 2cbc 1ec3 ec3e f87a 82be d6e6 7f3e
00000380: 5df0 bb3e a8f0 503e 0585 35bf c12e 833d
00000390: 8de4 d5be 3a77 ae3e 74f9 67be 6002 4b3e
000003a0: 1ca0 3c3e 2838 ef3c f8c5 5b3d d2b3 9bbf
000003b0: 5dae 15bf 0b8a 9a3c cbe7 55bf b17c 6b3d
000003c0: ad8c 403f d0ae 9f3e fd26 d33e 0314 193f
000003d0: f58e 92bf 4705 8f3d 5bb8 83be 363e 813e
000003e0: 2135 33be 684e b5be db2a 26be 9455 27be
000003f0: cb76 9dbe 64cd a4bd e1a4 203f d483 c0be

gnn_list.1.nn.0.bias f4 [32]
-0.2620007 -0.0702984 0.50617003 0.2990923 0.36537576 0.3150397 0.9837595 0.5993581
0.017002737 -0.05245623 0.82823473 -0.13095494 0.15740775 1.134642 0.08622857 -0.05862403
0.02656431 0.7563218 -0.063198045 0.40551868 -0.100602366 -0.070665956 0.78364486 0.34425974
-0.2281951 -0.35213652 0.098934 0.26951826 -0.14827321 -0.19542983 0.5119661 -0.1842941
00000000: f524 86be 9cf8 8fbd 5c94 013f a022 993e
00000010: 8812 bb3e e24c a13e aad7 7b3f 886f 193f
00000020: 5349 8b3c 58dc 56bd 3107 543f 0d19 06be
00000030: 7f2f 213e f33b 913f 9b98 b03d c01f 70bd
00000040: 659d d93c 4e9e 413f fa6d 81bd 25a0 cf3e
00000050: 9d08 cebd 50b9 90bd f39c 483f d042 b03e
00000060: faab 69be 3d4b b4be e99d ca3d 4cfe 893e
00000070: efd4 17be c21e 48be 3610 033f 98b7 3cbe

gnn_list.1.nn.2.weight f4 [32, 32]
0.020849703 0.13669889 -0.003807649 0.23210485 -0.06674536 -0.25301498 -0.004569936 0.11980963
0.00069542526 0.16047628 -0.14844547 -0.19850022 -0.07774825 -0.031508494 -0.049584504 -0.3271297
-0.12040399 0.17841645 0.012508532 0.10139235 -0.17545411 0.14259855 0.014933168 -0.33657253
-0.07307508 -0.24888964 -0.09643342 -0.005807881 -0.052143876 0.11428987 0.024928804 0.1632033
-0.13573557 0.14624774 -0.3380111 -0.08147646 0.23235045 0.013000733 -0.29031384 -0.34696436
-0.45530385 0.9669109 0.048746247 0.15218286 0.2185531 -0.2977533 -0.19214703 -0.57204556
-0.1122268 0.47203463 0.14664502 0.061745193 -0.029906558 -0.078306355 -0.2616659 0.47630647
-0.045850214 -0.12416495 -0.04600872 0.37954915 0.06949147 0.04857728 -1.4083339 0.027799075
-0.03376242 -0.37858135 -1.0897236 0.3461533 0.044168204 -0.21778587 -0.30958286 0.41599378
0.052900076 -0.29044116 0.21573345 0.08247222 0.22516441 -0.027549552 0.06882816 -0.14407568
-0.16668251 0.43841913 0.06382206 0.05420251 -0.1814928 0.10787402 0.31115964 0.40068924
0.058642123 0.18651463 -1.1798141 -0.6967621 0.025868999 0.085121736 0.017728701 0.076051645
-0.12583528 0.22023226 0.0104313055 0.42218956 -0.03391731 -0.32185382 -0.042993817 0.05253182
0.09302068 0.2587555 -0.27660376 0.11204862 -0.055780586 -0.4098161 0.14529757 -0.22279683
-0.1845354 0.106845334 -0.022191407 0.17830838 0.073332824 -0.19518463 0.105714165 -0.1959223
-0.14899118 0.018290488 -0.20176204 -0.083439425 -0.15857421 0.092676006 0.033255585 0.055799887
0.10896752 0.14382042 -0.17825705 0.44803837 -0.22362925 -0.36874747 0.106119044 0.06637156
0.21309105 0.31157166 -0.16273202 0.031798244 -0.1439889 -0.19691549 -0.012726512 -0.082154654
-0.20153819 0.0020867183 0.07958525 0.08725361 -0.085404165 0.07469011 0.12665798 -0.2243946
-0.115959145 -0.03720143 -0.30079648 0.31039113 -0.080026336 0.157252 -0.054139234 0.052463055
-0.0803449 0.5105448 -1.0751603 -0.12784156 0.08954395 -0.14019057 -0.013871636 0.3174928
-0.7345429 -0.29640588 0.14165412 0.18558842 -0.23273136 0.079216674 -0.2753382 -0.3150707
0.2873442 -0.3153532 -0.008389394 0.42861888 0.10754814 0.04848801 0.17800383 -0.09997709
-0.15044089 0.17424442 -0.1470619 -1.1942935 -0.3123518 -0.08864085 0.32396865 -0.16046523
-0.051569372 0.15123682 0.1640024 0.3799161 0.065416545 -0.39473084 0.33718312 0.17671654
0.13124084 0.48667884 -0.20571496 0.08892557 0.17202836 -0.16015764 0.46859598 0.25058237
-0.18947448 0.11024552 -0.19845259 0.13150184 0.21868809 -0.05801835 0.3314186 -0.18602812
-0.14737813 -0.011903573 -0.13231318 -0.18032432 -0.17624179 -0.13335171 -0.19415462 -0.19036005
-0.17592321 0.26854542 0.0327781 0.3102722 -0.21079007 -0.46698457 0.04981463 -0.2588312
0.066843964 0.071707256 0.08015326 -0.017786268 0.020855246 -0.1451319 0.10531021 -0.20209627
-0.04084476 0.12154056 0.16147263 -0.03933141 -0.14530227 -0.07858124 0.19940452 -0.13323203
0.135582 -0.31194425 0.012708121 0.11522745 -0.16414157 0.039838176 -0.05518083 -0.086703025
00000000: ffcc aa3c cbfa 0b3e c089 79bb e5ac 6d3e
00000010: cbb1 88bd 2e8b 81be 67bf 95bb c05e f53d
00000020: 334d 363a e553 243e 1702 18be a443 4bbe
00000030: 793a 9fbd 0d0f 01bd 1f19 4bbd 8b7d a7be
00000040: 5e96 f6bd cdb2 363e 96f0 4c3c cba6 cf3d
00000050: 3eaa 33be 5b05 123e 3faa 743c 3c53 acbe
00000060: 63a8 95bd eddc 7ebe e37e c5bd 0950 bebb
00000070: d194 55bd cf10 ea3d 7e37 cc3c c41e 273e
00000080: 44fe 0abe f8c1 153e ca0f adbe 21dd a6bd
00000090: 47ed 6d3e 0701 553c 04a4 94be 50a5 b1be
000000a0: 961d e9be 7987 773f 25aa 473d d3d5 1b3e
000000b0: 62cc 5f3e 1f73 98be 31c2 44be 9471 12bf
000000c0: 2ad7 e5bd 86ae f13e 1d2a 163e 87e8 7c3d
000000d0: 99fe f4bc 155f a0bd 13f9 85be 71de f33e
000000e0: 6fcd 3bbd 314a febd a473 3cbd 4454 c23e
000000f0: 8b51 8e3d f8f8 463d 4944 b4bf e3ba e33c
00000100: 774a 0abd 6ad5 c1be 107c 8bbf 013b b13e
00000110: b8e9 343d 4203 5fbe a581 9ebe 23fd d43e
00000120: c0ad 583d b4b4 94be 3be9 5c3e 32e7 a83d
00000130: 8091 663e 99af e1bc c7f5 8c3d 9388 13be
00000140: d2ae 2abe 7978 e03e 24b5 823d 7303 5e3d
00000150: 40d9 39be 0eed dc3d 5150 9f3e 2427 cd3e
00000160: b932 703d b1fd 3e3e 2604 97bf 005f 32bf
00000170: 39eb d33c 4e54 ae3d c83b 913c f7c0 9b3d
00000180: f7da 00be 9184 613e 11e8 2a3c 3b29 d83e
00000190: e1ec 0abd 06ca a4be 491a 30bd 9b2b 573d
000001a0: a081 be3d 9a7b 843e 029f 8dbe bf79 e53d
000001b0: 2f7a 64bd 6ad3 d1be e3c8 143e da24 64be
000001c0: d9f6 3cbe bad1 da3d c1ca b5bc 7996 363e
000001d0: 852f 963d 7bde 47be ab80 d83d db9f 48be
000001e0: 2591 18be efd5 953c b59a 4ebe 4ae2 aabd
000001f0: 4761 22be ebcc bd3d 0237 083d 6c8e 643d
00000200: 5d2a df3d a945 133e 0489 36be 4965 e53e
00000210: 11ff 64be 78cc bcbe f154 d93d d0ed 873d
00000220: 8a34 5a3e 5286 9f3e 39a3 26be e03e 023d
00000230: d471 13be 37a4 49be dc82 50bc b340 a8bd
00000240: 0760 4ebe 53c1 083b 97fd a23d 05b2 b23d
00000250: 61e8 aebd 21f7 983d a1b2 013e b3c7 65be
00000260: fd7b edbd 8760 18bd ff01 9abe 96eb 9e3e
00000270: d9e4 a3bd ab06 213e 1ac1 5dbd 80e3 563d
00000280: de8b a4bd 10b3 023f da9e 89bf e6e8 02be
00000290: d262 b73d 1e8e 0fbe dc45 63bc 6b8e a23e
000002a0: 010b 3cbf 83c2 97be c70d 113e e40a 3e3e
000002b0: 2151 6ebe 5a3c a23d 21f9 8cbe f250 a1be
000002c0: c71e 933e fa75 a1be ab73 09bc ef73 db3e
000002d0: 3342 dc3d 5d9b 463d a346 363e cac0 ccbd
000002e0: 2d0d 1abe 216d 323e 6597 16be 9cde 98bf
000002f0: 93ec 9fbe 5589 b5bd 38df a53e ff50 24be
00000300: 683a 53bd d3dd 1a3e 3ff0 273e 5d84 c23e
00000310: 1cf9 853d 291a cabe 44a3 ac3e 2ef5 343e
00000320: 0064 063e f82d f93e f1a6 52be 9c1e b63d
00000330: 3428 303e 5d00 24be d0eb ef3e 554c 803e
00000340: 9905 42be 67c8 e13d 2837 4bbe 6ba8 063e
00000350: c5ef 5f3e a6a4 6dbd b3af a93e 287e 3ebe
00000360: 4bea 16be 3407 43bc 1b7d 07be f0a6 38be
00000370: ba78 34be 5a8d 08be 78d0 46be bfed 42be
00000380: 3725 34be c97e 893e 5442 063d ffdb 9e3e
00000390: 5ad9 57be 9a18 efbe 6d0a 4c3d 8685 84be
000003a0: 7de5 883d 41db 923d 6427 a43d 82b4 91bc
000003b0: 9fd8 aa3c 759d 14be e1ac d73d 53f2 4ebe
000003c0: d64c 27bd 42ea f83d 1559 253e f919 21bd
000003d0: 1eca 14be 33ef a0bd b330 4c3e fa6d 08be
000003e0: 02d6 0a3e 28b7 9fbe b935 503c 5ffc eb3d
000003f0: ba14 28be 5b2d 233d 4b05 62bd 5b91 b1bd

gnn_list.1.nn.2.bias f4 [32]
0.07678328 0.015633186 0.01532137 0.16704555 -0.12510441 -0.15639871 0.112281956 -0.06277779
0.06407813 0.06429144 -0.010069878 -0.113910526 0.10992163 -0.18402737 -0.0071116164 0.010731791
-0.06404151 0.07708312 0.1318135 -0.14041498 -0.031258933 -0.10829756 0.017507195 0.17374207
-0.11099318 0.12260539 0.13706289 0.050357986 0.0804502 -0.09634208 -0.115282506 -0.10115782
00000000: 8d40 9d3d 2b11 803c 7c06 7b3c fd0d 2b3e
00000010: 5f1b 00be fc26 20be 15f4 e53d a491 80bd
00000020: 653b 833d 3bab 833d 21fc 24bc ec49 e9bd
00000030: 971e e13d ac71 3cbe 9008 e9bb 65d4 2f3c
00000040: 3228 83bd c1dd 9d3d 1efa 063e f2c8 0fbe
00000050: 5e09 00bd 1ccb ddbd 406b 8f3c 71e9 313e
00000060: 6450 e3bd 8918 fb3d 375a 0c3e 2d44 4e3d
00000070: 13c3 a43d ff4e c5bd 3c19 ecbd d52b cfbd

gnn_list.1.nn.3.weight f4 [32]
0.5970564 0.16123715 0.22131313 0.5063208 0.54829514 0.48453015 0.39588284 0.44944444
0.07749871 0.4034614 0.08427698 0.6147598 0.27423352 0.4125395 0.36273155 0.44589043
0.38401696 0.30006564 0.39470378 0.16823941 0.45379955 0.4729424 0.19668268 0.2487631
0.30049354 0.2766139 0.3432309 0.3872426 0.43633264 0.2921998 0.5666053 0.55276716
00000000: b0d8 183f 5a1b 253e e99f 623e 3d9e 013f
00000010: 125d 0c3f 5614 f83e 28b1 ca3e 951d e63e
00000020: a5b7 9e3d 7e92 ce3e 6999 ac3d e660 1d3f
00000030: 5668 8c3e 6138 d33e f3b7 b93e c04b e43e
00000040: df9d c43e 34a2 993e 9d16 ca3e f446 2c3e
00000050: 6a58 e83e 8225 f23e 2f67 493e c1bb 7e3e
00000060: 4ada 993e 56a0 8d3e f6bb af3e a944 c63e
00000070: fe66 df3e 369b 953e 0c0d 113f 2682 0d3f

gnn_list.1.nn.3.bias f4 [32]
-0.8733279 0.05678669 0.12203577 -0.83710635 -0.85755926 -0.36638176 -0.93134046 -0.69188696
0.03810202 -0.6892362 0.12944049 -1.1735499 0.1492789 -0.8210471 -0.78347677 -0.6993951
-0.53624845 0.08178092 -0.8701289 0.066722594 0.1735159 -0.8766751 -0.7118536 -0.8682218
-0.030214723 -0.45070904 -0.8439379 -0.67882293 -0.8654739 0.036937516 -1.0302306 -0.730344
00000000: 6b92 5fbf 2999 683d e4ed f93d 9a4c 56bf
00000010: 0189 5bbf 6496 bbbe 546c 6ebf 811f 31bf
00000020: dd10 1c3d c971 30bf 0c8c 043e e236 96bf
00000030: 91dc 183e 2530 52bf ef91 48bf 8f0b 33bf
00000040: 9447 09bf c17c a73d c5c0 5ebf dba5 883d
00000050: 27ae 313e c86d 60bf 0a3c 36bf c943 5ebf
00000060: de84 f7bc 56c3 e6be 500c 58bf 57c7 2dbf
00000070: b38f 5dbf cb4b 173d 99de 83bf d3f7 3abf

gnn_list.1.nn.3.running_mean f4 [32]
-37.037693 -19.046202 -61.85783 -45.37 -32.42706 -76.37709 -9.920865 -44.571568
9.4723015 -46.62206 27.222336 33.72628 -5.203017 -33.296467 -32.60501 -25.584658
-71.25117 -63.50471 60.43183 -0.7622002 -108.789566 -42.252644 11.853784 5.1918597
-39.59736 28.388996 -24.237087 70.93386 -42.305088 -56.88177 25.23421 -47.7775
00000000: 9926 14c2 9f5e 98c1 6b6e 77c2 e17a 35c2
00000010: 4fb5 01c2 12c1 98c2 ddbb 1ec1 4949 32c2
00000020: 8c8e 1741 fd7c 3ac2 58c7 d941 b6e7 0642
00000030: 1e7f a6c0 952f 05c2 886b 02c2 61ad ccc1
00000040: 9980 8ec2 d304 7ec2 32ba 7142 8d1f 43bf
00000050: 4294 d9c2 b502 29c2 19a9 3d41 b723 a640
00000060: b263 1ec2 aa1c e341 8ee5 c1c1 23de 8d42
00000070: 6938 29c2 ef86 63c2 a9df c941 291c 3fc2

gnn_list.1.nn.3.running_var f4 [32]
1580.0294 3432.4673 5168.2305 2274.8901 1831.4861 4118.3003 3986.8691 2724.315
3578.508 2410.429 1433.399 5125.0024 7526.3394 1747.3052 4054.9038 3515.5742
3722.676 5366.0386 2171.4626 4816.8564 9095.964 1891.1257 1373.6357 2537.552
4463.345 4887.736 1362.7494 5004.9893 2252.5063 3179.0325 5401.734 1904.0186
00000000: f180 c544 7a87 5645 d881 a145 3e2e 0e45
00000010: 8eef e444 67b2 8045 e82d 7945 0a45 2a45
00000020: 21a8 5f45 dda6 1645 c52c b344 0528 a045
00000030: b732 eb45 c469 da44 766e 7d45 30b9 5b45
00000040: d1aa 6845 4fb0 a745 67b7 0745 da86 9645
00000050: db1f 0e46 0664 ec44 58b4 ab44 d598 1e45
00000060: c37a 8b45 e3bd 9845 fb57 aa44 ea67 9c45
00000070: 1ac8 0c45 85b0 4645 dfcd a845 9800 ee44

mlp_list_inner.0.mlp_list.0.weight f4 [64, 64]
-0.2091906 0.18777399 0.06647324 0.35689533 -0.75213873 0.30356693 0.264638 -0.45499605
0.082821235 -0.4216562 -0.24910276 0.18635207 0.42523688 0.39642632 0.42994335 -0.19218072
0.4885754 0.29205245 -0.42931047 0.1540153 0.23027293 0.21513434 0.23582137 -0.07796374
-0.4963561 -0.13065238 0.10216803 -0.009792362 0.12894233 -0.76566434 0.636562 0.044290446
-0.37440458 -0.12788792 0.12872046 -0.0636788 0.254228 0.17630759 0.06694604 -1.035598
-0.21466772 0.3714383 0.35070094 -0.4126025 0.32533216 0.24853325 0.51062614 0.25534147
0.3051847 0.18791483 -0.77357197 0.20189793 -0.16098095 -0.29064175 -0.1738059 -0.08518267
-0.1738522 0.27266434 -0.075228654 0.22527836 0.16164817 0.2914095 0.10200831 0.20429568
0.08216301 0.17632532 -0.14214587 -0.30269662 0.05343213 0.4467285 0.11142089 0.48348504
-0.6298772 0.034027275 0.095014624 0.13289385 0.09758792 -0.25120705 -0.25268418 -0.062102113
-0.35534528 -0.0476522 -0.23504621 0.21083286 0.06882036 -0.55677974 -0.022868032 -0.46233177
-0.011070061 -0.47310022 -0.38984942 -0.49552462 -0.15071635 -0.02199519 0.2663888 0.34393936
0.17394704 0.6098654 0.045155145 -0.49654648 -0.25417975 -0.31898266 -0.40340823 -0.6920234
-0.7321747 0.031972613 -0.5003607 -0.3583574 0.0763976 -0.14721493 -0.4957332 0.034061935
-0.23724061 -0.07490883 -0.42331424 -0.037442952 0.18771961 0.12303136 0.5312359 -0.13633831
0.589308 0.21306592 0.1290667 0.36491403 0.46814585 -0.63395107 -0.34575495 0.35140225
-0.02185147 -0.057876825 0.5427465 0.016342428 -0.35590857 0.36384708 -0.10299336 -0.6739526
0.32783222 -0.067519285 -0.2632692 -0.512254 0.23854236 0.4047158 -0.073857345 0.9760498
-0.30969828 -0.019181695 0.33362514 0.01664993 -0.92272085 -0.28964424 -0.6375564 0.27431735
-0.3297413 -0.6155497 -0.082103275 0.25605324 -0.41990593 -0.30438188 0.28119534 0.78482264
0.6322505 -0.61161166 -0.86006737 -0.64706993 0.13554765 -0.1955842 -0.5035116 0.4824869
0.45666713 0.0009766757 0.3947043 0.24499051 -0.41231123 -0.37594151 -0.12322904 -0.06323804
-0.028525619 -0.39895904 -0.18461041 -0.22590403 -0.09448967 -0.004365825 0.07675719 0.64457446
0.31980172 0.04336762 0.38699862 0.1698104 -0.027576325 -0.08508815 0.65111154 -0.28886476
0.24552397 -0.2624972 -0.622201 0.0014494993 -0.47551304 -0.41070426 0.04132556 -0.012757743
0.15759656 0.00960834 -0.16566592 0.21975012 -0.07633488 -0.21545388 0.11194802 0.15678632
-0.25349256 -0.8629565 0.07299011 -0.24629919 0.13625671 -0.6740277 0.43194366 -0.4416279
-0.13494709 -0.24945372 0.2829879 0.12975924 0.1266798 -0.30389038 -0.027810002 -0.40146604
0.25237963 0.08163121 0.1607367 0.48062965 -0.35803437 -0.3537488 0.5616978 -0.08140219
0.23208615 0.12243183 0.1528594 0.2635943 -0.54711795 0.3845159 -0.14003965 0.055420853
0.10023067 -0.44546267 -0.37049258 -0.39320454 -0.21775353 -0.5023586 0.107715584 -0.31268576
-0.2024258 0.18130983 -0.359513 0.29918277 -0.03878412 -0.09580422 -0.15693595 -0.45480824
00000000: 1036 56be d347 403e 1f23 883d fcba b63e
00000010: 2a8c 40bf 206d 9b3e a27e 873e 3ef5 e8be
00000020: 2e9e a93d 52e3 d7be cb14 7fbe 14d3 3e3e
00000030: a6b8 d93e 64f8 ca3e 8921 dc3e 06cb 44be
00000040: 8e26 fa3e e687 953e 95ce dbbe 30b6 1d3e
00000050: abcc 6b3e 2d4c 5c3e 287b 713e 74ab 9fbd
00000060: 6322 febe bdc9 05be 793d d13d 2570 20bc
00000070: 7509 043e 9402 44bf baf5 223f e669 353d
00000080: f5b1 bfbe 0df5 02be 4ccf 033e 086a 82bd
00000090: 2c2a 823e fa89 343e 011b 893d 7a8e 84bf
000000a0: dbd1 5bbe 292d be3e 138f b33e a340 d3be
000000b0: f091 a63e 807f 7e3e 65b8 023f 1ebc 823e
000000c0: 2b41 9c3e bf6c 403e d008 46bf 55be 4e3e
000000d0: 31d8 24be ffce 94be 2dfa 31be 4074 aebd
000000e0: 5006 32be a99a 8b3e 7b11 9abd 5faf 663e
000000f0: 1987 253e a033 953e bce9 d03d e332 513e
00000100: 1545 a83d a08e 343e b08e 11be 0dfb 9abe
00000110: a6db 5a3d 99b9 e43e a330 e43d 5a8b f73e
00000120: a23f 21bf 2f60 0b3d 0797 c23d 5315 083e
00000130: 2ddc c73d 369e 80be d25f 81be c95e 7ebd
00000140: d1ef b5be f42e 43bd f4af 70be 92e4 573e
00000150: b0f1 8c3d 1e89 0ebf bd55 bbbc c0b6 ecbe
00000160: 335f 35bc 313a f2be 589a c7be 67b5 fdbe
00000170: 6355 1abe 422f b4bc 1d64 883e d218 b03e
00000180: 2c1f 323e 2420 1c3f 9af4 383d 573b febe
00000190: d923 82be b251 a3be 868b cebe 7228 31bf
000001a0: cd6f 3bbf b7f5 023d a417 00bf 9f7a b7be
000001b0: 5876 9c3d 83bf 16be bed0 fdbe 8784 0b3d
000001c0: 34ef 72be cd69 99bd a5bc d8be c85d 19bd
000001d0: 9239 403e def7 fb3d 13ff 073f 459c 0bbe
000001e0: e4dc 163f f42d 5a3e 102a 043e 03d6 ba3e
000001f0: d0b0 ef3e 9e4a 22bf cb06 b1be ffea b33e
00000200: db01 b3bc 4010 6dbd 6ff1 0a3f 8ee0 853c
00000210: a639 b6be 2a4a ba3e 2fee d2bd 2888 2cbf
00000220: a0d9 a73e 8d47 8abd 38cb 86be 1423 03bf
00000230: 7344 743e e936 cf3e 8542 97bd 66de 793f
00000240: c690 9ebe ee22 9dbc ead0 aa3e 6f65 883c
00000250: 6f37 6cbf 404c 94be e536 23bf 5373 8c3e
00000260: dad3 a8be aa94 1dbf c325 a8bd 6919 833e
00000270: e9fd d6be f1d7 9bbe d6f8 8f3e 23ea 483f
00000280: 2bdb 213f 9592 1cbf 602d 5cbf 60a6 25bf
00000290: 01cd 0a3e 3947 48be 23e6 00bf 8608 f73e
000002a0: 46d0 e93e cc03 803a af16 ca3e cbde 7a3e
000002b0: 751a d3be 687b c0be 825f fcbd f282 81bd
000002c0: 8fae e9bc 5c44 ccbe 830a 3dbe 6353 67be
000002d0: cd83 c1bd 320f 8fbb e032 9d3d d502 253f
000002e0: 0dbd a33e 3fa2 313d af24 c63e c7e2 2d3e
000002f0: bfe7 e1bc b242 aebd 3faf 263f 15e6 93be
00000300: a36a 7b3e 0866 86be 9148 1fbf 20fd bd3a
00000310: 7276 f3be d447 d2be fe44 293d da05 51bc
00000320: fe60 213e 4d6c 1d3c 54a4 29be 2d06 613e
00000330: 7655 9cbd f19f 5cbe 0145 e53d 988c 203e
00000340: c7c9 81be b8ea 5cbf d77b 953d db35 7cbe
00000350: e186 0b3e 148d 2cbf b827 dd3e 0d1d e2be
00000360: 922f 0abe cc70 7fbe cae3 903e 9bdf 043e
00000370: 59b8 013e 8597 9bbe cdd1 e3bc f58c cdbe
00000380: e737 813e 442e a73d 2998 243e 1715 f63e
00000390: 4850 b7be 901e b5be 6dcb 0f3f 31b6 a6bd
000003a0: fea7 6d3e 8abd fa3d 2d87 1c3e d5f5 863e
000003b0: ec0f 0cbf 45df c43e 8e66 0fbe fa00 633d
000003c0: bd45 cd3d af13 e4be 34b1 bdbe 1b52 c9be
000003d0: c8fa 5ebe 939a 00bf fd99 dc3d 5918 a0be
000003e0: b548 4fbe 49a9 393e 1712 b8be 7c2e 993e
000003f0: 19dc 1ebd 0135 c4bd d1b3 20be a0dc e8be

mlp_list_inner.0.mlp_list.0.bias f4 [64]
0.2733398 -0.14513274 0.30406567 -0.3985566 0.11644834 0.05063949 -0.21791813 0.06648631
0.14186095 -0.06734014 0.1981458 0.22533822 0.10517392 -0.20697737 0.07907738 -0.39662895
0.28088763 0.2851454 -0.213521 -0.21449617 -0.2419478 0.24191272 -0.29902166 0.22668372
0.43869483 -0.3458064 0.046315838 0.4205868 0.12804015 0.03787089 0.22477034 0.113972604
0.42034268 0.092428915 0.43085638 -0.23342478 -0.1340121 -0.20211379 -0.123473324 0.11391561
0.099563904 -0.14919491 -0.26421157 0.18594961 -0.08045687 -0.03658493 -0.16653538 0.20874739
0.3757829 0.43978468 0.027100228 0.38362375 0.15486956 0.020715047 0.05979653 0.06264923
0.4404987 -0.034341555 0.3595937 -0.12519197 0.38109162 0.03914575 0.010720006 0.24224393
00000000: 32f3 8b3e ad9d 14be 7fae 9b3e 9c0f ccbe
00000010: 787c ee3d 5b6b 4f3d ee25 5fbe f929 883d
00000020: ff43 113e a1e9 89bd bce6 4a3e 10bf 663e
00000030: 6d65 d73d e0f1 53be 52f3 a13d f312 cbbe
00000040: 81d0 8f3e 94fe 913e 40a5 5abe e2a4 5bbe
00000050: 2ac1 77be f8b7 773e 5e19 99be c71f 683e
00000060: 9c9c e03e 890d b1be adb5 3d3d 2757 d73e
00000070: f51c 033e 821e 1b3d 322a 663e 786a e93d
00000080: 2837 d73e 5f4b bd3d 3599 dc3e e806 6fbe
00000090: 783a 09be ebf6 4ebe 95df fcbd 964c e93d
000000a0: 29e8 cb3d 8dc6 18be bd46 87be 9369 3e3e
000000b0: 92c6 a4bd 14da 15bd 4088 2abe e0c1 553e
000000c0: 9e66 c03e 752b e13e 4c01 de3c 556a c43e
000000d0: 2096 1e3e 9ab2 a93c 35ed 743d 3d4e 803d
000000e0: 0c89 e13e bba9 0cbd aa1c b83e 5332 00be
000000f0: 711e c33e 4b57 203d f7a2 2f3c cb0e 783e
