model_saved/IMDBMulti/2022-04-22_14-19-21/GSC_GNN_IMDBMulti_checkpoint.pth (torch, 509845 bytes, 41 tensors)

gnn_list.0.nn.0.weight f4 [64, 89]
00000000: f80b 4c3d 3e6d 02bf 8ad4 2a3e 963e 703e
00000010: 01e4 213d 19e0 b8be 0288 c73a 472c 58bc
00000020: d9b5 153d 24dc 293e 3714 053f d5e7 e9bd
00000030: 5fe0 61be ce9d ba3d aa30 383e 5820 8abc
00000040: 49dc 973d 86a8 293e fe6e b1be 38e0 2dbe
00000050: f0ee e6bd 9151 b6bc 9c0f 9e3d e553 adbe
00000060: 10fb 30be ad50 75bd b5aa b1be ebdf 84be
00000070: 0d96 c9bc 547d 34bd 34c6 3fbe 91ae 8ebe
00000080: 41bb adbe 0805 233e e153 993d 4b2e 4dbe
00000090: 5787 cfbd 5817 adbd 38cf 93bd b088 f83c
000000a0: 65e2 89bd 494f 543d 25a3 f5be 37a1 3a3e
000000b0: e4be 5abe 479c 2d3d 5992 d3bd 2c19 2fbf
000000c0: c9cc 653d 3516 f7bc c219 2b3d 1546 a73d
000000d0: 67e9 b9bd 428c 0abc 99e6 22bd b11e b4bd
000000e0: e7dc 7a3d 5c97 eebc c2ef 453d 1dc1 29be
000000f0: b59c b73c b6f0 ba3d a5d4 f2bd 0847 5ebd
00000100: 7311 623d 9888 d7bd 05a3 e9ba 843f 8b3b
00000110: 4714 f43c 9318 45bd a26a c53d f100 c13c
00000120: 7c7f 983c 9161 933d 0cbe a53c ab45 b3b9
00000130: 17aa 2dbd da53 8abd af11 c9bd 6cc3 adbc
00000140: 9041 c2bc 5f16 9fbd 3eea bb3d e49a 103d
00000150: 33c6 dbbc 1b38 8e3d 6c6e bdbd fa8d 693d
00000160: 8eb8 02be 9d65 8a3d 9650 c2bd 5c17 f73e
00000170: d88d c63d 963c 593e 9928 833d 16df a53e
00000180: ff1f 7c3d 5354 86bd 6a06 983d 3ef7 673e
00000190: 6ee4 18bf 956d c13d fd26 b13d 7a6b 983d
000001a0: 8c0f 913c 410c 14bf 09c3 66bd 625a a9bd
000001b0: 0969 8cbf f7f9 2ebf 95e4 abbe 65e6 dabd
000001c0: 2ad5 563e d61a 0abf 6a8f 05be 440e b0bd
000001d0: c6a4 683d fac5 cb3d 38ab 8fbe cba6 993d
000001e0: 018f c5bd e42c cc3e 1c07 a6bd 02e6 f8be
000001f0: 9306 3fbe 3047 e9be e8d4 8ebe 35c5 79bd
00000200: f5a5 b6bd 32a7 31be 53a9 783c ae38 c5bd
00000210: 0d0b 4cbd 42ec d23e c929 66bd da0a 633d
00000220: cf26 d53e 1c6e 34bd 4cc1 3ebe ee31 67be
00000230: 6673 0dbd a9c1 40bd 5b7f fe3e cb99 fbbc
00000240: 4e31 2a3a e47b 85bd 8cb2 4cbd cf23 4e3e
00000250: 720a 52bd efa4 c0bb 6f56 a53c 1e18 46bd
00000260: 774a 723c 8b6f 80bc 857b 84bd 8167 0abd
00000270: ce04 1ebc 68fd 9fbd 4b9b 51bd 84a9 613d
00000280: 88f9 493d a85c a6bd f567 863a 7dca 33bc
00000290: 918b d2bc dd48 42bc 943f 1cbd 3861 dabc
000002a0: 3789 cfbd 03a3 c33d cc02 633d 21b0 9cbd
000002b0: 4fcd a03d 17ba 9b3d 91c6 c7bd 3e99 bc3d
000002c0: 12b7 3fbc 1ed9 13be dac9 4c3d 176c 273e
000002d0: 557a d7be f6fa 053e 87d8 523e 2ca2 203e
000002e0: f9b5 d13d ad33 93be 6b31 73bf 0613 d9be
000002f0: 7e7e 5dbe 7e1d 723e 6d3a 02be ec65 e93d
00000300: 4508 06be fff2 e53d 0ed5 073d 6420 8f3d
00000310: 5c40 8b3d 656f fd3d e221 103d e151 143d
00000320: 06ee 03bd bea0 07bd cc04 42be e16f 503e
00000330: 27c6 91be 947b b93d 72ba 623d c41f 35be
00000340: d42c 8dbe 448a 8dbe 8e79 46bd a552 1cbe
00000350: 19cf eebd 981e b1be 861a 00bf c40e b8bd
00000360: 24d0 4e3e 7e43 20bd 3fc5 843d 9105 de3c
00000370: ddd2 94be 6ef5 c6bd 302e 5fbd 0659 2dbf
00000380: 2082 b43d a310 f8be 330e 0a3d ba2b 35be
00000390: 4b05 0abe 3fd6 b13d 290a 593d 87d8 e63c
000003a0: 5304 bb3d b8d9 a23c b71b 8cbd 6e1d d03d
000003b0: 8c79 f9bd 4e13 dbbc 7142 183d 7e27 a5bd
000003c0: bf3c e6bc 6b57 75bc 3270 98bd f246 e53b
000003d0: 059a f23b 2bda 5cbb e634 483d 73eb 99bd
000003e0: 573e 11bc 6a2e b73d e0de 583b 3f6d 82bd
000003f0: 3425 a6bd ebec 7a3d be69 5bbd c72d f13c
0.0498161 -0.5094794 0.1668264 0.23461375 0.039524082 -0.36108473 0.0015223029 -0.01319415
0.036550377 0.16587883 0.5198397 -0.114211716 -0.22058247 0.0911213 0.17987314 -0.016861126
0.07415063 0.16568193 -0.34654993 -0.16980064 -0.112760425 -0.02225569 0.07717821 -0.3385307
-0.17283273 -0.05989139 -0.34700552 -0.25952086 -0.024607683 -0.044064835 -0.18727952 -0.2786756
-0.33931926 0.15919888 0.07486702 -0.2003719 -0.10133236 -0.08451718 -0.07217258 0.030338615
-0.067326345 0.051833425 -0.47976032 0.18225561 -0.21361881 0.042385366 -0.10330648 -0.68397784
0.0561035 -0.030161956 0.04177261 0.08167664 -0.09077721 -0.008456292 -0.039770696 -0.087949164
0.061245825 -0.029124908 0.048324354 -0.16577573 0.02241359 0.09127943 -0.11856965 -0.05426696
0.055192422 -0.105241 -0.0017825073 0.004249515 0.029794825 -0.04811914 0.09639479 0.02356002
0.018615477 0.07196344 0.020232223 -0.00034193447 -0.04239854 -0.06754275 -0.09817826 -0.021211348
-0.023712903 -0.07767939 0.091755375 0.035303965 -0.026827907 0.06944295 -0.09249577 0.057020165
-0.12765715 0.067576624 -0.09488027 0.4826001 0.09695023 0.21214518 0.06404228 0.32396764
0.06155395 -0.06559052 0.074230984 0.22652909 -0.59723556 0.09444729 0.086500145 0.074423745
0.017707609 -0.578312 -0.056338344 -0.08269192 -1.0969554 -0.68350166 -0.33572832 -0.106884755
0.20979753 -0.539472 -0.1304299 -0.08596471 0.056797765 0.099498704 -0.28060317 0.07502516
-0.096464165 0.39878 -0.08106825 -0.48612982 -0.18654852 -0.45562124 -0.2789681 -0.060979087
-0.089183725 -0.17348936 0.015177089 -0.096299514 -0.049815226 0.41195875 -0.056192193 0.05543027
0.4163117 -0.04405032 -0.18628424 -0.2257764 -0.03453388 -0.04705969 0.4970654 -0.030712983
0.00064923323 -0.06517771 -0.049974963 0.20130847 -0.051279493 -0.0058790366 0.020182816 -0.048362844
0.014788262 -0.015678188 -0.06468872 -0.033790115 -0.0096447 -0.07812005 -0.05117349 0.055093303
0.049310237 -0.081231415 0.001025437 -0.01097357 -0.025701316 -0.011858192 -0.03814657 -0.026657686
-0.101335935 0.095525764 0.05542259 -0.076507814 0.078516595 0.07603853 -0.097546704 0.09208916
-0.011701362 -0.14438292 0.04999719 0.16349827 -0.4208552 0.13084015 0.20590411 0.15686864
0.10239787 -0.28750363 -0.9499728 -0.42397326 -0.21630284 0.23644063 -0.127176 0.11396393
-0.13089092 0.112279885 0.03316217 0.069886 0.06799385 0.123747624 0.035188563 0.0362109
-0.03220942 -0.03311228 -0.18947142 0.20355178 -0.2847149 0.09056774 0.05535359 -0.17687899
-0.27573264 -0.2764455 -0.048455767 -0.15265901 -0.116605945 -0.34593654 -0.5004047 -0.08987191
0.20196587 -0.039126866 0.06482934 0.027102264 -0.29067126 -0.09714781 -0.054487407 -0.67713964
0.08813882 -0.48450193 0.033704948 -0.17692462 -0.13478582 0.08683442 0.052988205 0.02817942
0.09131684 0.019879207 -0.06841224 0.10161863 -0.12181386 -0.026742604 0.03717274 -0.08064173
-0.028105138 -0.014974455 -0.074432746 0.0069969827 0.0074036145 -0.0033699374 0.048878573 -0.075156115
-0.008864961 0.089444 0.0033091828 -0.06368493 -0.08112565 0.0612611 -0.05356764 0.029440774

gnn_list.0.nn.0.bias f4 [64]
00000000: 0361 c0bc 0086 933e 113e 06bc f050 49be
00000010: 4638 2dbd bb23 21be c1bf 45be 9b4b 363e
00000020: c378 a6bd 2e83 2abe 24f6 f1bd c47e 1ebe
00000030: b778 983c 5548 febd f424 19be 2b0a 19be
00000040: 7b25 8fbe fecf e03d 916c 79bd 8e6d e9bd
00000050: 4850 053e be3b 243d f214 673d 5e90 fcbd
00000060: 4313 0f3e 8016 9c3d 26e8 6d3d 1214 1abd
00000070: ea9c 8fbe 8e86 71bd 7f45 773e 4177 97bd
00000080: 477c 24be f34f 67be af4f 9b39 945b 0a3e
00000090: 3e49 37be a712 37be ddc5 08be 41a5 26be
000000a0: eb5d ba3d 90db af3d 3519 a8bd 0177 d3bd
000000b0: 29c3 02be f0da 9cbe e46f b5bd 260c aabd
000000c0: 5b22 0cbc 1474 0dbe 0611 73bd 69fe 0c3d
000000d0: 00ee 063e 1d26 ecbe 571e 02bd b412 6dbd
000000e0: 16c3 a3bd 7a26 fc3d 6c56 7abe b429 d7bd
000000f0: fea8 e73d 9352 43be 014d cfbd 6b48 83be
-0.023483759 0.2881317 -0.008193509 -0.19659781 -0.042289995 -0.15736286 -0.1931143 0.17802279
-0.08128502 -0.16651604 -0.11814526 -0.15478045 0.018612249 -0.1241614 -0.14955503 -0.14945285
-0.27958283 0.10977171 -0.060894553 -0.11397849 0.13018906 0.040096037 0.05641646 -0.12332223
0.13972192 0.07621479 0.058082722 -0.037616797 -0.28049403 -0.058966212 0.24147604 -0.07395793
-0.16063033 -0.22589092 0.00029623273 0.13511497 -0.17899033 -0.17878209 -0.13356729 -0.16273977
0.09099945 0.085868 -0.08207933 -0.103254326 -0.1276976 -0.30635786 -0.08859232 -0.083030984
-0.008553113 -0.13813812 -0.059342407 0.034422312 0.13176727 -0.46122828 -0.031767216 -0.057879165
-0.07996194 0.12312026 -0.2444703 -0.10506001 0.113115296 -0.19074468 -0.10122109 -0.25641188

gnn_list.0.nn.2.weight f4 [64, 64]
00000000: 2585 c83d d2d2 3b3e c99d 843e e469 2a3d
00000010: 1c63 2b3e ddb1 21bd ed56 ae3e b818 4d3e
00000020: 0603 703e d147 de3c a40d 0f3e 3432 963e
00000030: 0b43 123e be4d ac3e 7501 893e a644 ef3c
00000040: eccb d63a d9a2 5e3d b979 403e 7c58 7a3e
00000050: 872f 16be e6df 823e 12f1 4c3e 572d 2cbe
00000060: 55ae 953e 10b6 9cbd 2cce 09bf f2a3 95be
00000070: 427d d7bd 76cd 29be 80c0 693e 230b 463e
00000080: bcf9 9cbd e0c5 c4bc 076b 3abe b78f 873e
00000090: be4f c93d ad88 a93e 835c 183e 9829 a6bd
000000a0: 0a14 c3be 5dbd 153e 285c 543e 0daa ebbd
000000b0: 6223 e6bc 0f1a 443e 944b 3cbd 861b ac3d
000000c0: 81ff 5b3e 5c6d 273d 8bb8 0b3e f7dc 1cbf
000000d0: 4356 963e 5827 f73d f633 6d3e c9f4 7dbe
000000e0: 620b ec3d e34d 053e 5313 f03d 34db 383e
000000f0: 464d 3c3e d0c3 653e 8080 0fbe eeee de3d
00000100: 1203 8bbe e8bc 123d 0c78 87bd b979 c9bd
00000110: 82df 92be dce9 823d dc44 9a3e 4bba 1abd
00000120: bbc7 e6bc 5c5f 173d e0f4 41be 2c47 fdbe
00000130: 9857 4fbe 2ebc 713c 2e59 493e 9db0 6a3d
00000140: 9346 393e 9c2f 2c3e 18bd a9bd ca71 8f3e
00000150: 8751 843e ebc1 8d3e 891c aebe 5e6f c5bd
00000160: 4550 e53d 9c3e 723d b775 87bd 91b8 4c3e
00000170: 6a57 2f3e 2724 64be e757 173d 7e0c afbe
00000180: 1134 81bc 65fb 91bd 6a85 263e 07c8 fabc
00000190: 5c56 c5bd 021c c6be 446f 663d c33c d93e
000001a0: b05c bb3c f379 b03d fac2 84be 93d5 08be
000001b0: 0071 3c3e 5e50 923b 9cb0 f3bd bb92 65bd
000001c0: d1a4 a43c 54b8 d43c 0ea9 07be df63 eebc
000001d0: 2c90 a53e 6779 d53d 5f51 10bf 3ae0 efbd
000001e0: ed89 3b3e fe0c 5e3c b9d2 473e d959 b7bd
000001f0: 98bd 583d 8abd 5e3c 8128 fcbd c331 e0bd
00000200: 7cd3 663e 8985 103e 14d5 66bd 5e9f f0bb
00000210: b563 48be e4ff 3dbe c723 693c 628b 2a3e
00000220: 3b4c 03be f085 1f3c 4258 0bbf 7146 71be
00000230: 0266 c2ba 1179 853e c4f9 e13d 503f ec3c
00000240: e2e5 57be 2e37 e63c 676f 04ba b5f4 5b3e
00000250: ab1d 513d 1348 dfbc 3cbf 5ebe e88c cbbd
00000260: 43c9 993e e572 74bd 487f 0abd ee9a f1be
00000270: d45b 82be 30f9 a7be 8206 853d ff62 8b3d
00000280: 5f29 a9bd cbd7 27be a0f4 65be e688 62be
00000290: 5255 493d 7b41 7bbe 1efc cebe c277 413d
000002a0: 5ab0 3dbb 3fff 86bd bf48 263d a90a 82be
000002b0: 9bd0 0abf 6ed2 b03d 7dd1 94bd 08b8 93bc
000002c0: 1472 acbc af03 da3d 681b 06bd ef72 4cbe
000002d0: 0f91 913d a776 acbd 1b5c 563d 4053 00be
000002e0: 1763 2fbe 74b0 17be 4b8a 14be f3fd 49be
000002f0: 6a77 423d 2fd6 b0bc 5fcb e23c 1017 10bd
00000300: 43a8 713e 96e2 80be d3bf 143d 8858 fdbd
00000310: 6347 803d 1216 00bc b963 e33d 559a 4dbe
00000320: 1fa9 8cbb 3618 09be 8074 0cbd 842c 0ebe
00000330: be7e 313e 30e4 ea3d 68d4 a7be 486f 803d
00000340: 5f6f f5be 0c3f 553d 2bb6 fd3d 68c2 173e
00000350: 8185 1a3e 468c edbd 95d1 d3be d276 2cbb
00000360: 1d48 3abe 44fe 66be 9cc8 793c 41f8 acbd
00000370: 8d26 37be 82ba 4dbe 3beb 443e 2945 463e
00000380: 93a2 913d b9f6 3b3e 9403 a7bd 9f38 7a3e
00000390: e456 10bd d491 213d c6e8 01bd 90a3 72be
000003a0: 1f3f 953d cadf aabe ea30 443e 1ca2 693c
000003b0: e32f f3be c418 223e 53a2 d2bc 4025 a03e
000003c0: 01e1 30be 7189 533e 8c06 553e fb01 83bd
000003d0: eeb5 753d 75c4 0ebe ba91 4fbe 8bfd 8a3e
000003e0: b878 01be 9bf5 61be dd2d 81be 8e1d 9dbe
000003f0: b916 833e 3576 d1be cc06 333e dd02 163e
0.0979102 0.1834214 0.2590163 0.04160489 0.16737026 -0.039476264 0.34050694 0.2002896
0.23438653 0.027133854 0.13970047 0.29335177 0.14283387 0.33653063 0.26758924 0.029207539
0.0016387678 0.054354522 0.18796434 0.24447817 -0.14666568 0.25561446 0.20013836 -0.16814171
0.29234567 -0.07651913 -0.5383022 -0.29226643 -0.10521938 -0.16582283 0.22827339 0.19340186
-0.076648206 -0.024020135 -0.1820489 0.26476833 0.09829663 0.33112088 0.1487904 -0.08113402
-0.38101226 0.14623018 0.2073828 -0.11507044 -0.028093044 0.19150566 -0.045970514 0.08403687
0.21484186 0.040875778 0.13644616 -0.61274666 0.29362687 0.12068051 0.23164353 -0.2480041
0.115256086 0.13017993 0.11722436 0.1805237 0.18388852 0.22437978 -0.14013863 0.10885416
-0.2715078 0.035824686 -0.06614694 -0.0983767 -0.28686148 0.063922614 0.3013066 -0.03777532
-0.02817141 0.036956176 -0.18941069 -0.49468362 -0.20248258 0.014754338 0.19662926 0.057297338
0.18093328 0.16815037 -0.0828802 0.28016502 0.2584345 0.2768701 -0.34006146 -0.09640382
0.11196951 0.05914174 -0.06614249 0.19992281 0.1712319 -0.22279416 0.036949065 -0.34189218
-0.015771898 -0.07128028 0.16261831 -0.030612959 -0.09635612 -0.38693243 0.056258455 0.4242917
0.022871345 0.0861701 -0.25930005 -0.13362722 0.18402481 0.004465147 -0.1189892 -0.056048136
0.020098122 0.0259668 -0.13248083 -0.029100357 0.32336557 0.10423546 -0.5637416 -0.1171269
0.18314333 0.013552902 0.19513978 -0.08952684 0.052915186 0.013594994 -0.12312413 -0.10946991
0.22541612 0.1411344 -0.05635555 -0.007343217 -0.19569285 -0.18554646 0.014229721 0.16654733
-0.12822048 0.009736523 -0.54431546 -0.23562028 -0.0014831426 0.2606893 0.11033967 0.028838784
-0.21083787 0.028102484 -0.00050520006 0.21480067 0.051053684 -0.027256047 -0.21752638 -0.09938985
0.30036363 -0.059679884 -0.03381279 -0.47188514 -0.25460684 -0.32807302 0.06495382 0.068059914
-0.08259844 -0.16390912 -0.22456598 -0.22122535 0.049153633 -0.24536698 -0.40426725 0.04723335
-0.0028944225 -0.06591653 0.04059672 -0.25398758 -0.54224557 0.08633886 -0.07266519 -0.018032089
-0.02105049 0.10645234 -0.03274098 -0.19965719 0.07107746 -0.08421069 0.052333932 -0.12531757
-0.17127644 -0.14813405 -0.1450588 -0.1972578 0.047477163 -0.021586506 0.027684866 -0.035178244
0.23599343 -0.2517287 0.03631575 -0.123704016 0.06263616 -0.007817762 0.11103005 -0.20078404
-0.0042926217 -0.13388142 -0.03429079 -0.13884169 0.17333505 0.114693046 -0.3277924 0.06271225
-0.47936532 0.05206208 0.123882614 0.14820254 0.1508999 -0.11599021 -0.41370836 -0.002631594
-0.18191572 -0.22557932 0.015245583 -0.08445788 -0.178858 -0.20090678 0.19230358 0.1936232
0.07111087 0.18355836 -0.08154979 0.24435662 -0.035239115 0.039445713 -0.03171613 -0.23695207
0.0728743 -0.33373863 0.19159284 0.014259841 -0.47497472 0.1582976 -0.025712168 0.3127842
-0.17273332 0.20657898 0.20803279 -0.06396862 0.059987955 -0.1394213 -0.20270434 0.27146563
-0.12643707 -0.22066347 -0.25230303 -0.3068661 0.25603274 -0.40910497 0.17483062 0.1464953

gnn_list.0.nn.2.bias f4 [64]
00000000: c58b 88bd f679 ca3d 956d 19bd 7e6f a43e
00000010: 6a5a e7bd 377a e53d 7d7a 89bc d8af efbd
00000020: b5ba ab3d 75a6 6ebd 367a 773e efb5 793e
00000030: 766e 613d 2fb6 033d cf09 d73d 057a e53d
00000040: 4638 1dbe 73b6 e3bd f564 d73d 49c7 113e
00000050: fb39 623d 6d3b d33d bf68 b3bc 02c5 723e
00000060: cea7 bb3d d601 f43d 94b4 123e 0036 53be
00000070: d8f9 bcba 90e6 6e3e c370 40be 7096 cd3d
00000080: 64e9 44bd 47bc 153e 6152 8ebd 30b8 d63c
00000090: ee3e 26be a456 ac3d 699f 97bd f0fe b6bd
000000a0: ecf4 e43d 79fa f4bd 574f febd 515f 41be
000000b0: 98f8 54bd 87b9 c03c ce6f 613e a774 c03d
000000c0: f20f 73bd 1061 e33d 03c3 12be bb41 f93d
000000d0: b019 3c3e 0b32 933d 8f1f 4a3e a001 303e
000000e0: f24f ef3d fc96 cabd 8b1c fa3d 387a d33d
000000f0: 50ec 013e e337 c13c 5e63 a1bc f2bc 83bc
-0.06667284 0.098865435 -0.03745802 0.32116312 -0.11296542 0.11204951 -0.01678204 -0.117034614
0.08385221 -0.058264215 0.24167714 0.24385808 0.055036984 0.032156166 0.10499918 0.11204914
-0.15353498 -0.11118784 0.10517303 0.14236178 0.055231076 0.10314069 -0.021900533 0.23707965
0.091628656 0.11914413 0.14326698 -0.20626068 -0.0014417721 0.2333014 -0.18793015 0.10038459
-0.04807414 0.14622603 -0.06949306 0.026210874 -0.16234943 0.08414963 -0.07403452 -0.08935344
0.11179528 -0.11961836 -0.124174766 -0.18884017 -0.05199489 0.023525966 0.22015306 0.0939725
-0.05934138 0.111024976 -0.14332204 0.1217074 0.18369174 0.07187279 0.19738601 0.1718812
0.1168517 -0.09892079 0.122124754 0.10326046 0.12687802 0.02358622 -0.019700702 -0.016081307

gnn_list.0.nn.3.weight f4 [64]
00000000: 77a5 083f fd99 da3e b406 233f 3a7a f73e
00000010: ec65 133f ef77 0d3f b075 0b3f f064 193f
00000020: cb15 153f aacf 313f a1d8 043f 204e db3e
00000030: acf9 263f 0bb2 ed3e f630 ff3e 4b82 0b3f
00000040: bf6a 033f 6334 3e3f aab5 113f 46c8 273f
00000050: df1f 2e3f be08 1d3f 0c82 073f cfdd 1c3f
00000060: 2ee1 fa3e b713 bf3e 4dc3 0e3f 3b94 da3e
00000070: 2eb9 fc3e 84ad 383f f786 043f 5050 293f
00000080: ef98 a53e d0c4 2c3f 271b 1b3f ba95 0f3f
00000090: 0e23 073f e6a1 ec3e 0574 2f3f ff1a 203f
000000a0: 5103 0c3f 7bb8 183f cbd9 383f 7578 dc3e
000000b0: 7c59 3e3f 7333 0a3f c5c2 053f edc7 103f
000000c0: 63a1 293f f77b 063f 2e6c d73e 8de8 323f
000000d0: 868a 113f c218 103f 662e f83e 9c16 163f
000000e0: 7ded 1c3f b9df 2e3f cd16 123f 2d4b 283f
000000f0: 4fed 2c3f cb23 ee3e 7668 fe3e 3343 3e3f
0.5337748 0.4269561 0.63682103 0.4833544 0.57577395 0.5526113 0.5447645 0.59919643
0.5823638 0.69457495 0.5189305 0.42833042 0.6522472 0.46424899 0.49842042 0.54495686
0.51334757 0.74298686 0.5691782 0.6553997 0.6801738 0.61341465 0.5293281 0.61275953
0.48999923 0.3731973 0.55766755 0.42691216 0.4936003 0.72139764 0.5176844 0.6613817
0.32343242 0.6748781 0.60588306 0.5608784 0.52787864 0.4621727 0.68536407 0.6254119
0.5469256 0.59656495 0.72207326 0.4306065 0.7435529 0.53984755 0.5225032 0.5655506
0.6626188 0.52532905 0.42074722 0.69886094 0.56851995 0.5628778 0.484729 0.5862825
0.6129988 0.68310124 0.5706604 0.6573971 0.67549604 0.46511683 0.49689072 0.7432129

gnn_list.0.nn.3.bias f4 [64]
00000000: ca56 88be d7c2 6bbe 9215 a5bd 6e89 ecbd
00000010: e466 93be 9ea5 9fbe c0b8 5bbd a839 32be
00000020: d6df b2be e09d a8be 7c9c 1fbe 3370 00be
00000030: 3946 4dbe d7c1 64be bf0e 4ebe b759 75be
00000040: 238f 1ebe f773 0dbf 447f 2ebe 9a5f cebe
00000050: 6ab2 72be 1197 c3be 0768 c4be 6567 51bc
00000060: 1315 b6be 0d8f 07bf c788 12be d4a3 bebe
00000070: 5492 3bbe ecec 7bbe 7105 f2be 7870 5dbe
00000080: eeeb 51bd 925d d3bd a300 6dbe e964 ffbd
00000090: 0144 90be 1d27 63be 5cbb 34be 09d0 f3bd
000000a0: cf15 91be 9e39 07bf 6cba 02bf 10b8 91be
000000b0: 02a8 96be d597 97be 8cee d7bd dd83 e0bd
000000c0: 1c30 78be c5a1 84be de44 6ebe ceb8 00bf
000000d0: b033 95be e5c1 fcbd 2f39 5fbe eb1a 20be
000000e0: 92dd 5fbe 8007 fcbd c573 93be 76d0 1ebf
000000f0: 43ca babd cf25 fcbc 7089 bebe 9b53 07bf
-0.26628715 -0.23023544 -0.08060755 -0.1154965 -0.28789437 -0.31181043 -0.05364299 -0.17404807
-0.34936398 -0.3293295 -0.15587038 -0.125428 -0.20046319 -0.22339569 -0.20122813 -0.23960005
-0.1548429 -0.55255073 -0.17040735 -0.40307313 -0.23700872 -0.38201192 -0.38360617 -0.012780999
-0.35562953 -0.52952653 -0.14309989 -0.37234366 -0.18317538 -0.24602097 -0.47269776 -0.21624935
-0.05125039 -0.103205815 -0.23144774 -0.12470419 -0.28176883 -0.2218289 -0.17649597 -0.11904914
-0.2833695 -0.5282229 -0.5106571 -0.2846074 -0.29425055 -0.29608026 -0.10543546 -0.10962651
-0.24237102 -0.2590467 -0.23268458 -0.5028199 -0.29140997 -0.1234167 -0.21799158 -0.15635268
-0.21861866 -0.12306118 -0.28799263 -0.62036836 -0.091206096 -0.030779747 -0.37214231 -0.52861947

gnn_list.0.nn.3.running_mean f4 [64]
00000000: 905d 6340 6b17 e53f cd45 8ac0 8c09 bcbf
00000010: 211d 3b40 9572 b3bf 390d b440 15a8 1440
00000020: bb20 7fbe 2da5 7c3f 5340 67c0 52d7 74c0
00000030: 296b c63e e5af da3f 4997 1fc0 9ec0 09c0
00000040: e258 84c0 fcc8 ee40 a263 5fc0 da15 2dbf
00000050: 4cc8 e33f 3842 edbf 1560 a140 659d 21bf
00000060: 308a 96c0 d211 68bf 4dbf 44c0 0aa9 f53e
00000070: dbe2 0ac0 6aab cbbf 36f7 8040 2330 4cc0
00000080: 7b0b 3740 0ac5 6bc0 3d3c 32c0 2887 02bf
00000090: 351c ac40 1124 7cc0 8c8a 0440 c589 1cc0
000000a0: ae0f 57c0 1328 c340 8f47 fc3f 0d5c e73f
000000b0: ba34 aa40 1f6e 9ec0 8987 28bf 0a7d 3dc0
000000c0: 374a 8940 c87c 4ac0 82a9 fe3f 4fef 33c0
000000d0: 5d3f 41c0 3df1 3c3f eb3c 21c0 9c1c adbf
000000e0: 9410 0cbf 2fef 52c0 43b3 3dc0 30b6 e640
000000f0: 8d5d 13bf 87b2 2b40 4e0b 9040 ad0a cb40
3.5525856 1.7897772 -4.3210206 -1.4690413 2.923653 -1.4019343 5.626614 2.322759
-0.2491483 0.9868954 -3.613301 -3.825642 0.38753632 1.7084929 -2.4936087 -2.1523814
-4.13585 7.462034 -3.490456 -0.6761147 1.7795501 -1.8535833 5.042979 -0.6313079
-4.7043686 -0.9065219 -3.074176 0.4798053 -2.1700962 -1.5911686 4.030177 -3.190438
2.8600757 -3.6839013 -2.7849267 -0.5098748 5.3784432 -3.9397013 2.0709562 -2.4459088
-3.360332 6.098642 1.9709338 1.8074967 5.3189363 -4.9509425 -0.6583181 -2.9607568
4.2903094 -3.163866 1.989548 -2.8114812 -3.0194924 0.738056 -2.5193431 -1.3524356
-0.54712796 -3.2958486 -2.9640663 7.2097397 -0.5756462 2.6827714 4.50138 6.345053

gnn_list.0.nn.3.running_var f4 [64]
00000000: 827e b440 e724 a740 3fd3 d340 9761 0341
00000010: bc1e 8a40 b9ab 9e40 3e17 c840 6bbb 9740
00000020: 5112 4940 04f9 8540 a43c ad40 10a9 1441
00000030: 26c5 bf40 a8d4 9d40 4c6d 9d40 a4e9 f240
00000040: 5b73 0f41 e656 0241 09a4 b740 ba4b af40
00000050: d153 8d40 b78f 7640 25d3 b240 fd53 9a40
00000060: 7976 6540 6299 0741 4f20 d640 be19 c440
00000070: 21d5 9f40 e790 9c40 c12b 9c40 ed69 9140
00000080: 3d4b cf40 2e95 c240 344f a040 5428 8340
00000090: 8a01 d840 bdf8 7540 9d45 ca40 d652 8f40
000000a0: 3147 9640 9020 f340 30bd ca40 ba0a 9d40
000000b0: d1fb c740 8449 a540 0aea d640 56bf ca40
000000c0: 439a a940 d686 0e41 b694 6d40 15c8 b840
000000d0: 63cb 6640 8870 c140 1837 8840 a405 e340
000000e0: 01cb 8240 d53e ce40 e0f7 8340 a6bd dc40
000000f0: 45cc 5740 9bab 8d40 c2df 8740 3143 ca40
5.640443 5.2232547 6.619537 8.211326 4.3162518 4.958462 6.252837 4.741628
3.141743 4.1866474 5.4136524 9.291275 5.992816 4.932209 4.919592 7.5910206
8.965663 8.146215 5.738774 5.477994 4.4164815 3.8525217 5.5882745 4.8227525
3.585356 8.474947 6.691444 6.1281424 4.9947667 4.8926883 4.880341 4.5441804
6.4779344 6.0807104 5.0096684 4.098673 6.750188 3.8433068 6.3209977 4.478862
4.6961904 7.597725 6.335594 4.9075594 6.2494893 5.165224 6.716069 6.3358564
5.300081 8.907919 3.7122016 5.774424 3.6061637 6.0449867 4.2567253 7.0944386
4.0872808 6.44517 4.124008 6.8981504 3.3718426 4.427198 4.246064 6.320702

mlp_list_inner.0.mlp_list.0.weight f4 [64, 64]
00000000: a093 6cbb 1150 9f3d 0c06 8f3d 5a41 75bd
00000010: c2c1 4e3e 3a41 a2be 0860 213e 1466 f83d
00000020: 956c 483e fab1 5abd b2be a9ba 07b0 373e
00000030: f3d4 6c3e ab52 b4bd d941 ac3e 0fee ee3c
00000040: 0b2b 903d a2bd a03e c332 85be fcca 123e
00000050: d41f 0dbe 3db4 7dbe 596f 0b3e 7224 b93c
00000060: 4843 cfbd a3cf 16be fc5d 09bf 9126 173e
00000070: 1c60 84be 756d cdbd 86d3 c53c 4b7c 883d
00000080: 6065 9f3d f3c5 b0bd 022f 013e 6e17 0abe
00000090: 05a9 21bd 0013 c7bd 2348 6dbd 9ead 56be
000000a0: add3 833e 3e43 893e d2eb 39be 0f5f 163e
000000b0: 0229 7f3e 00de ad3d 08ac adbd e46c 5d3e
000000c0: 8d35 7a3e 9173 0dbd 5e14 8c3d 0c31 2cbe
000000d0: b19d febd 4c6d 0cbe 0dd0 0bbe 3f8b b1be
000000e0: 5092 bdbe c50a bfbe 90c3 a7bd 6878 1e3e
000000f0: 7cd4 06be 28e1 c33c 3e59 b7bb 68b9 373d
00000100: d464 a0bd fdcc 263d f467 333e 55e0 de3d
00000110: 0638 2abd 950a bcba a3fe 19be afe9 a3be
00000120: d632 95bd c2af 81be 3312 1bbe 98f5 373d
00000130: 5d2c 7fbd 41a0 23be a948 87be 9309 5338
00000140: 36d9 b93d 7144 0a3d 20ac 2ebe de6b 59be
00000150: 5b4b 2abd 4363 dfbd a361 c93d 1820 0abf
00000160: a6de 8abe 0903 6dbe 4815 683d 3052 303d
00000170: eaea b63d a33f 5b3e 9df5 913d 5c96 90be
00000180: f828 b7bd 5079 e3bd 85e4 c7bd 29a1 e4bd
00000190: dab7 19be fc1a 483d 483a 80be 3e6c f4bd
000001a0: ebd9 843d 63a3 c8bc aea4 b8bd 6aaf 9cbb
000001b0: 348c 633d 2c12 23be 4af0 8bba 0995 01bc
000001c0: dcf8 59be 19aa 483e 8f77 c2be 651a 2a3d
000001d0: c270 7a3d b26e 80bd e745 383e fc5f 84be
000001e0: a8c0 64bd 7110 163e bd6f bb3a 9b82 44bc
000001f0: d982 26bc 3b5b 47be 301e 27be ae72 05be
00000200: 1568 5b3e ad61 0ebd c703 103d b649 03bc
00000210: 15cb ff3d e058 373e 7594 0d3e c10e 5f3e
00000220: d84e 243c fca4 70bd a16d 9b39 6564 69bb
00000230: 8f08 083d 4cb3 34be 8d33 37be b685 ddbe
00000240: 5d57 60be bfe0 043e 31dd a33d d615 e9bd
00000250: 2e79 35bd 7acf 94be 8b17 863d 0898 d6be
00000260: db0e b8bd c8e0 703e 2b04 84be 86c3 c6bd
00000270: e2d9 95be 176e 00bd a390 933b 10a4 0e3e
00000280: 2960 e7bd 4076 85be 427e bb3d 53b8 d4bd
00000290: 49f1 823e 3af9 4cbe 88ca c6bc f880 943a
000002a0: 4421 80be bd35 133e 04e5 8b3e 8939 563d
000002b0: 94fa f43c f43d f5bb 34df f33d c14e 2fbc
000002c0: 50e4 81bd 2c4f d43d db35 1dbd d061 06be
000002d0: 01f5 443e 054f f43d 5fa6 a83d 22bf c83d
000002e0: 77db 4bbb 8dc4 d03b 6b4c b03d 6813 193e
000002f0: 684f 09bb 1db1 28be 1b16 343e b24b 63bc
00000300: 8f9e 1f3d c78d 0ebd 3966 19be 9799 f3bd
00000310: 4331 1dbd edb4 2b3e 2f3f b53c 731a 4cbe
00000320: 41f1 c2bd 518b 173c 075b 00be cf6b 4e3d
00000330: 1ec4 283e 9a96 95bd 544c 523c 4ee6 debd
00000340: 07b2 eabd abf5 74be 7b55 c03d a2da 49be
00000350: 3e76 3dbd 35e1 f9bb d887 7cbe 3fd9 83be
00000360: ed64 45be 2b7b 7a3b 95e0 943c 6c6d b93d
00000370: 4652 1cbe 9eeb b7bc b80e 9abe 476b 26be
00000380: df8b 02bc 093a b6bd 352a e8bd 083c e4bd
00000390: 57d7 8bbd 54d1 44be 8d82 a13d 8f01 e23d
000003a0: 9dbb 70be ff6b 273e 290b ddbd 3e9c ab3d
000003b0: ec5e 85be e9e0 dc3d 113c 26bd ad0b f2bc
000003c0: e5a9 adbd 17af 0fbe dacb cdbd b925 223b
000003d0: ba36 bebd e5e5 49bd 1c82 42be a709 4bbd
000003e0: 0343 53bd 33c9 4dbe 9b13 3dbe 2a60 a2bc
000003f0: f638 88be 7557 52be d9be 4fbe 8de6 1c3e
-0.0036098734 0.07778943 0.06983575 -0.059876777 0.201911 -0.3169039 0.1575929 0.12128845
0.19572671 -0.053392388 -0.0012950508 0.17938243 0.23128109 -0.0880483 0.33643988 0.02916625
0.0703946 0.31394678 -0.2601529 0.14335245 -0.13781673 -0.24775787 0.13616695 0.022600386
-0.10120255 -0.14727645 -0.53659034 0.14760806 -0.25854576 -0.10030643 0.024148714 0.06664332
0.077830076 -0.08631506 0.12615588 -0.134855 -0.03946783 -0.09720421 -0.057930123 -0.20964667
0.25747433 0.26809114 -0.18156365 0.146847 0.24917987 0.08489609 -0.08480078 0.2162357
0.2443449 -0.03453404 0.06839822 -0.16815585 -0.12432421 -0.13713568 -0.13653584 -0.3467655
-0.3702569 -0.37312904 -0.081915975 0.15475619 -0.13166994 0.023911074 -0.0055953553 0.04485455
-0.078317314 0.040722836 0.17520124 0.10882632 -0.041557334 -0.0014346415 -0.15038542 -0.32014224
-0.07285087 -0.25329405 -0.15143661 0.04491195 -0.062298167 -0.15979101 -0.26422623 5.0315237e-05
0.09074633 0.033756677 -0.17057848 -0.21232554 -0.04157577 -0.109076045 0.09833076 -0.5395522
-0.27122992 -0.23145689 0.05666092 0.04304713 0.08931525 0.21410994 0.07126925 -0.28239715
-0.08943361 -0.11107123 -0.097603835 -0.11163551 -0.1501154 0.04885386 -0.25044465 -0.11934708
0.06486877 -0.024491971 -0.09015785 -0.004781653 0.05555363 -0.15924901 -0.001067647 -0.007909068
-0.21286339 0.19596137 -0.3798184 0.041529078 0.06114269 -0.062711135 0.17995416 -0.2585448
-0.055847794 0.1465471 0.0014300268 -0.011994029 -0.010163032 -0.19468395 -0.1632011 -0.13032028
0.21426423 -0.03476112 0.035159852 -0.0080131795 0.12489907 0.17904997 0.13826163 0.21782972
0.010028563 -0.05875109 0.00029645584 -0.0035612818 0.033211287 -0.17646521 -0.17890759 -0.43266076
-0.21908326 0.12976359 0.08001173 -0.11381118 -0.04430502 -0.29064542 0.06547459 -0.41912866
-0.089872085 0.23523247 -0.2578443 -0.09705262 -0.29267794 -0.03135499 0.004503326 0.13929772
-0.11297638 -0.2606678 0.09154941 -0.103867196 0.2557471 -0.20016947 -0.024266496 0.001132994
-0.2502538 0.14375968 0.27323163 0.052300964 0.029904641 -0.007484192 0.11907807 -0.010699929
-0.06342375 0.10366663 -0.03838144 -0.1312325 0.19234087 0.11929134 0.08234858 0.09802081
-0.0031106153 0.006371087 0.086083256 0.14948809 -0.002095187 -0.16473813 0.17586558 -0.013873028
0.038969573 -0.03480318 -0.14980401 -0.11894529 -0.038377058 0.16768236 0.022124855 -0.19931965
-0.09518672 0.009249524 -0.12534724 0.050395783 0.16481063 -0.073041156 0.012835581 -0.10883771
-0.11459737 -0.2392184 0.09391304 -0.19712308 -0.046255343 -0.0076257237 -0.24661195 -0.25751683
-0.19276781 0.0038220386 0.018173495 0.09054074 -0.1526576 -0.022451218 -0.30089355 -0.1625186
-0.007967918 -0.08897788 -0.11336175 -0.111442626 -0.06828182 -0.19220477 0.07886229 0.110354535
-0.23509069 0.16349791 -0.10793144 0.0837941 -0.26048982 0.10785086 -0.040584628 -0.029546583
-0.084796704 -0.14031635 -0.10048647 0.0024741723 -0.09287782 -0.04929151 -0.18994945 -0.049569752
-0.05157758 -0.20096283 -0.1846451 -0.019821245 -0.26605958 -0.20541175 -0.20287646 0.15322323

mlp_list_inner.0.mlp_list.0.bias f4 [64]
00000000: ec40 a5bd 7040 c2bd f7f5 55bc 4d30 4e3b
00000010: d49a 47be 96f6 623e 8496 9e3d 0942 d43d
00000020: 138d 18be 5445 7d3e 8018 993d 4c8d f5bd
00000030: 2eef c73e 85c7 f43d ca1c bfbd ba7d b83d
00000040: a739 98bd 8c68 a13e 5915 ca3d 6032 373e
00000050: 791a cc3e efc3 513e 75b7 bfbc 576d b53d
00000060: edde 32bd c79b 1d3e f4bc 27be 8fbf 003e
00000070: 5804 343f cb36 423e c302 603e 7dc4 1abe
00000080: d26c c93e 333c 4abd c788 093e 2cbd 6a3e
00000090: 600e 123d b4b7 053e 6909 e0bb 4caa eb3d
000000a0: 42fa a43d 93fc e83d 438a d73d 285f 58be
000000b0: 42e1 7fbd 65b7 f63d 772e d73d ba5f c3bd
000000c0: 35de 073e 61e4 063e 8ec3 dc3e 7528 b63d
000000d0: e3d8 dfbb e14d 773d 0883 033e b118 323e
000000e0: 46a3 d0bd 9c40 473c f1c8 e5bd 6f4c dc3d
000000f0: f6f4 f0bd 97a4 6abe f6e5 8b3e b53e f53d
-0.080690235 -0.09484947 -0.013059131 0.0031461895 -0.19492656 0.22164378 0.07743552 0.10364158
-0.14897566 0.24733478 0.07475376 -0.11989841 0.39049667 0.11952118 -0.09331663 0.090083554
-0.07432871 0.31525075 0.09867353 0.1789031 0.39863947 0.20484899 -0.023402909 0.088587455
-0.04366963 0.15391456 -0.16380674 0.12573074 0.7031913 0.18966214 0.21876054 -0.15114017
0.39340836 -0.049373817 0.13431083 0.22923726 0.03565824 0.13058358 -0.0068370593 0.11507091
0.080555454 0.113763 0.10524418 -0.21130049 -0.062470682 0.120466985 0.10506909 -0.09539743
0.13268359 0.13173057 0.43117946 0.08894435 -0.006831275 0.060377005 0.12842953 0.17392232
-0.10187392 0.0121614 -0.11219967 0.10756766 -0.117654726 -0.22914349 0.27323884 0.11974851

mlp_list_outer.0.mlp_list.0.weight f4 [64, 64]
00000000: b967 ccbd eb9c 613d 9def 90bd 28de ed3d
00000010: 54ba 23bd e34a e83c b7d1 9e3d d4b2 e2bc
00000020: efa7 6c3d 27cb adbd 96fe ba3d 26ce 95bd
00000030: 759d b73d 18a8 c23d 02a4 603e d132 313c
00000040: 4065 4ebe 113b 173e 7f10 50bd 8cdc babd
00000050: 8999 a53d af59 5b3d 53c7 5e3d 2766 56be
00000060: 4542 a2bd 0e3c f7bd 34ec e6bc 4668 233c
00000070: d294 f63d 92e8 4ebd 119b 333d df93 533d
00000080: 6460 9dbd f612 6dbd 67be 80bd 70d4 2f3d
00000090: df46 1bbd bb9d 373b 66b4 8c3d bdb3 22bd
000000a0: e209 e93d b37b 4d3e 4dc2 77be 663f 953d
000000b0: f751 93bb 3db3 82bd d28e 24be 5794 59be
000000c0: c5f8 10bc 787f e43c 6ccf b5bb ccfa 063c
000000d0: 28f4 02be be18 4fbd 7d98 713d 82cc 0b3e
000000e0: cd51 9ebd 2170 223d 59d8 2eb8 10fb 0abd
000000f0: d318 043c 06a0 003d 8d0a d2bc 2344 3fbd
00000100: 7ec6 a63d 7c2e efbd f2f4 183e 4159 133d
00000110: 8896 8e3d 6062 c53d 655b a03d 128d 7fbe
00000120: b73a 63be 3d1e bcbe fa4a 363e cf7b f1be
00000130: 4873 463e 3c9d e6be b1f0 61be 4772 c83d
00000140: 1e84 51bd eb48 babd 8873 c2be c0b7 e2be
00000150: 9159 d6bd fece 993e fe84 ecbe b13f 723e
00000160: c92f 943d 586f 143e e5c0 05be 0bb3 aebe
00000170: e3f6 0dbe 6d26 903e 1a2e 5cbd f30e fd3d
00000180: 5fbd e83d 23e3 cebe 1845 85bd 378e 97be
00000190: 7c69 623e ca65 4ebd 6583 c8bd 0acb ae3e
000001a0: 0617 92be 1056 7fbe ddb9 51be 43f4 bdbe
000001b0: 293d 7abd fe35 dbbe 994d 02bf 1084 52be
000001c0: c353 88bd c9ac 27bf 5bde d93c 5e61 093e
000001d0: 6784 1b3e 1691 8abe 559e 35bd e975 a9bc
000001e0: 2b84 f13d cf36 99bc c7a1 c3be c212 8fbe
000001f0: 2cf7 b6be 9f0c bb3d c491 943e d765 1cbe
00000200: 7109 ccbd 2537 043e 15fe c63b bf30 69bd
00000210: 690b 9dbb fde7 bcbc 017d c8bd 378a 20bc
00000220: 7622 abbb d445 e8bd 6cb3 cfbc 6932 69bd
00000230: 730f bc3a c3b7 c1bd e665 31bd 2a75 293c
00000240: f179 07bd 0bb9 3ebd f3c4 c7bd 57a8 54be
00000250: 0452 e9bd 7ec1 08be 9d2d 013d d3f1 b33d
00000260: a4ca acbd 3f28 27be a8bd 573d 2966 73bd
00000270: 12c5 28be 9bfa 363b 4523 afbd 4a49 52bd
00000280: 658c b4bc 2053 bc3d 8fa9 19be 03e9 06bd
00000290: eca5 b9bc d15c b9bd 6953 31bd b096 10be
000002a0: 9c09 07bc 3afb c7bb efa0 90bd d2b8 9bbc
000002b0: fefb 66be 47c3 28be 21ca e33b 2700 2bbe
000002c0: 6b2c a0bd af06 fa3c 2e9e 2bbe d561 223d
000002d0: a3aa 0f3d 2c86 0abd 003a ecbc a030 9b3d
000002e0: 8c69 543c 54a1 a0bd 404d 89bd 8ae9 35be
000002f0: cfe7 ed3d 045a 5fbe 557d 92bd a02b 54bd
00000300: 8b43 06bd 3d5a 08be 2b4d a6bd f153 de3d
00000310: eaef ccbd 6ea3 ff3d 0fba 18bd ae8a 8e3d
00000320: 35d3 b8bd 5f61 413d ab89 35be 7a8c db3d
00000330: 8e05 323e 3317 5fbc 94b9 57bc a05e 403d
00000340: d6d6 1fbe 49d4 7a3d 60ee 463d 7311 6abe
00000350: bb43 553b 498e 67be 2ef8 a33d 5e5f efbd
00000360: e187 b03d 3d0b 0e3c ac24 483d aeb3 4fbe
00000370: df3f 863d b498 0fbe 7564 913d f239 11be
00000380: 1fc5 283d 0ba6 3e3e 8fb9 b13d eb11 4fbd
00000390: 0829 90bc 49a3 e43d b522 10be f37d 013d
000003a0: d816 98be e228 953e 3c51 bebc 7659 f8be
000003b0: 413d 13be 3447 2fbe 586c 56bb 78ce c23c
000003c0: 0918 0a3e 391a a2bd e944 c8bd bc0d 8d3d
000003d0: 1f0f a8be 9c11 d83d 0d3d 953d 3bee 083d
000003e0: 91c3 57be 3dca af3c b4d1 053d b07b b1be
000003f0: 89c8 09be 0145 b6bd 1032 b63c 33d6 04be
-0.09980721 0.05508129 -0.070769526 0.116146386 -0.03997262 0.028356021 0.07754844 -0.027673163
0.05777734 -0.08486014 0.0913059 -0.0731471 0.089655794 0.095047176 0.21937564 0.010815338
-0.20155811 0.14768626 -0.050796982 -0.09124097 0.08085925 0.053552326 0.05438931 -0.20937406
-0.07922796 -0.120720014 -0.028188802 0.009973591 0.12040104 -0.050514765 0.043849055 0.051654693
-0.07684401 -0.05787941 -0.06286316 0.042927206 -0.037909385 0.0028017599 0.06870346 -0.039722193
0.11378838 0.20066719 -0.24195214 0.07287483 -0.004495855 -0.06381843 -0.16070107 -0.21247993
-0.008848374 0.027892813 -0.0055484083 0.008238506 -0.1278845 -0.050560705 0.058983315 0.13652232
-0.07730446 0.039657716 -4.1686322e-05 -0.033930838 0.008062559 0.03140261 -0.025639797 -0.04669584
0.08143328 -0.11678788 0.14937189 0.03597379 0.06962305 0.09637904 0.07829932 -0.24956158
-0.22190367 -0.3674182 0.17802039 -0.4716477 0.19379914 -0.45041835 -0.22064473 0.09787422
-0.051151387 -0.09095939 -0.37978768 -0.44280815 -0.10466302 0.30040735 -0.46195215 0.23657109
0.07235677 0.144956 -0.13061865 -0.34120974 -0.13863711 0.28154317 -0.053754903 0.12356367
0.11364245 -0.40407667 -0.06507319 -0.2960069 0.22110552 -0.050390042 -0.097906865 0.34139282
-0.2853319 -0.24935174 -0.20481057 -0.3710042 -0.061093483 -0.4281463 -0.50899655 -0.2055819
-0.06656601 -0.65498024 0.026595285 0.13416049 0.15187226 -0.27063817 -0.04434045 -0.020686107
0.11792787 -0.018702893 -0.38209364 -0.27944 -0.35735452 0.09133267 0.2901746 -0.15273224
-0.09962738 0.12911661 0.0060727694 -0.056931254 -0.00479262 -0.02305984 -0.097894676 -0.009798578
-0.005222614 -0.11341444 -0.02535411 -0.05693284 0.0014347866 -0.09458878 -0.04331007 0.0103428755
-0.033075277 -0.04656319 -0.09754362 -0.20767342 -0.11392596 -0.13355061 0.03153764 0.08786359
-0.08437088 -0.16323946 0.052671105 -0.0594236 -0.16481426 0.0027920369 -0.08551649 -0.051339425
-0.022039602 0.09195542 -0.15006088 -0.03293706 -0.022662126 -0.090509064 -0.043292437 -0.14119983
-0.008242037 -0.0061029466 -0.07061946 -0.019009028 -0.22557065 -0.16480742 0.006951586 -0.16699277
-0.07820972 0.030520765 -0.1675956 0.03964408 0.03507484 -0.033819363 -0.02883625 0.07577634
0.012964617 -0.07843271 -0.067041874 -0.1776487 0.116164796 -0.21811682 -0.071528114 -0.051799417
-0.032779258 -0.13315673 -0.08120187 0.10855854 -0.100066975 0.124823436 -0.037286814 0.06960045
-0.090246595 0.047212 -0.17728297 0.10720153 0.17384931 -0.013616371 -0.013166804 0.04696524
-0.15609297 0.061237607 0.048567176 -0.22858219 0.0032541591 -0.22612871 0.08006321 -0.11688112
0.08619667 0.008669672 0.048863098 -0.20283386 0.06555151 -0.14023095 0.07099239 -0.1418226
0.041203614 0.18618028 0.086779706 -0.050554197 -0.01759769 0.11163957 -0.1407574 0.031614255
-0.29704928 0.29132754 -0.023232095 -0.48505753 -0.14378835 -0.17117006 -0.0032718387 0.023780093
0.13485731 -0.07915158 -0.097787686 0.06887385 -0.32824036 0.10550234 0.07287035 0.03343032
-0.21070696 0.02145874 0.03267069 -0.3466468 -0.13455404 -0.0889988 0.022240669 -0.12972336

mlp_list_outer.0.mlp_list.0.bias f4 [64]
00000000: f438 333b c6c4 8a3e f341 c93c 2546 8dbd
00000010: fd3c 333f fcb8 5c3e 6dab 10bc e4a0 97bd
00000020: 4894 073f 6ec5 cfbb ce7c c63e 99be 1abc
00000030: 426d 39ba 9b14 763d 8d15 d43e 8495 f83e
00000040: b467 e4bd 96f9 993e 7ff1 ef3e 8fc7 bfbf
00000050: 1c2f 0f3f 3b17 afbe a45a 6fbf ac19 f13e
00000060: f437 f23c 0f19 f1bd 67ed cc3e f8ec 753f
00000070: 5216 d33e 9fb1 a33e 7008 c0be 52e6 bd3d
00000080: e24c 963e 62ca e53f fdb3 103f dddf 153f
00000090: 2767 bd3e d142 b0bc b2da d03e a1de cdbd
000000a0: e141 f33e e27f 66bf 7be3 21bb 1589 343e
000000b0: 8f85 1e3f f084 be3d 0373 3d3f 5628 453e
000000c0: ac31 9ebf 709c a73e cba6 e6bc cd32 f33e
000000d0: 6cf4 c73e 260f 9dbf 55a2 013f 1b73 8cbe
000000e0: 9a6f a0bd 88a8 b43e 318d 17be 3153 18be
000000f0: 9f15 f23e 4f38 213f 723f 84bf f85b 023e
0.002734718 0.2710325 0.02456758 -0.06898145 0.70014936 0.21554941 -0.008829934 -0.07403734
0.52960634 -0.006340674 0.38767093 -0.009444856 -0.00070734706 0.060078245 0.41422692 0.4855157
-0.11152592 0.3007323 0.46863934 -1.4982775 0.5593126 -0.3419741 -0.9349768 0.470899
0.029567696 -0.11772358 0.40024874 0.9606471 0.41227967 0.31971452 -0.37506437 0.09272446
0.29355532 1.7952387 0.5652464 0.58544713 0.36992761 -0.021516236 0.4079185 -0.10052229
0.475112 -0.90038884 -0.002470224 0.17630418 0.61922544 0.093026996 0.7400362 0.19253668
-1.2358909 0.3273654 -0.028155705 0.47499695 0.39053667 -1.2270248 0.50638324 -0.27431569
-0.07833786 0.3528483 -0.14799954 -0.14875485 0.4728212 0.62976545 -1.0331862 0.12730396

NTN.weight_matrix f4 [64, 64, 16]
00000000: ce4a b9bd a9f8 94bd 717e 35bd fb6d 7a3d
00000010: c574 123c 2b0f 523e fc77 c4bd 519c abbc
00000020: 139b 8f3d 177a 42bd 773f 5c3e cd4f 02be
00000030: d430 143d dafd 813e 52be 9ebc 40ff abbd
00000040: 718d 133e 77da edbc 2196 983d 0a07 86be
00000050: 8338 7dbd 3f4c 053e 3632 ecbc c64b f83b
00000060: 3e0a 913d 637f e83d c93f ebbd 7acd 0c3e
00000070: f8cc 15be 2603 803d 8f29 9d3e f6d9 173c
00000080: c4d3 09bd ede7 2dbb 5aae 63bd a1e0 5cbd
00000090: 1b7f a43d a8d8 af3c d336 0f3c 4adc c5bc
000000a0: 72f5 f5bc e8f6 6d3d 680e 4e3d 9fc4 723d
000000b0: 881d 6e3d ee7f a5bb 99c9 87bc 65b0 5cbb
000000c0: a132 0fbe 3041 51bd 73dc d43d 6f36 0bbe
000000d0: 077c a2be be76 84bb 0bf8 ba3c 82ac 08bd
000000e0: 8996 d4bb 9732 e33d bccf 1c3d 3d2f b2bd
000000f0: 4e99 773c 0993 853c 6146 063e c555 4bbe
00000100: 0552 40be 3def e0bc 5b77 ba3d 1715 1fbd
00000110: 3789 413e a5cd 233e 69b6 22bd 971b 39bc
00000120: 2a72 c03d 1678 ca3c f790 f93d 408c be3e
00000130: 939c 0dbe 73e3 8c3e 4b0a debd 92ee d1bb
00000140: 23a0 6bbd 63d9 89bd f71c 1c3e 1146 0e3c
00000150: 5e77 1d3e c386 4a3e 2bf6 963e 301c 363d
00000160: c122 20be d2bb 133e 7efb 4c3e 0126 e63e
00000170: 2ba6 733e 4314 9c3c 3323 78bd 8f4c 0a3d
00000180: cb13 903c fa07 8b3b 94e8 43bd 6d99 37bd
00000190: f2b3 183d 57e4 8e3c d55b 103d a2b8 ecbb
000001a0: dbfe 313d 104e e53c 8ea4 ec3c 7229 de3c
000001b0: e434 02bd 41e8 383b 2540 7e3c ff33 ff3c
000001c0: 9d92 91bd 90e6 853c b8c7 b1bd 89ff a83d
000001d0: 67c4 403c 5927 013d 8c8b 9cbd 9587 9dbe
000001e0: e3b6 573e 1d94 913e 0020 83bb 01eb 9b3d
000001f0: 877e fe3c de77 e4bd 4a0d 013e 0301 2f3c
00000200: 5280 adbd 8268 9abd dc24 183e c5bb 0a3e
00000210: 37d4 e83d 66ec 5bbd 203d edbd 9709 443d
00000220: ff45 32bd 6833 38bc bafc 8e3e f4ea 443e
00000230: e7ba 793e 3c6c 133e d0fd 5abd fa3b 0b3d
00000240: 6933 c9be 1913 69be 4595 673e e0d7 18be
00000250: 1141 b93d bae1 b3be dea6 cc3c 5d11 3cbd
00000260: 92f3 5b3e 3088 17bd c071 153e d942 d23e
00000270: f0e9 dd3e 3468 543e 39fd cabe 9cb9 88be
00000280: 1de2 a7bd ac58 0bbe 8553 3c3e b9ba 3a3e
00000290: 5e58 883d f041 96bc 0120 d13d de5c ef3d
000002a0: eb66 bbbd e308 c8bd 61db 8a3c 9bad 013e
000002b0: c8cb 403e 65c4 03be f846 4c3e aa28 243d
000002c0: 78f0 503d bc22 cfbd 6214 05be 8ca7 2abe
000002d0: 64d4 ff3d 1275 4ebe 38b3 043d eb26 943c
000002e0: b355 da3d 9634 f73d d0da 0abe 1875 bfbc
000002f0: c6a3 fb3c d461 42bd 9f86 603e 260b b63b
00000300: 4225 73bc cc34 1abd 8c90 f1bb 00b5 903c
00000310: e2bd b5bc 0543 243d b69d afbb 93f0 223d
00000320: 4f0a 35bd 6bf4 6b3d b587 a03c c984 e93b
00000330: a94f 613d 1b46 a1bc fce3 21bc 6eb4 173a
00000340: 407b 6fbd cf98 3f3d fe3d 1d3d a2e7 0fbd
00000350: 7ac9 b9bc a39e 063b ebf7 1fbc d6ef 7ebc
00000360: 3359 5cbd 1862 bdbc 4b20 4f3d baaa 3a3c
00000370: 8abf 243d 28ab a2bb b49c c83c 55fc 763d
00000380: be11 ff3c 2c59 64bd 6dd9 233e abe0 323c
00000390: b6ae 9dbd e9eb 1c3c 6812 6cbd b94a 8c3c
000003a0: a22a fcbd 72ba 1dbe c69e 35bd 9eae 85be
000003b0: 2cfe 4b3e 239e 3c3d 540e 453e 1f95 b5be
000003c0: d7de 38bd 750c 98be f3b9 493e 1382 de3d
000003d0: da90 713d 08a1 173e db50 e93d cb6c b6bd
000003e0: 5280 aa3d 8fb0 6ebe 8079 2a3c dfb5 883e
000003f0: adf9 7f3c 0060 203e e99b 2fbd b4b2 9fbd
-0.09047471 -0.07273991 -0.044310037 0.06114004 0.008938973 0.20513599 -0.09593198 -0.02094856
0.07012 -0.047479715 0.21508585 -0.12725754 0.03617938 0.25388986 -0.019377861 -0.083982944
0.14409424 -0.029034836 0.0745051 -0.26177245 -0.061821472 0.13017367 -0.028832536 0.0075773923
0.07082032 0.11352422 -0.114867754 0.13750258 -0.1462897 0.062506005 0.3069577 0.0092682745
-0.03364922 -0.0026535944 -0.055586196 -0.05392516 0.08032056 0.021465614 0.008741098 -0.024152894
-0.030024264 0.058096796 0.050306708 0.059269544 0.058133632 -0.005050651 -0.016575621 -0.0033674475
-0.13984157 -0.05108756 0.1039361 -0.13594984 -0.3173525 -0.0040424755 0.022823354 -0.03336764
-0.0064876718 0.110936336 0.03828405 -0.08700416 0.015112234 0.016305463 0.13112785 -0.19856937
-0.18781288 -0.027457828 0.091047965 -0.038838472 0.189 0.15996416 -0.03972474 -0.011298082
0.09396775 0.024715465 0.12185853 0.37216377 -0.1382926 0.2751728 -0.10841807 -0.0064066136
-0.057525765 -0.06730916 0.15245424 0.008683697 0.15377566 0.1977797 0.29484686 0.044460475
-0.15638258 0.14427117 0.20017812 0.4495087 0.23793857 0.01905263 -0.060580444 0.03376442
0.017587563 0.0042428942 -0.047829226 -0.044824053 0.037280984 0.017442865 0.035243828 -0.0072241584
0.04345594 0.027991325 0.02888706 0.027119372 -0.03178872 0.0028214606 0.015518223 0.031152723
-0.071080424 0.016345292 -0.086806715 0.082518645 0.011765576 0.031531665 -0.07643804 -0.30767503
0.2106586 0.28433314 -0.0040016174 0.07613183 0.031066192 -0.11155675 0.12602726 0.010681394
-0.08471741 -0.075394645 0.1485781 0.13548191 0.11368602 -0.053692244 -0.11583924 0.047860708
-0.043523785 -0.011242725 0.2792719 0.19230253 0.24387704 0.14396757 -0.05346471 0.033992745
-0.39297035 -0.22761191 0.22615536 -0.149261 0.090456136 -0.35133153 0.024981912 -0.045914996
0.21479633 -0.036995113 0.14594173 0.41066626 0.43342543 0.20742875 -0.3964632 -0.2670411
-0.081974246 -0.13608044 0.18391235 0.18235292 0.0665748 -0.018341988 0.102111824 0.11687635
-0.091504894 -0.0976732 0.016950311 0.12663881 0.18827736 -0.12867887 0.19948947 0.040077843
0.05101058 -0.10114047 -0.12996057 -0.16665477 0.12491682 -0.20161846 0.03239748 0.018084964
0.10660877 0.12070577 -0.13560033 -0.023371264 0.030717742 -0.047456577 0.21926354 0.005555528
-0.014840426 -0.037648007 -0.0073719677 0.017664433 -0.02218527 0.040102977 -0.005359377 0.03978021
-0.044199284 0.057606142 0.01959596 0.007126425 0.05500761 -0.01968675 -0.009881016 0.0005787079
-0.05846715 0.04677659 0.0383892 -0.03513301 -0.02267908 0.0020541332 -0.009763698 -0.015560111
-0.053796005 -0.023118064 0.050567906 0.011393243 0.04022173 -0.004964251 0.024488784 0.060299236
0.03113639 -0.055749103 0.1600091 0.010917823 -0.07699339 0.00957773 -0.05763474 0.017125474
-0.12312819 -0.15403154 -0.04434087 -0.26109785 0.19921178 0.04604925 0.19243747 -0.35465333
-0.04513439 -0.29697004 0.1969984 0.108646534 0.05897603 0.14807522 0.11392375 -0.08907469
0.083252564 -0.2330954 0.010404944 0.26701257 0.015623492 0.15661621 -0.042873297 -0.07797757

NTN.weight_matrix_block f4 [16, 128]
00000000: 54c8 703d e714 9c3e cd95 ae3d 2634 263e
00000010: 1019 6c3e c1ed c83a a554 383d 8090 ebbd
00000020: f5d9 8c3d 9ae4 b2be 20dd 063e 7d7b fa3d
00000030: 946b b53d 5c02 3abe 86d1 483d 096f 2abe
00000040: 3729 1ebe 4b0f 8ebd f768 e6bc 333a 063f
00000050: 84a9 c0be 66a4 f63e 2443 833e fb62 543e
00000060: 4f64 20be e862 333d 355e 33be 9dfa 04be
00000070: 0323 a73d e9ce 6cbd 1f5e bc3e a1ad f9bd
00000080: 5a5e 3e3c 5690 0d3e dd81 78bd 5600 99bd
00000090: a634 a53e 2c9b 89bc a5a2 d33e 91cb 13be
000000a0: 91d3 bbbd c3a5 e53d 31b8 a8bd 9c11 d33e
000000b0: b214 d43d f817 10be 2e64 7a3d 675f c8bc
000000c0: 1a51 c83d 61d9 debd fc24 f03d 7e2a 3e3e
000000d0: 0e6a 103e 3212 443e aa04 e2bc 1148 c13e
000000e0: d931 a8bd 752c 9cba d547 2fbc b0c2 443e
000000f0: ef3d c2bc 43f9 80be e321 063f 78af 8f3e
00000100: c1bf aebe d9b3 3e3e 1f37 ebbd 4ab1 bfbe
00000110: ffff 90be 21c6 9d3a ba89 4abe b7b5 5dbe
00000120: 09fa 5ebe f45a bebe f12a a5be 0497 603e
00000130: f587 4dbe aca5 0bbd 05a7 5fbd 4b61 0cbe
00000140: 5862 933d fdd6 98be 9a13 10be db91 9dbe
00000150: ee86 af3e ad96 59be 8ff6 14be fb71 afbe
00000160: cbdc 1a3e ca6b 8f3d 01a6 573e 9027 e5bd
00000170: db23 9c3e d46b 0d3e f743 c0be 3a1c e93d
00000180: a841 c9bd 3715 083d ad3c b33d 2dde 98bd
00000190: 011c 88be e07f 67be b567 ddbe e85d 73bd
000001a0: e0c6 c5be 042f d83d 812a 81b5 9485 fabd
000001b0: 49a1 ffbc 0866 113d 48ee 92be c7ed acbe
000001c0: 8633 96be 0cff 64be 284e 2f3e 2fec 50bd
000001d0: 993a bcbe 04ef 22be 24c9 b73d 6a87 06be
000001e0: d7a3 5bbd 8139 afbe b63c fcbd b937 aabe
000001f0: 59ec 76be 55b4 263e cf8b dabe 256e b6be
00000200: 1369 65bd b8fb 79be 314e 5bbd 0670 043d
00000210: 7cb8 d93d 5e3e 6d3e abaa de3d 1a80 fa3c
00000220: 4c6e 92bd eab9 ab3e ef92 e13b 7e92 3a3d
00000230: 315c ca3d e5a9 0d3d 9601 93be b3ab 823e
00000240: 7ae9 18be 0677 f2bd 8d89 043e 5578 2cbe
00000250: 4633 823e 1ea3 303e 5788 6fbd e856 a9bc
00000260: 39d7 52bd 3d1c c53c 7cc2 84be db4c 9abe
00000270: f043 0cbd e264 88be 24b1 893d 0d9d d4bc
00000280: 4b11 623e 7d89 063e 69fc 183e f663 2f3d
00000290: 5e05 26be e3ed 993d af48 92bd 4f61 92bd
000002a0: 6c17 8cbe 9f22 5d3c dd02 25be 1c5d 03be
000002b0: 095f 8b3e 93fa 0abd 7c14 f73c 3106 12be
000002c0: 6045 0bbc 360d 2abe 4228 94bd cadb a23d
000002d0: 6481 80be 1855 f9bd 73e5 fbbd 0c54 b9bd
000002e0: b88f 603e e306 453d 15f1 debd bbb6 273e
000002f0: daba 1c3a cf27 1c3e 424f f7bd 18a4 abbe
00000300: 71f8 bc3d 44d1 dc3d e052 833d 5b30 35be
00000310: bdcf 6b3e 5477 3f3d 4b04 4c3d 2fff de3d
00000320: eac5 5fbe 91b0 3e3c 4da0 4a3d 4a4c b53d
00000330: 6b62 f0bd ec07 113e 053d 6a3b 5338 123e
00000340: 4950 433e edd2 4ebe 98bb 323d 084a 20be
00000350: 17b4 0d3e a7b1 f6bc 8b9f a1be 6aa5 8e3d
00000360: c005 25be a7e2 f83d 041a 3abe 32c9 91be
00000370: 4da9 533d d097 93be 7498 9bbe 1ce4 2e3c
00000380: 2541 57bd 396e 3f3d a0e1 32bc ff0e 413d
00000390: 82b4 913d 85dc 503d 5ef1 25be ee8e bbbd
000003a0: 8084 7dbe 4bcb a23d 2531 fdb9 ac77 d2be
000003b0: 80f9 8a3d 2c8f 73be 4615 513e d90f 91be
000003c0: 2665 a0be 89e7 7a3d e55e dd3d d088 b3be
000003d0: 990a 33be 1a9d e1be c944 bbbd 8db6 b2be
000003e0: 18a5 cb3d 8846 3fbe a7ee 153e 5f63 e23d
000003f0: 6753 4d3e 7f7c c13d ab8d 84bd c735 5abd
0.058784798 0.30484697 0.08524666 0.1623083 0.23056436 0.0015329645 0.0450026 -0.115021706
0.068775095 -0.34940034 0.1317029 0.12230585 0.088584095 -0.18164963 0.049027942 -0.16643919
-0.1544541 -0.06936511 -0.028126223 0.52432555 -0.3762933 0.481723 0.25637162 0.20740883
-0.15663265 0.043795496 -0.17516406 -0.12986226 0.08160975 -0.057814512 0.3679056 -0.1219132
0.011619175 0.13824591 -0.060670722 -0.07470767 0.3226673 -0.016797625 0.41335025 -0.14433123
-0.091712125 0.11213257 -0.08238257 0.41224372 0.1035551 -0.14071643 0.061130695 -0.024459554
0.09781094 -0.108813055 0.11725804 0.18570897 0.14102957 0.19147566 -0.027590115 0.37750295
-0.08212633 -0.0011915105 -0.010698278 0.19214892 -0.023711173 -0.25190172 0.5239546 0.2806356
-0.34130672 0.18623294 -0.11485123 -0.37439948 -0.2832031 0.0012037196 -0.19779101 -0.2165135
-0.21775068 -0.37178767 -0.32259324 0.21932608 -0.20071395 -0.034093544 -0.05460264 -0.1370899
0.07196492 -0.29851523 -0.14069977 -0.3077534 0.3428263 -0.21248884 -0.1454718 -0.34266648
0.15123288 0.07002981 0.21059419 -0.111891866 0.30496106 0.13810664 -0.37551853 0.11382337
-0.09826976 0.033223357 0.08751807 -0.07464252 -0.26583865 -0.22607374 -0.43243185 -0.059415728
-0.38628292 0.105558425 -9.623619e-07 -0.12232509 -0.031204836 0.035497695 -0.2869742 -0.3377516
-0.29336184 -0.22362918 0.17119658 -0.051006492 -0.36763456 -0.1591149 0.089739114 -0.13137594
-0.053623047 -0.3422356 -0.12316267 -0.33245638 -0.24113597 0.16279729 -0.4268479 -0.3563091
-0.05600841 -0.2441243 -0.053541366 0.032333396 0.10630891 0.23168322 0.10872396 0.030578662
-0.07149944 0.3354028 0.006883971 0.045549862 0.09880865 0.034585852 -0.28712147 0.2552162
-0.14932814 -0.11839108 0.12943096 -0.16842778 0.25429744 0.17249724 -0.058479633 -0.020671323
-0.051474784 0.024061317 -0.2592963 -0.3013676 -0.034244478 -0.26639467 0.0672324 -0.025953794
0.22076909 0.13138385 0.14940037 0.04281994 -0.16212985 0.075160764 -0.071427695 -0.071474664
-0.2736162 0.013497024 -0.16114374 -0.12828487 0.27220944 -0.033930372 0.030161135 -0.14260174
-0.008500427 -0.16606602 -0.07234241 0.07952078 -0.25098717 -0.121744335 -0.12299623 -0.09049234
0.21929824 0.04810227 -0.108858265 0.163783 0.0005978771 0.15249561 -0.12075664 -0.3352363
0.09227074 0.10782102 0.064122915 -0.17694227 0.23028465 0.04674466 0.04980878 0.10888516
-0.21852842 0.011638776 0.04946928 0.088524416 -0.11737522 0.14163178 0.0035741937 0.14279298
0.19073595 -0.2019765 0.043635935 -0.1565324 0.1383823 -0.030114008 -0.31567034 0.06965144
-0.16115475 0.121526055 -0.18173987 -0.28473812 0.05167513 -0.2882676 -0.3038975 0.010674503
-0.05255236 0.046735976 -0.010918051 0.047133442 0.07114507 0.050991554 -0.16205356 -0.09158121
-0.24757576 0.07948931 -0.00048292536 -0.41106927 0.067858696 -0.23785084 0.20418271 -0.28332403
-0.3132717 0.061255965 0.10809115 -0.35065317 -0.17484511 -0.4406517 -0.09143979 -0.349049
0.099435985 -0.1867925 0.1464182 0.1105411 0.20051347 0.09447574 -0.064723335 -0.053273942

NTN.bias f4 [16, 1]
00000000: 746b fcbe 76a9 dabe 2d3c b3bd 1eb8 81be
00000010: d7f3 c1bd 758e 743c a718 723d e885 02bf
00000020: 1344 133f d3aa 933e baf4 583f 755a 05bf
00000030: 9411 3ebe ff42 0f3f 87ce 40bf 24ac 27be
-0.4930073 -0.42707413 -0.08751712 -0.25335783 -0.09470337 0.0149265425 0.05910554 -0.50985575
0.5752575 0.28841266 0.84748423 -0.5209115 -0.18561393 0.559616 -0.75315136 -0.1637426
