model_saved/LINUX/2022-03-20_03-01-57/GSC_GNN_LINUX_checkpoint.pth (torch, 161969 bytes, 49 tensors)

gnn_list.0.nn.0.weight f4 [64, 8]
0.24083589 -0.6468254 0.31273976 0.1586763 -0.2670254 -0.29784247 0.060923133 0.16035607
-0.091709346 0.22182505 -0.13949458 -0.24479453 -0.24896282 -0.31969646 0.37729788 0.14505263
0.12180342 0.3111995 -0.7288787 0.48552674 -0.23333581 0.0954405 0.048455287 0.02267551
0.21114053 -0.021599839 0.4968194 -0.027267832 -0.19368306 -0.8712109 -0.5435664 -0.28939855
-0.092046864 -1.3805672 -0.00096759584 0.7082347 0.69108456 -0.059982043 -0.20672216 -0.22346622
0.13698076 -0.42635646 0.34213537 0.37166747 0.17719224 0.12074158 0.5558914 -0.20648284
-0.18412748 0.049783614 0.0315274 0.0298345 -0.3292895 0.0034553278 -0.123207904 0.17745572
-0.23764318 -0.3100877 -0.29785535 0.08654046 -0.020993935 0.18011004 0.041068394 -0.119150996
0.3086876 0.4251706 0.29064998 0.14947213 0.20109896 0.005781716 -0.7624953 -0.05972453
-0.124222316 -0.11938433 -0.22914886 -0.053683534 0.070600905 0.17173079 0.2333513 -0.19205122
-0.11186123 -0.25234777 -0.19167653 0.78358847 -0.9543899 -0.31687948 0.13963318 -0.015617725
-0.09905243 -0.5415812 -0.3907531 0.518071 -0.3333773 -0.16297226 0.21350256 0.061561204
-0.02755835 -0.22784859 -0.3254216 -0.046378642 0.2836917 0.1048437 -0.17287457 -0.085271336
-0.2724426 -0.32035267 -0.10587367 0.07000278 0.22983281 0.25503492 -0.2662858 -0.08579973
0.09217048 -0.79156566 0.03736506 0.05903683 0.5732306 0.313001 -0.33722657 0.18958353
0.21047668 0.06713949 0.05418633 -0.27104628 0.08183449 -0.25772 0.50119907 -0.07382383
-0.34396097 -0.04373495 -0.057857096 0.015824977 -0.03625358 -0.034312803 0.021769233 0.02565681
-0.07230347 -0.9814303 -0.273542 0.741844 -0.32674113 0.65190715 0.21296132 -0.15002765
0.31433702 0.35724592 0.1594861 -0.032574814 0.026615182 -0.22736813 -0.7978598 0.09483871
-0.29839876 0.37996638 0.35550287 0.108781874 0.023674559 -0.2283414 -0.82302964 0.020904541
-0.2212433 0.42179585 -0.32988963 -0.5191468 0.14249249 0.77409834 0.36564308 -0.025240399
0.25211394 0.23830612 0.11011752 -0.32810727 0.24452813 -0.36637554 -0.4325984 0.3431611
-0.16498716 -0.0034062273 -0.031013455 0.5996433 -0.6398506 -0.2107484 0.042101454 0.34969723
0.038943224 -0.22781838 -0.23649271 -0.08395214 -0.08007897 -0.33433083 -0.3358461 0.31367767
-0.2913349 0.45793512 -0.21165742 0.3333807 0.37013236 -0.022226408 -0.26718393 0.10867131
0.21771228 0.39776963 0.35611576 0.095585436 0.19613971 -0.27740586 0.095630534 0.33920214
-0.34368932 -0.49644685 -0.35458356 -0.2721534 -0.34274676 0.46040946 0.2028329 -0.024267817
-0.19933107 -0.13558789 -0.32959726 0.0471214 -0.12968029 0.2786473 0.17308803 0.19280295
0.027311452 0.49373758 0.12669243 -0.72518164 -0.42219144 0.18761428 -0.42381856 0.30783677
-0.033674993 -0.17064056 -0.14376788 -0.32517806 -0.15409242 0.045290876 -0.09255182 0.0148737915
0.06982873 -0.32919118 0.13502474 -0.7559424 0.62874466 0.36230913 -0.08269758 0.19234954
-0.07961788 0.65189177 -0.42652753 -0.31924537 -0.017333202 -0.60106283 -0.47171125 0.17144899
00000000: af9d 763e 5996 25bf 6d1f a03e 0a7c 223e
00000010: 8eb7 88be cf7e 98be 898a 793d 6234 243e
00000020: 1cd2 bbbd 1b26 633e abd7 0ebe 6bab 7abe
00000030: 1cf0 7ebe 41af a3be 302d c13e ad88 143e
00000040: 1274 f93d 8a55 9f3e cb97 3abf f696 f83e
00000050: 95ef 6ebe 4f76 c33d 0d79 463d fec1 b93c
00000060: 3935 583e 25f2 b0bc 1d5f fe3e ca60 dfbc
00000070: da54 46be ad07 5fbf 2b27 0bbf 0c2c 94be
00000080: 1183 bcbd 6db6 b0bf 42a6 7dba df4e 353f
00000090: ebea 303f bbaf 75bd f9ae 53be 54d4 64be
000000a0: af44 0c3e 654b dabe 5e2c af3e 334b be3e
000000b0: e271 353e 5d47 f73d e64e 0e3f 3d70 53be
000000c0: ea8b 3cbe e7e9 4b3d e022 013d 7b67 f43c
000000d0: a298 a8be c872 623b 6d54 fcbd f4b6 353e
000000e0: bc58 73be d1c3 9ebe 7f80 98be 203c b13d
000000f0: 79fb abbc c46e 383e 5537 283d 7005 f4bd
00000100: 4d0c 9e3e f6af d93e 13d0 943e 390f 193e
00000110: e3ec 4d3e 8d74 bd3b e432 43bf b5a1 74bd
00000120: 4568 febd c67f f4bd 00a6 6abe 44e3 5bbd
00000130: 3597 903d 32da 2f3e a5f3 6e3e 13a9 44be
00000140: 8017 e5bd ba33 81be da46 44be 4199 483f
00000150: e652 74bf 073e a2be 00fc 0e3e 7de1 7fbc
00000160: 00dc cabd 11a5 0abf ca10 c8be 4da0 043f
00000170: 6eb0 aabe 33e2 26be 6aa0 5a3e 9a27 7c3d
00000180: 0cc2 e1bc 2451 69be a99d a6be 88f7 3dbd
00000190: 0a40 913e 4bb8 d63d 0806 31be bda2 aebd
000001a0: 997d 8bbe 4405 a4be 4bd4 d8bd 9e5d 8f3d
000001b0: 4b59 6b3e f093 823e 9d56 88be c5b7 afbd
000001c0: e0c3 bc3d 0ca4 4abf 1b0c 193d 9ad0 713d
000001d0: 3ebf 123f ab41 a03e f6a8 acbe 2f22 423e
000001e0: 3387 573e 6e80 893d 7cf2 5d3d 94c6 8abe
000001f0: d798 a73d e0f3 83be 954e 003f f330 97bd
00000200: a71b b0be 6b23 33bd 90fb 6cbd 62a3 813c
00000210: a27e 14bd 958b 0cbd 6455 b23c 3b2e d23c
00000220: d713 94bd 043f 7bbf b20d 8cbe 7de9 3d3f
00000230: 9d4a a7be 63e3 263f 8812 5a3e d9a0 19be
00000240: c8f0 a03e f0e8 b63e 5350 233e 2b6d 05bd
00000250: 1508 da3c 31d3 68be 8a40 4cbf cc3a c23d
00000260: b9c7 98be f48a c23e 7904 b63e 08c9 de3d
00000270: 26f1 c13c 54d2 69be 12b2 52bf 0040 ab3c
00000280: 9b8d 62be a0f5 d73e 4be7 a8be cee6 04bf
00000290: 8de9 113e 4f2b 463f 9235 bb3e f4c4 cebc
000002a0: 1415 813e 8506 743e 4b85 e13d adfd a7be
000002b0: 9565 7a3e 9395 bbbe 8a7d ddbe d0b2 af3e
000002c0: 65f2 28be 033b 5fbb ee0f febc 3982 193f
000002d0: 40cd 23bf 6ece 57be 9372 2c3d 840b b33e
000002e0: ee82 1f3d 3949 69be 252b 72be 19ef abbd
000002f0: 7100 a4bd 692d abbe 05f4 abbe 5c9a a03e
00000300: d929 95be 7976 ea3e b9bc 58be e0b0 aa3e
00000310: fd81 bd3e 2814 b6bc 55cc 88be 108f de3d
00000320: f8ef 5e3e 76a8 cb3e ce54 b63e 4cc2 c33d
00000330: d9d8 483e 2408 8ebe f1d9 c33d e7ab ad3e
00000340: 0cf8 afbe 482e febe fa8b b5be b157 8bbe
00000350: 817c afbe caba eb3e 6eb3 4f3e 4dcd c6bc
00000360: 721d 4cbe 8dd7 0abe f9c0 a8be 5e02 413d
00000370: e9ca 04be dcaa 8e3e fd3d 313e 236e 453e
00000380: 44bc df3c 2ccb fc3e a9bb 013e 81a5 39bf
00000390: 7a29 d8be f51d 403e bffe d8be c89c 9d3e
000003a0: caee 09bd 66bc 2ebe e337 13be bd7d a6be
000003b0: 67ca 1dbe ed82 393d cf8b bdbd 34b1 733c
000003c0: 5d02 8f3d bf8b a8be ed43 0a3e 7185 41bf
000003d0: 69f5 203f 9580 b93e 595d a9bd 47f7 443e
000003e0: b30e a3bd 61e2 263f d161 dabe 2174 a3be
000003f0: 5cfe 8dbc 41df 19bf 2384 f1be 5390 2f3e

gnn_list.0.nn.0.bias f4 [64]
0.028979944 -0.406118 -0.023649465 -0.42842796 -0.048242006 -0.49075323 -0.24420129 -0.3532564
0.40901646 -0.11829707 -0.2560595 0.15710606 0.07110416 -0.30185255 0.008747503 -0.5288961
0.05259043 0.043768726 -0.5395853 -0.7575059 0.275471 -0.6933674 -0.6010027 0.3505515
-0.16227365 -0.7076313 0.19606718 -0.048682146 -0.00825008 0.17066456 -0.4235746 0.16609818
0.8748693 0.24211134 -0.4152945 -0.5171383 -0.18132816 -0.28207892 -0.06729067 0.117738724
0.11748337 -0.19904664 0.062414404 -0.19289158 0.23564167 -0.23271029 -0.0018357465 0.109142914
0.3124648 0.20344663 -0.3738986 -0.07568162 -0.02561373 -0.78952163 -0.063135475 -0.37981242
0.6732523 0.57724714 0.33241618 -0.28679717 0.10974913 -0.27592385 -0.089869216 -0.029731484
00000000: 5967 ed3c b3ee cfbe 86bc c1bc e95a dbbe
00000010: 6999 45bd 0244 fbbe e70f 7abe 06de b4be
00000020: 9b6a d13e bc45 f2bd 3b1a 83be 69e0 203e
00000030: 0f9f 913d 6b8c 9abe b051 0f3c bc65 07bf
00000040: 1069 573d d646 333d 4322 0abf e8eb 41bf
00000050: 890a 8d3e 8780 31bf 50db 19bf 7c7b b33e
00000060: 102b 26be 5327 35bf d6c5 483e ee66 47bd
00000070: 582b 07bc b1c2 2e3e c5de d8be a415 2a3e
00000080: 6ff7 5f3f 09ec 773e 7ba1 d4be 2d63 04bf
00000090: 17ae 39be a66c 90be b1cf 89bd 0021 f13d
000000a0: 1f9b f03d e2d2 4bbe 3fa6 7f3d 5f85 45be
000000b0: 0d4c 713e 9b4b 6ebe 6e9d f0ba 5286 df3d
000000c0: 63fb 9f3e 5054 503e a36f bfbe f7fe 9abd
000000d0: e3d3 d1bc 171e 4abf 2c4d 81bd c676 c2be
000000e0: 435a 2c3f 78c6 133f 7432 aa3e 14d7 92be
000000f0: 27c4 e03d e445 8dbe 5a0d b8bd 718f f3bc

gnn_list.0.nn.2.weight f4 [64, 64]
-0.06706522 -0.10769573 0.11063877 0.1729443 0.38243213 0.09901858 0.039952215 -0.048239425
-0.11360762 -0.07621846 -0.38403356 -0.3465088 0.0760349 0.095764495 0.027892988 -0.109341025
-0.03927363 -0.6567407 -0.28198475 -0.23681186 -0.021595985 -0.33006644 -0.52399975 0.03874412
0.004376829 -0.16548015 -0.27496013 0.0653178 -0.27777806 0.054830257 -0.8868333 -0.052576605
-0.33721805 -0.39150798 -0.30998972 -0.42394182 -0.087463364 -0.23494689 -0.5235366 -0.07369474
-0.0030754497 0.036567066 -0.11505409 -0.33798465 -0.030944124 0.10669601 -0.6703436 -0.7296031
-0.023545884 -0.4259888 0.15436037 0.02822453 -0.20964663 -0.5468687 0.03728828 -0.12438918
-0.17051016 -0.21027349 -0.21003395 -0.27131963 0.17741825 -0.026949022 -1.4146452 0.25643197
-0.08465425 0.5393383 -0.082782805 -0.05987043 -0.05471066 -0.01560714 0.12386927 -0.10372788
0.2813281 -0.034991514 0.12967621 -0.11724638 -0.026740225 -0.046757266 0.3534453 1.0119876
0.015368067 0.0067712283 0.0024193372 0.17294809 -0.20716763 -0.10712535 0.053532325 0.07440689
0.10338947 0.069995135 0.41639104 -0.09257935 0.09667835 -0.028057083 0.2657185 -0.99173474
0.7528947 0.11407906 -0.10291249 0.20505588 -0.3160583 -0.17223826 -0.04188578 0.56345856
0.024976218 0.12516499 -0.06621375 0.23996668 -0.09521636 -1.0960186 0.3286169 -0.14155133
-0.2721569 0.69061786 0.41406098 -0.85851955 0.3641218 0.14546537 -0.015173912 -0.07732617
0.45416793 0.51015776 0.71089756 0.66690314 -0.060638398 -0.016642071 0.04354749 -0.81339264
-0.0067751314 1.3672857 0.49339765 -0.284445 0.1082543 -0.17751963 -0.0024504424 -0.098439455
-0.5959335 -0.09220707 0.23868288 0.39573285 0.04031212 0.018633714 0.41669798 1.3106112
-0.04297692 0.04581646 -0.19106548 -0.28417948 -0.8034897 -0.6442332 0.1946677 -0.008359328
-0.13190562 -0.49539146 -0.39838272 -0.14051937 0.042373877 0.06748743 -0.26136667 -0.27391812
-0.32000184 0.39636177 0.07407588 -0.058167532 0.07334192 -0.27913392 -0.14079587 -0.65397865
0.098523304 -0.11582867 -0.63986313 0.09568178 0.12435639 -0.76248956 0.41666338 0.2341335
0.7905718 -0.32069477 0.15925033 -0.19062518 0.07006 -0.38778684 -0.061434895 0.027086182
-0.21137883 -0.46073776 -0.50534177 -0.7406442 -0.06492 -0.06604765 0.42373848 -0.35520506
-0.1432293 -0.28896973 -0.30299824 -0.2729602 0.08576635 0.20091683 -0.060226075 0.052955374
-0.032851167 0.016310329 0.22886881 -0.38383397 -0.16369084 0.0077721206 0.24254204 -0.57678574
0.01996361 -0.15111132 -0.112690456 0.040647883 -1.1171979 0.16421129 0.10233739 0.0953376
-0.112760365 -0.14967598 0.47714865 -0.15075766 0.09920016 -0.0960234 -0.27505586 -0.9003686
0.0016376175 0.0506857 -0.16432881 0.11604674 -0.4847354 -0.21717629 -0.17184956 0.026556369
-0.01585875 0.0938705 -2.193458 0.21651393 0.10161108 -1.1731317 0.10277089 -0.18034893
0.3187573 0.107414894 0.46016496 -0.9816036 0.16558234 -0.18721226 0.014177933 0.09612745
-0.004922215 -0.07457779 0.074862786 -0.14010383 -0.06504242 -0.16032016 0.042814385 -0.96617204
00000000: 7d59 89bd 948f dcbd 9496 e23d 5018 313e
00000010: 25ce c33e 41ca ca3d efa4 233d b496 45bd
00000020: 1dab e8bd 6d18 9cbd 0ca0 c4be 9a69 b1be
00000030: 30b8 9b3d 2d20 c43d d67f e43c 30ee dfbd
00000040: 63dd 20bd 2920 28bf 4e60 90be cf7e 72be
00000050: 10ea b0bc 78fe a8be d924 06bf 28b2 1e3d
00000060: 816b 8f3b a173 29be 93c7 8cbe 57c5 853d
00000070: ed38 8ebe b195 603d 8207 63bf 915a 57bd
00000080: d8a7 acbe bc73 c8be f9b6 9ebe e70e d9be
00000090: fe1f b3bd eb95 70be 7f06 06bf 45ed 96bd
000000a0: 7c8d 49bb 59c7 153d 7ba1 ebbd 530c adbe
000000b0: 887e fdbc 7083 da3d a39b 2bbf 45c7 3abf
000000c0: 4ce3 c0bc 341b dabe a510 1e3e 2137 e73c
000000d0: 9bad 56be 96ff 0bbf 98bb 183d c1bf febd
000000e0: 379a 2ebe ef51 57be 2413 57be 68ea 8abe
000000f0: 21ad 353e 32c4 dcbc 1813 b5bf 0d4b 833e
00000100: 355f adbd 1312 0a3f 088a a9bd b23a 75bd
00000110: 4918 60bd 17b5 7fbc 2caf fd3d 486f d4bd
00000120: 3d0a 903e 4353 0fbd d7c9 043e df1e f0bd
00000130: 510e dbbc 8c84 3fbd c8f6 b43e cf88 813f
00000140: 58ca 7b3c 2ee1 dd3b be8d 1e3b 4e19 313e
00000150: c023 54be 8964 dbbd b644 5b3d a462 983d
00000160: dcbd d33d 9c59 8f3d 3531 d53e 3e9a bdbd
00000170: 4cff c53d f8d7 e5bc 410c 883e 54e2 7dbf
00000180: b5bd 403f 48a2 e93d c9c3 d2bd 2bfa 513e
00000190: 65d2 a1be 3a5f 30be 6c90 2bbd d23e 103f
000001a0: ed9a cc3c 402b 003e 139b 87bd d3b9 753e
000001b0: cc00 c3bd 564a 8cbf 7940 a83e d5f2 10be
000001c0: 2658 8bbe 55cc 303f cdff d33e f0c7 5bbf
000001d0: 2c6e ba3e e0f4 143e 009c 78bc 2f5d 9ebd
000001e0: b388 e83e b399 023f 62fd 353f 2aba 2a3f
000001f0: f85f 78bd f454 88bc da5e 323d 803a 50bf
00000200: ec01 debb 3803 af3f 9e9e fc3e c6a2 91be
00000210: 6eb4 dd3d b5c7 35be 9a97 20bb a09a c9bd
00000220: 198f 18bf 0fd7 bcbd 4969 743e 7f9d ca3e
00000230: 521e 253d bba5 983c 7059 d53e 1cc2 a73f
00000240: 9108 30bd 0aaa 3b3d aba6 43be f97f 91be
00000250: 80b1 4dbf 78ec 24bf f856 473e 90f5 08bc
00000260: 4412 07be f3a3 fdbe d2f8 cbbe 4fe4 0fbe
00000270: 3b90 2d3d da36 8a3d dad1 85be ff3e 8cbe
00000280: 48d7 a3be eeef ca3e 18b5 973d 1441 6ebd
00000290: 4a34 963d a4ea 8ebe cb2c 10be 256b 27bf
000002a0: 96c6 c93d 9537 edbd 12ce 23bf cff4 c33d
000002b0: 90ae fe3d 8432 43bf e754 d53e b1c0 6f3e
000002c0: ea62 4a3f 1b32 a4be 8512 233e 3f33 43be
000002d0: 9e7b 8f3d ff8b c6be 28a3 7bbd d7e3 dd3c
000002e0: b173 58be d2e5 ebbe 145e 01bf dc9a 3dbf
000002f0: c7f4 84bd fe43 87bd 40f4 d83e 70dd b5be
00000300: b4aa 12be d7f3 93be 9622 9bbe 70c1 8bbe
00000310: 45a6 af3d 24bd 4d3e 9eaf 76bd bce7 583d
00000320: f28e 06bd 3d9d 853c 965c 6a3e e385 c4be
00000330: 929e 27be 46ad fe3b f15c 783e 3ba8 13bf
00000340: ba8a a33c edbc 1abe 41ca e6bd 657e 263d
00000350: 5700 8fbf 0127 283e 4496 d13d 5c40 c33d
00000360: e8ee e6bd a944 19be d44c f43e 3760 1abe
00000370: 7429 cb3d eba7 c4bd 1fd4 8cbe 8e7e 66bf
00000380: 53a5 d63a cf9b 4f3d d045 28be eaa9 ed3d
00000390: 3d2f f8be 7663 5ebe 55f9 2fbe be8c d93c
000003a0: 36ea 81bc 2d3f c03d 9e61 0cc0 d4b5 5d3e
000003b0: 7819 d03d 2e29 96bf 8b79 d23d 64ad 38be
000003c0: 2834 a33e 57fc db3d be9a eb3e 604a 7bbf
000003d0: 6b8e 293e 92b4 3fbe 904a 683c 78de c43d
000003e0: 884a a1bb 3ebc 98bd a951 993d 6177 0fbe
000003f0: f634 85bd f82a 24be 235e 2f3d 0d57 77bf

gnn_list.0.nn.2.bias f4 [64]
0.026743572 0.45539108 0.25713712 0.11801891 0.10571768 0.13333003 -0.16806996 0.124401525
0.024957715 -0.22010283 -0.0014905058 0.0779027 0.17583296 -0.07554078 0.15901896 0.038534366
-0.078754306 -0.12226473 0.13767622 0.5792706 0.029702771 -0.05567932 0.042938523 0.06659108
-0.049952686 -0.14818852 0.1057027 0.05168857 -0.044202726 0.009874331 -0.10169518 0.053749908
0.6745671 0.023016546 -0.04566832 -0.03719807 -0.06503181 0.051948614 0.03120274 0.04825911
0.7277041 0.1290411 0.15272927 0.1882557 -0.0039217444 -0.097478114 0.056235764 -0.0518494
0.11779897 -0.16858001 -0.021110276 0.2568689 -0.010042125 -0.032633554 -0.05565471 0.36804956
-0.021998737 0.025276622 -0.08406129 -0.005021559 0.123396985 -0.10432182 -0.08755439 -0.19775105
00000000: 5615 db3c 0529 e93e 7aa7 833e e6b3 f13d
00000010: 8382 d83d ab87 083e 881a 2cbe 3ac6 fe3d
00000020: 1f74 cc3c a362 61be 135d c3ba 738b 9f3d
00000030: 8e0d 343e 20b5 9abd ded5 223e 36d6 1d3d
00000040: f049 a1bd ee65 fabd fffa 0c3e 144b 143f
00000050: 3a53 f33c 0010 64bd 4ee0 2f3d e760 883d
00000060: 309b 4cbd bbbe 17be a87a d83d 65b7 533d
00000070: eb0d 35bd f2c7 213c 9045 d0bd dd28 5c3d
00000080: 6eb0 2c3f 328d bc3c b40e 3bbd 015d 18bd
00000090: 662f 85bd 12c8 543d e39c ff3c 58ab 453d
000000a0: d14a 3a3f 5a23 043e 1065 1c3e 1ac6 403e
000000b0: fa81 80bb 9ba2 c7bd 7957 663d 0960 54bd
000000c0: 9640 f13d 3da0 2cbe 75ef acbc 5284 833e
000000d0: ba87 24bc c3aa 05bd 31f6 63bd fe70 bc3e
000000e0: b236 b4bc eb10 cf3c 5328 acbd e48b a4bb
000000f0: 8fb7 fc3d aea6 d5bd b74f b3bd 407f 4abe

gnn_list.0.nn.3.weight f4 [64]
0.3952556 0.4146523 0.40837342 0.21010363 0.37297222 0.29882872 0.3297575 0.11495497
0.31059828 0.5777497 0.4839802 0.09558832 0.2947101 0.60444087 0.5274424 0.20887563
0.28149477 0.47712672 0.28969938 0.48592603 0.2655842 0.37539834 0.45353022 0.598945
0.47822285 0.32403925 0.117922805 0.33387968 0.24170876 0.532666 0.34736934 0.21952674
0.48917064 0.07163264 0.26818314 0.52675825 0.2459312 0.4366148 0.51590586 0.22620909
0.57565886 0.09872945 0.6717688 0.1215769 0.26815474 0.45893708 0.11572376 0.19873585
0.43430176 0.37564877 0.5971212 0.45710352 0.3109788 0.36017147 0.55264324 0.4659028
0.17789045 0.48251143 0.152774 0.3410874 0.49840775 0.25239703 0.5414975 0.7312044
00000000: f15e ca3e 4e4d d43e 5216 d13e 6825 573e
00000010: 37f6 be3e 1400 993e fad5 a83e 836d eb3d
00000020: bd06 9f3e 68e7 133f 41cc f73e cfc3 c33d
00000030: 3ee4 963e a3bc 1a3f 7706 073f 7ee3 553e
00000040: 1520 903e f449 f43e 7a53 943e 4ccb f83e
00000050: a7fa 873e 3634 c03e 1d35 e83e 7654 193f
00000060: a0d9 f43e 79e8 a53e 8381 f13d 47f2 aa3e
00000070: 8082 773e cd5c 083f 65da b13e 9ecb 603e
00000080: 9374 fa3e 22b4 923d 4d4f 893e a1d9 063f
00000090: 63d5 7b3e fa8b df3e 6812 043f 5ba3 673e
000000a0: 615e 133f aa32 ca3d 0af9 2b3f 4ffd f83d
000000b0: 944b 893e cdf9 ea3e 9400 ed3d 6981 4b3e
000000c0: cd5c de3e 0955 c03e efdc 183f 7909 ea3e
000000d0: 9d38 9f3e 6568 b83e 077a 0d3f d08a ee3e
000000e0: ea28 363e bd0b f73e ca70 1c3e 02a3 ae3e
000000f0: 4d2f ff3e 2f3a 813e 959f 0a3f 3630 3b3f

gnn_list.0.nn.3.bias f4 [64]
-0.12461807 -0.25030008 -0.20858814 -0.11726485 -0.13759294 -0.18944544 -0.23034103 -0.18787551
-0.20832174 0.09649996 -0.047076814 -0.19957401 -0.07312219 -0.46378884 -0.59372014 0.049105074
-0.1810037 -0.3252277 -0.35676277 -0.114940375 -0.26523528 -0.28113225 -0.24855764 -0.34140953
-0.25165454 -0.22752215 0.0027877232 -0.42772102 -0.30095282 -0.456949 -0.2923484 0.032903854
0.0021932572 -0.17882796 -0.40669152 -0.13782994 -0.09254918 -0.52783585 -0.3954372 -0.27110928
-0.19109257 -0.04411613 -0.806689 -0.07366789 0.025094923 -0.2528543 0.06726927 -0.20430212
-0.59642357 0.037828945 -0.23810165 -0.62916875 -0.20550233 -0.14991254 -0.52208865 -0.024800455
0.09960029 -0.47866398 -0.21148238 -0.28954205 -0.029200252 -0.037477795 -0.22347754 -0.35349324
00000000: c237 ffbd 5527 80be 2198 55be 8e28 f0bd
00000010: 2ae5 0cbe fcfd 41be 85de 6bbe 7062 40be
00000020: 4b52 55be c5a1 c53d 9ed3 40bd 215d 4cbe
00000030: 16c1 95bd bb75 edbe 0bfe 17bf 6722 493d
00000040: 0959 39be 3f84 a6be 9ca9 b6be dc65 ebbd
00000050: ebcc 87be 91f0 8fbe e585 7ebe 3bcd aebe
00000060: ddd8 80be 91fb 68be 3cb2 363b 40fe dabe
00000070: 7d16 9abe 38f5 e9be b1ae 95be 31c6 063d
00000080: c0bc 0f3b ad1e 37be df39 d0be 4b23 0dbe
00000090: 6d8a bdbd 4020 07bf bf76 cabe d6ce 8abe
000000a0: c5ad 43be 1db3 34bd 2c83 4ebf 31df 96bd
000000b0: de93 cd3c 1e76 81be 79c4 893d 9334 51be
000000c0: 37af 18bf 86f2 1a3d ebd0 73be 3411 21bf
000000d0: 346f 52be ac82 19be 9aa7 05bf 532a cbbc
000000e0: 3dfb cb3d 7213 f5be d68e 58be db3e 94be
000000f0: 5e35 efbc 5182 19bd 4cd7 64be 11fd b4be

gnn_list.0.nn.3.running_mean f4 [64]
-5.1041436 7.6291456 -7.5638695 -3.5856864 3.2225726 -6.3511972 -2.9550257 -1.0233406
-4.765804 -5.4556913 -5.1416125 -2.5548036 9.821589 -6.289264 6.3400083 -8.070769
-0.07742591 -0.9070964 -2.2770114 9.706908 -3.959351 -1.1145974 -1.5146122 -6.262634
-5.8715987 3.019968 -3.283103 1.7232666 -4.717397 3.2810192 -5.0113497 6.12343
8.775286 7.1891456 -0.49146762 1.8368243 -4.0349665 2.6610491 2.389455 -2.0906563
-5.658522 -3.2459812 1.2986509 -0.22477734 3.4488542 -3.2277508 -4.0588965 -0.6852849
-5.185492 0.862616 -3.535941 4.8215485 -0.76958597 0.32541886 6.09074 3.5000057
1.2304716 4.3637443 -2.5038178 1.7525955 -2.9079247 -3.223567 0.009428381 -0.41013908
00000000: 2555 a3c0 f621 f440 380b f2c0 e37b 65c0
00000010: a13e 4e40 023d cbc0 241f 3dc0 d3fc 82bf
00000020: 7781 98c0 0695 aec0 1788 a4c0 e781 23c0
00000030: 3b25 1d41 a741 c9c0 59e1 ca40 df21 01c1
00000040: 7a91 9ebd 7837 68bf 8eba 11c0 7f4f 1b41
00000050: 0266 7dc0 21ab 8ebf d0de c1bf 7f67 c8c0
00000060: 23e4 bbc0 2847 4140 5c1e 52c0 0094 dc3f
00000070: ebf4 96c0 38fc 5140 fa5c a0c0 23f3 c340
00000080: 9267 0c41 7b0d e640 a5a1 fbbe 0f1d eb3f
00000090: 721e 81c0 a14e 2a40 d5ec 1840 50cd 05c0
000000a0: 9d12 b5c0 28be 4fc0 313a a63f 082c 66be
000000b0: 07ba 5c40 7893 4ec0 7be2 81c0 d56e 2fbf
000000c0: 8def a5c0 67d4 5c3f db4c 62c0 204a 9a40
000000d0: 9603 45bf 4d9d a63e 58e7 c240 1800 6040
000000e0: 1880 9d3f cba3 8b40 8d3e 20c0 0d55 e03f
000000f0: 701b 3ac0 ec4e 4ec0 7f79 1a3c c0fd d1be

gnn_list.0.nn.3.running_var f4 [64]
4.4622493 9.792894 3.2045147 14.978061 5.6277113 5.4832163 1.5301403 8.117936
4.212893 8.843044 5.718309 1.9868332 6.542766 39.602535 9.0873995 9.073727
4.147577 2.1459916 4.341054 3.8451805 17.018106 6.6134095 16.133196 7.8964314
5.7820554 5.732307 13.313853 3.2577116 14.013899 5.8346515 2.8571897 5.447867
3.937673 8.26032 9.120713 3.2609043 5.1336374 15.427274 4.1247034 13.824338
3.3407495 14.264656 1.7235414 5.9898906 2.2088745 2.9436698 4.897876 2.038529
15.264895 2.6779513 8.131976 12.073873 5.7659736 2.777495 8.982335 4.15629
9.3460655 2.771057 5.416985 2.2847016 3.4228716 8.6821995 13.433671 1.8608505
00000000: bfca 8e40 b2af 1c41 c516 4d40 23a6 6f41
00000010: 3616 b440 8276 af40 a3db c33f 11e3 0141
00000020: 05d0 8640 1c7d 0d41 63fc b640 8d50 fe3f
00000030: 575e d140 ff68 1e42 fd65 1141 fc2d 1141
00000040: f3b8 8440 ed57 0940 eae9 8a40 7017 7640
00000050: 1525 8841 0da1 d340 c910 8141 91af fc40
00000060: 9906 b940 0f6f b740 8b05 5541 597e 5040
00000070: ee38 6041 77b5 ba40 32dc 3640 ed54 ae40
00000080: d602 7c40 452a 0441 71ee 1141 a8b2 5040
00000090: c246 a440 1dd6 7641 92fd 8340 7d30 5d41
000000a0: d7ce 5540 083c 6441 019d dc3f 2fad bf40
000000b0: 335e 0d40 1665 3c40 66bb 9c40 4277 0240
000000c0: 033d 7441 8e63 2b40 931c 0241 952e 4141
000000d0: db82 b840 7ac2 3140 a5b7 0f41 5400 8540
000000e0: 7c89 1541 ff58 3140 f157 ad40 8d38 1240
000000f0: 5410 5b40 4aea 0a41 51f0 5641 5930 ee3f

gnn_list.1.nn.0.weight f4 [32, 64]
-0.06453134 0.023858039 0.010594714 0.0034659975 -0.098127775 -0.0062093074 0.013353426 0.06577033
-0.16303115 -0.09841467 0.045540985 -0.16342989 0.064120874 -0.07033095 -0.054443315 -0.041603032
-0.1172373 -0.07759311 -0.078472115 -0.020474968 -0.056426477 0.00877279 -0.0039557456 -0.14034581
-0.01065645 0.03525534 0.08239826 0.08201447 -0.0444706 0.08077468 0.028962612 -0.09163078
-0.13057974 -0.104371816 0.05168822 -0.113574825 0.0018101824 0.09869046 0.11610961 0.09509395
-0.010188817 0.04641707 -0.096293636 -0.13566007 -0.1474389 -0.14598572 -0.066455245 0.037648626
0.05515512 -0.13818532 -0.039136767 -0.12492848 -0.12430279 -0.035441387 -0.073618986 -0.056818742
-0.1324096 -0.11195576 0.0525777 -0.11354144 0.07118412 -0.15047364 -0.0126790665 -0.062950864
-0.10076391 -0.17841758 -0.14772864 -0.16148184 -0.06321941 -0.1675316 0.05974413 0.015661461
-0.17301685 -0.072575554 0.012865423 -0.09560709 -0.1587489 0.04375492 -0.20086338 -0.1404766
-0.038614213 -0.17894687 0.029157834 0.06403769 -0.028080657 -0.031993892 -0.09607438 -0.05939003
-0.12418622 0.032181874 0.0223553 -0.0579778 -0.1230054 -0.03670293 -0.051607113 0.045774452
-0.035510167 -0.13037342 -0.16366734 0.021005884 -0.1487139 0.041476127 -0.057635825 -0.12688203
-0.00818398 -0.059880838 0.06978127 0.048036817 -0.102626696 -0.1275003 0.039994154 -0.092729665
-0.085816585 -0.036919143 -0.20297073 0.019335326 0.010743556 -0.07067248 -0.0493326 0.011427161
-0.1792823 0.071909025 -0.06777469 -0.14122215 -0.0817656 0.04723334 0.041237045 -0.034881342
0.29099667 -0.0018846939 0.0055460357 0.2126935 0.069140844 0.6030256 -0.04337116 0.2946301
-0.35312605 -0.18943448 -1.3154682 0.24541605 0.0834862 0.27660877 0.079884775 -0.16523936
0.16221699 0.21297027 0.21693678 0.16464777 0.0676445 0.08595138 0.08889172 -0.09625203
-0.91466165 0.13935599 0.14522177 0.13228728 0.14460309 0.029408388 0.3495973 0.07287496
0.063926734 0.027320469 0.07014002 0.44632724 -0.32113093 0.76617074 0.5126666 0.14136408
0.22306797 0.39884374 -0.22284843 0.22904792 0.40762383 -0.66621274 0.2343888 0.0717563
0.35762465 -0.034326013 -0.14076358 0.0036810085 -0.0112111075 -0.07072953 0.29349938 0.1309923
0.33841443 0.29508817 0.06434799 0.10160665 0.002831885 -0.6742334 0.09042793 0.010196416
0.26452473 0.696815 0.43114138 0.055986643 -0.15601881 -0.16846818 -0.29592535 0.0058781374
0.23627262 -0.7710816 0.3061794 0.25372913 0.49320316 0.7417065 0.2848092 0.03773241
-0.24363607 -0.29074025 0.014802091 0.015353422 0.076691285 -0.3776846 -0.421739 0.20365882
-0.70744807 -0.081202656 0.3580131 -0.004403271 -0.10382801 0.06926719 -0.28777707 0.23645237
0.1247195 0.28182206 -0.15298188 0.21678543 0.07192804 -0.46739352 -0.42693177 -0.06019419
0.3591287 0.10406287 -0.15039167 0.117158875 0.37664777 0.3669895 0.104440674 0.0010062654
-0.07569662 0.081238806 0.084068336 0.27955103 0.22530462 -0.26125672 0.17938344 0.18768924
0.31643897 -0.39724237 0.15644038 0.14939772 -0.18015465 -0.11433241 -0.88518435 0.37195274
00000000: 0229 84bd ef71 c33c 7495 2d3c ca25 633b
00000010: 37f7 c8bd 7277 cbbb 54c8 5a3c 98b2 863d
00000020: a3f1 26be a18d c9bd 2f89 3a3d 2a5a 27be
00000030: ce51 833d ac09 90bd f4ff 5ebd f167 2abd
00000040: 1c1a f0bd 23e9 9ebd fdb5 a0bd 1fbb a7bc
00000050: 731f 67bd c0bb 0f3c 339f 81bb d0b6 0fbe
00000060: 6498 2ebc e767 103d 6bc0 a83d 34f7 a73d
00000070: ce26 36bd 326d a53d 0043 ed3c eba8 bbbd
00000080: b2b6 05be e4c0 d5bd 07b7 533d eb99 e8bd
00000090: a443 ed3a 391e ca3d e0ca ed3d 9ec0 c23d
000000a0: ffee 26bc d31f 3e3d 9935 c5bd 79ea 0abe
000000b0: 39fa 16be 487d 15be b019 88bd 7235 1a3d
000000c0: 56ea 613d 7480 0dbe e04d 20bd 81da ffbd
000000d0: 7692 febd fd2a 11bd 8dc5 96bd c5ba 68bd
000000e0: 6296 07be 1049 e5bd b75b 573d 6a88 e8bd
000000f0: fbc8 913d c315 1abe dcbb 4fbc 62ec 80bd
00000100: 4f5d cebd 19b3 36be 2d46 17be 7f5b 25be
00000110: 2e79 81bd 678d 2bbe 43b6 743d 774c 803c
00000120: 542b 31be 7ea2 94bd 7fc9 523c a6cd c3bd
00000130: 128f 22be 5c38 333d 21af 4dbe 19d9 0fbe
00000140: f029 1ebd d93d 37be 69dc ee3c 3126 833d
00000150: 6809 e6bc 070c 03bd a5c2 c4bd f642 73bd
00000160: 5855 febd 24d1 033d 7622 b73c 217a 6dbd
00000170: 41ea fbbd d055 16bd fb61 53bd fe7d 3b3d
00000180: 1c73 11bd 9c80 05be 6998 27be 8814 ac3c
00000190: 7548 18be dfe2 293d 8b13 6cbd 5ded 01be
000001a0: 1a16 06bc 9c45 75bd 7ce9 8e3d 41c2 443d
000001b0: f22d d2bd 708f 02be e9d0 233d 0de9 bdbd
000001c0: 9bc0 afbd 8738 17bd 8fd7 4fbe 1e65 9e3c
000001d0: bd05 303c bcbc 90bd fb10 4abd fd38 3b3c
000001e0: c795 37be 0a45 933d 75cd 8abd 8a9c 10be
000001f0: b974 a7bd bf77 413d 2de8 283d bddf 0ebd
00000200: 84fd 943e d507 f7ba 85bb b53b 53cc 593e
00000210: b799 8d3d e35f 1a3f f5a5 31bd c2d9 963e
00000220: f0cc b4be 1dfb 41be 4361 a8bf 584e 7b3e
00000230: d0fa aa3d aa9f 8d3e a19a a33d 8234 29be
00000240: 361c 263e e114 5a3e ad24 5e3e 6d99 283e
00000250: 3389 8a3d 4707 b03d dd0c b63d c91f c5bd
00000260: 4427 6abf 56b3 0e3e 04b5 143e 5176 073e
00000270: d512 143e dce9 f03c 6bfe b23e 783f 953d
00000280: 05ec 823d 2dcf df3c 92a5 8f3d 0185 e43e
00000290: 466b a4be c423 443f 1e3e 033f bfc1 103e
000002a0: ee6b 643e 3f35 cc3e 6132 64be 8a8b 6a3e
000002b0: 12b4 d03e eb8c 2abf 9e03 703e f8f4 923d
000002c0: 941a b73e 6f99 0cbd 5424 10be 133d 713b
000002d0: cbae 37bc a5da 90bd 8d45 963e d822 063e
000002e0: a844 ad3e cc15 973e e1c8 833d 2617 d03d
000002f0: 2597 393b 8f9a 2cbf 4732 b93d de0e 273c
00000300: c96f 873e 7862 323f 90be dc3e 4052 653d
00000310: 65c3 1fbe ec82 2cbe 8783 97be 649d c03b
00000320: 73f1 713e 9b65 45bf 8cc3 9c3e c9e8 813e
00000330: 2085 fc3e 7ae0 3d3f 83d2 913e 4d8d 1a3d
00000340: bc7b 79be e8db 94be 7884 723c eb8c 7b3c
00000350: 5210 9d3d e05f c1be 2dee d7be f08b 503e
00000360: 511b 35bf 944d a6bd 7e4d b73e 5049 90bb
00000370: c8a3 d4bd f5db 8d3d 8457 93be 9220 723e
00000380: f06c ff3d fb4a 903e 48a7 1cbe 00fd 5d3e
00000390: 024f 933d 344e efbe cd96 dabe 2f8e 76bd
000003a0: b8df b73e ea1e d53d 4600 1abe fef0 ef3d
000003b0: fad7 c03e 0ce6 bb3e fee4 d53d aae4 833a
000003c0: d406 9bbd 8860 a63d 052c ac3d 5021 8f3e
000003d0: 41b6 663e 71c3 85be 4bb0 373e 9c31 403e
000003e0: 4a04 a23e 5a63 cbbe e831 203e b7fb 183e
000003f0: 767a 38be 1c27 eabd 719b 62bf 9770 be3e

gnn_list.1.nn.0.bias f4 [32]
-0.022589462 -0.18526085 -0.15799181 -0.20019615 0.5650939 0.09323274 -0.010278092 -0.01960338
-0.50814676 0.10285538 0.01058959 -0.13778484 -0.1395777 0.026457792 0.08491359 0.27280718
-0.020304883 -0.01724511 -0.042478353 -0.086390235 0.0126417605 -0.13102232 -0.00328871 0.021464903
-0.3704145 -0.001821494 0.09818504 0.19737762 0.23580535 -0.08098626 0.19242263 -0.13945033
00000000: 890d b9bc 05b5 3dbe 9bc8 21be 3800 4dbe
00000010: fea9 103f cff0 be3d 7165 28bc 4497 a0bc
00000020: e815 02bf d7a5 d23d f67f 2d3c 7817 0dbe
00000030: 75ed 0ebe 03be d83c 2de7 ad3d 62ad 8b3e
00000040: 6d56 a6bc 9e45 8dbc c8fd 2dbd 5ded b0bd
00000050: 631f 4f3c b72a 06be 6687 57bb 2ad7 af3c
00000060: f8a6 bdbe 32bf eeba 3d15 c93d 5c1d 4a3e
00000070: f576 713e 20dc a5bd 700a 453e 11cc 0ebe

gnn_list.1.nn.2.weight f4 [32, 32]
0.13659701 0.08435528 -0.44580242 -0.4454254 0.4515842 0.32360777 0.08067545 -0.6550044
-0.08729392 -0.16845883 0.024318844 -0.16878329 -0.10151706 0.13450022 -0.71998936 -0.71466416
0.1104978 0.11946629 -0.1622601 -0.13053967 0.015144293 0.060664296 -0.21823438 -0.065557554
0.044145737 -0.5339872 0.5463341 0.17006242 0.12834479 0.08462847 -0.7723924 0.07436926
0.06478602 -0.0727844 0.07676506 -0.25614282 -0.24297757 0.52897704 0.019370522 0.4205255
-0.28949898 -0.66989374 -0.010625006 -0.14002515 -0.14319733 -0.016520156 -0.8789127 0.4168198
0.03662222 -0.096231714 -0.023747666 0.5402982 0.15795161 -0.6248546 0.3091472 0.07905526
-0.10309138 -0.46752387 -0.22036394 -0.44973353 0.039684452 -0.14792942 -0.23208928 -0.02086681
-0.12216861 0.05067305 -0.1349303 -0.5455546 0.39436978 0.08411114 0.098704286 0.21854304
-0.53057474 -0.5027268 -0.9310427 -0.07871955 -0.056511052 0.3882315 -0.0068628294 -0.07037692
-0.0912571 -0.122433014 0.063916475 0.03560276 0.14014581 -0.35743615 -0.5779399 -0.16005056
-0.7816273 -0.5701579 -0.24682209 0.1793231 -0.12438731 0.08815606 -0.023188489 0.021197071
-0.078176275 -0.08557588 -0.114938214 -0.026095055 -0.94216454 0.42010847 0.116216265 -0.37251407
0.03869318 -0.123303175 -0.037263922 0.06348103 -0.17808037 -0.3777265 -0.07845289 -0.71746415
0.2809202 0.10500922 -0.13596882 -0.18324174 0.11411599 -0.38376564 -0.66750365 -0.6058627
-0.3531581 0.0022693418 -0.29107362 0.4657362 0.07713491 0.13824698 0.109921224 -0.0280621
0.16199186 -0.20805392 -0.3244465 -0.42186555 -0.056771655 -0.38930953 -0.08736161 0.4985985
0.15073617 -0.06501833 0.37447435 0.13720031 0.13796943 -0.16367202 -0.11429461 0.44258618
-0.82657933 0.007013177 -0.10448949 0.073119104 0.15166163 0.0011280022 -0.49319378 0.012796173
0.10278444 -0.97069234 0.036860198 -0.31920236 -0.11076686 -0.06976446 0.47448358 -0.14043261
0.14313106 0.14799128 -0.45207676 0.12047255 0.3806134 0.614295 0.026933081 -0.21367732
-0.29959342 0.24373396 -0.49591768 -0.11767044 -0.045986146 -0.13609165 0.2667869 0.688686
-0.5380688 0.12521273 -0.008249226 0.35513777 -0.05233875 0.11277722 0.41731206 0.11619024
-0.12973101 -0.74041796 -0.0067381617 -0.33041504 0.087957926 -0.08064605 -0.46754143 0.056647003
-0.043229133 -0.11301304 0.015983835 0.32070103 -1.1476631 -0.2377996 -0.08822095 -0.08362117
-0.20047 -0.14153224 0.1785078 -0.009816647 -0.08576073 -0.014888949 0.13012253 0.7079383
-0.6920098 -0.09170997 -0.005227317 0.26533774 0.10619003 0.003444391 0.30569386 -0.14196679
0.61543226 0.10538242 0.23790999 -0.3115797 -1.176042 -0.105315655 -0.029393971 -0.010548461
-0.108230285 -0.07883211 0.07043216 0.4397048 -0.5226028 -0.062797114 -0.014744113 0.0043874197
0.117176086 0.16304548 -0.4071482 -0.12750024 0.08469223 0.13128819 -0.2542508 0.7057446
-0.8253233 -0.07627714 -0.2261952 -0.11100096 -0.07234692 -0.52910936 0.0014244474 0.20133603
-0.33175558 0.40331694 0.12036854 -0.43986154 0.285477 -0.039799158 0.21384409 -0.008473478
00000000: 16e0 0b3e 76c2 ac3d 3740 e4be cc0e e4be
00000010: 0b36 e73e ebaf a53e 2c39 a53d 5eae 27bf
00000020: 28c7 b2bd 7980 2cbe 5038 c73c 87d5 2cbe
00000030: 2de8 cfbd 6dba 093e 3951 38bf 3bf4 36bf
00000040: ac4c e23d beaa f43d 8327 26be 31ac 05be
00000050: c51f 783c 207b 783d d578 5fbe 0a43 86bd
00000060: 29d2 343d 63b3 08bf 8ddc 0b3f d824 2e3e
00000070: d16c 033e b151 ad3d 82bb 45bf e94e 983d
00000080: 88ae 843d fd0f 95bd 0037 9d3d 2725 83be
00000090: 1dcf 78be 0a6b 073f eeae 9e3c 1e4f d73e
000000a0: 3639 94be 287e 2bbf 8114 2ebc c162 0fbe
000000b0: 52a2 12be 4755 87bc 6c00 61bf 6869 d53e
000000c0: 2e01 163d 2215 c5bd 778a c2bc fc50 0a3f
000000d0: 11be 213e 79f6 1fbf 8b48 9e3e b9e7 a13d
000000e0: 9321 d3bd 4a5f efbe 16a7 61be 7943 e6be
000000f0: 2a8c 223d cf7a 17be d0a8 6dbe dff0 aabc
00000100: 8933 fabd 8b8e 4f3d 2b2b 0abe 77a9 0bbf
00000110: d6ea c93e 7642 ac3d 7925 ca3d bfc9 5f3e
00000120: bfd3 07bf b4b2 00bf d058 6ebf b737 a1bd
00000130: 2278 67bd 47c6 c63e 96e1 e0bb c621 90bd
00000140: 01e5 babd 29be fabd a4e6 823d 33d4 113d
00000150: 6282 0f3e df01 b7be dff3 13bf 4be4 23be
00000160: ba18 48bf def5 11bf eebe 7cbe 7aa0 373e
00000170: c6be febd 2a8b b43d c9f5 bdbc 7ba5 ad3c
00000180: e21a a0bd 6842 afbd ba64 ebbd 4cc5 d5bc
00000190: b231 71bf 7518 d73e cb02 ee3d 2aba bebe
000001a0: bd7c 1e3d 6086 fcbd 0ea2 18bd 5802 823d
000001b0: b35a 36be 5e65 c1be e9ab a0bd bbab 37bf
000001c0: c6d4 8f3e 130f d73d 693b 0bbe b9a3 3bbe
000001d0: a5b5 e93d ee7c c4be 85e1 2abf d119 1bbf
000001e0: 23d1 b4be 3db9 143b 9a07 95be fa74 ee3e
000001f0: e8f8 9d3d 9e90 0d3e 611e e13d 7de2 e5bc
00000200: 32e1 253e 160c 55be da1d a6be c3fe d7be
00000210: 6589 68bd 9453 c7be a5ea b2bd 4d48 ff3e
00000220: 955a 1a3e 5528 85bd 1abb bf3e 3d7e 0c3e
00000230: dc47 0d3e a399 27be 4b13 eabd a89a e23e
00000240: b49a 53bf cbce e53b 96fe d5bd 78bf 953d
00000250: 304d 1b3e 79d9 933a e583 fcbe 0aa7 513c
00000260: a680 d23d 4b7f 78bf b8fa 163d 7e6e a3be
00000270: bcd9 e2bd abe0 8ebd 83ef f23e 91cd 0fbe
00000280: f390 123e 078b 173e 9b76 e7be 50ba f63d
00000290: c2df c23e 7042 1d3f c4a2 dc3c 3ace 5abe
000002a0: 4f64 99be 6595 793e ece8 fdbe 33fd f0bd
000002b0: f85b 3cbd 9c5b 0bbe 4b98 883e ba4d 303f
000002c0: e0be 09bf c437 003e c327 07bc 9ed4 b53e
000002d0: 2861 56bd bef7 e63d eda9 d53e 26f5 ed3d
000002e0: 35d8 04be 088c 3dbf cccb dcbb 292c a9be
000002f0: 4923 b43d c229 a5bd 9761 efbe b006 683d
00000300: 0811 31bd 6173 e7bd 88f0 823c ed32 a43e
00000310: a0e6 92bf bd81 73be 2fad b4bd 9341 abbd
00000320: 0248 4dbe d4ed 10be c0ca 363e 00d6 20bc
00000330: 52a3 afbd c7f0 73bc d73e 053e 723b 353f
00000340: 8e27 31bf 70d2 bbbd ea49 abbb 59da 873e
00000350: 297a d93d 4bbb 613b e883 9c3e be5f 11be
00000360: f88c 1d3f bdd2 d73d ad9e 733e 6087 9fbe
00000370: 8b88 96bf bcaf d7bd a0cb f0bc 74d3 2cbc
00000380: d7a7 ddbd bb72 a1bd bc3e 903d fd20 e13e
00000390: 4cc9 05bf c69b 80bd 4b91 71bc 58c4 8f3b
000003a0: 04fa ef3d 65f5 263e bb75 d0be 6c8f 02be
000003b0: 1f73 ad3d 6970 063e 292d 82be aeab 343f
000003c0: 6348 53bf 3037 9cbd b79f 67be 7954 e3bd
000003d0: 9f2a 94bd b673 07bf 86b4 ba3a 082b 4e3e
000003e0: dedb a9be 8f7f ce3e c883 f63d 8835 e1be
000003f0: 0b2a 923e 7104 23bd f2f9 5a3e 58d4 0abc

gnn_list.1.nn.2.bias f4 [32]
0.091272585 0.0678573 -0.009332 -0.1536946 0.1689425 -0.28933823 -0.027534813 -0.006112913
0.023542834 0.019050306 0.07459793 -0.21147181 -0.008527823 0.021861194 -0.09426096 0.041530322
-0.067461126 -0.22826597 -0.13920853 0.14174856 0.14883323 -0.079455405 -0.07592182 -0.11342297
-0.17829408 -0.14881724 0.12428731 0.19219652 -0.19096234 -0.13484436 -0.101421066 0.11943077
00000000: 1fed ba3d c5f8 8a3d 3fe5 18bc 1e62 1dbe
00000010: 43ff 2c3e 2424 94be b090 e1bc d54e c8bb
00000020: e7dc c03c 630f 9c3c cdc6 983d 118c 58be
00000030: 48b8 0bbc 3f16 b33c e40b c1bd b31b 2a3d
00000040: 0f29 8abd 8ebe 69be ae8c 0ebe 8926 113e
00000050: bd67 183e 84b9 a2bd e67c 9bbd 4d4a e8bd
00000060: b992 36be 8c63 18be 588a fe3d 2acf 443e
00000070: a28b 43be a414 0abe d9b5 cfbd 1f98 f43d

gnn_list.1.nn.3.weight f4 [32]
0.5805696 0.5007842 0.4355957 0.62887794 0.55699044 0.5420547 0.4870788 0.18078172
0.3713856 0.67694 0.51367015 0.5357413 0.5844822 0.5723121 0.5053077 0.29202348
0.3518443 0.5819185 0.41781837 0.39136693 0.61936617 0.3860858 0.6255853 0.3817501
0.51221913 0.41783774 0.278803 0.5280245 0.6843528 0.25047463 0.58280647 0.56271285
00000000: 36a0 143f 6533 003f 6606 df3e 25fe 203f
00000010: ed96 0e3f 19c4 0a3f 6462 f93e d81e 393e
00000020: 4126 be3e f14b 2d3f e37f 033f 5826 093f
00000030: a0a0 153f 0c83 123f d85b 013f 1a84 953e
00000040: f024 b43e 9cf8 143f 4aec d53e 3f61 c83e
00000050: c88e 1e3f 0aad c53e 5c26 203f c074 c33e
00000060: cb20 033f d4ee d53e 44bf 8e3e 9d2c 073f
00000070: bf31 2f3f 363e 803e ce32 153f f30d 103f

gnn_list.1.nn.3.bias f4 [32]
0.09103271 -0.11106804 -0.09767118 -0.27614716 -0.030077133 -0.13195305 0.05379398 0.021302965
0.014126186 -0.40872777 -0.03660988 -0.21012056 -0.07203035 -0.047787007 -0.049764976 -0.03528274
-0.113997005 -0.13575874 0.039780144 -0.21624029 -0.055189975 -0.13111429 -0.24950323 -0.01869125
-0.056403276 -0.28660652 -0.21591425 -0.061357673 -0.11101599 0.04165138 -0.11038578 0.013817784
00000000: 5c6f ba3d a477 e3bd d407 c8bd 2963 8dbe
00000010: 5264 f6bc b31e 07be 1457 5c3d 8e83 ae3c
00000020: 8571 673c c444 d1be 3ef4 15bd d829 57be
00000030: a684 93bd 4fbc 43bd 5cd6 4bbd a284 10bd
00000040: 4377 e9bd 5704 0bbe 81f0 223d 186e 5dbe
00000050: e20e 62bd d342 06be c67d 7fbe 641e 99bc
00000060: 1f07 67bd 17be 92be a018 5dbe 2f52 7bbd
00000070: 5a5c e3bd a39a 2a3d f111 e2bd fd63 623c

gnn_list.1.nn.3.running_mean f4 [32]
-3.590948 -1.2186029 -4.5059094 -5.9134417 -0.04430175 -1.4198241 -0.19286925 0.8887818
-0.8872638 -3.0252352 3.742871 -2.053816 2.74093 -3.4988759 2.2275558 -2.8666668
-1.7350295 3.4109251 -3.895575 0.09585289 5.993182 -5.295269 -3.5726178 -3.4584773
-4.418243 6.471562 -3.0031114 -3.7546043 -4.7195554 -5.8037863 -0.07302849 -0.0043504345
00000000: 18d2 65c0 2efb 9bbf 6930 90c0 ea3a bdc0
00000010: c075 35bd ccbc b5bf 847f 45be 3487 633f
00000020: b823 63bf 749d 41c0 338b 6f40 b971 03c0
00000030: 666b 2f40 95ed 5fc0 4690 0e40 7877 37c0
00000040: 7215 debf 994c 5a40 1a51 79c0 854e c43d
00000050: 26c8 bf40 d872 a9c0 c5a5 64c0 b157 5dc0
00000060: 3f62 8dc0 0917 cf40 fa32 40c0 704b 70c0
00000070: 9906 97c0 9eb8 b9c0 f68f 95bd 178e 8ebb

gnn_list.1.nn.3.running_var f4 [32]
9.249017 6.7859106 22.84464 8.689163 5.02193 3.620679 19.5155 2.5177362
8.322592 10.788347 8.231268 11.23026 3.8256333 14.598556 5.485892 6.6651263
18.008005 5.466719 6.873826 2.8786733 12.076613 21.94445 18.138306 10.733243
21.715858 6.35927 1.541355 7.5922875 29.54236 2.934357 9.655155 10.022624
00000000: f9fb 1341 2e26 d940 d3c1 b641 d006 0b41
00000010: a7b3 a040 34b9 6740 be1f 9c41 9722 2140
00000020: 5629 0541 129d 2c41 46b3 0341 25af 3341
00000030: 2dd7 7440 af93 6941 6d8c af40 b748 d540
00000040: 6510 9041 5def ae40 62f6 db40 2f3c 3840
00000050: cf39 4141 3c8e af41 401b 9141 5dbb 2b41
00000060: 14ba ad41 247f cb40 1f4b c53f 05f4 f240
00000070: c156 ec41 81cc 3b40 847b 1a41 ab5c 2041

gnn_list.2.nn.0.weight f4 [16, 32]
0.56924695 -0.48313302 0.3273178 0.104142696 0.15950795 0.21588823 -0.20274398 -0.111600585
0.3297045 0.04622094 -0.10998722 0.00224677 -0.16815545 0.58637667 -0.062888466 0.2839227
-0.41132024 -0.39090154 0.21711339 -0.07432547 -1.029686 -0.5170365 0.2501097 0.45839038
-0.2723216 -0.057815403 -0.50393003 -0.16098176 0.19469975 0.26892287 0.24811153 -0.5037698
-0.03642712 -0.22144984 -0.12449727 0.16919559 0.20565794 0.11883014 -0.018812865 0.527085
0.17411721 0.19980977 0.13335043 0.5540106 0.18387863 0.3481241 -0.034690045 0.37682605
0.056079593 -0.04512185 0.48247245 0.6299793 -0.12389484 0.12818351 0.07165979 0.3519328
0.41439658 -0.2690867 0.25339898 0.27688783 0.6725267 0.31163746 -0.48946694 -0.38367915
-1.03364 -0.26044977 -1.1578658 -1.4564513 0.16889866 0.10108877 0.73565984 0.4622377
0.46039632 -0.8523018 -0.28070086 0.09411123 -0.05267711 0.3454024 -0.1951591 0.13403952
0.083578534 0.22315805 -0.258537 0.19354902 0.444332 -0.18484867 -1.1019081 -0.0042472566
0.08846288 0.29144308 0.10270653 0.00081008783 -0.1864801 0.03288879 -0.10602109 0.4243577
-0.17387061 -0.15825629 -0.060813863 -0.43029737 0.15472859 -0.007480857 -0.52962154 0.25326392
0.41411793 0.18278469 -0.35471222 -0.3631047 0.61209446 0.4966826 0.268368 -0.80308044
-0.37247178 -0.03401402 -0.14032038 -0.1231013 0.12972553 -0.2231859 0.22829644 -0.2525904
0.54598504 -0.41572645 -0.19791009 0.79915965 -0.20553897 0.060664706 0.2155482 -0.051489122
-0.14716963 0.14840645 0.26409265 -0.20619941 0.01784973 0.46197426 -0.74853295 -0.24703994
0.3136682 0.48730737 -0.23963545 0.009688241 0.23617245 -0.08305049 -1.2409296 -1.5756872
0.12669973 -1.2022663 -0.58441335 0.1648561 -0.03527534 -0.46055254 -0.14343157 0.38379067
0.3364362 -0.34073752 -0.5050965 0.5026529 0.33670157 0.42663786 0.20914117 -1.0719953
0.5173857 -0.15363768 0.37240168 0.033638567 -0.02916638 -0.14289305 -0.02672109 0.25810942
0.13605033 0.27452493 0.52170444 0.80774 -0.02374426 0.098384514 0.3161644 -0.22918388
0.21959773 0.35371348 0.17228216 -0.050062414 0.2683135 -0.59696627 0.8499097 0.2664326
0.45898882 0.3238924 0.26487806 -0.29872108 0.33959016 0.3210877 0.19209225 0.21367127
0.17972325 -0.01165017 -0.019042263 0.30750924 -0.063078865 0.4361521 -0.50509644 -0.58886164
0.33283827 0.7043571 0.45018739 0.25535068 0.057331115 0.011819686 -0.65174586 0.40613255
0.3087117 -1.0413246 -0.2767778 -0.050155688 0.24612649 -0.30089638 0.1739842 -2.0359256
0.14670877 -0.060457293 -1.4795593 0.11222507 0.3786683 -0.08579067 -0.0928916 0.2664876
-0.14021005 -0.17196748 -0.18751292 -0.08318433 0.013536974 -0.073887154 0.05349594 -0.055481546
-0.037382536 -0.010572719 -0.1388364 -0.07734242 -0.14791815 -0.027841663 -0.040896397 0.033107888
-0.18392698 -0.17196125 0.07326917 -0.060162432 -0.09988887 -0.06036908 -0.08332113 -0.1719629
-0.104324475 0.085535266 -0.02801542 -0.15900455 0.072830714 -0.15334524 0.1412716 -0.099528104
00000000: 2bba 113f 365d f7be 3396 a73e c448 d53d
00000010: 0d56 233e ce11 5d3e 1e9c 4fbe d98e e4bd
00000020: 07cf a83e 2b52 3d3d fb40 e1bd 8c3e 133b
00000030: f130 2cbe c81c 163f abcb 80bd 515e 913e
00000040: 9198 d2be 3f24 c8be f952 5e3e f437 98bd
00000050: c0cc 83bf 815c 04bf 610e 803e 25b2 ea3e
00000060: bd6d 8bbe d8cf 6cbd 8f01 01bf 67d8 24be
00000070: 5f5f 473e 42b0 893e f310 7e3e 0ff7 00bf
00000080: 9b34 15bd bfc3 62be 6df8 febd 9c41 2d3e
00000090: ff97 523e 375d f33d 701d 9abc 0bef 063f
000000a0: c84b 323e ef9a 4c3e 048d 083e a4d3 0d3f
000000b0: ae4a 3c3e 523d b23e 2617 0ebd 58ef c03e
000000c0: b7b3 653d b0d1 38bd a106 f73e 5346 213f
000000d0: 94bc fdbd 8a42 033e 5ec2 923d 8930 b43e
000000e0: ca2b d43e bbc5 89be 83bd 813e 3ec4 8d3e
000000f0: b62a 2c3f f28e 9f3e 699b fabe 9871 c4be
00000100: 514e 84bf ac59 85be f234 94bf ff6c babf
00000110: c5f3 2c3e a107 cf3d 3454 3c3f 6baa ec3e
00000120: 11b9 eb3e 7330 5abf 06b8 8fbe 63bd c03d
00000130: f4c3 57bd 95d8 b03e cad7 47be a841 093e
00000140: 392b ab3d 8b83 643e f65e 84be b731 463e
00000150: 7c7f e33e f848 3dbe 530b 8dbf 922c 8bbb
00000160: 072c b53d 0738 953e cd57 d23d 135c 543a
00000170: a4f4 3ebe 65b6 063d 9621 d9bd 6a45 d93e
00000180: 230b 32be f00d 22be f517 79bd f04f dcbe
00000190: 2c71 1e3e fa21 f5bb 4795 07bf cfab 813e
000001a0: 4407 d43e e92b 3b3e d79c b5be dce8 b9be
000001b0: 39b2 1c3f 2f4d fe3e 8867 893e ae96 4dbf
000001c0: 9fb4 bebe 4952 0bbd 25b0 0fbe 891c fcbd
000001d0: c5d6 043e d88a 64be 8bc6 693e 8753 81be
000001e0: adc5 0b3f 19da d4be f1a8 4abe ba95 4c3f
000001f0: cf78 52be 8e7b 783d abb8 5c3e 42e6 52bd
00000200: a3b3 16be dcf7 173e 2737 873e f025 53be
00000210: 9939 923c e487 ec3e db9f 3fbf 0af8 7cbe
00000220: 1e99 a03e 5a80 f93e ff62 75be 6ebb 1e3c
00000230: 31d7 713e 6016 aabd c8d6 9ebf 1eb0 c9bf
00000240: 93bd 013e dde3 99bf 1d9c 15bf 0ad0 283e
00000250: e07c 10bd 8bcd ebbe badf 12be 3680 c43e
00000260: 5e41 ac3e 2675 aebe 014e 01bf dcad 003f
00000270: 2664 ac3e 4770 da3e 1a29 563e 2437 89bf
00000280: 6473 043f 3253 1dbe 6fab be3e 98c8 093d
00000290: 55ee eebc 8e52 12be 30e6 dabc eb26 843e
000002a0: c750 0b3e 888e 8c3e 6c8e 053f 0cc8 4e3f
000002b0: 5383 c2bc d27d c93d 4de0 a13e 2eaf 6abe
000002c0: 3ade 603e ef19 b53e bc6a 303e 3f0e 4dbd
000002d0: 6360 893e c8d2 18bf af93 593f db69 883e
000002e0: 9500 eb3e 3ad5 a53e 199e 873e f8f1 98be
000002f0: c3de ad3e 9b65 a43e d5b3 443e a4cc 5a3e
00000300: 5f09 383e 5be0 3ebc 85fe 9bbc da71 9d3e
00000310: 7e2f 81bd 544f df3e 004e 01bf a3bf 16bf
00000320: c769 aa3e bf50 343f f67e e63e 53bd 823e
00000330: 08d4 6a3d 5ba7 413c d1d8 26bf 9bf0 cf3e
00000340: 760f 9e3e 204a 85bf d2b5 8dbe 0d70 4dbd
00000350: 9508 7c3e 170f 9abe ea28 323e 9b4c 02c0
00000360: d33a 163e 11a2 77bd 3362 bdbf 42d6 e53d
00000370: d0e0 c13e 05b3 afbd f43d bebd 1071 883e
00000380: 3993 0fbe 3e18 30be 6303 40be 8c5c aabd
00000390: 2fca 5d3c 2652 97bd 8f1e 5b3d 9e40 63bd
000003a0: 6e1e 19bd 3339 2dbc 212b 0ebe b465 9ebd
000003b0: db77 17be 3314 e4bc fb82 27bd 239c 073d
000003c0: 5b57 3cbe 9c16 30be 260e 963d e26c 76bd
000003d0: 8992 ccbd 9245 77bd 45a4 aabd 0b17 30be
000003e0: 12a8 d5bd 1d2d af3d 9880 e5bc 17d2 22be
000003f0: 4528 953d 8906 1dbe 81a9 103e 64d5 cbbd

gnn_list.2.nn.0.bias f4 [16]
0.4433932 0.07463469 0.6483368 0.5200225 -0.049797766 0.09515205 -0.12115068 -0.17546926
-0.39058286 0.5345912 -0.110678256 0.008539037 -0.1619236 0.27822644 0.130792 -0.18281719
00000000: 6f04 e33e 13da 983d 67f9 253f 3220 053f
00000010: bef8 4bbd 14df c23d d91d f8bd 37ae 33be
00000020: 7afa c7be f8da 083f 48ab e2bd 51e7 0b3c
00000030: 4dcf 25be b273 8e3e 57ee 053e 6e34 3bbe
