model_saved/AIDS700nef/2022-03-17_10-42-12/GSC_GNN_AIDS700nef_checkpoint_rho.pth (torch, 297351 bytes, 61 tensors)

gnn_list.0.nn.0.weight f4 [64, 29]
000000 91 ce bc bf 99 0c 15 3f 9c ec 17 bf 53 df bc 3e
       -1.4750539 0.5822235 -0.5934541 0.36889133
000010 49 c3 02 3e df 0d 07 3c 37 78 15 3e d3 25 59 bd
       0.12769808 0.008243053 0.1459664 -0.053014588
000020 9c 22 59 be 0b 2f c5 3e 4a 25 32 3b 9c d5 4e 3f
       -0.21204609 0.38512453 0.002718287 0.8079469
000030 86 89 10 be e5 26 a5 be 09 10 cb be 7c e1 fb bd
       -0.14114961 -0.32256237 -0.3966067 -0.12298867
000040 9e 26 9e be 4c 97 79 be 8f 7f df 3e ad 6c c3 be
       -0.30888838 -0.24374121 0.43652007 -0.3816885
000050 42 67 ec be da 9f c5 be 95 4f 8f 3d e1 6f 10 bd
       -0.4617253 -0.3859852 0.06997601 -0.035262946
000060 3b 18 a9 3c 03 d0 8b 3d 10 2d 9e 3d 70 53 22 bd
       0.020641437 0.068267845 0.07723439 -0.039630353
000070 a6 ef fe 3d 0f ce b9 3e b6 f9 94 3e ca 60 c0 3e
       0.12448053 0.36290023 0.29096764 0.37573844
000080 97 9c ad 3e 89 07 6b 3e 22 bc 3b 3d b1 6d 33 3f
       0.3390853 0.22952093 0.045833714 0.7008925
000090 7c 05 cb 3e 3d 80 94 3e 0c 11 a7 3e 36 97 36 3f
       0.39652622 0.29004088 0.32630193 0.7132448
0000a0 30 77 34 3e 0b 27 86 3e d3 42 0e 3f 1e 84 3c 3e
       0.17623591 0.26201662 0.55570716 0.18409774
0000b0 fe 1d d7 3e 13 92 19 3f 36 7f a2 3d 4f a1 f7 3e
       0.4201507 0.59988517 0.0793442 0.48365256
0000c0 ad 8c c4 be 05 24 d5 3e 8d 9a c5 3e af e1 ea 3e
       -0.38388577 0.41629043 0.38594475 0.45875308
0000d0 c4 d2 41 3f e4 0c ac 3c ff ab 30 3e 30 4d 47 bc
       0.7571223 0.02100224 0.17253111 -0.012164399
0000e0 85 5b 4f 3c 7e d2 0c 3e ff c1 70 3d 10 5e 47 3e
       0.012656097 0.13752171 0.05877876 0.19469476
0000f0 85 81 6e 3e b0 2d 4a 3e 81 96 e3 3e c7 18 55 3d
       0.23291595 0.19743991 0.44450763 0.052025583
000100 6c 1e 20 bf de 61 11 3f 1e 35 41 be 99 fb 54 3e
       -0.6254642 0.5678996 -0.18867919 0.20799102
000110 f6 3b 39 3d 20 ee 67 3e 7f 70 de 3e a1 78 9c bd
       0.0452232 0.22649431 0.43445203 -0.07640196
000120 97 d3 88 3e 97 13 1b be 3c 68 11 3f f5 4c a1 3e
       0.2672393 -0.15144192 0.56799674 0.31504026
000130 5a 07 1d 3e f9 fe 3a 3e d3 da 6f 3f a0 3d a6 3e
       0.15334836 0.18261327 0.93693274 0.3246889
000140 91 fb 25 be e8 6c db be f7 b0 e6 3d 51 a4 23 3e
       -0.16209246 -0.42856526 0.11264222 0.1598065
000150 12 ff 34 3e 0d b2 ea bc 9d 07 38 3e b2 17 37 be
       0.17675427 -0.028649354 0.17971654 -0.17880133
000160 ab 2f b1 3e 25 c5 e0 3e 99 f0 20 be f0 fa 29 bf
       0.3460668 0.4390041 -0.1571678 -0.66398525
000170 6a cd aa bd 5e 5a 86 be 0f fe ff bd 0a 54 1f be
       -0.08339961 -0.2624082 -0.1249963 -0.15559402
000180 5f 67 67 be c4 79 19 be 9d 62 97 be da ea fc bd
       -0.22598027 -0.14987856 -0.29567423 -0.12349482
000190 53 73 07 be 34 94 9e 3c fb 25 ac be 90 48 e4 bd
       -0.13227586 0.019357778 -0.33622727 -0.11146653
0001a0 09 b5 0b 3d ab cb 41 be 4f ef 23 3d 17 07 ae 3e
       0.034108195 -0.1892535 0.040023144 0.33989784
0001b0 10 5e 15 3e e9 8e 02 3d db 5a b5 3c 3e a2 bb bd
       0.14586663 0.03187457 0.02213805 -0.091618046
0001c0 87 1f b4 3d 6b e7 76 bd 96 78 d3 3d 0c fd 07 bd
       0.08795076 -0.06027929 0.10325734 -0.03320031
0001d0 ca 79 d6 3e ca b5 d1 3e f6 b5 aa bf 04 ad 1e bf
       0.41889793 0.40959007 -1.333678 -0.6198275
0001e0 bc 15 fa 3d af 8f cb bb 10 b4 e0 be 30 8f 2b be
       0.12211177 -0.006212197 -0.43887377 -0.1675384
0001f0 e7 61 0f 3e e5 d2 28 3f 55 8b 23 3f c1 1d a0 3e
       0.1400219 0.659468 0.6388448 0.312727
000200 af 03 54 3c 84 7f 00 3f 30 f3 c5 3e f7 1e 04 3f
       0.012940331 0.50194573 0.386621 0.5160975
000210 f5 a0 a9 be 4a 06 04 3f bb d0 68 3e 8c cf 9b 3e
       -0.33130613 0.51572096 0.22735874 0.30431783
000220 6f 49 d9 3d 60 61 92 3e 6a 67 ae 3e 0a 93 22 3f
       0.106097095 0.28589916 0.34063274 0.63505614
000230 5f 8b 93 3d f7 97 e0 bc 01 57 2b 3c 47 8f ef bc
       0.07204317 -0.027416212 0.010457755 -0.029243125
000240 8e 93 8b 3d 46 26 0e be 59 5f c8 bd 7f 0a 00 bd
       0.06815253 -0.13881788 -0.09783811 -0.03126001
000250 5e c7 06 bd f5 f4 42 be 58 80 3b 3d b0 b8 c3 bc
       -0.032904975 -0.19038756 0.045776695 -0.023891777
000260 4c b4 89 3d d5 f7 aa bc b4 b3 d0 bd 11 59 ce bd
       0.06723842 -0.020870129 -0.10190526 -0.10075582
000270 2e f3 0a 3d 3e e0 c9 bd 30 b7 a2 bd ae 03 7a 3d
       0.03392332 -0.09857224 -0.079450965 0.061038665
000280 6d 23 d4 3d 8c e0 4f bd d6 4e f5 3c 47 29 4e 3e
       0.103583194 -0.050751254 0.029944818 0.20132934
000290 39 9f 27 3c ca 7e 10 bc 91 53 3b 3d e9 bc e4 bd
       0.010230833 -0.008819291 0.045733992 -0.11168844
0002a0 18 b4 9d bd ca 97 93 bd a5 cd d0 3d 81 a0 2e bd
       -0.07700366 -0.07206686 0.101954736 -0.042633537
0002b0 ed 80 c7 3d 05 b1 d7 bd fc c5 86 be 9b b4 04 3f
       0.097413875 -0.10531811 -0.26322925 0.5183808
0002c0 45 3c 1e 3d ef 84 2f bf a1 55 9a bd 39 bb 04 bf
       0.038631696 -0.68562216 -0.07535864 -0.5184818
0002d0 e9 13 2e bd 28 d8 c1 be ea 0a ed bc 8f d4 9b be
       -0.042499457 -0.37860227 -0.028935868 -0.30435607
0002e0 ca 32 5c bc 53 06 cf 3e a8 77 ec bd d8 44 0e be
       -0.013439843 0.40434512 -0.1154626 -0.1389345
0002f0 3b a5 bf bd e3 ab 49 bf 8c 79 67 bd 82 27 22 bf
       -0.09357687 -0.78777903 -0.0565124 -0.63341534
000300 ce df 16 be be 1f 22 be 5d e0 bf bc 9d 9d b4 bd
       -0.14733812 -0.15832421 -0.023422414 -0.08819125
000310 c1 f1 f1 bd 18 49 40 bd ff 59 f8 bc 10 1d 2d 3e
       -0.11813689 -0.046944708 -0.030316351 0.16905618
000320 bc e5 bf bd 38 66 ae 3c f6 86 d8 bd f7 c4 49 bd
       -0.0936999 0.021288976 -0.10572617 -0.049260106
000330 b0 8e ac be bb ea c7 be 4f 1e e3 3e 63 29 14 be
       -0.33702612 -0.39046273 0.4435906 -0.14468913
000340 76 0f 30 be 80 dd dd be 49 db 0a be af a6 b6 be
       -0.17193398 -0.43333054 -0.13560213 -0.35674044
000350 bf 88 29 3e 4f 15 84 be e5 07 62 bf 48 fc df 3e
       0.1655607 -0.25797507 -0.88293296 0.43747163
000360 7c 24 20 be 9f 41 74 be b5 e7 2a 3b 85 88 e9 bd
       -0.15638918 -0.23853157 0.002607805 -0.11402992
000370 fc 4d 9b be 5b 71 da 3d d1 8a ca 3d f4 04 a7 bd
       -0.30332935 0.10666152 0.098897584 -0.081552416
000380 37 25 36 be d3 94 13 3f 84 bf ad be 46 f4 08 be
       -0.17787634 0.5764896 -0.33935177 -0.13374433
000390 ac 00 2a be e1 d0 10 3e 6b 41 68 3c eb 4a b3 bc
       -0.16601819 0.14142181 0.014175753 -0.02188631
0003a0 71 a0 8b be a4 da 7e be 53 25 00 bf e0 a7 0a 3f
       -0.27270845 -0.24888092 -0.5005695 0.54162407
0003b0 ea d9 d3 3e 98 b2 0c be d6 d2 9d be e2 95 fa bd
       0.41377193 -0.13740003 -0.30824918 -0.12235619
0003c0 b4 83 04 bf 08 66 5b 3e 54 bc 9d 3d ce 7f c6 be
       -0.51763463 0.2142564 0.07701936 -0.38769382
0003d0 84 f7 a9 bd d9 81 96 be e0 0c 17 bd 9d a2 79 bd
       -0.08299163 -0.2939594 -0.036877513 -0.060946096
0003e0 e9 de 10 bb cb 21 16 3e b4 89 8b be b3 2b e7 3e
       -0.002210552 0.14661328 -0.27253497 0.45150527
0003f0 18 95 5c be 58 54 33 be d7 1c 06 be 8a e9 c8 bd
       -0.2154125 -0.17512643 -0.13096939 -0.09810169

gnn_list.0.nn.0.bias f4 [64]
000000 c4 37 54 bd 7b c4 a8 be 89 7e 07 bf 50 0c f5 be
       -0.051810995 -0.32962403 -0.5292745 -0.47860956
000010 4d c8 ea 3c 60 71 11 be 41 99 9d be f0 f6 6b 3e
       0.028659964 -0.14203405 -0.30780986 0.23043418
000020 a8 78 cb 3e d0 39 2f bd 26 fb c4 3d f5 27 47 3d
       0.3974049 -0.042779744 0.09618215 0.04862209
000030 12 36 47 be 2c 85 6d bd a3 15 a7 bd c8 22 90 bd
       -0.1945422 -0.05798833 -0.08158424 -0.07037884
000040 a7 bb 07 be 95 67 0c bf 05 ff 18 bf 6f b8 87 bd
       -0.13255177 -0.54845554 -0.5976413 -0.06626975
000050 78 5b 43 be 0b 99 2d 3e 8c 3b f1 bd 08 e8 11 bf
       -0.19077861 0.16952913 -0.11778936 -0.56994677
000060 66 cf 09 be cc 8f 6b 3e 31 59 c1 bd 7b cb 8e 3e
       -0.13458022 0.23004073 -0.0944084 0.27889618
000070 e1 39 2a bf c2 d6 ab bd d2 cc 51 3e c4 d4 33 be
       -0.66494566 -0.08390571 0.20488289 -0.17561632
000080 4d a9 f5 be 50 c6 4f be 90 0c 76 3d 2b 69 f8 3d
       -0.4798073 -0.20290494 0.060070574 0.12129434
000090 51 04 7a be d0 a5 09 bf 80 6e 08 bf 17 8f d7 bd
       -0.24415709 -0.53768635 -0.5329361 -0.10525339
0000a0 c8 35 30 bd ce 3c 7f be cc 6e 18 be 64 36 2b be
       -0.04302004 -0.24925539 -0.14886016 -0.16719967
0000b0 fe 1e 03 bf 6d 51 aa 3d 65 c6 50 be b3 8d b9 be
       -0.51219165 0.08316312 -0.20388182 -0.3624092
0000c0 1d 53 07 bf dd c7 17 bf e1 0f c9 bd 65 5a 19 be
       -0.52861196 -0.5928934 -0.09817482 -0.14975889
0000d0 8e c5 9f 3d 51 fc c3 3e a6 1f 87 be 51 4c ee be
       0.078013524 0.3827844 -0.26391333 -0.465426
0000e0 83 f8 58 bb c7 04 ba 3e 34 ad 98 3d b4 67 f7 bd
       -0.003310711 0.3633177 0.07454911 -0.12080327
0000f0 f6 ec ff bd 6e 18 27 be d9 40 30 bf 7c 00 60 be
       -0.124963686 -0.16317913 -0.6884895 -0.21875185

gnn_list.0.nn.2.weight f4 [64, 64]
000000 4d 3f ce 3e 80 a2 22 3f 60 2f e8 3d 94 8e 71 3e
       0.4028267 0.63529205 0.11337161 0.23589545
000010 12 a2 e2 be 5f 81 0d 3d 88 8c 2f 3c ce 0e 01 3e
       -0.44264275 0.034547206 0.010714658 0.12603304
000020 69 56 3f 3e 08 53 af bd eb b1 b0 3c df 36 32 3e
       0.18685307 -0.08560759 0.021569213 0.17403744
000030 03 69 3a be 7f 64 bf bd 24 e8 20 3e 7c 3d 18 bd
       -0.18204121 -0.0934534 0.15713555 -0.03716801
000040 e6 a5 59 be d7 7f 25 bd 20 db f2 3e 44 4b 66 3c
       -0.21254691 -0.04040512 0.47432804 0.014056031
000050 b3 e1 e6 3d fc 9d 3f 3e a8 fa 68 bd c9 c7 b3 3e
       0.112735175 0.1871261 -0.05687967 0.3511336
000060 d9 37 04 3e ba fc 0f bf 15 f2 43 bf c3 ba fa be
       0.12911929 -0.56245005 -0.7654126 -0.48970613
000070 06 16 b6 3d 41 5f 22 3f 3e c7 8e be b6 0c 0c 3f
       0.088909194 0.63426596 -0.27886385 0.54706895
000080 80 bb 3a 3f 74 78 17 3f c9 48 61 be da 43 30 3f
       0.7294235 0.5916817 -0.22000422 0.68853533
000090 c4 b9 e7 3e 2d 0f c8 be 2a b4 05 3f 13 1c aa 3e
       0.45258915 -0.39074078 0.52228034 0.33224544
0000a0 9b ac fc 3e 01 ee fe 3e 67 13 01 3e 19 68 f2 bc
       0.49350438 0.49790958 0.12605058 -0.029590653
0000b0 b2 f1 ee 3e b6 f7 fb 3e 22 b8 1b 3e 60 ca ae 3d
       0.46668774 0.49212426 0.1520696 0.08534694
0000c0 74 36 ab 3e c3 d9 3b 3e 17 85 bb be 40 49 18 3f
       0.33439982 0.18344788 -0.36624977 0.5948677
0000d0 78 97 20 3f c8 48 db 3e 17 01 90 3e c6 f1 3d 3e
       0.6273112 0.42828965 0.2812583 0.1854926
0000e0 01 58 14 3f f5 bb 2d 3e 14 2a 75 3e d6 33 5b 3d
       0.57946783 0.16966231 0.23941833 0.05351623
0000f0 78 86 98 3e 87 da bb be ff 62 30 3e 78 77 4c 3d
       0.29790092 -0.3669016 0.17225264 0.04991862
000100 25 be 47 be 2a 8e 30 bf 8a 22 f3 bd 5b ef 51 3e
       -0.19506128 -0.68966925 -0.11871822 0.20501463
000110 1f 72 89 bf 6d 38 1a bd e4 99 06 3e 5e 8b f9 3d
       -1.0737952 -0.037651468 0.13144642 0.12184785
000120 22 ad a0 be 89 96 47 be bd 5a 8f bd 63 bc 68 3e
       -0.3138209 -0.19491018 -0.06999729 0.22728114
000130 38 75 33 bd b1 e2 b9 bd 77 a7 c1 3b 8f dd c3 bc
       -0.04381296 -0.09076441 0.005909856 -0.023909358
000140 3b 9a 24 bb e4 05 2c 3e 89 37 e8 be b6 d3 d2 bd
       -0.0025116343 0.16799122 -0.4535487 -0.10294287
000150 51 b3 1c 3e b4 32 fd bc f7 bf a4 bd a5 2c 81 be
       0.15302779 -0.030907966 -0.08044427 -0.25229374
000160 35 7e 34 be b3 8c 1b be 30 07 6e be 03 b4 9f 3e
       -0.17626269 -0.15190391 -0.2324493 0.31192026
000170 02 c2 31 bf 16 f7 90 be 79 03 b5 bc 30 7c 2e 3f
       -0.6943666 -0.28313512 -0.022096382 0.68158245
000180 26 f7 28 3e f6 5b 1a be 2c ac bf 3d 84 6f 62 bf
       0.1650053 -0.15074143 0.09359011 -0.8845141
000190 76 d6 54 be 77 a8 1c 3e 48 18 b2 3d d2 31 1b bf
       -0.20784935 0.15298639 0.086960375 -0.60622895
0001a0 3a af 17 bf ca 32 b4 be dd e5 eb be f1 1b 0c 3d
       -0.5925175 -0.35195 -0.4607381 0.034206335
0001b0 63 93 8e 3e 7b e8 ec bd a0 5d 55 3d 25 7d ac bc
       0.27846822 -0.1156778 0.05209124 -0.021055767
0001c0 54 22 df be 63 b4 fc bb 36 4d ea be b0 bb 46 be
       -0.43580878 -0.0077119335 -0.45762032 -0.19407535
0001d0 8e 44 c6 3c 3e 0b 4b be e2 49 46 bf 3e 68 a2 be
       0.024202611 -0.19828507 -0.77456486 -0.31720155
0001e0 ff 99 3d 3e 4a c6 24 bf 89 26 e8 be f2 d0 33 be
       0.18515776 -0.64365065 -0.453419 -0.17560175
0001f0 f3 e3 8d 3d e8 7a 25 bd a6 ea bc bf 1b 78 a4 3d
       0.069282435 -0.040400416 -1.4759109 0.08030721
000200 99 7e ed bd 8f 61 ee be cc a5 c4 bd 3b 76 02 3d
       -0.11596412 -0.46558806 -0.09601936 0.031851035
000210 eb e3 8c be 46 98 23 3c 99 76 fc 3e e2 c5 86 3d
       -0.27517638 0.009985035 0.49309233 0.06580712
000220 87 57 98 3d 5f 51 78 3d 96 ed 30 3e 4a 2b b7 bc
       0.074385695 0.060624477 0.17278132 -0.022359509
000230 90 04 83 bd 15 bf 80 3c b4 a6 17 3e 61 a8 2e 3c
       -0.063973546 0.015716115 0.14809686 0.010660262
000240 d1 17 2b 3f ba ce 8e 3e 84 90 1c bf 37 3e 1a 3d
       0.66833216 0.27892095 -0.61158013 0.03765699
000250 a2 29 80 bd be aa bf be dd 3b 31 bf bd 38 e3 bc
       -0.06257941 -0.37434953 -0.6923197 -0.027737016
000260 a3 0b c5 bd 4a 32 74 3a 9c 98 88 3f a0 8e 1e 3f
       -0.0962136 0.0009315355 1.0671573 0.6193638
000270 a5 57 56 bf ff e5 a3 bc 12 41 61 3d e8 cf 00 bf
       -0.83727485 -0.020007132 0.054993697 -0.5031724
000280 36 34 95 be 64 89 b4 3e 23 b9 8b be c7 c8 c0 3e
       -0.29141396 0.3526107 -0.27289686 0.3765318
000290 15 ba f9 3e c0 de a2 3e b7 c6 91 3c 14 60 bb be
       0.48774782 0.3181057 0.01779495 -0.3659674
0002a0 88 32 e3 be 6a e7 93 bd 6c a0 9f 3e 5a 4b 2d bd
       -0.4437449 -0.07221873 0.3117708 -0.04230819
0002b0 e6 93 cc 3e e6 16 dd be 1b 48 63 3e 1a 3e ce be
       0.39956588 -0.43181533 0.22195475 -0.40281755
0002c0 28 2a 5e bd 55 55 91 be 43 87 8f be e2 a4 4d 3d
       -0.054239422 -0.28385416 -0.28032884 0.050206073
0002d0 68 19 a1 be 0f 76 b2 be 9c 52 a9 be 54 db 05 bd
       -0.31464696 -0.34855697 -0.33070838 -0.03267987
0002e0 d4 ff 9c bd 2f 41 89 bd 38 49 91 be c5 05 55 3e
       -0.07665983 -0.06701886 -0.28376174 0.20802982
0002f0 0f 70 16 bf af 4c 58 3e c1 8c b6 be 86 f8 2b bd
       -0.5876474 0.21123002 -0.35654262 -0.041985057
000300 0d a7 19 bf a3 1f 7c be 88 2b 20 3e 6b 9e 18 3e
       -0.60020524 -0.24621443 0.15641606 0.14904182
000310 a8 0b 07 3e f4 b5 c7 bd 00 a7 2e bf 3f 6f ae 3e
       0.1318804 -0.09751502 -0.6822357 0.3406925
000320 99 6c 15 3f 18 5b e2 be 09 28 28 3e 87 54 ef 3e
       0.5836883 -0.44210124 0.16421522 0.46744177
000330 75 a7 5c bd be ad dc bd eb 1e e1 3e 28 fa 36 bd
       -0.053870637 -0.10775326 0.439689 -0.04467216
000340 52 82 56 be 30 b5 a4 be 56 58 11 3d 32 3c 81 bc
       -0.20948151 -0.32169485 0.035484634 -0.015775774
000350 d7 fd 22 3e 6a 7d 97 3e 10 2e 15 3f c3 f2 e3 bd
       0.15917145 0.2958787 0.5827341 -0.111302875
000360 b0 aa cc 3e 4a 08 e2 3d e3 7e e0 be e0 2c 3f 3e
       0.39973974 0.11036737 -0.43846807 0.18669462
000370 e6 cd 4d 3d 6d 4e 17 3e 4e 01 6a 3d 12 83 17 3f
       0.05024519 0.14776011 0.05713015 0.5918437
000380 7e 66 b5 3e ec 6e f8 bd c4 56 37 3e 76 03 92 be
       0.35429758 -0.12130532 0.17904192 -0.28518265
000390 a3 66 ab 3e 14 21 85 bd f4 88 36 bc a5 0b 9b 3e
       0.33476743 -0.0650045 -0.011141051 0.30282322
0003a0 9f 15 23 3e d4 0c 37 3f 5e 7c a8 be 12 df bf bd
       0.15926217 0.7150395 -0.32907385 -0.09368719
0003b0 e5 48 27 be fb 7a 87 bf 69 58 8e 3d 44 8d 8a be
       -0.16336401 -1.0584406 0.06950457 -0.27060902
0003c0 d4 96 d0 be 11 4f cc 3d 15 cd 83 3e 0c 1a d8 bd
       -0.40740073 0.09976018 0.25742403 -0.10551843
0003d0 d0 f8 59 3e a7 1c 49 3e c5 5e 6c 3e 4a ac d1 bc
       0.2128632 0.19639836 0.23083027 -0.02559485
0003e0 50 1a 9d 3d 41 0d b1 3e 56 b8 03 3f 2c 91 c1 3d
       0.07671034 0.34580424 0.5145315 0.094515175
0003f0 32 ab f0 bd 40 94 8e 3e b6 83 3d be 27 86 cf 3c
       -0.11751403 0.2784748 -0.18507275 0.025332524

gnn_list.0.nn.2.bias f4 [64]
000000 61 9e cd 3c e7 f1 e7 be 55 c9 9d be 8c de 80 3d
       0.025099935 -0.45301744 -0.30817667 0.062924474
000010 e4 bb 2b 3e b1 74 56 be 3f 81 68 be 34 ca ad be
       0.16770893 -0.20942952 -0.22705553 -0.3394333
000020 d4 a5 3e 3d 50 8d 55 bd e7 e1 93 bd 27 24 e7 bd
       0.046544865 -0.05213672 -0.07220822 -0.112861924
000030 5f 3a 48 be 6e 0c c8 bd 3e 97 d0 bc 43 c6 de 3d
       -0.19553517 -0.09767996 -0.025462743 0.10877659
000040 36 d8 b7 be 13 d4 b2 bd b0 f1 9f 3c ea c8 17 be
       -0.35907143 -0.08731856 0.019524425 -0.14822736
000050 8a 3a 0e 3c c4 7b ba bd d2 87 40 be 55 1a fb bd
       0.008680949 -0.09105638 -0.18801811 -0.12260882
000060 c3 19 3e be 6a 85 88 be fb 70 a7 be 09 7f c8 3d
       -0.18564515 -0.26664287 -0.32703385 0.09789855
000070 7b 8f 25 bd d5 98 39 be 1b f3 37 3d 3b 49 f8 3d
       -0.040420037 -0.18124707 0.044909578 0.121233426
000080 27 13 08 bd f4 6a 23 3d e4 f5 d9 3d 6b 92 2a be
       -0.03322139 0.03989692 0.10642603 -0.16657417
000090 5f be eb be f5 9c 67 be 9e 98 40 be 8a 9f 8f be
       -0.4604368 -0.22618468 -0.18808219 -0.28051406
0000a0 fd eb 19 3e 8f e6 59 3d 54 76 36 3d 85 ae ee 3d
       0.15031429 0.053198393 0.04454644 0.11654381
0000b0 8e 4c e2 3d 96 d8 e1 bd a0 eb ad be 8e 93 00 be
       0.11049758 -0.110276386 -0.3396883 -0.12556288
0000c0 02 98 7f be cc ce b0 3d 54 4f 1f be 17 8b f0 3d
       -0.2496033 0.086331934 -0.15557605 0.11745279
0000d0 dd 30 c9 bb 44 6c 0a 3e 33 4b 7b be 76 c6 dc bc
       -0.006139858 0.13517863 -0.24540405 -0.026950102
0000e0 72 a9 98 3d 0e da e3 bd c0 0d 0c 3e 1f 48 89 3a
       0.07454194 -0.11125575 0.1367712 0.0010473764
0000f0 ae b3 d9 bd 83 09 76 3d 3d ea 6f be ad 89 84 bd
       -0.10629974 0.060067665 -0.23429199 -0.06471572

gnn_list.0.nn.3.weight f4 [64]
000000 b4 84 12 3f 62 84 b9 3e ba 45 ce 3e 16 33 2a 3f
       0.5723374 0.36233813 0.40287572 0.664842
000010 e7 bd ce 3e 27 59 19 3f c1 dd d9 3e 34 15 3a 3f
       0.4037926 0.5990166 0.42551997 0.72688603
000020 d2 19 0f 3f a4 73 b3 3e d8 42 16 3f c0 90 d2 3e
       0.55898774 0.35049164 0.58695745 0.4112606
000030 b5 45 c1 3e 7a bb 0f 3f 1b c2 1d 3f aa aa bc 3e
       0.37748495 0.5614544 0.61624306 0.36848956
000040 94 79 01 3f 82 47 ab 3e e7 6d 0b 3f 3d d3 ce 3e
       0.5057614 0.33452994 0.5446457 0.40395537
000050 de 60 e5 3e b2 97 cb 3e 73 a1 8d 3e c9 39 1c 3f
       0.44800466 0.39764172 0.27662238 0.61025673
000060 03 79 11 3f 33 10 e1 3e 71 b6 18 3f d9 73 0d 3f
       0.56825274 0.43957672 0.59653383 0.55254894
000070 6d 77 c8 3e 95 0d 97 3e f8 04 13 3f 46 64 ea 3e
       0.39153615 0.2950255 0.57429457 0.45779628
000080 e2 98 cc 3e 87 da 06 3f e4 c8 eb 3e c5 80 22 3f
       0.3996039 0.52677196 0.46051705 0.63477737
000090 fd 09 43 3f 80 0b 3a 3f 2c 4d bb 3e b7 1d 17 3f
       0.76187116 0.726738 0.36582315 0.59029716
0000a0 46 b3 a9 3e c2 3a 93 3e 8a ad cf 3e ef 0c 07 3f
       0.33144587 0.28755766 0.40562087 0.5275411
0000b0 e5 ef 30 3f cb be ef 3e 96 46 da 3e d0 9c c3 3e
       0.6911605 0.4682525 0.42631978 0.38205576
0000c0 e0 41 19 3f 3f 04 db 3e 50 ee 0e 3f d8 18 00 3f
       0.5986614 0.42776677 0.55832386 0.5003791
0000d0 09 b4 e7 3e bc 8d 4f 3f ab 8a 94 3e 62 9e 15 3f
       0.45254543 0.81075644 0.29012045 0.584448
0000e0 ed 26 df 3e 5b e7 ad 3e ec 3b 99 3e 21 87 b7 3e
       0.43584386 0.33965573 0.2992853 0.35845283
0000f0 05 02 fd 3e 50 96 ab 3e 80 27 08 3f 32 2b 62 3e
       0.49415603 0.33513117 0.5318527 0.2208679

gnn_list.0.nn.3.bias f4 [64]
000000 c6 df f2 be ea 29 ce bd aa d7 f3 bd c0 6d 07 be
       -0.4743635 -0.10066588 -0.11906369 -0.1322546
000010 d5 87 9b be f3 16 3e 3a 3d c1 c7 be 9f fd 8f be
       -0.3037707 0.00072513445 -0.39014617 -0.28123185
000020 f7 33 08 be 11 33 8b be 02 9c 82 be d8 e4 c1 be
       -0.13301073 -0.27187398 -0.2550965 -0.37869906
000030 85 2c 13 be 4f f8 1d be 81 b5 d9 be dc 3f 8b be
       -0.14372452 -0.15426753 -0.4252129 -0.27197158
000040 f7 39 05 bf 34 cc 18 be 57 61 f1 be 53 4d e2 bd
       -0.5204157 -0.14921647 -0.47144577 -0.11049905
000050 e7 fb 2e be 5d fe 14 be d8 ce 44 be 69 7c eb bc
       -0.1708828 -0.14550157 -0.1921953 -0.028745847
000060 df 60 6a be 15 3e 94 bd af 26 71 3d 91 c5 2c be
       -0.22888516 -0.07238404 0.058874782 -0.1687224
000070 07 13 68 bd dc 2a 86 3c fb 9a 2d be de 46 2b be
       -0.05665877 0.016377859 -0.16953652 -0.16726252
000080 22 31 5b be 77 38 b5 be 83 60 b3 bc e8 65 46 be
       -0.21405461 -0.35394642 -0.021896606 -0.19374812
000090 b6 5b e1 bd 79 45 2a be 93 ad aa bd 1b 6d bf bd
       -0.110038206 -0.16628064 -0.08333888 -0.09346982
0000a0 ee b7 c5 bd a1 f9 1f be 9d 6b 8a be ed 9d 8f bd
       -0.096542224 -0.1562257 -0.27035227 -0.07012544
0000b0 83 d6 0f bf e4 a1 93 bc c3 78 4c bd ec 45 b1 bd
       -0.56186694 -0.018021531 -0.049919855 -0.08655915
0000c0 62 3c b4 be d5 b5 88 be 46 b5 81 be 24 0e e4 be
       -0.35202318 -0.26701227 -0.25333613 -0.44542038
0000d0 ea 8b e4 be 46 93 88 be b8 c3 01 be 18 d9 6b be
       -0.44637996 -0.2667486 -0.12672317 -0.23032033
0000e0 7c a9 b9 be 49 45 43 3d 2c 20 4e bd 3b 17 59 be
       -0.3626212 0.047673497 -0.05032365 -0.21200268
0000f0 7a 64 31 be 91 a9 2c be 03 32 31 3d d4 3d 3a be
       -0.17323485 -0.1686156 0.043260586 -0.18187648

gnn_list.0.nn.3.running_mean f4 [64]
000000 91 05 a5 40 5f f5 b8 c0 d4 59 a7 c0 67 84 a8 3f
       5.1569295 -5.7799525 -5.2297153 1.3165406
000010 4c df 44 40 90 50 9c c0 ae 87 64 c0 66 ac e3 40
       3.076129 -4.8848343 -3.5707812 7.1147947
000020 98 84 de 40 f3 f3 2a 3f b2 5e 62 3e 95 07 72 c0
       6.9536858 0.66778487 0.22106436 -3.7817128
000030 04 e7 c3 3e 40 42 82 c0 c9 ff 5d 40 cf 56 89 40
       0.38262188 -4.070587 3.468737 4.2918468
000040 5e 4c c1 40 11 a8 44 c0 18 cb 89 3f df 55 4b 3f
       6.040572 -3.072758 1.0765104 0.79427904
000050 ff e3 14 c0 bb ea f2 3f 07 18 cf c0 19 fa 70 c0
       -2.3264158 1.8977884 -6.471683 -3.7652647
000060 59 e4 da c0 e4 a0 a4 c0 5c e7 b4 c0 fc cc 5b c0
       -6.8403745 -5.14464 -5.653242 -3.4343863
000070 66 d8 3d c0 6c d1 82 c0 96 ff 46 c0 2c ed 26 bf
       -2.966333 -4.088064 -3.1093497 -0.65205646
000080 ef 5b 4f c0 75 a4 bc 3e b6 53 65 bf e5 0f b7 3f
       -3.2399862 0.3684422 -0.8958086 1.4301726
000090 9c ce 00 c1 c3 fd d2 40 76 33 a4 c0 0c 47 f6 c0
       -8.050442 6.593477 -5.131282 -7.6961727
0000a0 fc 74 e5 bf 69 f5 b6 bf d5 a5 a7 bf 42 41 c6 3f
       -1.7926326 -1.4293643 -1.3097483 1.5488665
0000b0 b6 7b 4b 40 00 f6 6f c0 37 86 49 c0 7a 1b e8 3f
       3.1794257 -3.7493896 -3.1488168 1.8133385
0000c0 9e ed 6e 40 9d 40 3b 3f 38 14 2b bf c9 f6 7a be
       3.733253 0.7314547 -0.66827726 -0.24508204
0000d0 f6 ee 2f 3f 6d f7 51 be 7d f4 55 c0 6a e5 f5 bd
       0.68724 -0.20504542 -3.3430474 -0.12006648
0000e0 d2 6c 5e 3f 31 ef 50 c0 f2 d6 62 bf c4 0b 0f bf
       0.86884797 -3.264599 -0.8860923 -0.5587733
0000f0 92 56 87 40 35 ad 27 c0 58 d1 a8 c0 16 98 f9 3c
       4.2293177 -2.6199467 -5.2755547 0.030468028

gnn_list.0.nn.3.running_var f4 [64]
000000 9f b1 66 40 81 87 23 40 f6 c9 49 40 96 f9 dc 3f
       3.6045911 2.5551455 3.1529517 1.7263668
000010 d3 bc dc 3f a1 8d 2d 40 de e2 d8 3f 6c 24 95 40
       1.7245125 2.7117693 1.6944234 4.660696
000020 77 8a a4 40 e9 92 05 40 e2 54 b2 3f d9 3a a4 3f
       5.1419024 2.0870917 1.3932154 1.2830459
000030 ed 3d 36 40 87 95 33 40 f1 77 62 40 81 ff f3 3f
       2.8475296 2.8060014 3.5385706 1.9062349
000040 54 ba 47 40 9b 09 98 3f 13 2d f8 3f 3e 14 64 40
       3.1207476 1.1877931 1.9388756 3.5637355
000050 f4 cf d3 3f 67 09 27 40 b6 75 1d 40 48 de 25 40
       1.6547837 2.6099489 2.4603095 2.591692
000060 d1 68 7f 40 3b b2 2d 40 d2 ec 3e 40 bc bb 51 40
       3.9907725 2.7140033 2.9832044 3.2770834
000070 d0 60 18 40 bc 2a 19 40 b8 55 1f 40 4f 28 4e 3f
       2.380909 2.3932333 2.4896069 0.80530256
000080 d3 c8 8f 3f 7c 05 46 40 d8 7e 2f 40 0f 11 47 40
       1.1233162 3.0940847 2.742117 3.1104162
000090 73 91 af 40 39 73 a4 40 88 cb 53 40 6b 77 9a 40
       5.486505 5.1390653 3.3092976 4.8270774
0000a0 98 86 2b 40 7b 4b 9d 3f cd 69 46 40 f4 c8 97 40
       2.68009 1.228866 3.1002076 4.7432804
0000b0 28 6f ac 3f cf 64 c9 3f 60 83 02 40 16 b4 ac 40
       1.3471422 1.5733889 2.0392685 5.396983
0000c0 8d 13 7e 40 c5 e1 36 40 89 a5 75 40 96 82 97 3f
       3.9699433 2.8575299 3.8382285 1.1836727
0000d0 34 0c 54 3f 20 4d d2 3f d6 9d 08 40 ae 88 e4 3f
       0.8283112 1.6429787 2.1346335 1.7854211
0000e0 02 0b 06 40 74 bc 4b 40 eb d3 2d 40 20 25 b8 3f
       2.0944219 3.1833773 2.7160594 1.438633
0000f0 cb d8 eb 3f 90 8b 0b 40 73 30 36 40 ea a7 8e 3f
       1.8425535 2.1803932 2.846707 1.1144993

gnn_list.1.nn.0.weight f4 [64, 64]
000000 dd c9 04 3e 89 c2 d5 bd 72 64 fb be 9a 49 56 3e
       0.1296763 -0.10437495 -0.4910007 0.20926514
000010 c4 3f 25 be 74 8b ca 3e 3f 9c 1e bf 81 3a 82 3e
       -0.16137606 0.3955952 -0.6195716 0.2543526
000020 08 ff 00 bc bf 40 60 bd dc 12 da bf ea 67 0b bf
       -0.007873304 -0.054749247 -1.7037005 -0.54455435
000030 98 38 29 3e cc 24 52 be d2 df 39 3e 75 dd 29 be
       0.16525495 -0.2052185 0.18151787 -0.16588385
000040 4c aa a3 3e 25 2b 82 3e 48 fd 10 be 85 d0 68 3e
       0.31965864 0.25423542 -0.14159119 0.22735794
000050 6a bf 28 be c1 94 5f 3e 04 fe f2 bd e0 1c ad 3e
       -0.16479269 0.21834089 -0.11864856 0.33811092
000060 85 26 3e be 1a d9 1e bd b5 c4 9e 3e b3 a2 dd be
       -0.18569382 -0.038781263 0.3100945 -0.43288192
000070 fd 37 4e 3e bc d8 5f bf 4c 7c c4 bf 11 65 36 bf
       0.20138545 -0.87440085 -1.5350432 -0.71247965
000080 64 41 9a be 7f 13 be bd 3d 4a a6 3e 5a 58 d5 3d
       -0.30128014 -0.09281062 0.32478514 0.10417242
000090 dd 9c 77 3d a7 3f 37 3e 0d 41 75 bf 48 63 2d 3e
       0.06045233 0.17895375 -0.95802385 0.16932404
0000a0 f9 bc e5 bd 91 49 2a 3e 3a be 6c bf 70 f0 f2 bc
       -0.11217684 0.16629626 -0.9247776 -0.029655665
0000b0 4c 69 9e bd 70 35 e2 be 08 a9 ea be 99 7f c5 bd
       -0.077349275 -0.44181395 -0.45832086 -0.09643478
0000c0 73 b4 fa 3d 14 2b c6 bd d8 40 fe bd 5f d0 08 bf
       0.12241449 -0.09676185 -0.12414712 -0.5344295
0000d0 76 6a 6f 3d ef bf 86 3e f3 70 b6 be a8 a1 8f 3d
       0.05845114 0.2631831 -0.35633048 0.07013255
0000e0 c5 15 9b be da fd 8a bf a5 bd c4 3d 12 b7 8a be
       -0.30290046 -1.0858719 0.09606484 -0.27092797
0000f0 92 2f 14 3d d2 fa 90 bf 30 8f b3 3e 15 9c 38 bf
       0.03617818 -1.1326544 0.3507018 -0.7211316
000100 e1 47 84 bd 4b b1 db 3d c4 ff 11 3d 21 62 19 be
       -0.06459022 0.10727175 0.035644308 -0.1497884
000110 58 08 e8 3c f3 e2 9e bd c7 c3 66 bc 8b af 45 bd
       0.028324291 -0.07758131 -0.014084763 -0.048263114
000120 3c 22 1f be 2e 99 5c 3b f4 4b 46 bd ef a9 62 3d
       -0.15540403 0.0033660638 -0.04841228 0.055337843
000130 90 f1 c9 3c 6b a9 a7 bd d1 e4 d6 3b f9 cc 5b bd
       0.024651319 -0.08186611 0.0065580388 -0.053662274
000140 3d f0 b1 bd 13 7b 01 bd 4a d3 07 be 0e de b0 bc
       -0.086884 -0.031611513 -0.13264194 -0.021590259
000150 92 10 16 be 2e 18 43 be 13 55 16 be 55 5e 63 bd
       -0.14654759 -0.19052193 -0.1468089 -0.055509884
000160 44 02 9c bd 42 f1 49 3d fa a4 11 be 14 75 ea bd
       -0.0761762 0.049302347 -0.1422309 -0.11448112
000170 5d 9a e7 bd 1f 88 10 be 2f 15 c9 3d b6 1f 3f bd
       -0.11308739 -0.14114426 0.098184936 -0.0466611
000180 2a 26 f0 3b 6e 2e 8b 3c c8 bf 05 3d fb eb fb bd
       0.0073287683 0.016989913 0.0326536 -0.12300869
000190 92 47 b0 bd 38 7d aa bd 9c 70 b6 bb 3d ff 17 be
       -0.08607401 -0.08324665 -0.0055676233 -0.1484346
0001a0 fd 9b 02 be 79 d9 5f 3d cb ec 6d 3d b9 67 23 be
       -0.12754817 0.054650757 0.05808715 -0.15957536
0001b0 6b 60 07 be bd 4a 07 3d 77 d1 2e bd b4 8f a0 3c
       -0.13220374 0.03303026 -0.04268023 0.019599773
0001c0 85 71 06 be 39 b3 7c bc c4 2b 59 bd 16 b2 92 bd
       -0.13129242 -0.015423589 -0.053020254 -0.071628734
0001d0 11 07 3a be 0e e5 4d bd fe 08 21 3d 3e 6b 28 be
       -0.18166758 -0.05026727 0.039315216 -0.1644716
0001e0 b1 85 69 bc 80 2c 7b 3d 24 63 a5 3c 46 46 67 bd
       -0.014253066 0.061321735 0.020188875 -0.056463502
0001f0 68 73 91 3d 66 7b 48 bd 4b b3 db 3d 3c fc c9 3c
       0.0710209 -0.048945807 0.10727557 0.024656408
000200 86 29 89 be 7e f0 1b 3e b5 29 e1 bd 6e 21 24 bf
       -0.26789492 0.15228459 -0.10994283 -0.6411351
000210 85 92 7b be 8e fa 98 3c 04 d6 5c bd bc df d5 3e
       -0.24567612 0.018674161 -0.05391504 0.41772258
000220 00 2d 63 3e 33 c0 da bc b4 23 c8 3d a5 e3 62 3e
       0.22185135 -0.026702976 0.09772435 0.22157152
000230 e6 5d b3 3e 45 0d b1 bd 20 5d 1f 3e c2 f7 03 bf
       0.35032576 -0.08645109 0.15562868 -0.51549923
000240 42 c7 a7 3e 63 17 14 be 8a 2d e7 3e f2 c4 34 3e
       0.3276921 -0.14462046 0.4515193 0.17653254
000250 97 48 0a 3e f8 8d 26 3d 0e e4 8a 3e 3b 64 27 bf
       0.13504253 0.040662736 0.27127117 -0.65387315
000260 b5 49 1c 3d 7e ba 80 be d0 c6 87 bf c1 c2 bf be
       0.03815623 -0.25142282 -1.0607548 -0.37453273
000270 e1 a7 96 bd 29 b8 ab 3e 18 47 82 3e cf d2 1b 3e
       -0.07356239 0.3353894 0.25444865 0.15217136
000280 3d 15 ea 3e cf 81 29 3f dc a3 0a bf a7 3b a7 bd
       0.4571933 0.662137 -0.5415628 -0.08165675
000290 55 ac 09 3e 4e 9c b7 3e 19 bd 81 bd 3b b8 be bb
       0.13444646 0.3586144 -0.06334896 -0.005820302
0002a0 dd 8a 41 be 6a 47 2a bd 16 09 e8 bd 5c 04 be 3c
       -0.18900628 -0.041572012 -0.11329858 0.023195438
0002b0 b3 a3 c1 be 0a d8 c7 be 8f 46 6b 3e aa 33 80 3e
       -0.37820205 -0.39032012 0.22976135 0.25039417
0002c0 46 a5 f9 3e 1d 5c 31 3d 0f 3c 03 3d a4 d3 6f 3d
       0.48758906 0.043300737 0.0320397 0.058551446
0002d0 e1 ee 1f be 83 5c 15 3f 4e 00 a9 bc 4e 1e 25 bf
       -0.15618469 0.58344287 -0.020630028 -0.64499366
0002e0 1e e6 b9 bc e8 80 13 3e 85 3a 94 3e c1 4d 52 3e
       -0.022692736 0.14404643 0.28950897 0.20537473
0002f0 dd 6e 97 3e 4d fa 09 3e 03 22 03 be 44 82 b4 bd
       0.2957677 0.13474388 -0.12805943 -0.08813909
000300 ea e0 ae 3d ef 4f 86 bf e4 c0 63 be 44 63 2b 3e
       0.08538993 -1.0493144 -0.2224155 0.16737086
000310 4d f5 8a 3e a4 c3 84 bf 42 b0 48 be 0d 44 82 3e
       0.27140275 -1.0372205 -0.19598487 0.25442544
000320 c7 3a dd 3e 1d af d4 bd 57 63 aa 3e ed 77 21 bf
       0.43208906 -0.10384963 0.33278915 -0.6307362
000330 17 1a d0 3e b4 1f ad be d3 70 85 3e d2 b2 a2 be
       0.40644905 -0.3381325 0.2606264 -0.31777054
000340 9f 47 1d 3e 7d 88 83 bf bd eb 8b bd 45 6d 21 3e
       0.15359353 -1.0276028 -0.06832073 0.1576434
000350 fd fc 0d be c5 46 fa 3d fa ac 1a bf 29 c4 a2 bf
       -0.13866039 0.122205295 -0.6042019 -1.2716113
000360 a1 6f a3 be bf fc d3 be 13 af f8 be c7 33 51 be
       -0.31921104 -0.41403767 -0.4857107 -0.20429908
000370 65 96 57 bf 99 3a 0f 3f 0e 5e 9b 3e 6c fd 53 3e
       -0.8421386 0.5594879 0.30345196 0.20702142
000380 da 98 91 3e 82 fc 7a 3e 5b 96 1f bf 5b 5d 0e bf
       0.2843693 0.24510387 -0.623388 -0.556112
000390 8d 64 cb be 3d 09 64 3d b9 0e 89 be 43 9e 28 bf
       -0.39725152 0.055672873 -0.26769045 -0.6586649
0003a0 9f 5b 17 bf 76 0f 68 bf 41 2b 9f bf 4d dc b2 3e
       -0.5912418 -0.9064859 -1.2435075 0.349337
0003b0 d5 11 15 be f5 6a e1 bd 27 73 3e 3e 88 60 3c 3e
       -0.14557584 -0.110067286 0.18598615 0.18396199
0003c0 ba c4 82 3e ad bd 44 3e d5 3c fc bc f1 d4 82 3e
       0.25540715 0.1921298 -0.030790726 0.25553086
0003d0 dd bf 34 3d e2 1d 17 bd 24 b3 1e be 18 11 ef be
       0.044128288 -0.036893733 -0.15498024 -0.4669273
0003e0 55 8c a8 3e eb 78 b8 3e 63 5f 5d 3d 1d e8 57 3e
       0.32919565 0.36029753 0.054046046 0.21084638
0003f0 e8 1d 25 3e 90 6c 9b 3d a0 fe 6a bf c7 4e f1 3e
       0.1612469 0.07589066 -0.91794777 0.47130415

gnn_list.1.nn.0.bias f4 [64]
000000 7c 6c 9e 3e 5d 95 aa bc 14 53 5e be 31 84 fc 3d
       0.30942142 -0.020823175 -0.2171138 0.12329901
000010 7f f2 3a 3e 4e c5 5c bd 8f 38 0a be 55 d9 62 3e
       0.18256567 -0.053899102 -0.13498138 0.22153218
000020 c3 91 5b be 3c dc 3b 3d 97 0a cb 3e 06 83 de be
       -0.21442322 0.04586433 0.39656517 -0.43459338
000030 86 e0 65 3e 5c 75 16 bd 44 72 e0 3d 18 89 92 3e
       0.2244893 -0.036733016 0.109592944 0.2862022
000040 f1 8d 8e 3e 9c 9e d8 3d bb 6a 03 be 2a d3 0c be
       0.27842668 0.10577127 -0.12833683 -0.13752428
000050 96 7f bd bc f6 23 2f be de 4a ab be 44 47 08 3e
       -0.023132127 -0.17103562 -0.33455557 0.13308436
000060 43 bc 39 3e d6 e4 9c bd 4a af 6e 3c fc 93 37 3f
       0.18138222 -0.076608345 0.014568159 0.7171018
000070 5b ae 76 3e 2f e7 ae 3e f9 be ee bc 9d 2c 11 be
       0.24089949 0.34160754 -0.029143797 -0.14177175
000080 37 ad 1c be a9 89 90 bd 5d bb 05 be 23 77 81 be
       -0.15300451 -0.070575066 -0.13059755 -0.25286207
000090 d8 d1 03 be 4f 05 09 bc 12 88 82 3e 89 d4 88 3e
       -0.12873018 -0.008363082 0.25494438 0.2672465
0000a0 78 f3 1a 3e e7 16 36 be 43 37 30 3e 97 2e a4 3e
       0.15131938 -0.17782174 0.1720858 0.32066795
0000b0 8f ef 56 3e 32 5e a6 bd c7 b1 27 3e ef af 00 bd
       0.20989822 -0.08123435 0.1637641 -0.031417783
0000c0 55 37 03 be 97 ff df be 74 27 8d bd 46 46 28 3e
       -0.12814076 -0.43749687 -0.06892291 0.16433057
0000d0 9d ad 1c 3e e7 30 17 3e 16 59 94 be 2f 9f 13 be
       0.15300603 0.14764749 -0.28974217 -0.14416192
0000e0 57 18 2e bf f2 fb 4a 3e 75 a3 f9 bd 02 4e 5f 3a
       -0.6800589 0.19822672 -0.1218938 0.0008518399
0000f0 11 e5 9a bd 69 46 c3 bd c3 1b ec 3c 20 87 fe 3d
       -0.07563222 -0.09534914 0.028821832 0.12428117

gnn_list.1.nn.2.weight f4 [64, 64]
000000 4f 2c e7 3e f8 ab 88 bc 06 ff f0 be 7f 11 05 3d
       0.45150992 -0.016683564 -0.47069567 0.03248739
000010 b4 e4 b8 3e e5 94 22 3d 73 6d f7 3c 33 c2 13 3e
       0.36111987 0.03969278 0.030203557 0.1442955
000020 64 22 38 bd 14 81 4a bd e7 00 79 3e 91 2c 85 bd
       -0.044954672 -0.049439505 0.2431675 -0.06502641
000030 15 cd 3f be 3a b7 c6 bd c2 24 9d bc c4 c9 e7 bd
       -0.18730576 -0.097029164 -0.019182567 -0.113177806
000040 fb e4 c1 3e 8a 48 9b 3e 40 cd 24 be 6f ce 8b bc
       0.3787001 0.3032878 -0.16093922 -0.017066209
000050 23 6e fb bd 20 ef 90 be c5 bc 07 3a a8 d5 14 3e
       -0.12276866 -0.28307438 0.000517797 0.14534628
000060 70 d3 8a 3e 88 f7 bd bd 63 a4 c2 3c 53 e3 d2 be
       0.2711444 -0.092757285 0.023760026 -0.4118906
000070 f1 01 0a bc 1a e1 52 3e 32 d4 8b 3d e3 a9 3e bf
       -0.008423314 0.20593682 0.068275824 -0.74477977
000080 25 bd 8e 3d 08 88 50 be 97 66 53 bc 9f 23 90 be
       0.0696967 -0.20364392 -0.012902877 -0.28152177
000090 3a 63 84 be c7 ee ab 3e 4f dd 10 bf 4a 81 54 be
       -0.25856954 0.3358061 -0.5658769 -0.20752445
0000a0 02 05 cf 3e a5 a3 ab be 75 10 71 be fb 52 40 3e
       0.40433508 -0.33523288 -0.23541434 0.18781655
0000b0 e7 5d 89 3e 90 06 88 3d 2b 2f 3a 3d 0e ef 5e bd
       0.26829454 0.06641877 0.04545514 -0.0544272
0000c0 8a ca 89 be 37 3c 29 3d 61 aa a1 be 79 61 af 3e
       -0.26912338 0.04131719 -0.315753 0.34254053
0000d0 43 23 ea be 25 1b 70 3d d8 0a 6f bf a2 53 84 bd
       -0.45730028 0.058619637 -0.9337592 -0.06461264
0000e0 7e 21 03 bf cf d3 b1 bf 28 4c da 3d c5 7b 78 be
       -0.5122298 -1.3892764 0.10659057 -0.24265964
0000f0 b8 c9 cd 3c 3e cf 08 bf 81 66 b6 3e a6 42 3b be
       0.025120601 -0.53441226 0.3562508 -0.18287143
000100 05 1c d1 be 11 5d a6 bd 5d 68 31 be c1 10 02 3e
       -0.4084169 -0.0812322 -0.17324968 0.12701704
000110 a3 ad c4 3e 08 40 57 3d 6b e7 c4 3d e1 06 f2 3d
       0.38413724 0.0525513 0.09614452 0.11817718
000120 03 ff 7a be 56 7d 05 bd b1 90 3f 3e 4a 89 d3 be
       -0.24511342 -0.032590233 0.18707539 -0.4131568
000130 fe f3 e2 be 66 70 6b bd 19 7f 8c 3e 6c 59 aa 3e
       -0.44326776 -0.05748024 0.27440718 0.33271348
000140 b3 f4 78 3d b4 5e 81 3c eb 0a 40 bd 4b 29 10 be
       0.06078024 0.015792228 -0.046885412 -0.14078252
000150 25 a9 c2 bc 4a 6c 1d bf 65 5f 49 3e ff c5 87 3e
       -0.023762295 -0.6149336 0.19665296 0.26518247
000160 f7 f5 ee be bb 5d 36 3c f3 94 cc bd e6 11 4b bc
       -0.4667203 0.0111307455 -0.09989347 -0.012394404
000170 21 3b a0 3c c1 a1 38 3e cd 6f be 3d c8 00 2f 3e
       0.019559445 0.18030454 0.09298668 0.17090142
000180 dd 87 0b be 20 05 03 bd c4 da 09 be d6 a9 52 bc
       -0.13626046 -0.03198731 -0.13462359 -0.012857875
000190 67 66 af 3e bb 45 52 3e 3a 25 a2 be 02 0c 10 bf
       0.34257814 0.20534413 -0.31669027 -0.5626832
0001a0 21 47 05 3e 69 bf ab be b2 fc e4 be ef ba ba be
       0.13015415 -0.33544472 -0.4472404 -0.36470744
0001b0 d6 28 f8 bd 0b 7c f5 bd f6 ae 90 bd 63 1a 8a 3d
       -0.12117164 -0.1198655 -0.07064621 0.06743314
0001c0 3c 75 4a 3e 4b 4d 99 3e 88 20 dd be fc ed 12 3d
       0.19771284 0.29941782 -0.43188882 0.03587149
0001d0 d3 5f f1 3e 6a bb a5 3e 3e 90 96 bf d1 eb c1 3c
       0.4714342 0.32369548 -1.1762769 0.023672016
0001e0 e4 b9 b3 bd 12 04 0f be 7a fb 15 3e ef b2 0b 3e
       -0.0877569 -0.13966396 0.14646712 0.13642476
0001f0 73 0a 79 3d c6 09 17 be 39 d7 69 be e7 7b ad 3e
       0.06080098 -0.14749822 -0.22836007 0.33883592
000200 fc 5d 75 be ba 80 5a bd 9f 27 9d 3e 1c 98 cd be
       -0.23961633 -0.05334542 0.3069429 -0.40155113
000210 86 98 47 bf 5f 37 00 3e 3f 4e bc bd 4e 7b 63 bf
       -0.7796711 0.12521122 -0.09194612 -0.88860023
000220 c1 10 fa 3d 7f 85 9b 3d 52 e6 7b be d7 fe 0d be
       0.12210227 0.07593822 -0.24599579 -0.13866745
000230 85 7e 62 3d a7 b9 3c 3c 26 12 31 be f4 01 8b be
       0.05529644 0.011518872 -0.1729208 -0.27149928
000240 29 45 a4 ba 70 91 aa be c6 9d a8 bd c5 4d 13 be
       -0.0012532818 -0.33314085 -0.08233218 -0.14385135
000250 d5 fc 9f bb ff 58 d1 3e b2 a7 53 be 49 28 9c 3d
       -0.004882435 0.4088821 -0.2066944 0.07624871
000260 f7 bc e7 bd 3b 39 49 3b e4 c8 f5 3c f3 b4 5e 3e
       -0.11315339 0.0030704278 0.030003019 0.21748714
000270 67 99 52 bd 25 24 be 3d d3 e5 48 bd ef 65 13 3f
       -0.051415827 0.09284238 -0.049047302 0.57577413
000280 2f 6c a4 bc 77 e8 62 be 64 07 d6 3d 77 e2 97 be
       -0.020071117 -0.22158991 0.104506284 -0.29664966
000290 63 23 9f 3e 85 a4 72 3e c1 5a 18 3f 46 5d 4a be
       0.31081685 0.23695572 0.5951348 -0.19762143
0002a0 61 4d 89 be ae 1d da be 78 94 2e bf c0 c1 d3 be
       -0.26816848 -0.4260077 -0.68195295 -0.41358757
0002b0 44 e6 77 bd c9 5c bc 3d 4a 03 73 be c1 ef b0 3c
       -0.060522333 0.09197385 -0.23731723 0.021598699
0002c0 cf 4e 8d bb 2d e3 7d 3e 0b b6 8e be 0a 22 f7 3e
       -0.004312373 0.24793692 -0.27873263 0.48268157
0002d0 eb 78 fc 3e aa 6f 64 bb a1 d7 b2 be 6c 4b 30 3b
       0.49311003 -0.0034856596 -0.34930137 0.0026900424
0002e0 e6 6a 70 3f 22 73 8e 3c a7 dd c6 3d 16 10 a1 3c
       0.93913114 0.017388884 0.097102456 0.01966099
0002f0 65 94 9c bd 26 0c 65 3e 76 75 17 be bc aa a6 bd
       -0.076454915 0.22367916 -0.14790902 -0.08138034
000300 ae d7 ba be 23 73 83 3d 6a 44 8c 3c 24 25 fd 3e
       -0.36492676 0.06418445 0.017122466 0.494424
000310 1a 9a 4d 3d 59 ab ea bd f6 c3 89 3c 0b 0f c1 3d
       0.05019579 -0.11458463 0.016817074 0.09426697
000320 a3 48 5e 3d cb 8c 12 bd 26 6b 11 3e 06 8f 1d bf
       0.05426849 -0.035778802 0.1420103 -0.6154636
000330 df 58 d3 be d0 36 54 3d b0 06 af 3e 7d 72 c0 be
       -0.4127874 0.051810086 0.3418479 -0.37587348
000340 3d c8 a8 be 07 68 a9 3e ca 45 f1 3d 6a 49 35 3e
       -0.3296527 0.3308718 0.11780889 0.17703786
000350 49 b9 65 3d ad 02 3f 3d c2 09 d4 3e 4c 3b 05 bf
       0.056084905 0.04663341 0.41413695 -0.52043605
000360 a1 b8 2d be 6d b6 91 3c e6 ac fa bc 84 3f 3b be
       -0.16964962 0.017787183 -0.030600023 -0.18285948
000370 84 b5 21 bf 90 b4 eb be 7a 18 37 3d ce 22 a4 3e
       -0.63167596 -0.46036196 0.044701077 0.32057804
000380 b5 d7 00 3e d0 51 22 be e7 29 e2 be 3f 7a a8 3e
       0.12582286 -0.15851521 -0.44172594 0.32905766
000390 6f fd 0d bf 9a 66 d1 3d 6d 85 65 bf 0c aa 4a be
       -0.55464834 0.10224648 -0.89656717 -0.1979143
0003a0 a9 a5 dd 3e 18 d6 fc 3e c2 62 63 3f f2 5c 63 be
       0.4329045 0.4938209 0.8882257 -0.22203425
0003b0 07 2e a6 bd d9 23 80 bd 5d da d4 3e d8 76 dc bd
       -0.08114248 -0.062568374 0.41572848 -0.10764855
0003c0 f8 bb d1 3e ab 1a a0 be 25 ae b3 be 5a 24 a5 3d
       0.4096372 -0.31270346 -0.350938 0.08063574
0003d0 2d 40 27 bd 66 b2 cb bd ca 74 8a be f7 ac 8c bc
       -0.040832687 -0.09946136 -0.27042228 -0.01717232
0003e0 50 e0 ac 3e ce 5a 85 3d cc 13 1f bd bc 5e 26 3f
       0.33764887 0.0651146 -0.03883724 0.64988303
0003f0 76 1a 5d bc 62 b8 0c 3f 2b 56 24 3d 8a 80 b9 be
       -0.013495078 0.54968846 0.04012124 -0.3623088

gnn_list.1.nn.2.bias f4 [64]
000000 6b 75 aa 3d f9 bb 74 3d 51 c1 93 bd a6 80 ed 3d
       0.08323177 0.059749577 -0.072146066 0.11596803
000010 13 b8 54 3d 75 31 b4 3d 88 9a 77 bd 63 a3 20 bc
       0.05193336 0.08798496 -0.060450107 -0.009804579
000020 3a ff be 3c 0d c3 d4 bd 11 f8 79 bb 5c e8 76 bd
       0.02331506 -0.103887655 -0.0038142244 -0.06028019
000030 11 8c d3 3c 5e 9f 60 3c 9f 29 91 3c 8b cd 5d bd
       0.025823625 0.013709871 0.017720042 -0.0541511
000040 db 4a c3 3d 1d 51 1f bb a8 0e 8f 3d c7 be 81 bd
       0.09535762 -0.0024309822 0.06985217 -0.06335216
000050 d0 fc 27 3d 94 71 f9 3d 00 e2 14 be a7 15 0e 3d
       0.041012585 0.121798664 -0.14539337 0.034688618
000060 45 5c fd 3c f2 12 0b 3e ca b5 05 bc 26 1e 0d bd
       0.030927787 0.13581446 -0.008161018 -0.03445258
000070 9c d8 1a bc 23 34 dd 3d ce a9 24 3e 03 ab e0 bd
       -0.009451058 0.1080096 0.160804 -0.10970118
000080 e6 44 91 bb 83 d4 61 bd 2a 8c 46 bd 8a 3b 65 bd
       -0.004433262 -0.055134308 -0.048473515 -0.055964984
000090 c2 22 71 bc 98 95 d1 3d a2 29 11 be 45 dc 0a be
       -0.01471776 0.10233611 -0.14176038 -0.13560589
0000a0 30 48 ed bc 31 1d e4 bd f6 ad be 3c 74 de e2 3d
       -0.028965086 -0.1113838 0.02327631 0.11077586
0000b0 12 45 8c 3d c6 f5 d2 3d ea 42 c0 3b fb 2f e7 3d
       0.068491116 0.10300784 0.005867352 0.112884484
0000c0 0f 99 71 3d 4d 68 e0 bd 8c 38 5e 3d 1b 74 65 bd
       0.05898386 -0.10957394 0.054253146 -0.05601893
0000d0 7d fe bd bc f2 2b 78 3d 82 4b 32 bd 4a 43 f9 3c
       -0.023192639 0.060588785 -0.04352904 0.030427594
0000e0 e4 77 03 be fe fa 2f 3d ce c6 e7 3d 6c b4 aa 3c
       -0.12838703 0.042963974 0.11317216 0.020837985
0000f0 81 9e 52 bd 1c 4e d2 bd e8 44 96 3d 81 30 29 bd
       -0.051420692 -0.102688044 0.073373616 -0.041306023

gnn_list.1.nn.3.weight f4 [64]
000000 6f 57 17 3f 48 45 15 3f 65 37 05 3f 5e cf 25 3f
       0.5911779 0.5830884 0.5203765 0.6476954
000010 09 07 6e 3f 73 3e 4f 3f 28 be 55 3f 17 46 23 3f
       0.92979485 0.80954665 0.8349328 0.63778824
000020 46 e5 00 3f e7 14 3f 3f 84 d9 26 3f 37 5d f1 3e
       0.50349844 0.7464127 0.6517565 0.4714143
000030 aa c5 58 3f da ee 1a 3f 0c a7 09 3f a6 18 47 3f
       0.8467661 0.6052071 0.5377052 0.77771986
000040 73 ba e3 3e f9 a6 23 3f 57 37 6c 3f 32 12 11 3f
       0.44478187 0.63926655 0.9227194 0.5666839
000050 13 c1 34 3f e2 3d 56 3f 40 72 2e 3f 3f e3 39 3f
       0.7060711 0.83688176 0.6814308 0.72612375
000060 5e e3 10 3f cd 52 26 3f 9e 30 10 3f 5e d8 63 3f
       0.56596935 0.64970094 0.56324184 0.89002025
000070 e9 b8 67 3f cd 47 26 3f ca 75 56 3f 1f 6c 27 3f
       0.90516526 0.6495331 0.8377348 0.65399355
000080 ec ae 0a 3f 03 bb 49 3f a6 46 4b 3f f9 71 1c 3f
       0.5417316 0.7880098 0.79404676 0.6111141
000090 ef 09 18 3f 00 5d 0a 3f df 6b 87 3f 9b 3d 36 3f
       0.5939016 0.54048157 1.0579795 0.7118775
0000a0 d2 7b 43 3f aa 01 58 3f de 00 29 3f 91 51 49 3f
       0.7636081 0.8437754 0.6601695 0.78640085
0000b0 3c 6a 4e 3f 23 6d 1d 3f f8 12 28 3f 82 6b e9 3e
       0.8063085 0.61494654 0.65653944 0.45589834
0000c0 8c 86 15 3f 00 54 45 3f 29 90 4f 3f 66 69 09 3f
       0.5840843 0.770813 0.81079346 0.5367645
0000d0 8c e1 2b 3f ae 0c 03 3f 7b 48 fb 3e 9f b7 44 3f
       0.6714103 0.5119122 0.49078736 0.76842684
0000e0 7b a9 41 3f a0 5e 19 3f 8a 3c 2d 3f 2c 8e 75 3f
       0.7564923 0.5991001 0.676705 0.9592006
0000f0 58 d8 e1 3e ef 53 1e 3f d9 b2 38 3f d5 34 11 3f
       0.4411037 0.6184682 0.721479 0.5672124

gnn_list.1.nn.3.bias f4 [64]
000000 c9 4e 77 be 07 41 6d be c0 91 9d be 49 bf c0 be
       -0.24151148 -0.23169337 -0.3077526 -0.3764594
000010 62 70 43 bf 30 2f e8 be 5e c7 be bd 47 1b bc be
       -0.7634336 -0.453485 -0.0931537 -0.3673956
000020 1c e5 d6 bd 91 08 93 be 38 eb 8c bd 89 63 a8 bd
       -0.10492918 -0.28717473 -0.06880802 -0.0822211
000030 72 19 00 bf 39 2a d3 be c4 1b 7a be ae 49 bf be
       -0.50038826 -0.4124315 -0.24424654 -0.373609
000040 9b 4c 84 be e2 cd 81 be 19 eb 8f be 30 1b da be
       -0.25839695 -0.2535239 -0.28109053 -0.42598867
000050 32 2c b9 be 0c b6 e2 be e7 d9 b0 bd 37 2e ab bd
       -0.3616653 -0.44279516 -0.086353116 -0.08358424
000060 25 3f c9 be 63 0d ee bd d1 d5 ba bd cb df 45 be
       -0.39305988 -0.11623647 -0.091228135 -0.19323651
000070 3f b5 fb be c8 a7 0e be 2c 62 cc be 24 84 99 bc
       -0.49161717 -0.13931191 -0.3991865 -0.018739767
000080 81 0b 88 b9 01 df 48 be 17 ac a3 be 5f 7b 42 be
       -0.00025948512 -0.19616319 -0.31967232 -0.18992375
000090 1c 90 de 3d 8f 7e 1b be f4 42 89 be a1 0b 50 be
       0.108673304 -0.15184997 -0.26808894 -0.20316936
0000a0 98 c5 9a be cb 02 af be de 9b ca be ff de 95 be
       -0.30228877 -0.34181818 -0.39572042 -0.29271695
0000b0 63 ba 98 be 1e e2 1c be fa fd 0e be 45 64 e8 bd
       -0.29829702 -0.15320632 -0.13964072 -0.1134725
0000c0 c8 f3 ff bc 2d 7d d8 bd f8 63 fd be 37 72 55 be
       -0.031244174 -0.105707504 -0.49490333 -0.20844351
0000d0 74 6a 80 be a2 0c a3 be 45 b6 5c be 75 6a 11 bf
       -0.25081217 -0.31845576 -0.21553905 -0.56803066
0000e0 e8 72 8a be 21 56 ac be 71 ba 75 be 24 de e9 be
       -0.27040792 -0.3365946 -0.23996903 -0.45677292
0000f0 7a 3d 5a be 1a 5d cf be 77 df 72 be 92 f6 19 be
       -0.21312514 -0.40500718 -0.23718058 -0.15035465

gnn_list.1.nn.3.running_mean f4 [64]
000000 b9 a0 2b c1 15 6f 09 c1 11 52 11 40 f1 ab f6 c0
       -10.726739 -8.58962 2.270634 -7.708489
000010 4a 2e 82 40 e1 53 d9 40 3f 55 47 c1 02 2c 54 c0
       4.0681505 6.791489 -12.458312 -3.315186
000020 d3 f8 02 c1 38 47 53 c0 79 dd a5 3f 3e 0a ea bf
       -8.185748 -3.3012218 1.2958213 -1.8284376
000030 d6 05 19 40 71 01 20 c0 d3 10 34 c0 d7 23 92 3f
       2.3909812 -2.500088 -2.8135269 1.1417187
000040 c4 86 8b c0 7f 0e 10 c1 4f 11 03 c1 f5 76 23 c0
       -4.360201 -9.003539 -8.191726 -2.5541356
000050 eb cd 57 41 0d f2 13 41 6d 8b bb c0 8a 5e 22 c1
       13.487773 9.246594 -5.8607697 -10.148081
000060 e7 fc cb 3f a4 2c 95 c0 ce 56 2e 40 89 f1 28 c0
       1.5936555 -4.6616993 2.7240481 -2.6397421
000070 eb 49 d4 c0 94 1f 07 c1 3c f3 f9 c0 89 a4 91 c0
       -6.634023 -8.4452095 -7.8109417 -4.551335
000080 74 5d 34 c1 14 40 1f c1 e5 a2 97 c0 d5 f2 43 c0
       -11.272816 -9.953144 -4.7386346 -3.0616963
000090 c2 93 ce 40 ca c9 12 bf 88 94 02 c1 9a 75 9b 40
       6.455537 -0.57339156 -8.1612625 4.8581057
0000a0 d4 9c cb c0 a0 26 d4 3f 90 04 a8 3f 69 b3 37 41
       -6.362894 1.6574287 1.3126392 11.481301
0000b0 32 15 7e c0 ae f1 31 40 dc 6e b2 bf 1c 18 9c be
       -3.9700437 2.780376 -1.3940082 -0.30487144
0000c0 1b 94 2b c1 64 c0 47 c1 dc c1 44 bf 71 80 b4 c0
       -10.723659 -12.48447 -0.76858306 -5.640679
0000d0 55 0c 65 c0 a1 be 4e c0 69 53 a4 bd 01 df a4 c0
       -3.5788777 -3.230385 -0.08023722 -5.152222
0000e0 1d 0d c1 c0 47 1f 8d 40 20 85 6d 40 d4 87 d4 c0
       -6.0328507 4.410068 3.7112503 -6.6415806
0000f0 4b d6 9d c0 68 45 10 41 aa cb 18 c1 e4 40 e4 be
       -4.932409 9.016945 -9.549723 -0.44580758

gnn_list.1.nn.3.running_var f4 [64]
000000 ad f8 c6 41 e8 c0 8c 41 5f 8a 9f 41 3c 46 bd 41
       24.871424 17.594193 19.942564 23.659294
000010 b9 c2 14 42 75 91 06 42 14 7c be 41 64 e7 96 41
       37.19016 33.642048 23.810585 18.862984
000020 39 51 b4 41 11 9d 90 41 b0 4a 68 41 70 cf 32 41
       22.53966 18.076693 14.518234 11.175644
000030 a4 8d ae 41 8f ed 93 41 b7 fa cc 41 9a ea f1 41
       21.81916 18.490995 25.62242 30.239552
000040 07 fb 5d 41 d2 4a 9a 41 54 60 cd 41 98 ed 4d 41
       13.873786 19.286533 25.672035 12.870506
000050 07 eb 12 42 2a a1 ec 41 13 7e 6a 41 cf 68 19 42
       36.72952 29.578693 14.65578 38.352352
000060 33 2d b9 41 97 cb 8d 41 f5 aa dc 41 53 2e 18 42
       23.14707 17.72441 27.583475 38.04524
000070 47 a8 2f 41 db 51 32 42 0b a2 98 41 03 00 b8 41
       10.978583 44.579937 19.079123 23.000006
000080 a3 30 f1 41 75 41 b4 41 93 c0 c1 41 dc 5b 68 41
       30.148748 22.531961 24.21903 14.522427
000090 ac 99 27 42 da 2b db 41 14 cb 07 42 78 53 b8 41
       41.90007 27.396412 33.94832 23.040756
0000a0 73 c7 74 41 54 a1 a6 41 07 7b 95 41 d4 c0 c9 41
       15.298694 20.828773 18.685072 25.219154
0000b0 96 12 89 41 5b 96 10 42 ae 1d ac 41 19 8d bc 41
       17.134075 36.14683 21.514492 23.568895
0000c0 6c 02 cf 41 9d 78 5a 42 7a 17 6a 41 8c 3a b3 41
       25.876183 54.617786 14.630732 22.403587
0000d0 04 3f b6 41 b1 2b 7e 41 6b b9 b6 41 0b 92 e9 41
       22.78077 15.885667 22.840536 29.19631
0000e0 16 fa d2 41 ca 5b 81 41 53 76 ad 41 7d b4 2f 42
       26.372112 16.169819 21.682775 43.926258
0000f0 92 e0 e5 41 60 7b a9 41 0b 7f 36 41 f1 9f d1 41
       28.734653 21.185242 11.406016 26.203096
