model_saved/AIDS700nef/2022-03-17_10-42-12/GSC_GNN_AIDS700nef_checkpoint.pth (torch, 297351 bytes, 61 tensors)

gnn_list.0.nn.0.weight f4 [64, 29]
-1.4750539 0.59553146 -0.5890104 0.3652779 0.12503892 0.008243053 0.13944487 -0.053014588
-0.21204609 0.38807565 0.002718287 0.81654197 -0.14114961 -0.32256237 -0.3966067 -0.12202576
-0.30386323 -0.2438404 0.43031648 -0.3816885 -0.45219913 -0.3859852 0.06997601 -0.038699135
0.020641437 0.068267845 0.07723439 -0.039630353 0.12448053 0.3636399 0.2903575 0.37236443
0.33886722 0.23699309 0.03992165 0.70366126 0.4098301 0.30161953 0.3316976 0.7092646
0.18255255 0.2491168 0.55606735 0.18386969 0.42030725 0.59826213 0.0767133 0.46747196
-0.38388577 0.41736937 0.38707933 0.4572618 0.7558748 0.02100224 0.17253111 -0.012164399
0.012656097 0.13752171 0.052997768 0.19689137 0.23220225 0.1968648 0.44998956 0.054979656
-0.6254642 0.5720797 -0.18867919 0.21023095 0.0452232 0.22574492 0.41735393 -0.07605909
0.26563403 -0.15063809 0.5660039 0.31142706 0.14535947 0.1829311 0.9431712 0.32395628
-0.16908975 -0.4272508 0.11264222 0.1598065 0.17675427 -0.028649354 0.17971654 -0.18487678
0.3548508 0.43779933 -0.1554129 -0.6563523 -0.08054665 -0.26189283 -0.10622965 -0.15666468
-0.23153666 -0.14987856 -0.29280192 -0.12368671 -0.13227586 0.019357778 -0.33683735 -0.11146653
0.03245751 -0.1910497 0.040023144 0.31982458 0.14586663 0.032098718 0.02213805 -0.091618046
0.08795076 -0.06027929 0.10325734 -0.03320031 0.42377505 0.41002914 -1.3280603 -0.6155147
0.121842474 -0.006212197 -0.43887377 -0.15777451 0.1400219 0.6640914 0.6323175 0.31513718
0.012940331 0.50174266 0.3854563 0.5152349 -0.33130613 0.52492833 0.23621602 0.30505434
0.106097095 0.28356802 0.3430597 0.63257647 0.07204317 -0.027416212 0.010457755 -0.029243125
0.06815253 -0.13881788 -0.09783811 -0.03126001 -0.032904975 -0.19038756 0.045776695 -0.023891777
0.06723842 -0.020870129 -0.10190526 -0.10075582 0.03392332 -0.09857224 -0.079450965 0.061038665
0.103583194 -0.050751254 0.029944818 0.20132934 0.010230833 -0.008819291 0.045733992 -0.11168844
-0.07700366 -0.07206686 0.101954736 -0.042633537 0.097413875 -0.10531811 -0.2621223 0.5233311
0.040433444 -0.6751924 -0.06538564 -0.5184818 -0.042499457 -0.37860227 -0.028935868 -0.300286
-0.013439843 0.4068203 -0.1154626 -0.1389345 -0.09357687 -0.785458 -0.0565124 -0.6373136
-0.14733812 -0.15832421 -0.023422414 -0.08819125 -0.11813689 -0.046944708 -0.030316351 0.16905618
-0.0936999 0.021288976 -0.10572617 -0.060283683 -0.33970547 -0.3954927 0.4401622 -0.14308938
-0.17193398 -0.4355252 -0.13560213 -0.3721797 0.1567197 -0.25797507 -0.88293296 0.44322115
-0.15638918 -0.23853157 0.0026795333 -0.116535455 -0.3001199 0.10885077 0.0989673 -0.08451664
-0.17787634 0.58155566 -0.34514946 -0.13374433 -0.16601819 0.14142181 0.014175753 -0.02188631
-0.27847004 -0.23992793 -0.50066596 0.5402664 0.41635567 -0.13740003 -0.30752677 -0.12235619
-0.53301716 0.20749512 0.07701936 -0.3858079 -0.08299163 -0.29422697 -0.037191793 -0.06200094
-0.0031087853 0.15512733 -0.27539128 0.45199156 -0.22184607 -0.17473638 -0.13096939 -0.10101588
00000000: 91ce bcbf c074 183f 63c9 16bf b405 bb3e
00000010: 340a 003e df0d 073c a3ca 0e3e d325 59bd
00000020: 9c22 59be dab1 c63e 4a25 323b e508 513f
00000030: 8689 10be e526 a5be 0910 cbbe a4e8 f9bd
00000040: f693 9bbe 4cb1 79be 7152 dc3e ad6c c3be
00000050: a586 e7be da9f c5be 954f 8f3d fc82 1ebd
00000060: 3b18 a93c 03d0 8b3d 102d 9e3d 7053 22bd
00000070: a6ef fe3d 022f ba3e bda9 943e 8da6 be3e
00000080: 0180 ad3e 51ae 723e e284 233d 2523 343f
00000090: 40d5 d13e e06d 9a3e 45d4 a93e 5d92 353f
000000a0: 0eef 3a3e 7918 7f3e 6e5a 0e3f 5648 3c3e
000000b0: 8332 d73e b527 193f dd1b 9d3d 7c58 ef3e
000000c0: ad8c c4be 70b1 d53e 432f c63e 381e ea3e
000000d0: 0381 413f e40c ac3c ffab 303e 304d 47bc
000000e0: 855b 4f3c 7ed2 0c3e 3014 593d e49d 493e
000000f0: 6dc6 6d3e ed96 493e 0865 e63e 5932 613d
00000100: 6c1e 20bf d173 123f 1e35 41be c846 573e
00000110: f63b 393d ad29 673e 6aaf d53e dec4 9bbd
00000120: 2f01 883e df40 1abe a2e5 103f 5e73 9f3e
00000130: 1dd9 143e 4a52 3b3e ab73 713f 99dd a53e
00000140: dd25 2dbe 9ec0 dabe f7b0 e63d 51a4 233e
00000150: 12ff 343e 0db2 eabc 9d07 383e 5750 3dbe
00000160: 01af b53e 3c27 e03e 8f24 1fbe b406 28bf
00000170: a4f5 a4bd d116 86be ee8e d9bd b56c 20be
00000180: f217 6dbe c479 19be 22ea 95be 754f fdbd
00000190: 5373 07be 3494 9e3c f275 acbe 9048 e4bd
000001a0: 2af2 043d 88a2 43be 4fef 233d 0cc0 a33e
000001b0: 105e 153e f279 033d db5a b53c 3ea2 bbbd
000001c0: 871f b43d 6be7 76bd 9678 d33d 0cfd 07bd
000001d0: 0bf9 d83e 57ef d13e e1fd a9bf 5f92 1dbf
000001e0: 8c88 f93d af8f cbbb 10b4 e0be a48f 21be
000001f0: e761 0f3e e501 2a3f 8fdf 213f a959 a13e
00000200: af03 543c 3572 003f 875a c53e 6fe6 033f
00000210: f5a0 a9be b461 063f 9de2 713e 1530 9c3e
00000220: 6f49 d93d d42f 913e 85a5 af3e 88f0 213f
00000230: 5f8b 933d f797 e0bc 0157 2b3c 478f efbc
00000240: 8e93 8b3d 4626 0ebe 595f c8bd 7f0a 00bd
00000250: 5ec7 06bd f5f4 42be 5880 3b3d b0b8 c3bc
00000260: 4cb4 893d d5f7 aabc b4b3 d0bd 1159 cebd
00000270: 2ef3 0a3d 3ee0 c9bd 30b7 a2bd ae03 7a3d
00000280: 6d23 d43d 8ce0 4fbd d64e f53c 4729 4e3e
00000290: 399f 273c ca7e 10bc 9153 3b3d e9bc e4bd
000002a0: 18b4 9dbd ca97 93bd a5cd d03d 81a0 2ebd
000002b0: ed80 c73d 05b1 d7bd e534 86be 07f9 053f
000002c0: 8a9d 253d 69d9 2cbf e8e8 85bd 39bb 04bf
000002d0: e913 2ebd 28d8 c1be ea0a edbc 16bf 99be
000002e0: ca32 5cbc c04a d03e a877 ecbd d844 0ebe
000002f0: 3ba5 bfbd c713 49bf 8c79 67bd fc26 23bf
00000300: cedf 16be be1f 22be 5de0 bfbc 9d9d b4bd
00000310: c1f1 f1bd 1849 40bd ff59 f8bc 101d 2d3e
00000320: bce5 bfbd 3866 ae3c f686 d8bd 06ec 76bd
00000330: e0ed adbe 057e cabe f15c e13e 0686 12be
00000340: 760f 30be 29fd debe 49db 0abe 568e bebe
00000350: 217b 203e 4f15 84be e507 62bf e2ed e23e
00000360: 7c24 20be 9f41 74be 1c9b 2f3b 24aa eebd
00000370: 51a9 99be 27ed de3d 5eaf ca3d 0f17 adbd
00000380: 3725 36be d5e0 143f 6eb7 b0be 46f4 08be
00000390: ac00 2abe e1d0 103e 6b41 683c eb4a b3bc
000003a0: a093 8ebe abaf 75be a52b 00bf e64e 0a3f
000003b0: 922c d53e 98b2 0cbe 2674 9dbe e295 fabd
000003c0: d073 08bf 9a79 543e 54bc 9d3d 9d88 c5be
000003d0: 84f7 a9bd eba4 96be 6c56 18bd b3f4 7dbd
000003e0: c3bc 4bbb b3d9 1e3e 1600 8dbe 706b e73e
000003f0: 9e2b 63be 18ee 32be d71c 06be 6ae1 cebd

gnn_list.0.nn.0.bias f4 [64]
-0.0506132 -0.32960755 -0.53116906 -0.47692454 0.03354345 -0.14203405 -0.30501235 0.22238958
0.39519766 -0.043695763 0.10085992 0.047702875 -0.18617336 -0.05798833 -0.07879483 -0.070097335
-0.123845205 -0.5444839 -0.6028707 -0.06626975 -0.19833565 0.1676858 -0.12265366 -0.5749114
-0.13713628 0.22771421 -0.09263156 0.27991578 -0.6579951 -0.0800837 0.21021162 -0.1685733
-0.4979475 -0.19977848 0.054736294 0.11568654 -0.24935886 -0.5321539 -0.53442824 -0.10206661
-0.04705016 -0.24826194 -0.15136026 -0.16719967 -0.5161562 0.077843755 -0.20445588 -0.36182234
-0.5309571 -0.58737874 -0.08370231 -0.1410361 0.07839646 0.3810677 -0.2627189 -0.46339163
-0.0005178707 0.36015907 0.075120255 -0.12858275 -0.12496367 -0.17397565 -0.6899587 -0.22148094
00000000: c94f 4fbd 52c2 a8be b2fa 07bf 742f f4be
00000010: db64 093d 6071 11be 942a 9cbe 18ba 633e
00000020: 5957 ca3e 54fa 32bd a58f ce3d 1764 433d
00000030: 3ba4 3ebe 2c85 6dbd 2f5f a1bd 318f 8fbd
00000040: 8ea2 fdbd 4c63 0bbf bc55 1abf 6fb8 87bd
00000050: 8018 4bbe d4b5 2b3e d831 fbbd 652d 13bf
00000060: 746d 0cbe ea2d 693e 9eb5 bdbd 1f51 8f3e
00000070: 5e72 28bf ec02 a4bd b741 573e 7b9e 2cbe
00000080: faf2 febe bb92 4cbe 2a33 603d 11ed ec3d
00000090: ee57 7fbe 3d3b 08bf 4ad0 08bf 4c08 d1bd
000000a0: abb7 40bd 6138 7ebe 2ffe 1abe 6436 2bbe
000000b0: d022 04bf 8c6c 9f3d e25c 51be c740 b9be
000000c0: ceec 07bf 745e 16bf 1e6c abbd c46b 10be
000000d0: 538e a03d 4e1b c33e 1783 86be ab41 edbe
000000e0: b7c1 07ba c566 b83e a6d8 993d 32ab 03be
000000f0: f4ec ffbd ac26 32be 22a1 30bf e6cb 62be

gnn_list.0.nn.2.weight f4 [64, 64]
0.40202585 0.635372 0.112247065 0.23328096 -0.4455216 0.034547206 0.009239161 0.121042415
0.18469095 -0.08878667 0.012550817 0.17296925 -0.18173549 -0.0934534 0.14647166 -0.035279874
-0.21189894 -0.047702014 0.4812519 0.014056031 0.11089124 0.19268505 -0.053727824 0.35127792
0.13379511 -0.56556773 -0.7621828 -0.48874512 0.0901116 0.63295436 -0.2817096 0.5437388
0.70781386 0.594843 -0.23261882 0.6821015 0.4518461 -0.39949033 0.51780695 0.3322326
0.49734536 0.49824315 0.12236144 -0.029590653 0.45959157 0.4913373 0.14595099 0.08561198
0.33126464 0.18582347 -0.3690002 0.5964651 0.6263549 0.43286708 0.27749896 0.17740518
0.5833485 0.16895492 0.23976687 0.056659307 0.29856783 -0.37257278 0.17600077 0.052236937
-0.19359387 -0.69042057 -0.1191584 0.20954886 -1.0793405 -0.037651468 0.13728693 0.11612455
-0.3153713 -0.1989323 -0.08027938 0.23152386 -0.05379728 -0.09076441 0.014575368 -0.032999888
-0.0054966854 0.15699455 -0.4434268 -0.10294287 0.160084 -0.02595334 -0.08304993 -0.25347975
-0.16915974 -0.1569549 -0.22093052 0.3129122 -0.6917961 -0.28320542 -0.018401675 0.67496586
0.1740333 -0.16209984 0.09460796 -0.8895938 -0.20799708 0.1594989 0.08886029 -0.60130376
-0.58397436 -0.3526076 -0.46856263 0.034206335 0.26260015 -0.11590638 0.04696329 -0.012066762
-0.43108895 9.014856e-05 -0.45497876 -0.19035673 0.04534384 -0.19641756 -0.76977676 -0.32842565
0.20475952 -0.64425707 -0.45724118 -0.1739702 0.07847217 -0.040027633 -1.4675164 0.08485007
-0.12381368 -0.4681248 -0.100626454 0.03356555 -0.27757958 0.009985035 0.49259967 0.065468945
0.072353855 0.05819258 0.1733975 -0.02110597 -0.07073347 0.015716115 0.15556408 0.004910919
0.6733292 0.2754934 -0.610115 0.03765699 -0.05893613 -0.37491375 -0.6930643 -0.033688
-0.09523029 0.00013050351 1.0702678 0.61509126 -0.84278256 -0.023437519 0.04926313 -0.5057527
-0.28990585 0.34201294 -0.27752572 0.36478588 0.49227864 0.31338722 0.01604071 -0.36866254
-0.44539487 -0.0735283 0.30689383 -0.04230819 0.38978797 -0.42673507 0.22296025 -0.3974458
-0.054682046 -0.28252345 -0.2834127 0.05497137 -0.31463888 -0.35625806 -0.33131665 -0.034829743
-0.064313374 -0.069355816 -0.2790906 0.2075719 -0.5868496 0.21194711 -0.35691923 -0.037393514
-0.6029028 -0.25004867 0.15197806 0.15144892 0.13369909 -0.09751502 -0.682605 0.33568555
0.5796013 -0.4429486 0.16034423 0.46736875 -0.053027924 -0.10775326 0.44748122 -0.052316945
-0.22192062 -0.32075176 0.03250744 -0.015775774 0.16369675 0.29041857 0.58269715 -0.11529352
0.39935777 0.10863866 -0.43422088 0.18736371 0.05425176 0.14911151 0.055568017 0.59393775
0.35328177 -0.11927474 0.17536049 -0.27922308 0.33106467 -0.062174805 -0.010976454 0.30369183
0.15520178 0.7157572 -0.3275166 -0.09368719 -0.16225079 -1.0639849 0.066159405 -0.2754995
-0.40920714 0.09567901 0.2584263 -0.10612006 0.21386603 0.19316375 0.22800857 -0.029835127
0.08423486 0.34576005 0.5172848 0.09379354 -0.1213498 0.27291578 -0.1891055 0.027801964
00000000: 55d6 cd3e bda7 223f cae1 e53d 34e1 6e3e
00000010: 681b e4be 5f81 0d3d da5f 173c 16e5 f73d
00000020: a01f 3d3e c9d5 b5bd f1a1 4d3c da1e 313e
00000030: de18 3abe 7f64 bfbd abfc 153e a181 10bd
00000040: 09fc 58be 3063 43bd a666 f63e 444b 663c
00000050: f21a e33d 3b4f 453e b511 5cbd b3da b33e
00000060: 9601 093e 0cc9 10bf 691e 43bf cd3c fabe
00000070: 6e8c b83d 4c09 223f 3e3c 90be 7732 0b3f
00000080: 4a33 353f a147 183f a133 6ebe 349e 2e3f
00000090: 5f58 e73e ff89 ccbe ff8e 043f 641a aa3e
000000a0: 0da4 fe3e ba19 ff3e a298 fa3d 1968 f2bc
000000b0: 964f eb3e 9090 fb3e 2d74 153e 5555 af3d
000000c0: 859b a93e 8248 3e3e 98ed bcbe f0b1 183f
000000d0: cb58 203f c1a0 dd3e 5814 8e3e b4a9 353e
000000e0: 5456 153f 8502 2d3e 7285 753e 9713 683d
000000f0: e2dd 983e dcc1 bebe 8c39 343e 66f6 553d
00000100: 793d 46be 67bf 30bf 5209 f4bd fa93 563e
00000110: d427 8abf 6d38 1abd f294 0c3e b5d2 ed3d
00000120: 5978 a1be e9b4 4bbe 8469 a4bd 9714 6d3e
00000130: 895a 5cbd b1e2 b9bd 86cd 6e3c e42a 07bd
00000140: 8a1d b4bb 2ec3 203e d608 e3be b6d3 d2bd
00000150: 0fed 233e 199c d4bc 1516 aabd 19c8 81be
00000160: 3638 2dbe c9b8 20be 9c3b 62be 0736 a03e
00000170: 8d19 31bf 4d00 91be 1cbf 96bc 90ca 2c3f
00000180: c935 323e 80fd 25be d1c1 c13d 6bbc 63bf
00000190: 30fd 54be ae53 233e 62fc b53d 0bef 19bf
000001a0: 587f 15bf fc88 b4be 71e7 efbe f11b 0c3d
000001b0: 8773 863e 5360 edbd 945c 403d abb3 45bc
000001c0: b1b7 dcbe 240e bd38 faf2 e8be e0ec 42be
000001d0: 76ba 393d af21 49be 1710 45bf 6827 a8be
000001e0: 7bac 513e 08ee 24bf 841b eabe 3e25 32be
000001f0: 04b6 a03d 04f4 23bd 94d7 bbbf e0c5 ad3d
00000200: 0792 fdbd 0eae efbe 3e15 cebd 087c 093d
00000210: e91e 8ebe 4698 233c 0636 fc3e 9514 863d
00000220: 422e 943d 585b 6e3d 1d8f 313e 6de6 acbc
00000230: b6dc 90bd 15bf 803c 314c 1f3e c6eb a03b
00000240: 4d5f 2c3f 790d 8d3e 7f30 1cbf 373e 1a3d
00000250: 0367 71bd b2f4 bfbe a96c 31bf 6efc 09bd
00000260: 1908 c3bd c5d7 0839 89fe 883f 9f76 1d3f
00000270: 99c0 57bf 0a00 c0bc 23c8 493d 0279 01bf
00000280: 8a6e 94be 521c af3e da17 8ebe 37c5 ba3e
00000290: f20b fc3e 4a74 a03e cf67 833c 56c1 bcbe
000002a0: cc0a e4be 0196 96bd 3021 9d3e 5a4b 2dbd
000002b0: 4a92 c73e 057d dabe b14f 643e 047e cbbe
000002c0: 48fa 5fbd eaa6 90be 781b 91be a929 613d
000002d0: 5918 a1be 7567 b6be 56a2 a9be a2a9 0ebd
000002e0: bbb6 83bd 6c0a 8ebd f7e4 8ebe ba8d 543e
000002f0: c63b 16bf aa08 593e 1ebe b6be f129 19bd
00000300: d757 1abf 6106 80be 23a0 1b3e 6d15 1b3e
00000310: 6ae8 083e f4b5 c7bd 34bf 2ebf fade ab3e
00000320: c060 143f 29ca e2be 4731 243e f54a ef3e
00000330: cf33 59bd bead dcbd 421c e53e 4b4a 56bd
00000340: 293f 63be 9339 a4be 8526 053d 323c 81bc
00000350: 1fa0 273e beb1 943e a42b 153f 021f ecbd
00000360: 9f78 cc3e f27d de3d 3352 debe 46dc 3f3e
00000370: 1837 5e3d b0b0 183e 4a9b 633d 4e0c 183f
00000380: 59e1 b43e 5146 f4bd b391 333e 54f6 8ebe
00000390: 4f81 a93e 02ab 7ebd 96d6 33bc 7f7d 9b3e
000003a0: 37ed 1e3e dd3b 373f 41b0 a7be 12df bfbd
000003b0: 1225 26be a830 88bf 957e 873d 450e 8dbe
000003c0: 9983 d1be 5bf3 c33d 7450 843e 7955 d9bd
000003d0: b2ff 5a3e b8cc 453e 147b 693e cc68 f4bc
000003e0: 5483 ac3d 7607 b13e c76c 043f d416 c03d
000003f0: 3e86 f8bd 9ebb 8b3e dfa4 41be f2c0 e33c

gnn_list.0.nn.2.bias f4 [64]
0.024189206 -0.45267603 -0.3075998 0.06159569 0.16749823 -0.20985502 -0.22709824 -0.33956623
0.04776377 -0.051803485 -0.07184451 -0.11312503 -0.19606794 -0.099438176 -0.026222002 0.1084268
-0.35920304 -0.08872536 0.019641241 -0.14732407 0.008588749 -0.090783976 -0.1880279 -0.122847825
-0.18596295 -0.26633763 -0.32816824 0.09639658 -0.040477026 -0.18169053 0.047292575 0.12117892
-0.033996355 0.03874346 0.10697487 -0.16619636 -0.45882615 -0.2261837 -0.18869856 -0.27967495
0.14962989 0.053194355 0.04474997 0.11640423 0.110215224 -0.110377096 -0.3400755 -0.12579149
-0.2497685 0.086328685 -0.15587525 0.11656756 -0.0056579346 0.13358591 -0.24523014 -0.028458063
0.07487924 -0.111262426 0.13631588 0.0011779619 -0.1080763 0.060617827 -0.2333222 -0.06464806
00000000: 7128 c63c 27c5 e7be b97d 9dbe c34b 7c3d
00000010: a884 2b3e 3ce4 56be 718c 68be a0db adbe
00000020: f1a3 433d e42f 54bd 3723 93bd 19ae e7bd
00000030: 09c6 48be 3ea6 cbbd 86cf d6bc df0e de3d
00000040: 76e9 b7be a4b5 b5bd abe6 a03c 1fdc 16be
00000050: d3b7 0c3c f3ec b9bd 638a 40be a497 fbbd
00000060: 126d 3ebe 685d 88be ab05 a8be 926b c53d
00000070: 3dcb 25bd 150d 3abe dcb5 413d a72c f83d
00000080: c33f 0bbd 76b1 1e3d a415 db3d 612f 2abe
00000090: 43eb eabe b39c 67be 323a 41be 8e31 8fbe
000000a0: 9438 193e 53e2 593d bf4b 373d 5765 ee3d
000000b0: 85b8 e13d 630d e2bd 601e aebe 7ccf 00be
000000c0: 50c3 7fbe 18cd b03d c39d 1fbe f9ba ee3d
000000d0: 3266 b9bb bfca 083e 9c1d 7bbe e220 e9bc
000000e0: 495a 993d 8edd e3bd 6496 0b3e d865 9a3a
000000f0: 1b57 ddbd 664a 783d 04ec 6ebe 3466 84bd

gnn_list.0.nn.3.weight f4 [64]
0.5697623 0.3682767 0.40305 0.66407996 0.40331036 0.5970745 0.42277277 0.7276926
0.56309104 0.35473612 0.5881371 0.41151133 0.37949744 0.5571463 0.6173536 0.37648278
0.5124302 0.34520754 0.54716325 0.4030941 0.43954492 0.39812863 0.27649695 0.6033118
0.5635936 0.44835865 0.59808415 0.5446867 0.39145136 0.29517406 0.5699975 0.45548698
0.3975032 0.53142375 0.45780554 0.64020747 0.7689266 0.73359585 0.3670517 0.5934047
0.3301563 0.28545865 0.39823535 0.5254036 0.6845948 0.4680667 0.4270907 0.3860141
0.6002864 0.42576963 0.56317014 0.50261146 0.4467131 0.80871606 0.29355818 0.5840722
0.44005415 0.335203 0.30125377 0.35740092 0.4946227 0.3283687 0.53131205 0.23208813
00000000: f1db 113f c38e bc3e 925c ce3e 2501 2a3f
00000010: b27e ce3e e0d9 183f ac75 d83e 104a 3a3f
00000020: bc26 103f f99f b53e 2790 163f 9db1 d23e
00000030: 7d4d c23e 24a1 0e3f e30a 1e3f 5ac2 c03e
00000040: a02e 033f 0bbf b03e e412 0c3f 5a62 ce3e
00000050: 080c e13e 84d7 cb3e 0291 8d3e a472 1a3f
00000060: ac47 103f 448f e53e 0b1c 193f 9670 0b3f
00000070: 506c c83e 0e21 973e 5beb 113f 9735 e93e
00000080: 8a85 cb3e 630b 083f 7d65 ea3e a3e4 233f
00000090: 60d8 443f f0cc 3b3f 33ee bb3e 5fe9 173f
000000a0: 3f0a a93e a327 923e 81e5 cb3e da80 063f
000000b0: 9b41 2f3f 70a6 ef3e a2ab da3e a4a3 c53e
000000c0: 5fac 193f 7afe d93e eb2b 103f 25ab 003f
000000d0: 94b7 e43e 0408 4f3f 424d 963e c185 153f
000000e0: c74e e13e ba9f ab3e ef3d 9a3e 41fd b63e
000000f0: 303f fd3e f11f a83e 1104 083f 83a8 6d3e

gnn_list.0.nn.3.bias f4 [64]
-0.4747749 -0.09493185 -0.112878285 -0.13362414 -0.3049122 -0.0025698422 -0.3918057 -0.28093368
-0.13244498 -0.26609433 -0.25582588 -0.376786 -0.14302857 -0.15593112 -0.42232373 -0.2687739
-0.51216274 -0.13658576 -0.47037926 -0.111584224 -0.17855461 -0.14446783 -0.19333355 -0.032956988
-0.23038463 -0.067685775 0.06028262 -0.17116907 -0.058499422 0.016753256 -0.17310874 -0.1692994
-0.21438476 -0.34834796 -0.024104621 -0.18642029 -0.10243173 -0.1652109 -0.08493937 -0.08492394
-0.09483883 -0.16012305 -0.2784362 -0.07384379 -0.5678476 -0.020939637 -0.0450739 -0.082940556
-0.35195267 -0.26765925 -0.24934316 -0.44306675 -0.45132348 -0.26987183 -0.12307469 -0.23230207
-0.358127 0.043086946 -0.04888536 -0.21545814 -0.17833301 -0.1769044 0.041259952 -0.17228994
00000000: b215 f3be a16b c2bd bb2c e7bd c4d4 08be
00000010: 741d 9cbe cc6a 28bb c29a c8be 8ad6 8fbe
00000020: a89f 07be 843d 88be 9cfb 82be 18ea c0be
00000030: 1576 12be 68ac 1fbe d13a d8be bc9c 89be
00000040: 191d 03bf 23dd 0bbe 8dd5 f0be 4586 e4bd
00000050: 05d7 36be 60ef 13be 3bf9 45be e8fd 06bd
00000060: f3e9 6bbe d79e 8abd e9ea 763d f246 2fbe
00000070: 179d 6fbd 203e 893c 6b43 31be d25c 2dbe
00000080: ae87 5bbe aa5a b2be 0e77 c5bc f6e4 3ebe
00000090: bac7 d1bd 0c2d 29be b1f4 adbd 9aec adbd
000000a0: dc3a c2bd 4cf7 23be 318f 8ebe 6a3b 97bd
000000b0: 765e 11bf 9a89 abbc 699f 38bd bddc a9bd
000000c0: 2433 b4be a20a 89be d053 7fbe a5d9 e2be
000000d0: df13 e7be a42c 8abe 950e fcbd 98e0 6dbe
000000e0: 6c5c b7be f07b 303d 043c 48bd 0fa1 5cbe
000000f0: ee9c 36be 6d26 35be 3200 293d c66c 30be

gnn_list.0.nn.3.running_mean f4 [64]
5.143837 -5.7055 -5.208743 1.2829405 2.998564 -4.8457513 -3.5250602 7.082713
6.8982315 0.6582313 0.26963168 -3.739372 0.43149543 -4.099131 3.3630972 4.2149673
5.9782033 -3.1570296 1.1061215 0.8373952 -2.2081568 1.7888294 -6.458053 -3.7383595
-6.765506 -5.08828 -5.561265 -3.4676473 -3.0685816 -4.0359287 -3.0617175 -0.66743696
-3.199211 0.32235602 -0.8912335 1.5052516 -8.017936 6.51453 -5.1573443 -7.6349277
-1.8082083 -1.5076308 -1.4266834 1.6194166 3.0991073 -3.770367 -3.002002 1.7457293
3.6942923 0.62451977 -0.5739232 -0.21920455 0.7287788 -0.21918789 -3.3741724 -0.101046585
0.738509 -3.1998165 -0.8984434 -0.49573973 4.1334434 -2.7125351 -5.385938 0.0037456967
00000000: 509a a440 7593 b6c0 06ae a6c0 6537 a43f
00000010: 79e8 3f40 6510 9bc0 969a 61c0 96a5 e240
00000020: 50be dc40 d981 283f 2a0d 8a3e df51 6fc0
00000030: f8ec dc3e 152c 83c0 fc3c 5740 03e1 8640
00000040: 714d bf40 c60c 4ac0 6495 8d3f 885f 563f
00000050: 7152 0dc0 5df8 e43f 5fa8 cec0 4841 6fc0
00000060: 067f d8c0 31d3 a2c0 e2f5 b1c0 efed 5dc0
00000070: a463 44c0 5426 81c0 2ef3 43c0 26dd 2abf
00000080: dfbf 4cc0 d90b a53e e127 64bf 16ac c03f
00000090: 7749 00c1 0877 d040 f708 a5c0 5451 f4c0
000000a0: 5f73 e7bf 0cfa c0bf 909d b6bf 0b49 cf3f
000000b0: c657 4640 b14d 71c0 cd20 40c0 0f74 df3f
000000c0: 496f 6c40 87e0 1f3f a1ec 12bf 2877 60be
000000d0: 3f91 3a3f ca72 60be 71f2 57c0 83f1 cebd
000000e0: ed0e 3d3f cbc9 4cc0 6300 66bf 99d1 fdbe
000000f0: 2b45 8440 2d9a 2dc0 9b59 acc0 5d7a 753b

gnn_list.0.nn.3.running_var f4 [64]
3.513453 2.6097217 3.0610237 1.6970687 1.6823853 2.647293 1.6688291 4.5032105
4.869298 2.0710778 1.3590245 1.2319021 2.7926292 2.7981951 3.3172185 1.8561078
3.0736725 1.1992009 1.9165865 3.4701672 1.6663524 2.4150968 2.424025 2.550925
3.965652 2.572928 2.8986657 3.2419887 2.3219326 2.3287609 2.509091 0.8247134
1.0991012 2.9216905 2.6581554 2.9604688 5.3036704 4.854142 3.2328866 4.6617
2.6529167 1.2073988 3.0084157 4.561572 1.315064 1.551923 1.9623395 5.05699
3.6850379 2.8054664 3.6362429 1.1229954 0.86397874 1.5574772 2.094296 1.753814
1.8714614 3.1451385 2.6399655 1.4712396 1.761692 2.115209 2.846137 1.0147243
00000000: 6adc 6040 ae05 2740 d0e7 4340 8c39 d93f
00000010: 6758 d73f 406d 2940 319c d53f 4d1a 9040
00000020: 4ad1 9b40 8a8c 0440 84f4 ad3f f8ae 9d3f
00000030: 70ba 3240 a115 3340 4f4d 5440 f194 ed3f
00000040: 0db7 4440 6a7f 993f b552 f53f 3817 5e40
00000050: 094b d53f f290 1a40 3a23 1b40 5b42 2340
00000060: 3ecd 7d40 daaa 2440 bd83 3940 be7c 4f40
00000070: 8b9a 1440 6b0a 1540 f294 2040 6b20 533f
00000080: 59af 8c3f fafc 3a40 381f 2a40 5278 3d40
00000090: abb7 a940 2255 9b40 9de7 4e40 a52c 9540
000000a0: 63c9 2940 0b8c 9a3f e289 4040 66f8 9140
000000b0: 0454 a83f 6aa5 c63f f12d fb3f ddd2 a140
000000c0: a9d7 6b40 c38c 3340 34b8 6840 50be 8f3f
000000d0: b62d 5d3f 6a5b c73f f208 0640 fa7c e03f
000000e0: 0c8c ef3f f349 4940 32f5 2840 9451 bc3f
000000f0: 207f e13f 965f 0740 1c27 3640 7ce2 813f

gnn_list.1.nn.0.weight f4 [64, 64]
0.12999414 -0.10236226 -0.4865882 0.20637336 -0.16212456 0.39863375 -0.6083713 0.25419128
-0.006084006 -0.050060607 -1.6976376 -0.5361417 0.16290642 -0.19864014 0.18177366 -0.15993838
0.32284227 0.2601207 -0.13962261 0.22756957 -0.15518732 0.21478553 -0.10631444 0.34040675
-0.17410056 -0.039293624 0.31138238 -0.42757097 0.20720236 -0.86987454 -1.5332166 -0.7063653
-0.297618 -0.08746083 0.32595608 0.107947156 0.06421607 0.1803947 -0.95215076 0.1735711
-0.106680125 0.16898486 -0.9182592 -0.027492194 -0.07146334 -0.44369102 -0.44851124 -0.095196985
0.12089204 -0.09062949 -0.12169954 -0.52897894 0.05650488 0.26263213 -0.3546146 0.073935166
-0.2883557 -1.0778625 0.09762796 -0.2611356 0.039991423 -1.1286525 0.35401747 -0.7115305
-0.06459022 0.10727175 0.035644308 -0.1497884 0.028324291 -0.07758131 -0.014084763 -0.048263114
-0.15540403 0.0033660638 -0.04841228 0.055337843 0.024651319 -0.08186611 0.0065580388 -0.053662274
-0.086884 -0.031611513 -0.13264194 -0.021590259 -0.14654759 -0.19052193 -0.1468089 -0.055509884
-0.0761762 0.049302347 -0.1422309 -0.11448112 -0.11308739 -0.14114426 0.098184936 -0.0466611
0.0073287683 0.016989913 0.0326536 -0.12300869 -0.08607401 -0.08324665 -0.0055676233 -0.1484346
-0.12754817 0.054650757 0.05808715 -0.15957536 -0.13220374 0.03303026 -0.04268023 0.019599773
-0.13129242 -0.015423589 -0.053020254 -0.071628734 -0.18166758 -0.05026727 0.039315216 -0.1644716
-0.014253066 0.061321735 0.020188875 -0.056463502 0.0710209 -0.048945807 0.10727557 0.024656408
-0.27305272 0.14980493 -0.10796251 -0.64070594 -0.23523779 0.013821639 -0.051292725 0.41300032
0.21844728 -0.029757204 0.110230684 0.22547038 0.34632465 -0.08276357 0.14897324 -0.5133805
0.32849103 -0.1452089 0.45528215 0.16981705 0.13928719 0.0370073 0.27279922 -0.6577058
0.04042565 -0.24407615 -1.067855 -0.37087247 -0.07091386 0.34215346 0.25421512 0.16123246
0.4625247 0.6597732 -0.54448587 -0.08252131 0.13842352 0.35479084 -0.06182808 -0.0019922936
-0.19403999 -0.040219836 -0.1069517 0.017152952 -0.37765393 -0.39524922 0.22434975 0.2484377
0.49010077 0.04061119 0.022060405 0.059341405 -0.15789467 0.5823021 -0.017099349 -0.64772916
-0.03890184 0.1504288 0.28616247 0.20470226 0.2933599 0.13491239 -0.12520266 -0.079606965
0.08996316 -1.043396 -0.21282408 0.17504275 0.2801153 -1.0333254 -0.1892744 0.26270297
0.43998194 -0.09488878 0.33167318 -0.6222337 0.409531 -0.32997078 0.2701284 -0.3021727
0.16205429 -1.0216635 -0.059720445 0.16047858 -0.13286495 0.13076209 -0.5997682 -1.2662523
-0.31140497 -0.40813854 -0.4817031 -0.20130782 -0.83232903 0.5623331 0.30979192 0.21201043
0.28710762 0.24986658 -0.6186347 -0.55186373 -0.3917686 0.06295456 -0.262096 -0.6499386
-0.58981454 -0.90094244 -1.2392043 0.35575795 -0.1398325 -0.106609754 0.19156784 0.18897463
0.26538134 0.19946767 -0.028877389 0.25588197 0.052802894 -0.03274526 -0.15123892 -0.4658516
0.33792654 0.36449942 0.05594278 0.21258286 0.17070307 0.08058568 -0.9108488 0.4690983
00000000: 2f1d 053e 4ea3 d1bd 1722 f9be 8a53 533e
00000010: fb03 26be b919 cc3e 39be 1bbf 5c25 823e
00000020: 575c c7bb 5a0c 4dbd 304c d9bf 9540 09bf
00000030: f1d0 263e 5268 4bbe e022 3a3e e3c6 23be
00000040: 954b a53e 8a2e 853e 3bf9 0ebe ff07 693e
00000050: 6de9 1ebe bdf0 5b3e 63bb d9bd cb49 ae3e
00000060: 6b47 32be 5af2 20bd 836d 9f3e 95ea dabe
00000070: db2c 543e 19b0 5ebf 7140 c4bf 5bd4 34bf
00000080: 6361 98be aa1e b3bd b7e3 a63e 6613 dd3d
00000090: b783 833d 63b9 383e 27c0 73bf 9fbc 313e
000000a0: 1c7b dabd 5e0a 2d3e 0913 6bbf 4f37 e1bc
000000b0: 5f5b 92bd 782b e3be 44a3 e5be a3f6 c2bd
000000c0: 3f96 f73d f49b b9bd 9c3d f9bd 2a6b 07bf
000000d0: a971 673d b877 863e 0b90 b5be 526b 973d
000000e0: 5ca3 93be 66f7 89bf 2bf1 c73d 91b3 85be
000000f0: 0cce 233d af77 90bf c741 b53e dd26 36bf
00000100: e147 84bd 4bb1 db3d c4ff 113d 2162 19be
00000110: 5808 e83c f3e2 9ebd c7c3 66bc 8baf 45bd
00000120: 3c22 1fbe 2e99 5c3b f44b 46bd efa9 623d
00000130: 90f1 c93c 6ba9 a7bd d1e4 d63b f9cc 5bbd
00000140: 3df0 b1bd 137b 01bd 4ad3 07be 0ede b0bc
00000150: 9210 16be 2e18 43be 1355 16be 555e 63bd
00000160: 4402 9cbd 42f1 493d faa4 11be 1475 eabd
00000170: 5d9a e7bd 1f88 10be 2f15 c93d b61f 3fbd
00000180: 2a26 f03b 6e2e 8b3c c8bf 053d fbeb fbbd
00000190: 9247 b0bd 387d aabd 9c70 b6bb 3dff 17be
000001a0: fd9b 02be 79d9 5f3d cbec 6d3d b967 23be
000001b0: 6b60 07be bd4a 073d 77d1 2ebd b48f a03c
000001c0: 8571 06be 39b3 7cbc c42b 59bd 16b2 92bd
000001d0: 1107 3abe 0ee5 4dbd fe08 213d 3e6b 28be
000001e0: b185 69bc 802c 7b3d 2463 a53c 4646 67bd
000001f0: 6873 913d 667b 48bd 4bb3 db3d 3cfc c93c
00000200: 91cd 8bbe 7766 193e 731b ddbd 4e05 24bf
00000210: 2de2 70be 2874 623c 5218 52bd c774 d33e
00000220: a5b0 5f3e 61c5 f3bc a0c0 e13d b5e1 663e
00000230: 7751 b13e f27f a9bd 718c 183e e86c 03bf
00000240: fa2f a83e a4b1 14be be1a e93e 85e4 2d3e
00000250: 4da1 0e3e f794 173d 57ac 8b3e 685f 28bf
00000260: 5e95 253d 19ef 79be 79af 88bf ffe2 bdbe
00000270: 493b 91bd bd2e af3e 7c28 823e 1f1a 253e
00000280: 0ad0 ec3e e5e6 283f 6d63 0bbf ef00 a9bd
00000290: e5be 0d3e 25a7 b53e 713f 7dbd 2491 02bb
000002a0: 6bb2 46be 8ebd 24bd 7e09 dbbd 5984 8c3c
000002b0: db5b c1be 1b5e cabe f1bb 653e 7466 7e3e
000002c0: 7dee fa3e eb57 263d 06b8 b43c f90f 733d
000002d0: 24af 21be c011 153f ef13 8cbc 94d1 25bf
000002e0: 8957 1fbd 020a 1a3e e383 923e 789d 513e
000002f0: 4533 963e 7926 0a3e 2035 00be fa08 a3bd
00000300: 9b3e b83d 008e 85bf 8eee 59be 683e 333e
00000310: 466b 8f3e 0244 84bf 26d1 41be 0181 863e
00000320: 5045 e13e 0c55 c2bd 11d1 a93e b54a 1fbf
00000330: 0cae d13e eef1 a8be 454e 8a3e 61b6 9abe
00000340: 8ff1 253e dfc5 82bf 6d9d 74bd 7f54 243e
00000350: c00d 08be 7fe6 053e 698a 19bf 8e14 a2bf
00000360: 7970 9fbe 89f7 d0be caa1 f6be a323 4ebe
00000370: 8413 55bf 10f5 0f3f 0c9d 9e3e 4319 593e
00000380: c5ff 923e 06dd 7f3e d85e 1ebf f146 0dbf
00000390: e595 c8be 52ee 803d 7231 86be 6062 26bf
000003a0: 16fe 16bf 2aa4 66bf 3f9e 9ebf e825 b63e
000003b0: 4030 0fbe 3756 dabd 5c2a 443e 9182 413e
000003c0: 10e0 873e 4141 4c3e 4690 ecbc f602 833e
000003d0: d947 583d e51f 06bd 60de 1abe 1a84 eebe
000003e0: b504 ad3e ab9f ba3e 4224 653d 52af 593e
000003f0: c9cc 2e3e 1b0a a53d 632d 69bf a72d f03e

gnn_list.1.nn.0.bias f4 [64]
0.3108503 -0.020823175 -0.2189904 0.12917371 0.17829311 -0.053899102 -0.13498138 0.21785313
-0.21128006 0.04586433 0.39570194 -0.4394012 0.23402566 -0.036733016 0.106912084 0.29225296
0.2790602 0.11126233 -0.12833683 -0.13752428 -0.023132127 -0.16609412 -0.3342501 0.12312675
0.18680386 -0.076608345 0.014568159 0.71828187 0.23677087 0.34873512 -0.029143797 -0.1449449
-0.15300451 -0.06948636 -0.12866731 -0.25462452 -0.12585866 0.0001360316 0.26271188 0.2661859
0.1630397 -0.17866714 0.17482127 0.32066795 0.20269127 -0.08123435 0.16348116 -0.031417783
-0.13253888 -0.4385626 -0.06614089 0.16645399 0.16173884 0.15565367 -0.2913884 -0.14416192
-0.6754321 0.1939257 -0.1209111 0.004559224 -0.07563222 -0.09290845 0.033078495 0.1258102
00000000: c527 9f3e 5d95 aabc 053f 60be 1d46 043e
00000010: 7892 363e 4ec5 5cbd 8f38 0abe e414 5f3e
00000020: cd59 58be 3cdc 3b3d 7299 ca3e 32f9 e0be
00000030: 6ca4 6f3e 5c75 16bd b9f4 da3d 2ea2 953e
00000040: fbe0 8e3e 81dd e33d bb6a 03be 2ad3 0cbe
00000050: 967f bdbc 9414 2abe d422 abbe e129 fc3d
00000060: 8349 3f3e d6e4 9cbd 4aaf 6e3c 52e1 373f
00000070: 1074 723e 698d b23e f9be eebc 706c 14be
00000080: 37ad 1cbe dd4e 8ebd 5dc1 03be 255e 82be
00000090: 18e1 00be b4a3 0e39 2c82 863e 8549 883e
000000a0: e1f3 263e 85f4 36be 5904 333e 972e a43e
000000b0: 4d8e 4f3e 325e a6bd 9b67 273e efaf 00bd
000000c0: 46b8 07be 478b e0be e074 87bd ea72 2a3e
000000d0: de9e 253e ad63 1f3e dc30 95be 2f9f 13be
000000e0: 1ee9 2cbf 7594 463e 3da0 f7bd 8b65 953b
000000f0: 11e5 9abd c946 bebd 517d 073d 64d4 003e

gnn_list.1.nn.2.weight f4 [64, 64]
0.4497287 -0.016683564 -0.4700484 0.033679422 0.35930592 0.03969278 0.030203557 0.14282541
-0.043938383 -0.049439505 0.25205076 -0.0610286 -0.19161154 -0.097029164 -0.0192284 -0.11356174
0.37762752 0.3018786 -0.16093922 -0.017066209 -0.12276866 -0.28449443 0.0005848861 0.14589715
0.27326208 -0.092757285 0.023760026 -0.41396442 -0.010021583 0.21044947 0.068275824 -0.7402421
0.0696967 -0.20434166 -0.005575193 -0.28145355 -0.25497103 0.33815685 -0.5574401 -0.21193609
0.3961038 -0.33563823 -0.24266946 0.19287148 0.27317846 0.06641877 0.04136456 -0.0544272
-0.26734924 0.036936462 -0.3170567 0.3443283 -0.45991665 0.0582863 -0.9300594 -0.06461264
-0.5143885 -1.3881917 0.1067765 -0.23776475 0.025120601 -0.53960073 0.35376045 -0.17587988
-0.4083465 -0.0812322 -0.16822079 0.13249883 0.368534 0.0525513 0.09614452 0.1091201
-0.2391959 -0.032590233 0.19199942 -0.41593096 -0.4424887 -0.05748024 0.2684086 0.33362567
0.06155595 0.016514089 -0.046885412 -0.14078252 -0.023762295 -0.61928785 0.19683658 0.25242522
-0.46515572 0.0111307455 -0.09989347 -0.018616358 0.015150257 0.1851344 0.09298668 0.16202061
-0.13626046 -0.045712933 -0.13165177 -0.01271446 0.33380392 0.20280634 -0.2972998 -0.5655387
0.14015576 -0.33342308 -0.451433 -0.36228278 -0.12188856 -0.1198655 -0.08131802 0.06743314
0.20090154 0.28476503 -0.44078282 0.038855646 0.4679192 0.33848298 -1.1761651 0.023672016
-0.08435244 -0.1454043 0.14666674 0.13965726 0.06080098 -0.14781821 -0.23641372 0.35190505
-0.24362828 -0.05334542 0.30531535 -0.40188035 -0.77333987 0.12521122 -0.09194612 -0.89168555
0.12098432 0.07593822 -0.24681123 -0.1383284 0.053823706 0.011518872 -0.17733815 -0.27409112
-0.0057450263 -0.34082374 -0.08233218 -0.14385135 -0.004882435 0.4043095 -0.21276475 0.07350732
-0.11282671 0.0030704278 0.030003019 0.21831313 -0.053935464 0.088619724 -0.049047302 0.5784173
-0.020071117 -0.21871622 0.105084054 -0.29418337 0.31279704 0.24144 0.59695834 -0.20246874
-0.26935694 -0.4287427 -0.68541425 -0.41102538 -0.061179034 0.09197385 -0.23961541 0.021598699
-0.0032981627 0.25168347 -0.27768466 0.48302567 0.48950595 -0.007956844 -0.3534255 0.0026900424
0.93509346 0.013553332 0.0921026 0.018715821 -0.076454915 0.22110008 -0.14586145 -0.08488229
-0.36906627 0.06418445 0.011072935 0.4924829 0.04631282 -0.11458463 0.016817074 0.09431168
0.056114744 -0.035778802 0.13679387 -0.61326265 -0.41901267 0.051810086 0.34333178 -0.37670726
-0.32979012 0.32704386 0.11780889 0.17703786 0.056084905 0.056177355 0.42505765 -0.51376224
-0.16976468 0.017787183 -0.030600023 -0.17320113 -0.63771456 -0.4566738 0.044701077 0.32825884
0.12582286 -0.15812293 -0.44602185 0.3271342 -0.553421 0.09832061 -0.90155756 -0.19255728
0.43557945 0.49128404 0.88988745 -0.2240936 -0.079503454 -0.062568374 0.42733893 -0.10764855
0.3991807 -0.30790594 -0.36022657 0.08302088 -0.03438631 -0.101265684 -0.26698563 -0.01717232
0.34385562 0.069935106 -0.039483238 0.6462133 -0.013495078 0.5445199 0.03396165 -0.3579688
00000000: d742 e63e f8ab 88bc 2faa f0be 6ff3 093d
00000010: f2f6 b73e e594 223d 736d f73c d340 123e
00000020: bcf8 33bd 1481 4abd cc0c 813e 20f9 79bd
00000030: d135 44be 3ab7 c6bd e184 9dbc 0f93 e8bd
00000040: 6558 c13e d58f 9a3e 40cd 24be 6fce 8bbc
00000050: 236e fbbd 41a9 91be 0b53 193a 1066 153e
00000060: 02e9 8b3e 88f7 bdbd 63a4 c23c 25f3 d3be
00000070: 9131 24bc 1180 573e 32d4 8b3d 8280 3dbf
00000080: 25bd 8e3d f13e 51be 1cb0 b6bb ae1a 90be
00000090: 908b 82be e522 ad3e 65b4 0ebf c605 59be
000000a0: 1ece ca3e c6d8 abbe 587e 78be 1a80 453e
000000b0: 0cde 8b3e 9006 883d e36d 293d 0eef 5ebd
000000c0: 00e2 88be b04a 173d 4155 a2be cd4b b03e
000000d0: 327a ebbe 9ebd 6e3d 5f18 6ebf a253 84bd
000000e0: f7ae 03bf 44b0 b1bf a3ad da3d 9a78 73be
000000f0: b8c9 cd3c 4623 0abf 1720 b53e db19 34be
00000100: cb12 d1be 115d a6bd 1242 2cbe c6ad 073e
00000110: 7db0 bc3e 0840 573d 6be7 c43d 5c7a df3d
00000120: c5ef 74be 567d 05bd 7f9b 443e e7f4 d4be
00000130: e18d e2be 6670 6bbd da6c 893e fcd0 aa3e
00000140: 1822 7c3d 8e48 873c eb0a 40bd 4b29 10be
00000150: 25a9 c2bc a689 1ebf 878f 493e e13d 813e
00000160: e428 eebe bb5d 363c f394 ccbd 5581 98bc
00000170: c938 783c df93 3d3e cd6f be3d bbe8 253e
00000180: dd87 0bbe 7c3d 3bbd b9cf 06be 4f50 50bc
00000190: 59e8 aa3e 77ac 4f3e ae37 98be 25c7 10bf
000001a0: fe84 0f3e 6eb6 aabe 3a22 e7be 217d b9be
000001b0: b6a0 f9bd 0b7c f5bd 108a a6bd 631a 8a3d
000001c0: 22b9 4d3e b9cc 913e 49ae e1be 1927 1f3d
000001d0: 1b93 ef3e a44d ad3e 948c 96bf d1eb c13c
000001e0: f9c0 acbd dde4 14be ce2f 163e 5002 0f3e
000001f0: 730a 793d a85d 17be 7016 72be e62c b43e
00000200: b179 79be ba80 5abd 4b52 9c3e 43c3 cdbe
00000210: 9af9 45bf 5f37 003e 3f4e bcbd 8145 64bf
00000220: a1c6 f73d 7f85 9b3d 15bc 7cbe f6a5 0dbe
00000230: 3f76 5c3d a7b9 3c3c 2298 35be ac55 8cbe
00000240: c640 bcbb 7380 aebe c69d a8bd c54d 13be
00000250: d5fc 9fbb a801 cf3e 01df 59be 018b 963d
00000260: b111 e7bd 3b39 493b e4c8 f53c 7a8d 5f3e
00000270: 6feb 5cbd 427e b53d d3e5 48bd 2813 143f
00000280: 2f6c a4bc 25f7 5fbe 4f36 d73d 349f 96be
00000290: ef26 a03e 0c3c 773e 43d2 183f f753 4fbe
000002a0: 27e9 89be 2a84 dbbe 4f77 2fbf eb71 d2be
000002b0: de96 7abd c95c bc3d be5d 75be c1ef b03c
000002c0: fd25 58bb a8dc 803e af2c 8ebe 244f f73e
000002d0: 86a0 fa3e 6c5d 02bc 30f4 b4be 6c4b 303b
000002e0: 4962 6f3f cb0e 5e3c 4aa0 bc3d ec51 993c
000002f0: 6594 9cbd 0f68 623e b45c 15be c4d6 adbd
00000300: 41f6 bcbe 2373 833d 416b 353c b826 fc3e
00000310: 83b2 3d3d 59ab eabd f6c3 893c 7b26 c13d
00000320: 93d8 653d cb8c 12bd b113 0c3e c8fe 1cbf
00000330: d488 d6be d036 543d 2fc9 af3e c6df c0be
00000340: 40da a8be 4b72 a73e ca45 f13d 6a49 353e
00000350: 49b9 653d 3a1a 663d 28a1 d93e ec85 03bf
00000360: cbd6 2dbe 6db6 913c e6ac fabc a35b 31be
00000370: 4341 23bf 26d1 e9be 7a18 373d 8b11 a83e
00000380: b5d7 003e faea 21be fa5c e4be 227e a73e
00000390: 00ad 0dbf 515c c93d 7acc 66bf bc2d 45be
000003a0: 4504 df3e 9589 fb3e aacf 633f cb78 65be
000003b0: b5d2 a2bd d923 80bd 2bcc da3e d876 dcbd
000003c0: 6a61 cc3e d9a5 9dbe 9e6f b8be da06 aa3d
000003d0: a9d8 0cbd 6264 cfbd 57b2 88be f7ac 8cbc
000003e0: d80d b03e 233a 8f3d 2db9 21bd 3c6e 253f
000003f0: 761a 5dbc a865 0b3f 5f1b 0b3d b047 b7be

gnn_list.1.nn.2.bias f4 [64]
0.083492614 0.059703384 -0.07198336 0.11555987 0.051955223 0.087843955 -0.059956517 -0.009396601
0.02344705 -0.10426295 -0.0038892962 -0.06043467 0.026144808 0.013727001 0.017752448 -0.05410925
0.09518399 -0.00245691 0.069914825 -0.06325445 0.041089244 0.12187444 -0.14540552 0.034750093
0.03082676 0.13642706 -0.008099717 -0.034524456 -0.008988415 0.107938066 0.16074751 -0.10971073
-0.004274608 -0.05525094 -0.04847561 -0.0560297 -0.014838891 0.10228205 -0.14182238 -0.1355607
-0.029171621 -0.11113643 0.023117285 0.1106918 0.06850626 0.103137985 0.0057225307 0.112759516
0.059228856 -0.10952157 0.054294266 -0.056040443 -0.023005957 0.060502566 -0.04357605 0.030423677
-0.12866308 0.042832766 0.11355996 0.021000754 -0.05153574 -0.10296682 0.074063554 -0.041242998
00000000: 2dfe aa3d 898b 743d 036c 93bd a7aa ec3d
00000010: 00cf 543d 88e7 b33d f794 75bd 33f4 19bc
00000020: 0714 c03c d087 d5bd 90e3 7ebb 588a 77bd
00000030: a32d d63c 37e7 603c 956d 913c a9a1 5dbd
00000040: d3ef c23d 1c04 21bb 812f 8f3d 8d8b 81bd
00000050: 324d 283d 4e99 f93d 2fe5 14be 1d56 0e3d
00000060: 6788 fc3c 89b3 0b3e adb4 04bc 8469 0dbd
00000070: 2544 13bc a20e dd3d ff9a 243e 05b0 e0bd
00000080: 0312 8cbb cf4e 62bd 5c8e 46bd 667f 65bd
00000090: d21e 73bc 4079 d13d e339 11be 6dd0 0abe
000000a0: 53f9 eebc 7f9b e3bd 7660 bd3c 62b2 e23d
000000b0: 034d 8c3d 023a d33d 1184 bb3b 76ee e63d
000000c0: f599 723d d84c e0bd aa63 5e3d aa8a 65bd
000000d0: fd76 bcbc 8ad1 773d cd7c 32bd 133b f93c
000000e0: 41c0 03be 6971 2f3d 2092 e83d c609 ac3c
000000f0: 2417 53bd 45e0 d2bd a2ae 973d 6bee 28bd

gnn_list.1.nn.3.weight f4 [64]
0.5933664 0.5861418 0.5236969 0.65112484 0.9311041 0.8144755 0.8361529 0.6362621
0.5087403 0.73925674 0.6391591 0.46225592 0.83950037 0.6130936 0.542793 0.7766898
0.4541721 0.63524854 0.9170168 0.5640561 0.7017807 0.8297835 0.68298656 0.7256635
0.5748059 0.64671606 0.5659961 0.88879704 0.9031988 0.64743316 0.8379486 0.6621826
0.5482129 0.7901893 0.7983683 0.6115625 0.592059 0.54355466 1.063959 0.700234
0.75911164 0.8372986 0.6692144 0.7840813 0.8067322 0.61807585 0.65289485 0.45708638
0.5880401 0.76875454 0.8185803 0.54406387 0.66344684 0.51199794 0.49391466 0.7814357
0.7560058 0.6004591 0.6850681 0.9612724 0.43569052 0.6186442 0.7276728 0.5715169
00000000: dce6 173f 640d 163f 0011 063f 1eb0 263f
00000010: d75c 6e3f 7781 503f 1e0e 563f 13e2 223f
00000020: ce3c 023f ee3f 3d3f ee9f 233f cfac ec3e
00000030: 7fe9 563f b4f3 1c3f 7bf4 0a3f 25d5 463f
00000040: 3f89 e83e a69f 223f 9dc1 6a3f fb65 103f
00000050: e6a7 333f b16c 543f 35d8 2e3f 15c5 393f
00000060: 7b26 133f 2f8f 253f 1fe5 103f 3488 633f
00000070: 0938 673f 2ebe 253f cd83 563f cd84 293f
00000080: ae57 0c3f d949 4a3f dd61 4c3f 5c8f 1c3f
00000090: 2e91 173f 6626 0b3f cf2f 883f 8942 333f
000000a0: 2455 423f 3359 563f a351 2b3f 8db9 483f
000000b0: 0086 4e3f 383a 1e3f 1e24 273f 3a07 ea3e
000000c0: cc89 163f 19cd 443f 7b8e 513f c547 0b3f
000000d0: a7d7 293f 4c12 033f 62e2 fc3e 2c0c 483f
000000e0: 9989 413f b0b7 193f 9f60 2f3f f315 763f
000000f0: d412 df3e 775f 1e3f c448 3a3f ee4e 123f

gnn_list.1.nn.3.bias f4 [64]
-0.23878889 -0.22667907 -0.3022393 -0.3728593 -0.76339644 -0.45154002 -0.095094755 -0.36957005
-0.1069308 -0.28789082 -0.07700275 -0.08807993 -0.5062674 -0.40468445 -0.23837762 -0.37634295
-0.25122634 -0.25466788 -0.28823948 -0.4308347 -0.36264154 -0.44704148 -0.08780867 -0.08388345
-0.38074124 -0.11839023 -0.094441436 -0.19525392 -0.4961213 -0.13972099 -0.3974776 -0.012925423
0.0052507096 -0.19763365 -0.3141842 -0.1903205 0.10637301 -0.14939624 -0.26001316 -0.22146252
-0.30595583 -0.35229266 -0.38347653 -0.29390895 -0.30029327 -0.14339656 -0.14217624 -0.11307835
-0.032211784 -0.10905053 -0.4900038 -0.20370086 -0.25470835 -0.31932142 -0.21579628 -0.5532579
-0.26765886 -0.33683938 -0.23386872 -0.45158866 -0.21838944 -0.40637502 -0.23419379 -0.14686176
00000000: 1385 74be 8f1e 68be 1cbf 9abe 6ae7 bebe
00000010: f36d 43bf 4130 e7be 0ac1 c2bd 4938 bdbe
00000020: 89fe dabd 6d66 93be 9eb3 9dbd 4063 b4bd
00000030: be9a 01bf cd32 cfbe 4319 74be 06b0 c0be
00000040: bda0 80be d463 82be 2094 93be 5e96 dcbe
00000050: 27ac b9be 9fe2 e4be 08d5 b3bd 16cb abbd
00000060: 84f0 c2be 9476 f2bd 836a c1bd a5f0 47be
00000070: 9c03 febe 0513 0fbe 2f82 cbbe 27c5 53bc
00000080: 250e ac3b 7a60 4abe c0dc a0be 61e3 42be
00000090: 18da d93d 54fb 18be 7220 85be 12c7 62be
000000a0: 3ea6 9cbe b45f b4be 0957 c4be 3c7b 96be
000000b0: 0ac0 99be 8cd6 12be a696 11be 9f95 e7bd
000000c0: 81f0 03bd e255 dfbd c7e1 fabe f596 50be
000000d0: 2269 82be 197e a3be b3f9 5cbe 4fa2 0dbf
000000e0: 950a 89be 3676 acbe 487b 6fbe a136 e7be
000000f0: 7ba1 5fbe 6310 d0be 7fd0 6fbe ee62 16be

gnn_list.1.nn.3.running_mean f4 [64]
-10.757054 -8.839118 2.256731 -7.7441864 4.1237965 7.148456 -12.481009 -3.6353436
-8.2646265 -3.5255826 1.2322813 -2.077608 2.3258486 -2.6443312 -2.4618187 1.3364775
-4.2179675 -9.159045 -8.056595 -2.552646 13.504516 9.166724 -5.8513813 -10.558175
1.4469845 -5.0954223 2.5598452 -2.940309 -6.7651834 -8.453444 -7.713525 -4.578876
-11.334144 -10.382852 -5.0068784 -3.0255084 6.497143 -0.6608481 -8.13802 4.6337247
-6.304626 1.1533604 1.2908036 11.439052 -4.0470076 2.8209345 -1.6517723 -0.16415307
-10.796162 -12.809669 -0.4267838 -5.752907 -3.9166121 -3.405273 -0.015532989 -5.072431
-6.381959 4.4174848 3.9033456 -6.8734856 -5.153111 9.193451 -9.797579 -0.48525593
00000000: e51c 2cc1 076d 0dc1 486e 1040 60d0 f7c0
00000010: 24f6 8340 27c0 e440 36b2 47c1 78a9 68c0
00000020: e93b 04c1 25a3 61c0 65bb 9d3f 88f7 04c0
00000030: b4da 1440 b93c 29c0 708e 1dc0 b211 ab3f
00000040: 97f9 86c0 738b 12c1 d0e7 00c1 8d5e 23c0
00000050: 7f12 5841 e7aa 1241 843e bbc0 49ee 28c1
00000060: ca36 b93f b30d a3c0 81d4 2340 062e 3cc0
00000070: 627c d8c0 4e41 07c1 32d5 f6c0 2786 92c0
00000080: a758 35c1 2920 26c1 5938 a0c0 eea1 41c0
00000090: 98e8 cf40 572d 29bf 5435 02c1 7947 9440
000000a0: 7fbf c9c0 50a1 933f 0d39 a53f 5b06 3741
000000b0: 1681 81c0 318a 3440 466d d3bf be17 28be
000000c0: 14bd 2cc1 67f4 4cc1 6883 dabe d017 b8c0
000000d0: c6a9 7ac0 feef 59c0 147e 7ebc 5b51 a2c0
000000e0: 0239 ccc0 095c 8d40 6ad0 7940 98f3 dbc0
000000f0: 49e6 a4c0 6018 1341 e2c2 1cc1 7773 f8be

gnn_list.1.nn.3.running_var f4 [64]
25.62565 18.07843 20.348633 24.816614 39.987965 34.763508 24.400606 19.204182
24.916368 19.656565 14.932449 12.389355 21.781454 19.265501 26.419312 31.791082
14.232951 19.635492 26.639029 12.83716 37.707523 29.447191 15.976612 42.648228
23.285349 19.258797 27.88761 39.82374 10.491983 47.13112 18.896692 25.337648
31.62058 24.054306 25.729427 15.030416 43.2771 30.819431 34.805214 22.148676
15.755206 22.513168 19.552418 26.956818 18.25656 39.111626 21.374357 25.58066
26.332592 59.09994 15.427463 26.128819 24.662575 17.24437 22.459333 31.127327
26.552103 16.544252 21.850744 47.01384 30.583536 22.571913 11.687527 25.96337
00000000: 5501 cd41 a0a0 9041 00ca a241 6d88 c641
00000010: adf3 1f42 d50d 0b42 7134 c341 2aa2 9941
00000020: b954 c741 a540 9d41 50eb 6e41 cc3a 4641
00000030: 6b40 ae41 bf1f 9a41 c05a d341 2354 fe41
00000040: 2bba 6341 7d15 9d41 bb1c d541 0265 4d41
00000050: 81d4 1642 d993 eb41 34a0 7f41 c997 2a42
00000060: 6548 ba41 0412 9a41 d319 df41 824b 1f42
00000070: 2adf 2741 4486 3c42 6d2c 9741 81b3 ca41
00000080: f3f6 fc41 386f c041 ded5 cd41 957c 7041
00000090: c01b 2d42 328e f641 8a38 0b42 7d30 b141
000000a0: 5315 7c41 f81a b441 5a6b 9c41 90a7 d741
000000b0: 6f0d 9241 4e72 1c42 affe aa41 31a5 cc41
000000c0: 26a9 d241 5766 6c42 e3d6 7641 d207 d141
000000d0: f44c c541 78f4 8941 b7ac b341 c404 f941
000000e0: b56a d441 a15a 8441 53ce ae41 2c0e 3c42
000000f0: 15ab f441 4793 b441 1c00 3b41 fbb4 cf41

gnn_list.2.nn.0.weight f4 [32, 64]
-1.9368697 0.14892827 -0.6470931 -0.66304505 0.15205495 0.41481856 -0.48879352 0.1668784
-0.07588729 0.18983041 0.12660232 -0.09642748 -0.67715114 -0.5388845 0.3400802 -0.12579617
0.5551259 0.85460246 0.18723175 -1.0523905 0.33879468 0.06425449 0.014210222 0.29569668
0.037139148 -0.35934776 0.1979295 -0.19031717 0.5400011 0.20695224 -0.8838419 0.4993233
0.26589528 -0.50071806 0.07785763 -1.0876156 0.29459116 -0.6380386 0.52929455 -0.39732018
-0.72350943 0.037138857 -0.43921074 0.28105885 -0.88698274 0.24975356 -0.10083438 0.31939027
-0.9218362 -0.098097354 -0.42624038 0.050869364 -0.16271693 -0.61078185 0.32522497 -0.7528803
0.27300683 0.026545204 0.02927205 -0.15467942 -0.33173436 0.3539585 -0.48385653 -0.6377361
-0.031622577 0.07825308 0.056719024 -0.10731218 0.008115368 -0.18590254 -0.039310236 -0.048983797
-0.08005999 -0.022341195 -0.16833031 -0.031845424 -0.11491894 -0.07898087 -0.1472034 -0.097862706
0.07985889 -0.18608294 -0.04079277 0.013866996 0.079989575 -0.074120246 -0.15626858 -0.055847734
-0.0492547 -0.04563771 -0.023638345 -0.0067061326 -0.08524198 0.06889834 -0.1456136 0.029231813
-0.03408926 0.0683747 -0.056563143 0.06640938 0.020493701 -0.14483504 -0.14136186 -0.015674973
-0.021422232 -0.10869101 -0.09979345 -0.1005151 0.041426383 -0.04272757 -0.06473098 -0.05939301
-0.0055572568 0.08589568 -0.059354234 -0.043154206 -0.04957694 -0.17833091 -0.09766621 -0.15478213
-0.03371325 -0.11020175 0.008118862 -0.07596655 -0.10252203 -0.19175932 -0.016434133 -0.027016794
-0.8128481 0.2619845 0.09562696 0.16632739 -0.20229109 0.023536535 0.11289534 -0.10919873
-0.07998485 0.34110978 0.39547065 0.3593668 -0.28772178 -0.25834927 -0.10929188 0.19201562
-0.84903026 -0.15380934 0.3145836 0.07508559 0.06519427 0.2471318 0.31385273 0.058209922
0.058383465 0.58820456 -0.30781814 -0.05486593 0.15143028 -0.20874989 -0.10207892 -0.34898713
0.24785973 -0.08595699 -0.19047274 -0.95349616 0.4162448 -0.0010096877 -0.3021618 0.78106046
-0.018172316 0.30740616 0.41722745 -0.03074005 -0.025179759 -0.032105062 0.12956531 0.062622264
0.09235829 0.0245681 0.017774116 -0.4037196 -0.23947525 -0.23763871 0.48347622 -0.16804992
0.2916787 0.25733042 0.3427664 0.27095434 0.09232942 -0.22941412 -0.19503742 -0.0408455
0.38528958 0.43278667 0.38102502 -0.025481766 -0.9738439 0.24929073 0.26977628 0.04959275
0.24688871 0.041825183 0.23434432 -0.77855885 0.68706214 -0.21361597 0.0048242486 0.08496107
-0.030766523 -0.046872094 -0.5015103 -0.6270326 -0.054182686 0.20872937 0.14612608 0.11144564
-0.1962727 0.12989736 -0.1103435 0.16661417 -0.81998587 -0.48290607 0.07681527 0.3638893
0.38970923 -0.67352724 -1.1627239 -0.73187745 0.060380965 -0.67890066 -0.3131531 0.48555294
0.5905104 0.21147485 -0.15251386 0.09240397 0.10905263 0.4267464 -0.21514641 0.14654744
0.42962503 -0.0814904 0.4145853 0.29884088 0.12413411 -0.34826502 -0.7053718 -0.6525873
-0.021214006 -0.10838892 0.100957744 -0.35695463 0.78782505 -0.05411157 0.053223297 -0.16835576
00000000: 59eb f7bf a780 183e e5a7 25bf 52bd 29bf
00000010: 4bb4 1b3e 1963 d43e 2543 fabe 2ce2 2a3e
00000020: cc6a 9bbd e762 423e 0aa4 013e c57b c5bd
00000030: c759 2dbf 56f4 09bf fe1e ae3e b6d0 00be
00000040: bb1c 0e3f 3ac7 5a3f aeb9 3f3e bbb4 86bf
00000050: 7f76 ad3e dc97 833d fed1 683c 8e65 973e
00000060: 381f 183d 6efc b7be 08ae 4a3e 81e2 42be
00000070: 833d 0a3f 4aeb 533e 7643 62bf 4ea7 ff3e
00000080: 6d23 883e 0f2f 00bf d273 9f3d fd36 8bbf
00000090: a7d4 963e 7f56 23bf d97f 073f 8d6d cbbe
000000a0: ea37 39bf ea1e 183d 3be0 e0be f2e6 8f3e
000000b0: 4d11 63bf 66bf 7f3e 4182 cebd 1f87 a33e
000000c0: 75fd 6bbf 44e7 c8bd 2e3c dabe 655c 503d
000000d0: 449f 26be 335c 1cbf e383 a63e c3bc 40bf
000000e0: 8dc7 8b3e 5475 d93c f0cb ef3c 4864 1ebe
000000f0: 16d9 a9be 0c3a b53e 0bbc f7be ac42 23bf
00000100: ad86 01bd 2743 a03d 3552 683d 7dc6 dbbd
00000110: 52f6 043c 3c5d 3ebe c503 21bd 3ca3 48bd
00000120: 7ef6 a3bd e204 b7bc c85e 2cbe 5970 02bd
00000130: 9f5a ebbd b9c0 a1bd 7dbc 16be 3e6c c8bd
00000140: 0f8d a33d 878c 3ebe 5216 27bd 6632 633c
00000150: 93d1 a33d 5bcc 97bd df04 20be 98c0 64bd
00000160: 4cbf 49bd 9bee 3abd 34a5 c1bc 1ebf dbbb
00000170: 5993 aebd 931a 8d3d bb1b 15be 8e77 ef3c
00000180: 2ea1 0bbd 0908 8c3d c1ae 67bd a401 883d
00000190: 68e2 a73c a34f 14be 2ac1 10be cd68 80bc
000001a0: ad7d afbc 6499 debd 8260 ccbd dcda cdbd
000001b0: b6ae 293d 1b03 2fbd ad91 84bd 1646 73bd
000001c0: a619 b6bb 13ea af3d 6d1d 73bd 77c2 30bd
000001d0: 3011 4bbd 619c 36be 3905 c8bd 357f 1ebe
000001e0: e816 0abd 75b1 e1bd fa04 053c 5a94 9bbd
000001f0: 12f7 d1bd 8e5c 44be e0a0 86bc 5352 ddbc
00000200: d016 50bf d522 863e 11d8 c33d ba51 2a3e
00000210: 6525 4fbe b1cf c03c ac35 e73d 95a3 dfbd
00000220: 19cf a3bd f1a5 ae3e 217b ca3e edfe b73e
00000230: 4550 93be 5b46 84be 6cd4 dfbd be9f 443e
00000240: 0c5a 59bf 3280 1dbe 1a11 a13e 79c6 993d
00000250: 9384 853d 1e10 7d3e 4eb1 a03e 876d 6e3d
00000260: 8023 6f3d 9394 163f 579a 9dbe 19bb 60bd
00000270: 8a10 1b3e 88c2 55be c10e d1bd 71ae b2be
00000280: f1ce 7d3e 380a b0bd 490b 43be 5318 74bf
00000290: 0a1e d53e 7f57 84ba f4b4 9abe 94f3 473f
000002a0: 1cde 94bc 5764 9d3e d69e d53e 8fd2 fbbc
000002b0: c845 cebc 9980 03bd c5ac 043e 1a40 803d
000002c0: 5826 bd3d 0a43 c93c 069b 913c 56b4 cebe
000002d0: 0039 75be 9057 73be 328a f73e 4715 2cbe
000002e0: e956 953e d0c0 833e 147f af3e 87ba 8a3e
000002f0: 3517 bd3d 89eb 6abe e4b7 47be 9c4d 27bd
00000300: ad44 c53e 3796 dd3e b615 c33e 23bf d0bc
00000310: d54d 79bf 1246 7f3e 1e20 8a3e c421 4b3d
00000320: 65d0 7c3e e250 2b3d f5f7 6f3e a24f 47bf
00000330: 4ee3 2f3f 25be 5abe bb14 9e3b 1200 ae3d
00000340: 130a fcbc f4fc 3fbd fb62 00bf 3585 20bf
00000350: aaee 5dbd 27bd 553e 13a2 153e 9d3d e43d
00000360: b6fb 48be d003 053e c6fb e1bd e89c 2a3e
00000370: 98ea 51bf 773f f7be 5351 9d3d b34f ba3e
00000380: f887 c73e 486c 2cbf 23d4 94bf 525c 3bbf
00000390: 0852 773d 6fcc 2dbf 9a55 a0be 659a f83e
000003a0: b12b 173f dd8c 583e 982c 1cbe 4b3e bd3d
000003b0: fc56 df3d 817e da3e 574f 5cbe 8810 163e
000003c0: d0f7 db3e 70e4 a6bd 8644 d43e ac01 993e
000003d0: 063a fe3d cb4f b2be 3f93 34bf f60f 27bf
000003e0: ffc8 adbc 03fb ddbd efc2 ce3d c2c2 b6be
000003f0: e7ae 493f 18a4 5dbd ac00 5a3d 7465 2cbe

gnn_list.2.nn.0.bias f4 [32]
0.5208149 -0.10543202 0.15371709 0.007113119 -0.063626 0.22415265 0.11652024 0.2753712
0.19394213 0.13319834 0.21518178 0.6915091 -0.1493396 -0.2552032 0.31985018 0.06698193
-0.24244307 -0.16046858 0.047970463 -0.51625884 -0.45758215 0.44342488 -0.17582093 0.36702073
0.25841156 -0.2330566 0.12866926 0.163404 -0.048869736 0.0015158493 0.18069598 0.10203557
00000000: 2054 053f beec d7bd 0368 1d3e 2b15 e93b
00000010: 594e 82bd 4688 653e 2aa2 ee3d 74fd 8c3e
00000020: c498 463e 2565 083e 9d58 5c3e be06 313f
00000030: 7bec 18be fea9 82be 67c3 a33e d22d 893d
00000040: ff42 78be e051 24be ad7c 443d 8a29 04bf
00000050: 3548 eabe 9608 e33e 670a 34be 24ea bb3e
00000060: 854e 843e 64a6 6ebe e0c1 033e 6153 273e
00000070: a22b 48bd 76af c63a 5e08 393e 06f8 d03d
