model_saved/AIDS700nef/2022-03-17_10-42-12/GSC_GNN_AIDS700nef_checkpoint_tau.pth (torch, 297351 bytes, 61 tensors)

gnn_list.0.nn.0.weight f4 [64, 29]
0	0xbfbb0f98	-1.4614134
1	0x3f159bda	0.58440936
2	0xbf13bad2	-0.5770694
3	0x3ec2706f	0.37976405
4	0x3e130c48	0.14360154
5	0x3c070ddf	0.008243053
6	0x3e125975	0.14291938
7	0xbd5925d3	-0.053014588
8	0xbe59229c	-0.21204609
9	0x3eca5f2b	0.39525732
10	0x3b32254a	0.002718287
11	0x3f53c3d2	0.82720673
12	0xbe108986	-0.14114961
13	0xbea526e5	-0.32256237
14	0xbecb1009	-0.3966067
15	0xbdc967c6	-0.09834246
16	0xbe995069	-0.2994416
17	0xbe80657d	-0.2507743
18	0x3ee571b3	0.44813308
19	0xbec36cad	-0.3816885
20	0xbee5eb8e	-0.44906276
21	0xbec59fda	-0.3859852
22	0x3d8f4f95	0.06997601
23	0xbccccb13	-0.024999177
24	0x3ca9183b	0.020641437
25	0x3d8bd003	0.068267845
26	0x3d9e2d10	0.07723439
27	0xbd225370	-0.039630353
28	0x3dfeefa6	0.12448053
29	0x3ebb0b98	0.36532283
30	0x3e91cba9	0.28475693
31	0x3ec13757	0.37737533
32	0x3eacef5b	0.33776364
33	0x3e74589d	0.23861928
34	0x3d0ba9d9	0.034097526
35	0x3f328241	0.6973
36	0x3ecf847b	0.40530762
37	0x3e9c9806	0.30584735
38	0x3ea205dc	0.31645095
39	0x3f34e780	0.7066574
40	0x3e33afb8	0.175475
41	0x3e819f61	0.2531691
42	0x3f0e67ba	0.55627024
43	0x3e38c765	0.18044813
44	0x3ed67a3b	0.4189013
45	0x3f1922ec	0.5981891
46	0x3da71e08	0.08160025
47	0x3ef1bf8a	0.47216445
48	0xbec48cad	-0.38388577
49	0x3ed8afc4	0.423216
50	0x3ec4aad9	0.38411596
51	0x3eeea66c	0.46611345
52	0x3f401f53	0.75047797
53	0x3cac0ce4	0.02100224
54	0x3e30abff	0.17253111
55	0xbc474d30	-0.012164399
56	0x3c4f5b85	0.012656097
57	0x3e0cd27e	0.13752171
58	0x3d65cc61	0.056103114
59	0x3e4609f4	0.19339734
60	0x3e6e3364	0.23261791
61	0x3e459c60	0.19297934
62	0x3ee38660	0.44438457
63	0x3d25f6d3	0.040518593
64	0xbf201e6c	-0.6254642
65	0x3f17e18d	0.5932854
66	0xbe41351e	-0.18867919
67	0x3e5559e9	0.20835079
68	0x3d393bf6	0.0452232
69	0x3e5fd004	0.21856695
70	0x3ed63738	0.41839004
71	0xbd9a2f4c	-0.075285524
72	0x3e86da2f	0.26338336
73	0xbe1e29da	-0.15445653
74	0x3f12077c	0.5704267
75	0x3ea01eb9	0.3127344
76	0x3e0d33b4	0.13789254
77	0x3e3b87cb	0.1831352
78	0x3f733894	0.95008206
79	0x3ea645e3	0.32475194
80	0xbe227c0d	-0.15867634
81	0xbedb370b	-0.42815432
82	0x3de6b0f7	0.11264222
83	0x3e23a451	0.1598065
84	0x3e34ff12	0.17675427
85	0xbceab20d	-0.028649354
86	0x3e38079d	0.17971654
87	0xbe3e6f8b	-0.18597238
88	0x3eb0b8a2	0.34515864
89	0x3ee29d7b	0.44260773
90	0xbe2aa2f5	-0.16663726
91	0xbf252942	-0.6451608
92	0xbdbbeab4	-0.091756254
93	0xbe86446f	-0.26224086
94	0xbd9fb75e	-0.077986464
95	0xbe12490e	-0.1428568
96	0xbe6b485f	-0.22976826
97	0xbe1979c4	-0.14987856
98	0xbe9322b0	-0.28737402
99	0xbddd55d1	-0.10807384
100	0xbe077353	-0.13227586
101	0x3c9e9434	0.019357778
102	0xbead3416	-0.338288
103	0xbde44890	-0.11146653
104	0x3cfce82d	0.030872429
105	0xbe47ba09	-0.1950456
106	0x3d23ef4f	0.040023144
107	0x3ea8fbfb	0.33004746
108	0x3e155e10	0.14586663
109	0x3d3e07e9	0.046394262
110	0x3cb55adb	0.02213805
111	0xbdbba23e	-0.091618046
112	0x3db41f87	0.08795076
113	0xbd76e76b	-0.06027929
114	0x3dd37896	0.10325734
115	0xbd07fd0c	-0.03320031
116	0x3ed99626	0.42497367
117	0x3ec850ea	0.39124233
118	0xbfa8d9be	-1.319145
119	0xbf1dd7ca	-0.6165739
120	0x3dff6a5b	0.124714576
121	0xbbcb8faf	-0.006212197
122	0xbee0b410	-0.43887377
123	0xbe257baa	-0.16160455
124	0x3e0f61e7	0.1400219
125	0x3f30fb5e	0.69133556
126	0x3f1eec23	0.62079066
127	0x3eacce2c	0.33751047
128	0x3c5403af	0.012940331
129	0x3f008959	0.50209576
130	0x3ec72c32	0.38900906
131	0x3f00457f	0.5010604
132	0xbea9a0f5	-0.33130613
133	0x3f0b3d81	0.5439072
134	0x3e562c4e	0.20915338
135	0x3e9c7994	0.30561507
136	0x3dd9496f	0.106097095
137	0x3e917250	0.28407526
138	0x3eb86e9a	0.36021882
139	0x3f22121b	0.63308877
140	0x3d938b5f	0.07204317
141	0xbce097f7	-0.027416212
142	0x3c2b5701	0.010457755
143	0xbcef8f47	-0.029243125
144	0x3d8b938e	0.06815253
145	0xbe0e2646	-0.13881788
146	0xbdc85f59	-0.09783811
147	0xbd000a7f	-0.03126001
148	0xbd06c75e	-0.032904975
149	0xbe42f4f5	-0.19038756
150	0x3d3b8058	0.045776695
151	0xbcc3b8b0	-0.023891777
152	0x3d89b44c	0.06723842
153	0xbcaaf7d5	-0.020870129
154	0xbdd0b3b4	-0.10190526
155	0xbdce5911	-0.10075582
156	0x3d0af32e	0.03392332
157	0xbdc9e03e	-0.09857224
158	0xbda2b730	-0.079450965
159	0x3d7a03ae	0.061038665
160	0x3dd4236d	0.103583194
161	0xbd4fe08c	-0.050751254
162	0x3cf54ed6	0.029944818
163	0x3e4e2947	0.20132934
164	0x3c279f39	0.010230833
165	0xbc107eca	-0.008819291
166	0x3d3b5391	0.045733992
167	0xbde4bce9	-0.11168844
168	0xbd9db418	-0.07700366
169	0xbd9397ca	-0.07206686
170	0x3dd0cda5	0.101954736
171	0xbd2ea081	-0.042633537
172	0x3dc780ed	0.097413875
173	0xbdd7b105	-0.10531811
174	0xbe8ab9db	-0.2709492
175	0x3f04a60a	0.51815856
176	0x3d1b367c	0.037893757
177	0xbf2da26e	-0.67825973
178	0xbd89dbed	-0.06731401
179	0xbf04bb39	-0.5184818
180	0xbd2e13e9	-0.042499457
181	0xbec1d828	-0.37860227
182	0xbced0aea	-0.028935868
183	0xbea897ab	-0.32928213
184	0xbc5c32ca	-0.013439843
185	0x3ecd0808	0.4004519
186	0xbdec77a8	-0.1154626
187	0xbe0e44d8	-0.1389345
188	0xbdbfa53b	-0.09357687
189	0xbf464fdc	-0.77465606
190	0xbd67798c	-0.0565124
191	0xbf231ae1	-0.6371289
192	0xbe16dfce	-0.14733812
193	0xbe221fbe	-0.15832421
194	0xbcbfe05d	-0.023422414
195	0xbdb49d9d	-0.08819125
196	0xbdf1f1c1	-0.11813689
197	0xbd404918	-0.046944708
198	0xbcf859ff	-0.030316351
199	0x3e2d1d10	0.16905618
200	0xbdbfe5bc	-0.0936999
201	0x3cae6638	0.021288976
202	0xbdd886f6	-0.10572617
203	0xbd80c3ca	-0.06287344
204	0xbea5cd76	-0.32383317
205	0xbecbe608	-0.39823937
206	0x3edf5c76	0.4362523
207	0xbe13e572	-0.14442995
208	0xbe300f76	-0.17193398
209	0xbee56843	-0.44806108
210	0xbe0adb49	-0.13560213
211	0xbeb8c1af	-0.3608527
212	0x3e515651	0.20443083
213	0xbe84154f	-0.25797507
214	0xbf6207e5	-0.88293296
215	0x3ee78c4f	0.45224234
216	0xbe20247c	-0.15638918
217	0xbe74419f	-0.23853157
218	0x3c13a22c	0.009010833
219	0xbdfd0426	-0.12354307
220	0xbe9adf6f	-0.3024859
221	0x3dd4bea4	0.10387924
222	0x3dca7a87	0.098866515
223	0xbdb280c5	-0.08715967
224	0xbe362537	-0.17787634
225	0x3f1061cf	0.56399244
226	0xbead1595	-0.33805528
227	0xbe08f446	-0.13374433
228	0xbe2a00ac	-0.16601819
229	0x3e10d0e1	0.14142181
230	0x3c68416b	0.014175753
231	0xbcb34aeb	-0.02188631
232	0xbe8c659c	-0.27421272
233	0xbe7a50b5	-0.2444485
234	0xbf018d8c	-0.5060661
235	0x3f08f796	0.53502786
236	0x3ed36dc1	0.41294673
237	0xbe0cb298	-0.13740003
238	0xbea1f022	-0.3162852
239	0xbdfa95e2	-0.12235619
240	0xbf055fe9	-0.5209947
241	0x3e8239c6	0.25434703
242	0x3d9dbc54	0.07701936
243	0xbeca035d	-0.3945569
244	0xbda9f784	-0.08299163
245	0xbe9773c4	-0.2958051
246	0xbd05d857	-0.03267702
247	0xbd857d0a	-0.0651799
248	0xbb9a3aca	-0.0047067152
249	0x3e266ddd	0.16252847
250	0xbe934609	-0.2876437
251	0x3ee7a7c2	0.45245177
252	0xbe6a94cb	-0.22908323
253	0xbe3436d9	-0.17599048
254	0xbe061cd7	-0.13096939
255	0xbdc30570	-0.095225215

gnn_list.0.nn.0.bias f4 [64]
0	0xbd1d037a	-0.038333394
1	0xbea88be6	-0.32919234
2	0xbf0823fb	-0.531799
3	0xbef57d49	-0.47947147
4	0x3d085676	0.03328558
5	0xbe117160	-0.14203405
6	0xbe9e4254	-0.3090998
7	0x3e62818c	0.2211973
8	0x3ec8c10d	0.39209786
9	0xbd3ee5f9	-0.046606038
10	0x3dcb0592	0.09913172
11	0x3d444136	0.047913752
12	0xbe4671a2	-0.19379285
13	0xbd6d852c	-0.05798833
14	0xbdacb6c9	-0.08433301
15	0xbd93321f	-0.07187294
16	0xbe0b6c95	-0.1361564
17	0xbf0a58ca	-0.5404173
18	0xbf19d720	-0.6009388
19	0xbd87b86f	-0.06626975
20	0xbe4c0cd9	-0.19926776
21	0x3e2aed71	0.16692139
22	0xbdead5ed	-0.11466584
23	0xbf13be50	-0.5771227
24	0xbe0c3675	-0.13692649
25	0x3e6cce8d	0.23125668
26	0xbda920a9	-0.082581826
27	0x3e8ee268	0.2790711
28	0xbf2b7275	-0.6697152
29	0xbdad1953	-0.08452096
30	0x3e56ac47	0.20964156
31	0xbe31d613	-0.17366819
32	0xbefd19a4	-0.49433625
33	0xbe49f8fa	-0.19723883
34	0x3d58ed3f	0.05296063
35	0x3ddbc611	0.107311375
36	0xbe701a27	-0.23447476
37	0xbf0c7035	-0.54858714
38	0xbf07dcde	-0.5307139
39	0xbdd38d62	-0.10329701
40	0xbd496292	-0.04916627
41	0xbe7a771d	-0.244595
42	0xbe14d1a0	-0.1453309
43	0xbe2b3664	-0.16719967
44	0xbf04c448	-0.51862
45	0x3d87a84b	0.06623896
46	0xbe50b5d6	-0.20381865
47	0xbeb8a61d	-0.36064234
48	0xbf0691b6	-0.5256609
49	0xbf180865	-0.5938781
50	0xbdaf7da4	-0.08568886
51	0xbe0e5a2c	-0.13901585
52	0x3da365a9	0.079783745
53	0x3ec1e6cd	0.378714
54	0xbe8e412a	-0.2778409
55	0xbeea9af0	-0.45821333
56	0xbc684a58	-0.014177881
57	0x3eb9be31	0.36277917
58	0x3d94b8eb	0.07261833
59	0xbe122a71	-0.14274003
60	0xbdffecf4	-0.12496367
61	0xbe35459c	-0.17702335
62	0xbf33323c	-0.69998527
63	0xbe663683	-0.22481732

gnn_list.0.nn.2.weight f4 [64, 64]
0	0x3ecb4a0b	0.39704928
1	0x3f21c818	0.63195944
2	0x3dd74ce4	0.105127126
3	0x3e700653	0.23439912
4	0xbee3a5df	-0.44462487
5	0x3d0d815f	0.034547206
6	0x3b9f4ea0	0.0048616678
7	0x3df8775b	0.1213214
8	0x3e3ee1e7	0.18640862
9	0xbdba9b17	-0.09111612
10	0x3c464bbc	0.012103017
11	0x3e2ec354	0.170667
12	0xbe4293cb	-0.19001691
13	0xbdbf647f	-0.0934534
14	0x3e15fd07	0.14647304
15	0xbd260640	-0.040533304
16	0xbe59e07d	-0.21277042
17	0xbd2d62ec	-0.042330667
18	0x3ef5b20c	0.479874
19	0x3c664b44	0.014056031
20	0x3defdf44	0.117125064
21	0x3e347164	0.1762138
22	0xbd50cd53	-0.050977062
23	0x3eb3d108	0.35120416
24	0x3e0b2453	0.13588075
25	0xbf10f06d	-0.5661686
26	0xbf4625c1	-0.7740136
27	0xbefb8437	-0.4912431
28	0x3dbc7654	0.09202257
29	0x3f21398a	0.6297842
30	0xbe918418	-0.28421092
31	0x3f0da0c4	0.55323434
32	0x3f336c6c	0.70087314
33	0x3f176ead	0.5915325
34	0xbe7509fb	-0.23929588
35	0x3f2cde46	0.6752666
36	0x3eea042e	0.45706314
37	0xbed0a9e0	-0.40754604
38	0x3f046515	0.5171674
39	0x3eaa3cb6	0.33249444
40	0x3efe184d	0.49627915
41	0x3efee67d	0.49785224
42	0x3e037e06	0.12841043
43	0xbcf26819	-0.029590653
44	0x3ee6f754	0.4511057
45	0x3efd7041	0.49499705
46	0x3e129c59	0.14317454
47	0x3da51eb3	0.08062496
48	0x3eaa5c09	0.33273342
49	0x3e446ea1	0.19182827
50	0xbebc7e2e	-0.36815017
51	0x3f1851cf	0.5949983
52	0x3f202c3f	0.62567514
53	0x3eda15ad	0.42594662
54	0x3e9037d0	0.28167582
55	0x3e3a5379	0.18195905
56	0x3f14859c	0.5801637
57	0x3e2dc938	0.1697129
58	0x3e81400c	0.25244176
59	0x3d798f26	0.060927533
60	0x3e98b868	0.2982819
61	0xbeba5d7f	-0.36399457
62	0x3e347274	0.17621785
63	0x3d484933	0.048897933
64	0xbe413b4c	-0.18870276
65	0xbf3094d6	-0.68977106
66	0xbded05a6	-0.11573343
67	0x3e565e84	0.20934492
68	0xbf8b5277	-1.0884541
69	0xbd1a386d	-0.037651468
70	0x3e10c96e	0.1413934
71	0x3dea4cf7	0.11440461
72	0xbe9d297c	-0.30695713
73	0xbe5f07b9	-0.2178029
74	0xbdbbca7b	-0.091694795
75	0x3e6458f8	0.22299564
76	0xbd8f7a10	-0.070057034
77	0xbdb9e2b1	-0.09076441
78	0x3cf69a2b	0.03010281
79	0xbd69d2d1	-0.057085816
80	0xbca7e373	-0.020494198
81	0x3e132adc	0.14371818
82	0xbedf7417	-0.43643257
83	0xbdd2d3b6	-0.10294287
84	0x3e27280d	0.16323872
85	0xbce30fa2	-0.027717415
86	0xbd9e49f3	-0.077289484
87	0xbe82a7e8	-0.25518727
88	0xbe316f92	-0.17327717
89	0xbe322d1d	-0.17400022
90	0xbe66ea6a	-0.2255036
91	0x3ea15b8a	0.3151515
92	0xbf3343c2	-0.70025265
93	0xbe8f2d8e	-0.27964443
94	0xbca09bb0	-0.019605488
95	0x3f2e734f	0.68144697
96	0x3e232dab	0.1593539
97	0xbe416f25	-0.18890055
98	0x3dbe93c8	0.09305531
99	0xbf624b86	-0.8839649
100	0xbe4ec113	-0.2019084
101	0x3e207a5d	0.15671678
102	0x3dadd1f4	0.08487311
103	0xbf18b07a	-0.5964428
104	0xbf138b0a	-0.5763403
105	0xbeb05106	-0.34436816
106	0xbef5a22b	-0.47975287
107	0x3d0c1bf1	0.034206335
108	0x3e799ae1	0.24375488
109	0xbddfcb22	-0.109274164
110	0x3d5d46e8	0.0540227
111	0xbc1c2673	-0.009530651
112	0xbee3b5bd	-0.44474593
113	0xba964d45	-0.001146712
114	0xbeeb66d3	-0.45976886
115	0xbe48d485	-0.1961232
116	0x3ce9c188	0.028534666
117	0xbe504615	-0.20339234
118	0xbf40d0a3	-0.75318354
119	0xbeacfc19	-0.33786085
120	0x3e4494ee	0.19197437
121	0xbf262ee8	-0.64915323
122	0xbee3e6ca	-0.44512016
123	0xbe20e191	-0.15711047
124	0x3da0bb20	0.07848191
125	0xbd2566be	-0.040381186
126	0xbfbc1bb7	-1.4695958
127	0x3da29d12	0.07940115
128	0xbdeb2d9a	-0.11483307
129	0xbeeb7a98	-0.4599197
130	0xbdd84564	-0.1056011
131	0x3d4554a7	0.048176434
132	0xbe91856a	-0.284221
133	0x3c239846	0.009985035
134	0x3f01f570	0.5076513
135	0x3d646081	0.055756096
136	0x3d738697	0.059454527
137	0x3d785b62	0.060634024
138	0x3e2bcb43	0.16776757
139	0xbca72914	-0.02040533
140	0xbd8ac0be	-0.06775044
141	0x3c80bf15	0.015716115
142	0x3e0bb630	0.13643718
143	0x3c785bb1	0.01515858
144	0x3f2dc291	0.6787501
145	0x3e8e5a0b	0.27803072
146	0xbf19e1f5	-0.6011041
147	0x3d1a3e37	0.03765699
148	0xbd2fdd58	-0.0429357
149	0xbebd0b80	-0.36922836
150	0xbf30adff	-0.69015497
151	0xbcdafeaa	-0.026732761
152	0xbdaa0d82	-0.08303358
153	0x3a89b4ef	0.0010506193
154	0x3f8acb61	1.0843316
155	0x3f207967	0.62685245
156	0xbf591e2d	-0.8481167
157	0xbcd381c3	-0.025818711
158	0x3d4edd24	0.050503865
159	0xbefe7bff	-0.49703977
160	0xbea04fcd	-0.31310883
161	0x3eb19304	0.34682477
162	0xbe8ce877	-0.27521107
163	0x3eb32b09	0.3499377
164	0x3eee2177	0.46509907
165	0x3eaa2414	0.3323065
166	0x3d05beb2	0.032652564
167	0xbebdfca2	-0.37106806
168	0xbee03b6c	-0.43795335
169	0xbd8136cb	-0.06309279
170	0x3e9ed47a	0.31021482
171	0xbd2d4b5a	-0.04230819
172	0x3ec39e20	0.38206577
173	0xbee39acf	-0.44454047
174	0x3e532257	0.20618568
175	0xbeca760c	-0.39543188
176	0xbd35ff39	-0.044432852
177	0xbe8b940f	-0.27261397
178	0xbe90ef18	-0.28307414
179	0x3d806eab	0.06271108
180	0xbea12269	-0.31471565
181	0xbeae7305	-0.34072128
182	0xbea94b55	-0.33065286
183	0xbd2cdbe3	-0.042201888
184	0xbd795adf	-0.060877677
185	0xbda3411d	-0.07971404
186	0xbe8a0e2d	-0.2696394
187	0x3e48904f	0.195863
188	0xbf1287fe	-0.5723876
189	0x3e4fb328	0.20283186
190	0xbeb4dd6c	-0.3532518
191	0xbd155113	-0.03645427
192	0xbf195fd4	-0.5991185
193	0xbe79c9d0	-0.24393392
194	0x3e216270	0.15760207
195	0x3e2161e6	0.15760002
196	0x3e07ae5e	0.1325011
197	0xbdc7b5f4	-0.09751502
198	0xbf2d90c1	-0.67799
199	0x3eab7f03	0.3349534
200	0x3f13ad51	0.57686335
201	0xbee2ec3b	-0.44320855
202	0x3e245f6e	0.16052029
203	0x3eedc9cf	0.4644303
204	0xbd56713b	-0.05235408
205	0xbddcadbe	-0.10775326
206	0x3eea4f57	0.45763656
207	0xbd242f77	-0.04008433
208	0xbe53d965	-0.20688398
209	0xbea3d971	-0.32001832
210	0x3d1cf78f	0.038322028
211	0xbc813c32	-0.015775774
212	0x3e2c6d67	0.16838609
213	0x3e99481e	0.29937834
214	0x3f165fb5	0.5873979
215	0xbddb5bc8	-0.10710865
216	0x3ecd9b65	0.4015762
217	0x3dde5379	0.10855765
218	0xbed6a7c0	-0.41924858
219	0x3e430009	0.19042982
220	0x3d640010	0.055664122
221	0x3e1556a7	0.14583836
222	0x3d639775	0.055564363
223	0x3f179198	0.59206533
224	0x3eb421d9	0.35182074
225	0xbdf00e35	-0.1172146
226	0x3e336cc5	0.17521961
227	0xbe8d0f29	-0.2755063
228	0x3eab7fcd	0.33495942
229	0xbd715448	-0.058918267
230	0xbbb9b6e1	-0.005667553
231	0x3e9a49d9	0.30134466
232	0x3e249358	0.16071832
233	0x3f377e6e	0.7167729
234	0xbea879ff	-0.32905576
235	0xbdbfdf12	-0.09368719
236	0xbe281c46	-0.16417035
237	0xbf878c7d	-1.0589749
238	0x3da699f0	0.0813483
239	0xbe873d78	-0.26414084
240	0xbecd7c5c	-0.4013394
241	0x3dcc6d66	0.099818036
242	0x3e834fa5	0.256467
243	0xbdcf53d1	-0.101234086
244	0x3e57caf7	0.21073519
245	0x3e4a88a8	0.19778693
246	0x3e6c98cc	0.23105162
247	0xbce4959a	-0.027903367
248	0x3db7a601	0.089672096
249	0x3eb108c0	0.34576988
250	0x3f04a0bf	0.5180778
251	0x3dc1cda8	0.09463054
252	0xbde714cc	-0.112832636
253	0x3e8da43b	0.2766436
254	0xbe3ef400	-0.18647766
255	0x3d24e4df	0.04025733

gnn_list.0.nn.2.bias f4 [64]
0	0x3cf04d56	0.029333752
1	0xbee87e8b	-0.45409045
2	0xbe9c5605	-0.30534378
3	0x3d7e9d4d	0.062161732
4	0x3e28e8f7	0.16495119
5	0xbe58366c	-0.2111451
6	0xbe66ab59	-0.22526301
7	0xbeac7486	-0.3368265
8	0x3d3c6375	0.045993287
9	0xbd56a2a5	-0.052401204
10	0xbd90409e	-0.07043575
11	0xbdea3b79	-0.11437125
12	0xbe475a0c	-0.19467944
13	0xbdce1c27	-0.100639634
14	0xbcc5a637	-0.024127109
15	0x3ddd7c06	0.10814671
16	0xbeb53f88	-0.35400033
17	0xbdafc2d9	-0.08582086
18	0x3ca9b893	0.020717895
19	0xbe17968e	-0.14803526
20	0x3be2940f	0.0069146226
21	0xbdb7d799	-0.08976669
22	0xbe3f43ea	-0.18678251
23	0xbdf7f712	-0.12107672
24	0xbe3c2b2b	-0.18375842
25	0xbe88aec1	-0.26695827
26	0xbea6b8f3	-0.3256298
27	0x3dc6d597	0.09708708
28	0xbd1ea72e	-0.038733654
29	0xbe397733	-0.18111877
30	0x3d475b40	0.048671007
31	0x3df9d7f3	0.12199392
32	0xbd075ca0	-0.03304732
33	0x3d20d918	0.039269537
34	0x3dd92faa	0.10604794
35	0xbe2a8f02	-0.16656116
36	0xbeea69a7	-0.4578373
37	0xbe69a4a6	-0.22816715
38	0xbe3db7d4	-0.18527156
39	0xbe8e9a4b	-0.2785209
40	0x3e1a5491	0.15071322
41	0x3d5b4a32	0.053537555
42	0x3d3c06f3	0.045905065
43	0x3df3b3c0	0.11899519
44	0x3de77494	0.113015324
45	0xbde4498d	-0.11146841
46	0xbead429c	-0.3383988
47	0xbe0058c6	-0.12533864
48	0xbe7d24a2	-0.24721006
49	0x3dadf60a	0.08494194
50	0xbe1e4ee8	-0.15459788
51	0x3defb099	0.11703605
52	0xbbc09480	-0.0058770776
53	0x3e05ce62	0.1306701
54	0xbe797965	-0.24362715
55	0xbcec4125	-0.028839657
56	0x3d9b1202	0.07571794
57	0xbde388ea	-0.11110099
58	0x3e0b8a80	0.13627052
59	0x3a7b4446	0.00095850637
60	0xbde4c353	-0.11170068
61	0x3d72422f	0.05914515
62	0xbe6f56b5	-0.2337292
63	0xbd8601b8	-0.065432966

gnn_list.0.nn.3.weight f4 [64]
0	0x3f11bba6	0.56926954
1	0x3ebf0127	0.37305567
2	0x3ed32e46	0.4124624
3	0x3f2b8d2a	0.67012274
4	0x3ecee11a	0.40406114
5	0x3f1952e4	0.59892106
6	0x3ed6f75d	0.41985598
7	0x3f3b71ea	0.73220694
8	0x3f0f3546	0.55940664
9	0x3eb2ba98	0.34907985
10	0x3f15d213	0.5852367
11	0x3ed5da07	0.41767904
12	0x3ec192b1	0.3780723
13	0x3f102785	0.563103
14	0x3f1f8e17	0.62326187
15	0x3eb96af2	0.36214405
16	0x3f034b01	0.5128632
17	0x3eabcc18	0.3355415
18	0x3f0b06af	0.54307073
19	0x3ecbb7d5	0.3978869
20	0x3ee0d49b	0.43912205
21	0x3ecc4d96	0.39902943
22	0x3e8e6aa2	0.2781573
23	0x3f1c04a9	0.6094461
24	0x3f101af9	0.56291157
25	0x3ee2a85f	0.44269082
26	0x3f1b412d	0.60646325
27	0x3f0d54a4	0.55207276
28	0x3ecb772b	0.39739355
29	0x3e977288	0.29579568
30	0x3f14da0f	0.5814523
31	0x3ee84161	0.4536238
32	0x3ecb77cf	0.39739844
33	0x3f07f6e1	0.5311108
34	0x3eee82fc	0.46584308
35	0x3f244c18	0.6417861
36	0x3f4488fb	0.76771516
37	0x3f3a48d7	0.72767395
38	0x3ebe36d6	0.37151212
39	0x3f166a0c	0.58755565
40	0x3ea71ca7	0.32639048
41	0x3e957469	0.29190376
42	0x3ece2305	0.40261093
43	0x3f06c3c4	0.52642465
44	0x3f2fe9e7	0.6871628
45	0x3eee0baa	0.46493274
46	0x3edb213c	0.42798793
47	0x3ec21941	0.37909892
48	0x3f19541f	0.59893984
49	0x3ed69119	0.41907576
50	0x3f0f103d	0.5588415
51	0x3f01444f	0.50494856
52	0x3ee8c8f7	0.45465824
53	0x3f4f067a	0.8086926
54	0x3e97c8f9	0.29645517
55	0x3f16007c	0.5859449
56	0x3edf0b73	0.43563423
57	0x3eac48f8	0.3364942
58	0x3e99202a	0.29907352
59	0x3eb83fbf	0.35986134
60	0x3efd421d	0.49464503
61	0x3eaccb34	0.33748782
62	0x3f098eb3	0.53733367
63	0x3e6f8b70	0.23393035

gnn_list.0.nn.3.bias f4 [64]
0	0xbef4b053	-0.47790775
1	0xbdb4873b	-0.08814856
2	0xbde13308	-0.109960616
3	0xbe03d319	-0.12873496
4	0xbe9a6d9e	-0.30161756
5	0xbc09a47c	-0.008401033
6	0xbec8bf4f	-0.39208457
7	0xbe8fd224	-0.28090012
8	0xbe0d2fd3	-0.13787775
9	0xbe8bb6cd	-0.27287903
10	0xbe85b799	-0.26116636
11	0xbebc7ca2	-0.36813837
12	0xbe13c1ff	-0.14429472
13	0xbe1851e9	-0.14874996
14	0xbed44c1d	-0.4146432
15	0xbe91a03e	-0.28442568
16	0xbf02a7c2	-0.5103723
17	0xbe15dcaf	-0.14634965
18	0xbef18b5d	-0.47176638
19	0xbdf43d0c	-0.11925706
20	0xbe385f43	-0.1800509
21	0xbe1035ea	-0.14083067
22	0xbe42cd79	-0.19023694
23	0xbce2b412	-0.027673755
24	0xbe6bee33	-0.23040085
25	0xbd8d68fc	-0.0690479
26	0x3d8906a3	0.06690719
27	0xbe29ab22	-0.16569188
28	0xbd633fea	-0.055480875
29	0x3cc92e87	0.024558319
30	0xbe287d72	-0.16454104
31	0xbe315c34	-0.17320329
32	0xbe5c81e5	-0.21533926
33	0xbeb2f476	-0.34952134
34	0xbcf0915d	-0.02936619
35	0xbe3bb116	-0.18329272
36	0xbdd6aeb9	-0.104825445
37	0xbe304a18	-0.17215765
38	0xbda86271	-0.08221901
39	0xbdbb8283	-0.091557525
40	0xbdc6b543	-0.09702542
41	0xbe1df515	-0.15425523
42	0xbe8b34ce	-0.27188724
43	0xbd960523	-0.073251985
44	0xbf104c5a	-0.56366503
45	0xbcd7e862	-0.026355926
46	0xbd1c9877	-0.03823134
47	0xbdbef1b7	-0.09323447
48	0xbeb42b62	-0.35189348
49	0xbe8df4a7	-0.27725717
50	0xbe81f425	-0.2538158
51	0xbee1fb45	-0.44137016
52	0xbee2447f	-0.44192883
53	0xbe8ab915	-0.2709433
54	0xbe004d55	-0.125295
55	0xbe6c8b11	-0.23099925
56	0xbeb86d3b	-0.36020836
57	0x3d28746f	0.041126665
58	0xbd541968	-0.05178204
59	0xbe5dae8b	-0.21648614
60	0xbe39bcc9	-0.18138422
61	0xbe2c7bf7	-0.16844164
62	0x3d243e2d	0.040098358
63	0xbe2c8fbc	-0.16851705

gnn_list.0.nn.3.running_mean f4 [64]
0	0x40a4dfc1	5.1523137
1	0xc0b6387b	-5.6943946
2	0xc0a35a25	-5.104754
3	0x3fafb858	1.3728132
4	0x403b9160	2.930748
5	0xc09c49a7	-4.883991
6	0xc06fc4ed	-3.7463944
7	0x40e495db	7.143293
8	0x40dd6f3c	6.9198284
9	0x3f2f1f20	0.6840687
10	0x3e56598f	0.20932601
11	0xc06c2328	-3.6896458
12	0x3ebe3536	0.37149972
13	0xc07de7fb	-3.967284
14	0x406474ec	3.5696363
15	0x4087a5a1	4.2389684
16	0x40c3f4d0	6.1236343
17	0xc046cc9c	-3.1062384
18	0x3f91e1d6	1.1397045
19	0x3f5242e7	0.82133335
20	0xc0104cc0	-2.2546844
21	0x3fed159d	1.8522221
22	0xc0ce009d	-6.437575
23	0xc0657e49	-3.5858328
24	0xc0da22b0	-6.8167343
25	0xc0a2a441	-5.0825505
26	0xc0b4c7ad	-5.6493745
27	0xc05cc77a	-3.449675
28	0xc03f933a	-2.993361
29	0xc0820d1a	-4.0640993
30	0xc03d23df	-2.9553144
31	0xbf2a28a2	-0.6646825
32	0xc0484d4c	-3.1297178
33	0x3e0df9cc	0.13864821
34	0xbf65b524	-0.89729524
35	0x3fc13761	1.5095025
36	0xc100a424	-8.040073
37	0x40d4052f	6.625633
38	0xc0a5450a	-5.1646776
39	0xc0f62013	-7.6914153
40	0xbff5716f	-1.9175242
41	0xbfb48019	-1.4101592
42	0xbfb2fd6e	-1.3983591
43	0x3fd24d40	1.6429825
44	0x404aacc7	3.1667955
45	0xc0782650	-3.8773384
46	0xc048b057	-3.135763
47	0x3fd95d66	1.6981628
48	0x406e5d67	3.7244508
49	0x3f0e2b7d	0.5553511
50	0xbf0c68f1	-0.5484763
51	0xbe54ebca	-0.20793071
52	0x3f23a81b	0.63928384
53	0xbe9749aa	-0.2954839
54	0xc05962e1	-3.39666
55	0x3b90ad49	0.0044151885
56	0x3f5b1063	0.8557188
57	0xc04cbe57	-3.1991174
58	0xbf6dfdbf	-0.9296531
59	0xbf0408fb	-0.51576203
60	0x4085bb4c	4.1791134
61	0xc0296b3c	-2.64717
62	0xc0ae2c06	-5.442874
63	0x3d388d9f	0.045056935

gnn_list.0.nn.3.running_var f4 [64]
0	0x4064c445	3.5744793
1	0x4023a77c	2.5570974
2	0x403f44f7	2.9885843
3	0x3fdc802f	1.7226619
4	0x3fe1496b	1.760053
5	0x402c4fa8	2.6923618
6	0x3fe6011f	1.7969092
7	0x40915ece	4.542823
8	0x409d3759	4.9130063
9	0x4008e4ee	2.1389728
10	0x3fba511b	1.4556001
11	0x3f9e6bbd	1.2376629
12	0x403153c7	2.7707384
13	0x403073ee	2.7570758
14	0x40597577	3.3977945
15	0x3fe967fa	1.8234856
16	0x40488015	3.1328175
17	0x3f96738b	1.1754011
18	0x3ff9b371	1.9507886
19	0x4064eb7e	3.5768733
20	0x3fdcfeb2	1.7265227
21	0x4022bb96	2.5426993
22	0x40184ba3	2.3796165
23	0x4026bc9e	2.6052623
24	0x407d4eba	3.95793
25	0x4025fb36	2.5934577
26	0x4038d0fb	2.8877552
27	0x404e6596	3.2249503
28	0x4019b0f5	2.4014256
29	0x4015bbde	2.3395915
30	0x402094bf	2.5090787
31	0x3f4e5575	0.8059915
32	0x3f8f03c6	1.1173027
33	0x40481dae	3.1268115
34	0x402efa65	2.7340329
35	0x404a608a	3.1621423
36	0x40a8bddf	5.2731776
37	0x409f7207	4.9826694
38	0x4052626b	3.287257
39	0x4094a92b	4.6456504
40	0x402c1f1b	2.6893985
41	0x3fa7ab06	1.3099067
42	0x4048f55f	3.1399763
43	0x40923001	4.56836
44	0x3fab09ca	1.3362362
45	0x3fc6e404	1.5538335
46	0x4007389f	2.1128309
47	0x40a6a1d0	5.2072525
48	0x407018ed	3.7515213
49	0x40317456	2.7727256
50	0x406de88a	3.717318
51	0x3f939339	1.1529304
52	0x3f502d83	0.81319445
53	0x3fd58d5d	1.6683766
54	0x400cb4fe	2.198547
55	0x3fe7e8a4	1.8117871
56	0x4001da8d	2.0289643
57	0x404b83a3	3.1799095
58	0x4030b9a3	2.7613304
59	0x3fb5a006	1.418946
60	0x3fe40b9b	1.7816042
61	0x400a4dd6	2.1610007
62	0x40312d15	2.7683766
63	0x3f7a9732	0.97886956

gnn_list.1.nn.0.weight f4 [64, 64]
0	0x3e071892	0.13192967
1	0xbdcb5037	-0.09927409
2	0xbef8a9a4	-0.48566926
3	0x3e4f5537	0.2024735
4	0xbe2bca23	-0.16776328
5	0x3ec9d3d9	0.3941944
6	0xbf1a9637	-0.6038546
7	0x3e8524b2	0.2600456
8	0xbb7915cb	-0.0038007374
9	0xbd5439a7	-0.051812794
10	0xbfd9a346	-1.7002952
11	0xbf0ccb37	-0.5499758
12	0x3e27a24b	0.16370504
13	0xbe4e98ae	-0.2017543
14	0x3e4123b2	0.18861273
15	0xbe27c479	-0.16383542
16	0x3ea371d2	0.31922776
17	0x3e8bab4e	0.27279133
18	0xbe133610	-0.14376092
19	0x3e6be581	0.23036768
20	0xbe1bf567	-0.15230332
21	0x3e5df200	0.21674347
22	0xbdca8c2b	-0.09890016
23	0x3ea9b49d	0.3314561
24	0xbe2b4af2	-0.16727808
25	0xbd3d00ec	-0.046143457
26	0x3e9b9700	0.3038864
27	0xbeda26a6	-0.4260761
28	0x3e51208a	0.20422569
29	0xbf5f6803	-0.87268084
30	0xbfc506d9	-1.5392715
31	0xbf35d3de	-0.7102641
32	0xbe9f64ae	-0.311315
33	0xbda746db	-0.081678115
34	0x3ea5aa41	0.32356456
35	0x3de2f686	0.11082177
36	0x3d7f1ca4	0.062283173
37	0x3e3cfa49	0.18454851
38	0xbf724f21	-0.9465199
39	0x3e3017a8	0.17196524
40	0xbdd6acaf	-0.104821555
41	0x3e2f59da	0.1712412
42	0xbf6b1313	-0.9182598
43	0xbcdc5caf	-0.026899664
44	0xbd964113	-0.07336631
45	0xbee93541	-0.45548442
46	0xbee4392c	-0.4457487
47	0xbdbb6837	-0.09150737
48	0x3dfa7b6c	0.12230572
49	0xbdb75a99	-0.08952827
50	0xbdf3aaa7	-0.11897784
51	0xbf09bd63	-0.53804606
52	0x3d64629f	0.055758115
53	0x3e883f6a	0.2661088
54	0xbeb39a94	-0.3507887
55	0x3d8c07a9	0.068373986
56	0xbe8ae2c1	-0.27126125
57	0xbf8a48f4	-1.0803514
58	0x3dca1f27	0.09869223
59	0xbe891a6d	-0.26777974
60	0x3d2a609b	0.041596036
61	0xbf91214f	-1.133829
62	0x3eb09058	0.34485126
63	0xbf359925	-0.70936805
64	0xbd8447e1	-0.06459022
65	0x3ddbb14b	0.10727175
66	0x3d11ffc4	0.035644308
67	0xbe196221	-0.1497884
68	0x3ce80858	0.028324291
69	0xbd9ee2f3	-0.07758131
70	0xbc66c3c7	-0.014084763
71	0xbd45af8b	-0.048263114
72	0xbe1f223c	-0.15540403
73	0x3b5c992e	0.0033660638
74	0xbd464bf4	-0.04841228
75	0x3d62a9ef	0.055337843
76	0x3cc9f190	0.024651319
77	0xbda7a96b	-0.08186611
78	0x3bd6e4d1	0.0065580388
79	0xbd5bccf9	-0.053662274
80	0xbdb1f03d	-0.086884
81	0xbd017b13	-0.031611513
82	0xbe07d34a	-0.13264194
83	0xbcb0de0e	-0.021590259
84	0xbe161092	-0.14654759
85	0xbe43182e	-0.19052193
86	0xbe165513	-0.1468089
87	0xbd635e55	-0.055509884
88	0xbd9c0244	-0.0761762
89	0x3d49f142	0.049302347
90	0xbe11a4fa	-0.1422309
91	0xbdea7514	-0.11448112
92	0xbde79a5d	-0.11308739
93	0xbe10881f	-0.14114426
94	0x3dc9152f	0.098184936
95	0xbd3f1fb6	-0.0466611
96	0x3bf0262a	0.0073287683
97	0x3c8b2e6e	0.016989913
98	0x3d05bfc8	0.0326536
99	0xbdfbebfb	-0.12300869
100	0xbdb04792	-0.08607401
101	0xbdaa7d38	-0.08324665
102	0xbbb6709c	-0.0055676233
103	0xbe17ff3d	-0.1484346
104	0xbe029bfd	-0.12754817
105	0x3d5fd979	0.054650757
106	0x3d6deccb	0.05808715
107	0xbe2367b9	-0.15957536
108	0xbe07606b	-0.13220374
109	0x3d074abd	0.03303026
110	0xbd2ed177	-0.04268023
111	0x3ca08fb4	0.019599773
112	0xbe067185	-0.13129242
113	0xbc7cb339	-0.015423589
114	0xbd592bc4	-0.053020254
115	0xbd92b216	-0.071628734
116	0xbe3a0711	-0.18166758
117	0xbd4de50e	-0.05026727
118	0x3d2108fe	0.039315216
119	0xbe286b3e	-0.1644716
120	0xbc6985b1	-0.014253066
121	0x3d7b2c80	0.061321735
122	0x3ca56324	0.020188875
123	0xbd674646	-0.056463502
124	0x3d917368	0.0710209
125	0xbd487b66	-0.048945807
126	0x3ddbb34b	0.10727557
127	0x3cc9fc3c	0.024656408
128	0xbe897993	-0.26850566
129	0x3e1ad298	0.15119398
130	0xbde9d1f8	-0.114170015
131	0xbf247d15	-0.6425336
132	0xbe65f713	-0.22457533
133	0x3c43229c	0.011910107
134	0xbd4ffc59	-0.050777767
135	0x3ed58254	0.41700995
136	0x3e62006e	0.22070476
137	0xbc511f06	-0.012763744
138	0x3dd17f64	0.10229376
139	0x3e60d89b	0.21957628
140	0x3eae794a	0.3407691
141	0xbd9a6c81	-0.07540227
142	0x3e1d7377	0.15376078
143	0xbefeef6d	-0.49792042
144	0x3eb016cc	0.34392393
145	0xbe102c66	-0.14079437
146	0x3ef0df33	0.47045287
147	0x3e2c954c	0.16853827
148	0x3e1b0b9d	0.15141149
149	0x3d243257	0.04008707
150	0x3e891938	0.26777053
151	0xbf29642e	-0.6616849
152	0x3d2ca594	0.042150095
153	0xbe779fda	-0.24182072
154	0xbf87585c	-1.057384
155	0xbec05028	-0.37561154
156	0xbd9ccc3e	-0.076561436
157	0x3eae9251	0.34096006
158	0x3e831dea	0.2560876
159	0x3e26b91d	0.16281553
160	0x3ee81195	0.45325914
161	0x3f2a28b6	0.6646837
162	0xbf0b1543	-0.5432932
163	0xbda61035	-0.0810856
164	0x3e094879	0.13406552
165	0x3eb76657	0.35820267
166	0xbd4c6c45	-0.04990794
167	0xbbd07b4b	-0.006362354
168	0xbe3e1cc6	-0.18565664
169	0xbd115355	-0.035479862
170	0xbdd465d5	-0.103709854
171	0x3ca7f179	0.020500885
172	0xbebb98af	-0.36639926
173	0xbec708d3	-0.3887392
174	0x3e66f71c	0.22555202
175	0x3e7fd67e	0.24984166
176	0x3efda060	0.4953642
177	0x3d3371ae	0.043809585
178	0x3cf3ad2f	0.029745666
179	0x3d681b39	0.056666587
180	0xbe1d0de3	-0.15337329
181	0x3f155cf6	0.5834497
182	0xbcc8d919	-0.024517583
183	0xbf270aa1	-0.65250593
184	0xbc392607	-0.01130057
185	0x3e18d5d7	0.14925323
186	0x3e9295b2	0.28629833
187	0x3e589bb6	0.21153149
188	0x3e9d2d0d	0.30698434
189	0x3e0474dd	0.12935205
190	0xbe066655	-0.13124974
191	0xbdb2d2dc	-0.087316245
192	0x3dc379bc	0.09544703
193	0xbf85fcfa	-1.0467827
194	0xbe6ef387	-0.23335086
195	0x3e3f0b36	0.1865662
196	0x3e9142c9	0.28371266
197	0xbf839749	-1.0280544
198	0xbe3d5c0b	-0.18492143
199	0x3e8a7727	0.2704403
200	0x3ee2b320	0.44277287
201	0xbdcb0ab8	-0.09914154
202	0x3ea0168a	0.31267196
203	0xbf24fb78	-0.6444621
204	0x3ed435a1	0.41447166
205	0xbeadeed9	-0.3397129
206	0x3e8e7a0a	0.27827483
207	0xbe966c56	-0.2937953
208	0x3e2903f6	0.16505417
209	0xbf81759c	-1.0114017
210	0xbd6dee7e	-0.058088772
211	0x3e2d126f	0.16901563
212	0xbe145894	-0.14486915
213	0x3e154236	0.14576039
214	0xbf1b4ae5	-0.60661155
215	0xbfa09e86	-1.2548378
216	0xbea869f6	-0.32893342
217	0xbed250fe	-0.41077417
218	0xbeef6ea7	-0.4676411
219	0xbe6e3be0	-0.23265028
220	0xbf575d1a	-0.84126437
221	0x3f0ea30f	0.5571756
222	0x3ea02c13	0.31283626
223	0x3e491d58	0.196401
224	0x3e9007c2	0.2813092
225	0x3e811b3b	0.25216088
226	0xbf1c6135	-0.61085826
227	0xbf0ca2d9	-0.54935986
228	0xbed15636	-0.40886086
229	0x3d8af299	0.06784553
230	0xbe864de6	-0.26231307
231	0xbf28f34e	-0.65996253
232	0xbf14117a	-0.5783917
233	0xbf6533ee	-0.89532363
234	0xbf9f183c	-1.2429271
235	0x3eb86565	0.36014858
236	0xbe0e5013	-0.13897733
237	0xbdbc3759	-0.09190244
238	0x3e3afddf	0.18260907
239	0x3e49a9b3	0.19693641
240	0x3e8b9c96	0.27267903
241	0x3e499961	0.19687416
242	0xbca1624c	-0.019700192
243	0x3e75866e	0.23977062
244	0x3d8bd350	0.06827414
245	0xbcc2d9cd	-0.023785496
246	0xbe24f35d	-0.1610846
247	0xbeef7265	-0.46766964
248	0x3ea6d4ac	0.3258413
249	0x3eb81f81	0.35961536
250	0x3d803e68	0.06261903
251	0x3e58e7a4	0.21182114
252	0x3e32e151	0.17468764
253	0x3d97beff	0.074094765
254	0xbf677e8a	-0.9042746
255	0x3eefa7d0	0.46807718

gnn_list.1.nn.0.bias f4 [64]
0	0x3e9ddba1	0.30831626
1	0xbcaa955d	-0.020823175
2	0xbe572dcc	-0.21013564
3	0x3e0b7232	0.13617781
4	0x3e347ea3	0.17626433
5	0xbd5cc54e	-0.053899102
6	0xbe0a388f	-0.13498138
7	0x3e5a7bf5	0.21336348
8	0xbe57f4f3	-0.21089534
9	0x3d3bdc3c	0.04586433
10	0x3ecd660a	0.40116912
11	0xbee33657	-0.44377396
12	0x3e6cbc12	0.23118618
13	0xbd16755c	-0.036733016
14	0x3ddee3b3	0.10883274
15	0x3e957b2e	0.2919554
16	0x3e924029	0.28564575
17	0x3dda4f0f	0.106596105
18	0xbe036abb	-0.12833683
19	0xbe0cd32a	-0.13752428
20	0xbcbd7f96	-0.023132127
21	0xbe1f6a29	-0.1556784
22	0xbeaa987d	-0.33319464
23	0x3df16680	0.117871284
24	0x3e341b53	0.17588548
25	0xbd9ce4d6	-0.076608345
26	0x3c6eaf4a	0.014568159
27	0x3f3830bc	0.7194936
28	0x3e7ce713	0.24697523
29	0x3eb13959	0.34614065
30	0xbceebef9	-0.029143797
31	0xbe1a5a8d	-0.15073605
32	0xbe1cad37	-0.15300451
33	0xbd8aa75e	-0.06770204
34	0xbe132725	-0.14370401
35	0xbe821cf8	-0.25412726
36	0xbde9ecf4	-0.11422148
37	0xbc12b234	-0.00895362
38	0x3e7e8731	0.24856259
39	0x3e8cc375	0.27492872
40	0x3e2608c9	0.16214289
41	0xbe2ec9fa	-0.17069235
42	0x3e2fd085	0.17169388
43	0x3ea42e97	0.32066795
44	0x3e4dc4bb	0.20094578
45	0xbda65e32	-0.08123435
46	0x3e19ce3c	0.15020078
47	0xbd00afef	-0.031417783
48	0xbe03cde3	-0.12871508
49	0xbee5ae3b	-0.4485949
50	0xbd88a7a0	-0.06672597
51	0x3e2e8bd4	0.17045528
52	0x3e284dd5	0.1643594
53	0x3e1d9d27	0.1539198
54	0xbe96ff73	-0.29491767
55	0xbe139f2f	-0.14416192
56	0xbf2b8fbf	-0.67016214
57	0x3e4b560b	0.19857042
58	0xbdf5f947	-0.120104365
59	0x3c2d30e4	0.010570738
60	0xbd9ae511	-0.07563222
61	0xbdc60c78	-0.09670347
62	0x3d189350	0.037249863
63	0x3df9d0ab	0.121980034

gnn_list.1.nn.2.weight f4 [64, 64]
0	0x3ee57732	0.448175
1	0xbc88abf8	-0.016683564
2	0xbee95054	-0.45569098
3	0x3d3e5ed1	0.046477143
4	0x3eb4d0d5	0.35315576
5	0x3d2294e5	0.03969278
6	0x3cf76d73	0.030203557
7	0x3e0eb0a1	0.13934566
8	0xbd17a695	-0.0370241
9	0xbd4a8114	-0.049439505
10	0x3e89b663	0.26896963
11	0xbd726a03	-0.059183132
12	0xbe473036	-0.19451985
13	0xbdc6b73a	-0.097029164
14	0xbca4597f	-0.020062206
15	0xbde7d762	-0.11320378
16	0x3ebecdbd	0.3726634
17	0x3e955ef8	0.29174018
18	0xbe24cd40	-0.16093922
19	0xbc8bce6f	-0.017066209
20	0xbdfb6e23	-0.12276866
21	0xbe904dce	-0.2818436
22	0x3a0e66a0	0.00054321624
23	0x3e125744	0.14291102
24	0x3e8e4bf7	0.27792332
25	0xbdbdf788	-0.092757285
26	0x3cc2a463	0.023760026
27	0xbed7d31e	-0.42153257
28	0xbac15fee	-0.0014753321
29	0x3e54f6df	0.20797299
30	0x3d8bd432	0.068275824
31	0xbf3e42c8	-0.7432065
32	0x3d8ebd25	0.0696967
33	0xbe5489cc	-0.2075569
34	0xb7c7f5b7	-2.3837069e-05
35	0xbe90e3db	-0.2829884
36	0xbe8352ec	-0.25649202
37	0x3eb232f3	0.34804496
38	0xbf10623d	-0.563999
39	0xbe5c9416	-0.21540865
40	0x3ebf6788	0.37383676
41	0xbea98e8f	-0.33116576
42	0xbe7c2dd9	-0.24626864
43	0x3e517a0a	0.2045671
44	0x3e90d94c	0.28290784
45	0x3d880690	0.06641877
46	0x3d186530	0.037205875
47	0xbd5eef0e	-0.0544272
48	0xbe8b034e	-0.2715096
49	0x3d04933d	0.03236698
50	0xbea2d4b9	-0.3180292
51	0x3eb0c398	0.34524226
52	0xbee9313a	-0.4554537
53	0x3d3fe815	0.04685219
54	0xbf6b2252	-0.91849244
55	0xbd8453a2	-0.06461264
56	0xbf065f02	-0.5248872
57	0xbfaf8507	-1.3712472
58	0x3dd9e9d7	0.106403045
59	0xbe678050	-0.22607541
60	0x3ccdc9b8	0.025120601
61	0xbf0bb9fd	-0.5458067
62	0x3eb1e1c4	0.34742558
63	0xbe2c9f52	-0.16857651
64	0xbecc7924	-0.39936173
65	0xbda65d11	-0.0812322
66	0xbe34835b	-0.17628233
67	0x3ded1315	0.11575905
68	0x3ec0c301	0.37648776
69	0x3d574008	0.0525513
70	0x3dc4e76b	0.09614452
71	0x3dea5832	0.11442603
72	0xbe7c2bf0	-0.24626136
73	0xbd057d56	-0.032590233
74	0x3e44c23d	0.19214721
75	0xbed187a3	-0.40923795
76	0xbee2cabc	-0.442953
77	0xbd6b7066	-0.05748024
78	0x3e8d3554	0.2757975
79	0x3eb14e01	0.34629825
80	0x3d7887df	0.06067645
81	0x3c8346e1	0.016025009
82	0xbd400aeb	-0.046885412
83	0xbe10294b	-0.14078252
84	0xbcc2a925	-0.023762295
85	0xbf1ba015	-0.6079114
86	0x3e4bb968	0.19894946
87	0x3e7eea38	0.24894035
88	0xbef057f4	-0.46942103
89	0x3c365dbb	0.0111307455
90	0xbdcc94f3	-0.09989347
91	0xbca2c92f	-0.019871322
92	0x3c9c4253	0.019074595
93	0x3e5e4e47	0.21709548
94	0x3dbe6fcd	0.09298668
95	0x3e29bab8	0.16575134
96	0xbe0b87dd	-0.13626046
97	0xbd289da1	-0.04116595
98	0xbe0a2fe2	-0.13494828
99	0xbb32a914	-0.0027261423
100	0x3ea954b8	0.33072448
101	0x3e3e2f8a	0.18572822
102	0xbe91158d	-0.28336754
103	0xbf0fd8fd	-0.5619047
104	0x3e067c5b	0.13133375
105	0xbeaea90e	-0.34113353
106	0xbee94579	-0.45560816
107	0xbebbb03a	-0.36657888
108	0xbdd50015	-0.10400406
109	0xbdf57c0b	-0.1198655
110	0xbd950d0e	-0.072778806
111	0x3d8a1a63	0.06743314
112	0x3e480b37	0.19535528
113	0x3e95ea24	0.29280198
114	0xbee0bdfa	-0.4389494
115	0x3d23eae9	0.04001895
116	0x3ef37825	0.475526
117	0x3ea5c7d3	0.32379016
118	0xbf978fd7	-1.1840771
119	0x3cc1ebd1	0.023672016
120	0xbd9a223a	-0.075260594
121	0xbe13bfbb	-0.14428608
122	0x3e17bf58	0.14819086
123	0x3e0b05ea	0.13576475
124	0x3d790a73	0.06080098
125	0xbe1b3d5c	-0.15160125
126	0xbe6fa85a	-0.23404065
127	0x3eb14f5b	0.34630856
128	0xbe815b92	-0.25265175
129	0xbd5a80ba	-0.05334542
130	0x3e9ab884	0.302189
131	0xbed377e9	-0.41302422
132	0xbf428dcf	-0.7599763
133	0x3e00375f	0.12521122
134	0xbdbc4e3f	-0.09194612
135	0xbf644376	-0.8916544
136	0x3df8c4ae	0.12146889
137	0x3d9b857f	0.07593822
138	0xbe8060a9	-0.25073746
139	0xbe080d79	-0.1328639
140	0x3d3d9725	0.04628672
141	0x3c3cb9a7	0.011518872
142	0xbe36b39c	-0.17841953
143	0xbe8cc971	-0.27497438
144	0xbb802638	-0.003910806
145	0xbeaf5e67	-0.3425171
146	0xbda89dc6	-0.08233218
147	0xbe134dc5	-0.14385135
148	0xbb9ffcd5	-0.004882435
149	0x3eccad95	0.39976183
150	0xbe650fdd	-0.22369333
151	0x3d840473	0.06446161
152	0xbde22513	-0.110422276
153	0x3b49393b	0.0030704278
154	0x3cf5c8e4	0.030003019
155	0x3e69dc41	0.22837926
156	0xbd52849d	-0.051396
157	0x3d76afcf	0.060226258
158	0xbd48e5d3	-0.049047302
159	0x3f14c9bf	0.5812034
160	0xbca46c2f	-0.020071117
161	0xbe57bc21	-0.21067859
162	0x3dd0ea68	0.102009594
163	0xbe8f7854	-0.2802149
164	0x3ea3ad3d	0.31968108
165	0x3e7ec57f	0.24880026
166	0x3f131ef2	0.57469094
167	0xbe4b940c	-0.19880694
168	0xbe8c4915	-0.27399507
169	0xbedb09fa	-0.4278105
170	0xbf323686	-0.69614446
171	0xbed19e91	-0.4094129
172	0xbd72979f	-0.05922663
173	0x3dbc5cc9	0.09197385
174	0xbe77017e	-0.24121663
175	0x3cb0efc1	0.021598699
176	0xbbcf9fa9	-0.0063361716
177	0x3e82dc2d	0.25558606
178	0xbe8f3964	-0.27973473
179	0x3ef77137	0.48328564
180	0x3efa588f	0.4889569
181	0x3b625931	0.0034538026
182	0xbeb18fe1	-0.34680083
183	0x3b304b6c	0.0026900424
184	0x3f6f36e2	0.9344312
185	0x3c0956ae	0.008382482
186	0x3db98cfa	0.09060092
187	0x3c8faabb	0.017537465
188	0xbd9c9465	-0.076454915
189	0x3e605877	0.21908747
190	0xbe0f7639	-0.14009942
191	0xbdadd94c	-0.08488712
192	0xbeb333f5	-0.35000578
193	0x3d837323	0.06418445
194	0x3b5aae76	0.0033368147
195	0x3efda449	0.49539402
196	0x3d26a245	0.040682096
197	0xbdeaab59	-0.11458463
198	0x3c89c3f6	0.016817074
199	0x3dbd802b	0.09252962
200	0x3d689e36	0.056791507
201	0xbd128ccb	-0.035778802
202	0x3e0d209c	0.1378197
203	0xbf209219	-0.6272293
204	0xbecab3c2	-0.3959027
205	0x3d5436d0	0.051810086
206	0x3eb08926	0.34479636
207	0xbec27d86	-0.37986392
208	0xbea721db	-0.32643017
209	0x3ea578c5	0.32318702
210	0x3df145ca	0.11780889
211	0x3e35496a	0.17703786
212	0x3d65b949	0.056084905
213	0x3d88cd0f	0.06679737
214	0x3ececc60	0.403903
215	0xbefa17b9	-0.48846224
216	0xbe2fb45e	-0.17158648
217	0x3c91b66d	0.017787183
218	0xbcfaace6	-0.030600023
219	0xbe3f26df	-0.18667172
220	0xbf272562	-0.65291417
221	0xbee47899	-0.4462326
222	0x3d37187a	0.044701077
223	0x3eaa3c6d	0.33249226
224	0x3e00d7b5	0.12582286
225	0xbe2d08c8	-0.16897881
226	0xbed9fde5	-0.4257652
227	0x3ea6133c	0.3243655
228	0xbf13b7ce	-0.5770234
229	0x3da86238	0.08221859
230	0xbf6311d8	-0.886991
231	0xbe515ca2	-0.20445493
232	0x3ed0fddb	0.40818676
233	0x3efb18c0	0.4904232
234	0x3f5dc74e	0.8663224
235	0xbe63e791	-0.22256304
236	0xbd9cce47	-0.07656532
237	0xbd8023d9	-0.062568374
238	0x3ed83695	0.42229143
239	0xbddc76d8	-0.10764855
240	0x3ed09abf	0.40743062
241	0xbe9e9e06	-0.30979937
242	0xbeb932bc	-0.3617152
243	0x3db131d1	0.0865208
244	0xbcc7153b	-0.024302116
245	0xbe067d92	-0.13133839
246	0xbe8a1872	-0.26971775
247	0xbc8cacf7	-0.01717232
248	0x3ea8aec7	0.32945845
249	0x3d9900d4	0.07470861
250	0xbd278bbe	-0.040904753
251	0x3f25c76c	0.6475742
252	0xbc5d1a76	-0.013495078
253	0x3f0ab7ba	0.54186594
254	0x3ceb2f4f	0.028709082
255	0xbebc14a8	-0.3673451

gnn_list.1.nn.2.bias f4 [64]
0	0x3daa11a0	0.08304143
1	0x3d73e782	0.059546955
2	0xbd9316ca	-0.07182081
3	0x3dec383d	0.11534164
4	0x3d51e363	0.051242243
5	0x3db49cd4	0.08818975
6	0xbd73fd9a	-0.059568025
7	0xbc1afab7	-0.009459189
8	0x3cbee7a7	0.02330382
9	0xbdd5d1f5	-0.10440437
10	0xbb84a807	-0.0040483507
11	0xbd77fc6e	-0.06054347
12	0x3cd91578	0.026499495
13	0x3c5d35c6	0.01350159
14	0x3c90fdd2	0.017699156
15	0xbd5e3c37	-0.054256644
16	0x3dc2496d	0.09486661
17	0xbb31bcd0	-0.0027120598
18	0x3d9241ba	0.071414426
19	0xbd8169a4	-0.063189775
20	0x3d29f982	0.041497715
21	0x3df7eb8f	0.12105476
22	0xbe145117	-0.14484058
23	0x3d0ea19e	0.0348221
24	0x3cfc368a	0.030787725
25	0x3e0b1831	0.13583447
26	0xbc0278ed	-0.007963401
27	0xbd0f8a18	-0.035043806
28	0xbc0c63f3	-0.008568752
29	0x3ddd04a5	0.107919015
30	0x3e25d702	0.161953
31	0xbddfac1c	-0.10921499
32	0xbb8ac8ce	-0.0042353636
33	0xbd61dc94	-0.055142
34	0xbd483b7f	-0.048884865
35	0xbd65e4fd	-0.056126583
36	0xbc76000c	-0.01501466
37	0x3dd0e24f	0.10199415
38	0xbe11ab69	-0.14225544
39	0xbe0ab0bb	-0.1354398
40	0xbce6b4be	-0.028162356
41	0xbde3fabc	-0.11131808
42	0x3cb95c11	0.022626908
43	0x3de2b82d	0.11070285
44	0x3d8b673b	0.06806799
45	0x3dd3b9d6	0.1033818
46	0x3bbdb071	0.0057888557
47	0x3de6e3e2	0.11273934
48	0x3d735eda	0.05941663
49	0xbde0e7f9	-0.10981745
50	0x3d5fa467	0.054600146
51	0xbd641789	-0.055686507
52	0xbcc0d56e	-0.023539271
53	0x3d78d280	0.060747623
54	0xbd31ed73	-0.04343934
55	0x3cfa9299	0.030587481
56	0xbe04421a	-0.1291584
57	0x3d2e1847	0.04250362
58	0x3de8e4d9	0.11371774
59	0x3cb0a6a8	0.021563843
60	0xbd531d34	-0.051541522
61	0xbdd23d38	-0.10265583
62	0x3d998d47	0.0749765
63	0xbd278aa5	-0.040903706

gnn_list.1.nn.3.weight f4 [64]
0	0x3f18a69d	0.5962923
1	0x3f179b71	0.5922156
2	0x3f080f49	0.53148323
3	0x3f256642	0.6460916
4	0x3f6dad89	0.9284292
5	0x3f5044b0	0.8135481
6	0x3f57bdfa	0.84274256
7	0x3f237303	0.6384737
8	0x3f02408e	0.5087975
9	0x3f405684	0.7513201
10	0x3f239a8a	0.6390768
11	0x3eea352e	0.45743698
12	0x3f54fd9f	0.83199495
13	0x3f1bea6f	0.6090459
14	0x3f0a93c2	0.5413171
15	0x3f45a06d	0.77197915
16	0x3ee3b5c0	0.44474602
17	0x3f253d2d	0.6454647
18	0x3f699fc2	0.91259396
19	0x3f0f7c84	0.5604937
20	0x3f32cbf5	0.69842464
21	0x3f56bce5	0.8388198
22	0x3f2e986d	0.68201333
23	0x3f3ac27b	0.72953004
24	0x3f1334f4	0.57502675
25	0x3f268d8d	0.6505974
26	0x3f1009ca	0.56264937
27	0x3f640263	0.8906614
28	0x3f66b6fe	0.90122974
29	0x3f25a1f1	0.6470023
30	0x3f588692	0.8458034
31	0x3f2ad1b3	0.66726226
32	0x3f0e51fd	0.55593854
33	0x3f4b6ac4	0.79459786
34	0x3f4945d5	0.7862218
35	0x3f1ea379	0.6196819
36	0x3f16f28d	0.58963853
37	0x3f0b5bd2	0.5443698
38	0x3f87754d	1.0582672
39	0x3f34c3a7	0.7061104
40	0x3f41f5f8	0.75765944
41	0x3f590122	0.84767354
42	0x3f2ae3a8	0.66753626
43	0x3f47f3ba	0.7810627
44	0x3f4c88fd	0.7989653
45	0x3f1e49d9	0.6183143
46	0x3f28827e	0.65824115
47	0x3ee76ea0	0.45201588
48	0x3f1687a3	0.58800715
49	0x3f45aecf	0.7721986
50	0x3f5060e7	0.8139786
51	0x3f09abdb	0.53777856
52	0x3f2bd9da	0.6712929
53	0x3f03acac	0.5143535
54	0x3efa5c46	0.48898524
55	0x3f46fc40	0.7772865
56	0x3f40e40c	0.7534797
57	0x3f191a6e	0.59805954
58	0x3f2d2131	0.6762877
59	0x3f7672f5	0.9626916
60	0x3ee06bfd	0.4383239
61	0x3f1dce71	0.6164313
62	0x3f3aad08	0.72920275
63	0x3f0f8c8c	0.5607383

gnn_list.1.nn.3.bias f4 [64]
0	0xbe70c94e	-0.23514292
1	0xbe63a40c	-0.22230548
2	0xbe96a9de	-0.29426473
3	0xbebff29d	-0.37489787
4	0xbf447f2c	-0.7675655
5	0xbee58287	-0.44826147
6	0xbdbbeca5	-0.09175996
7	0xbebc90a3	-0.368291
8	0xbddc8d27	-0.1076911
9	0xbe8d0b5b	-0.27547726
10	0xbd99a860	-0.07502818
11	0xbdaf0c63	-0.085472845
12	0xbf039141	-0.51393515
13	0xbed028d0	-0.40656137
14	0xbe7833d3	-0.2423852
15	0xbec474b1	-0.38370278
16	0xbe84fb7e	-0.25973123
17	0xbe7a0557	-0.244161
18	0xbe982adf	-0.29720208
19	0xbee18fb0	-0.44054937
20	0xbebab7ea	-0.3646844
21	0xbee164ce	-0.4402222
22	0xbda51243	-0.08060124
23	0xbda5c410	-0.080940366
24	0xbec1f3dd	-0.37881365
25	0xbdedf79e	-0.11619495
26	0xbdcb67b0	-0.09931886
27	0xbe3fac7e	-0.18718144
28	0xbeff9846	-0.49920863
29	0xbe18ae87	-0.14910327
30	0xbec850ed	-0.3912424
31	0xbc37cc74	-0.011218179
32	0x3c1ce444	0.009575907
33	0xbe467dcb	-0.19383924
34	0xbea413e3	-0.32046422
35	0xbe3d5216	-0.18488345
36	0x3de47b0b	0.11156281
37	0xbe1bafb1	-0.1520374
38	0xbe8962ec	-0.26833284
39	0xbe4a4ca4	-0.19755799
40	0xbe9dfad8	-0.3085544
41	0xbeb1789c	-0.3466233
42	0xbec4f0f8	-0.38465095
43	0xbe99f23e	-0.3006763
44	0xbe9ef8cd	-0.31049195
45	0xbe109cc4	-0.14122301
46	0xbe0f3e4d	-0.1398861
47	0xbdefe9df	-0.11714529
48	0xbcd86906	-0.026417267
49	0xbdd510ab	-0.1040357
50	0xbefdff34	-0.49608767
51	0xbe592588	-0.21205723
52	0xbe7f0769	-0.2490517
53	0xbea1cebe	-0.31603044
54	0xbe646f59	-0.22308101
55	0xbf0f9377	-0.5608439
56	0xbe8af9da	-0.27143747
57	0xbeaf93dc	-0.34292495
58	0xbe728089	-0.23681845
59	0xbee70593	-0.4512144
60	0xbe5bb641	-0.21456243
61	0xbecf38e7	-0.404731
62	0xbe6dbc71	-0.23216416
63	0xbe1a54a2	-0.15071347

gnn_list.1.nn.3.running_mean f4 [64]
0	0xc12b8048	-10.718819
1	0xc10c3ebf	-8.765319
2	0x4019f604	2.4056406
3	0xc1003520	-8.01297
4	0x407953f4	3.895749
5	0x40de8df1	6.954827
6	0xc14a845c	-12.657314
7	0xc053ed4a	-3.311358
8	0xc109bd14	-8.608662
9	0xc05e1193	-3.4698226
10	0x3fb45e11	1.4091207
11	0xbfd9f0db	-1.7026628
12	0x40187416	2.3820853
13	0xc0323dd7	-2.7850244
14	0xc02129c5	-2.5181744
15	0x3fafeada	1.3743546
16	0xc08d6ae5	-4.4192986
17	0xc1140b09	-9.252694
18	0xc102aa00	-8.166504
19	0xc0140d36	-2.3133063
20	0x4158299d	13.5101595
21	0x4111c97a	9.111689
22	0xc0b473f9	-5.639157
23	0xc1289cf5	-10.53832
24	0x3fc9b3be	1.5757978
25	0xc09d71eb	-4.920156
26	0x4035fa6f	2.8434103
27	0xc02f84eb	-2.7424877
28	0xc0cc004e	-6.375037
29	0xc105c91f	-8.361602
30	0xc0fd3e5d	-7.9138627
31	0xc08c9cc9	-4.394139
32	0xc139c639	-11.610894
33	0xc1261d13	-10.382098
34	0xc09a57e6	-4.82323
35	0xc02efc61	-2.734154
36	0x40d15788	6.541935
37	0xbf3eb306	-0.7449192
38	0xc10479d5	-8.279744
39	0x408e59b9	4.4484525
40	0xc0cf1bb1	-6.4721303
41	0x3fdebc56	1.7401226
42	0x3fb28153	1.3945717
43	0x413cecef	11.807845
44	0xc0700801	-3.7504885
45	0x404ae256	3.1700644
46	0xbfb91d36	-1.446204
47	0xbdac4216	-0.084110424
48	0xc12c33ac	-10.762615
49	0xc14b5e75	-12.710561
50	0xbf0b7edd	-0.54490453
51	0xc0b727fe	-5.723632
52	0xc086933e	-4.205474
53	0xc05ed9c8	-3.4820423
54	0xbeaa0833	-0.3320938
55	0xc0a571ae	-5.170127
56	0xc0cd71df	-6.4201503
57	0x408e28f1	4.4424977
58	0x407d667f	3.9593809
59	0xc0d85f1b	-6.7616096
60	0xc0a2822a	-5.078389
61	0x4115f9dd	9.373502
62	0xc11ea237	-9.914603
63	0xbf041eac	-0.516093

gnn_list.1.nn.3.running_var f4 [64]
0	0x41d9c4f6	27.221172
1	0x418ef766	17.8708
2	0x419b4499	19.408495
3	0x41d050d5	26.039469
4	0x42214047	40.31277
5	0x42147032	37.109566
6	0x41c19743	24.198858
7	0x4191c8d1	18.223055
8	0x41ca3207	25.274427
9	0x419ed386	19.853283
10	0x41760376	15.375845
11	0x41424a99	12.143212
12	0x41bc796c	23.559288
13	0x419e6637	19.79991
14	0x41de8c4f	27.81851
15	0x41fb9a4a	31.450336
16	0x4170e369	15.05552
17	0x41a7d7a7	20.980299
18	0x41cdaa0f	25.708036
19	0x41518006	13.093756
20	0x4219d3a2	38.456673
21	0x41ff6fb9	31.929552
22	0x41822d7b	16.272207
23	0x422b07f9	42.757786
24	0x41b71c11	22.888704
25	0x41993e2e	19.155361
26	0x41e013c2	28.009647
27	0x421f0a0a	39.759804
28	0x412ba8e8	10.728737
29	0x423b4483	46.816906
30	0x41a4efb5	20.617044
31	0x41ca97c0	25.324097
32	0x4205e034	33.46895
33	0x41c5f6fd	24.7456
34	0x41ceab18	25.833542
35	0x41835b2f	16.419523
36	0x4232a284	44.658707
37	0x41ee49cd	29.786036
38	0x42097b69	34.370518
39	0x41bd5035	23.664164
40	0x4181b32f	16.212492
41	0x41b31fad	22.390467
42	0x419a3f43	19.28089
43	0x41e734ed	28.900843
44	0x418f743b	17.931753
45	0x421dd99c	39.46251
46	0x41ab4331	21.407808
47	0x41c318f2	24.38718
48	0x41d2b989	26.340593
49	0x42729579	60.64597
50	0x417ab894	15.670063
51	0x41cd68d6	25.67619
52	0x41cd82a9	25.688799
53	0x418e6663	17.799994
54	0x41b71558	22.885422
55	0x41f8cb3d	31.099237
56	0x41dc1b08	27.513199
57	0x418942ea	17.157673
58	0x41ae91c2	21.82117
59	0x42358766	45.382225
60	0x41e70594	28.877724
61	0x41b357a5	22.417795
62	0x4144126a	12.254496
63	0x41d5a733	26.70664
