model_saved/AIDS700nef/2022-03-17_10-42-12/GSC_GNN_AIDS700nef_checkpoint_p10.pth (torch, 297351 bytes, 61 tensors)

gnn_list.0.nn.0.weight f4 [64, 29]
000000 91 ce bc bf 28 05 1d 3f b5 3d 17 bf a6 7c bc 3e
       -1.4750539 0.6133599 -0.5907853 0.3681385
000010 97 2b 08 3e df 0d 07 3c 78 75 04 3e d3 25 59 bd
       0.13297878 0.008243053 0.12935436 -0.053014588
000020 9c 22 59 be 64 6b d0 3e 4a 25 32 3b 96 92 55 3f
       -0.21204609 0.40706933 0.002718287 0.834268
000030 86 89 10 be e5 26 a5 be 09 10 cb be 54 63 dc bd
       -0.14114961 -0.32256237 -0.3966067 -0.10761133
000040 04 35 9b be 24 a2 64 be 68 8c ed 3e ad 6c c3 be
       -0.30313885 -0.22327477 0.46396184 -0.3816885
000050 fc 33 fb be da 9f c5 be 95 4f 8f 3d fe 17 69 bd
       -0.49063098 -0.3859852 0.06997601 -0.056907646
000060 3b 18 a9 3c 03 d0 8b 3d 10 2d 9e 3d 70 53 22 bd
       0.020641437 0.068267845 0.07723439 -0.039630353
000070 a6 ef fe 3d 01 73 ba 3e 6a 79 91 3e 08 02 c3 3e
       0.12448053 0.36415866 0.28412944 0.38087487
000080 da cf af 3e 31 bb 70 3e ac 77 72 3d f5 06 32 3f
       0.34338266 0.23508908 0.05919616 0.69541866
000090 eb 1d cf 3e 10 cc 8e 3e a4 62 a9 3e 58 9d 35 3f
       0.40452513 0.27890062 0.3308307 0.7094321
0000a0 51 21 36 3e 57 66 81 3e 1d b2 0e 3f 72 e4 52 3e
       0.17786147 0.25273392 0.5574053 0.20594957
0000b0 76 2e d8 3e 47 69 1c 3f b8 9e 9c 3d fc fc 05 3f
       0.42222947 0.6109814 0.07647461 0.5233915
0000c0 ad 8c c4 be 77 9b e5 3e d2 be c7 3e 70 0d e1 3e
       -0.38388577 0.44845173 0.39012772 0.43955564
0000d0 94 81 3e 3f e4 0c ac 3c ff ab 30 3e 30 4d 47 bc
       0.7441647 0.02100224 0.17253111 -0.012164399
0000e0 85 5b 4f 3c 7e d2 0c 3e 2b 76 2b 3d 79 70 3b 3e
       0.012656097 0.13752171 0.04186074 0.18304624
0000f0 96 f4 7a 3e dc d7 47 3e 1a e7 ee 3e 88 81 7b 3d
       0.24507365 0.19515938 0.46660691 0.061402828
000100 dc 0e 05 bf 2d ca 1a 3f 1e 35 41 be e5 ac 68 3e
       -0.519758 0.60464746 -0.18867919 0.22722204
000110 f6 3b 39 3d 04 4a 60 3e fa 29 da 3e 7a ec 9d bd
       0.0452232 0.21903235 0.4261015 -0.0771112
000120 9a 4e 93 3e 86 ef 19 be c6 e9 19 3f 1b 6b 95 3e
       0.28770906 -0.15032777 0.60122335 0.29183277
000130 79 20 2c 3e fa f3 36 3e 9a 6e 75 3f 6f 92 b0 3e
       0.16809262 0.17866507 0.9587189 0.3448672
000140 ce c2 49 be 1b 2c c0 be f7 b0 e6 3d 51 a4 23 3e
       -0.19703218 -0.3753365 0.11264222 0.1598065
000150 12 ff 34 3e 0d b2 ea bc 9d 07 38 3e 4a 5e 31 be
       0.17675427 -0.028649354 0.17971654 -0.17321125
000160 c9 f4 ac 3e 08 8c e0 3e 9a 02 1a be af fc 2c bf
       0.33780506 0.43856835 -0.15040055 -0.67573065
000170 e3 53 a8 bd e7 c7 8e be 1c 34 e4 bd 19 29 56 be
       -0.08219125 -0.27886888 -0.111427516 -0.20914115
000180 a4 39 58 be c4 79 19 be 3c c3 9d be 6c 09 01 be
       -0.21115738 -0.14987856 -0.30813015 -0.1260125
000190 53 73 07 be 34 94 9e 3c 85 71 ae be 90 48 e4 bd
       -0.13227586 0.019357778 -0.34070984 -0.11146653
0001a0 d3 9c e4 3c 4e 7c 1a be 4f ef 23 3d a3 10 ac 3e
       0.02790681 -0.15086481 0.040023144 0.33606443
0001b0 10 5e 15 3e 67 81 25 3d db 5a b5 3c 3e a2 bb bd
       0.14586663 0.04040661 0.02213805 -0.091618046
0001c0 87 1f b4 3d 6b e7 76 bd 96 78 d3 3d 0c fd 07 bd
       0.08795076 -0.06027929 0.10325734 -0.03320031
0001d0 fb 39 df 3e 97 1f d4 3e bb 3c ab bf 09 44 1d bf
       0.43598923 0.4143035 -1.3377908 -0.6143194
0001e0 7d 48 dd 3d af 8f cb bb 10 b4 e0 be 31 65 04 be
       0.10804842 -0.006212197 -0.43887377 -0.12929226
0001f0 e7 61 0f 3e 5c 7e 26 3f 85 55 10 3f 2d 2e 9f 3e
       0.1400219 0.6503656 0.5638049 0.31089917
000200 af 03 54 3c d3 4f ff 3e 29 bf bd 3e 83 10 08 3f
       0.012940331 0.4986559 0.37059906 0.53150195
000210 f5 a0 a9 be 92 14 03 3f 96 f4 6e 3e b1 99 9c 3e
       -0.33130613 0.5120326 0.2333549 0.30586007
000220 6f 49 d9 3d 3a ca 91 3e 16 4b af 3e ba ab 1c 3f
       0.106097095 0.284746 0.34236974 0.61199534
000230 5f 8b 93 3d f7 97 e0 bc 01 57 2b 3c 47 8f ef bc
       0.07204317 -0.027416212 0.010457755 -0.029243125
000240 8e 93 8b 3d 46 26 0e be 59 5f c8 bd 7f 0a 00 bd
       0.06815253 -0.13881788 -0.09783811 -0.03126001
000250 5e c7 06 bd f5 f4 42 be 58 80 3b 3d b0 b8 c3 bc
       -0.032904975 -0.19038756 0.045776695 -0.023891777
000260 4c b4 89 3d d5 f7 aa bc b4 b3 d0 bd 11 59 ce bd
       0.06723842 -0.020870129 -0.10190526 -0.10075582
000270 2e f3 0a 3d 3e e0 c9 bd 30 b7 a2 bd ae 03 7a 3d
       0.03392332 -0.09857224 -0.079450965 0.061038665
000280 6d 23 d4 3d 8c e0 4f bd d6 4e f5 3c 47 29 4e 3e
       0.103583194 -0.050751254 0.029944818 0.20132934
000290 39 9f 27 3c ca 7e 10 bc 91 53 3b 3d e9 bc e4 bd
       0.010230833 -0.008819291 0.045733992 -0.11168844
0002a0 18 b4 9d bd ca 97 93 bd a5 cd d0 3d 81 a0 2e bd
       -0.07700366 -0.07206686 0.101954736 -0.042633537
0002b0 ed 80 c7 3d 05 b1 d7 bd 0d 28 9b be b3 3c 05 3f
       0.097413875 -0.10531811 -0.30303994 0.52045745
0002c0 40 e6 38 3d 3d d4 2c bf 03 69 97 bd 39 bb 04 bf
       0.04514146 -0.6751135 -0.07393076 -0.5184818
0002d0 e9 13 2e bd 28 d8 c1 be ea 0a ed bc c3 3c 9d be
       -0.042499457 -0.37860227 -0.028935868 -0.3071042
0002e0 ca 32 5c bc d3 89 db 3e a8 77 ec bd d8 44 0e be
       -0.013439843 0.4287859 -0.1154626 -0.1389345
0002f0 3b a5 bf bd 25 42 55 bf 8c 79 67 bd 44 30 1e bf
       -0.09357687 -0.83304054 -0.0565124 -0.617924
000300 ce df 16 be be 1f 22 be 5d e0 bf bc 9d 9d b4 bd
       -0.14733812 -0.15832421 -0.023422414 -0.08819125
000310 c1 f1 f1 bd 18 49 40 bd ff 59 f8 bc 10 1d 2d 3e
       -0.11813689 -0.046944708 -0.030316351 0.16905618
000320 bc e5 bf bd 38 66 ae 3c f6 86 d8 bd a2 16 9b bd
       -0.0936999 0.021288976 -0.10572617 -0.07572676
000330 6e c9 ab be fa c2 c8 be bf de df 3e 81 9d 10 be
       -0.33552116 -0.39211255 0.4372463 -0.14122583
000340 76 0f 30 be b0 e3 ea be 49 db 0a be 64 19 b3 be
       -0.17193398 -0.45876837 -0.13560213 -0.3498031
000350 51 26 32 3e 4f 15 84 be e5 07 62 bf 38 ed e5 3e
       0.17397429 -0.25797507 -0.88293296 0.44907546
000360 7c 24 20 be 9f 41 74 be d9 32 03 bc 5d 37 03 be
       -0.15638918 -0.23853157 -0.0080077285 -0.12814088
000370 f6 72 9b be da b9 f1 3d 76 ea d5 3d 83 6c 9d bd
       -0.30361146 0.118030265 0.104451105 -0.076867126
000380 37 25 36 be a4 74 19 3f eb c4 a4 be 46 f4 08 be
       -0.17787634 0.59943604 -0.32181486 -0.13374433
000390 ac 00 2a be e1 d0 10 3e 6b 41 68 3c eb 4a b3 bc
       -0.16601819 0.14142181 0.014175753 -0.02188631
0003a0 fa 43 96 be b4 b1 63 be 33 d5 fd be 45 2e 0b 3f
       -0.29348737 -0.22235757 -0.4957672 0.54367477
0003b0 c8 8a d0 3e 98 b2 0c be ca 38 99 be e2 95 fa bd
       0.40730882 -0.13740003 -0.2992614 -0.12235619
0003c0 21 c7 01 bf a6 ad 67 3e 54 bc 9d 3d af fd d7 be
       -0.5069447 0.22624835 0.07701936 -0.42185733
0003d0 84 f7 a9 bd c3 66 90 be e7 d1 41 bd bd d1 a0 bd
       -0.08299163 -0.282034 -0.04731932 -0.078525044
0003e0 7b 44 58 bd b3 3f 0f 3e a4 9c 9f be ab 58 e9 3e
       -0.052799683 0.13989143 -0.31174195 0.4557546
0003f0 27 45 52 be cb 65 30 be d7 1c 06 be fe a6 bd bd
       -0.20534192 -0.17226331 -0.13096939 -0.09260367

gnn_list.0.nn.0.bias f4 [64]
000000 14 07 4a bd b2 22 a6 be ec 91 06 bf 09 10 f3 be
       -0.049323156 -0.32448345 -0.5256641 -0.4747317
000010 09 71 ef 3c 60 71 11 be 9f bb 9a be 84 59 66 3e
       0.029228704 -0.14203405 -0.3022127 0.22495085
000020 22 59 cb 3e 54 0a 2c bd ee 79 94 3d c8 fc 8e 3d
       0.3971644 -0.042002037 0.07249819 0.06981808
000030 f0 24 43 be 2c 85 6d bd 3c 51 a5 bd d3 1e 86 bd
       -0.1905706 -0.05798833 -0.08072135 -0.06548848
000040 be 54 02 be 1a 3b 0d bf 26 a9 10 bf 6f b8 87 bd
       -0.12727639 -0.55168307 -0.565081 -0.06626975
000050 e6 4c 37 be 99 ab 2b 3e 04 55 c2 bd df ab 15 bf
       -0.17900428 0.16764678 -0.09488872 -0.5846538
000060 52 25 0f be 38 0b 76 3e 3f d0 bf bd 0c 67 8e 3e
       -0.1397908 0.24027717 -0.09365892 0.27812994
000070 7b f1 26 bf a3 6a a1 bd 82 04 51 3e 01 c8 16 be
       -0.6521222 -0.078816675 0.20411876 -0.14724733
000080 4a 2e fc be 52 0a 4a be c5 14 86 3d 9d 98 0a 3e
       -0.49254066 -0.197305 0.0654693 0.1353478
000090 97 10 80 be dc 5f 10 bf 8a 40 10 bf 53 0c d3 bd
       -0.25012657 -0.5639627 -0.5634848 -0.10305085
0000a0 0c cf 85 bd 03 ac 83 be 71 9e 27 be 64 36 2b be
       -0.06533632 -0.25717172 -0.16369034 -0.16719967
0000b0 fa 40 fb be f8 0d 8c 3d 0d de 48 be f9 09 c5 be
       -0.4907301 0.06838602 -0.19615956 -0.3848417
0000c0 38 15 0b bf ff 3b 17 bf 22 d4 ae bd 90 19 14 be
       -0.5432925 -0.5907592 -0.08536555 -0.14462876
0000d0 56 bb 83 3d a0 bb bf 3e b5 99 81 be 38 5a ef be
       0.06432216 0.37447834 -0.25312582 -0.4674852
0000e0 90 a6 dd 3b 8c 0e b3 3e f3 ff 97 3d 09 62 f1 bd
       0.0067642406 0.34972036 0.07421865 -0.11786277
0000f0 2e ed ff bd 07 33 3d be 16 02 32 bf 6e 99 45 be
       -0.1249641 -0.18476497 -0.6953443 -0.1929681

gnn_list.0.nn.2.weight f4 [64, 64]
000000 88 1a cf 3e fc 89 22 3f 4b aa d6 3d b2 c9 60 3e
       0.4044993 0.634918 0.104816996 0.2195194
000010 4d 40 e5 be 5f 81 0d 3d be 32 25 3d 61 0d d3 3d
       -0.4477562 0.034547206 0.040331595 0.10305286
000020 dd 74 3d 3e b4 73 d5 bd 22 15 d3 3c be 8c 45 3e
       0.18501611 -0.10422459 0.025766913 0.1929197
000030 d3 b0 46 be 7f 64 bf bd 3d 8c 3c 3e 66 1c 0a bd
       -0.1940339 -0.0934534 0.18412872 -0.03371849
000040 4b db 5c be af 29 3f bd c2 c0 f1 3e 44 4b 66 3c
       -0.21568029 -0.046670612 0.47217375 0.014056031
000050 a2 11 ae 3d 5d e3 4d 3e 51 df a9 bd 63 e5 ac 3e
       0.08499457 0.20106263 -0.08294547 0.33768758
000060 65 1c d2 3d c7 c2 13 bf f3 9f 3b bf 6f 34 f0 be
       0.10259322 -0.5771908 -0.7329094 -0.46915004
000070 8d fc a3 3d 5f 50 26 3f f5 4f 96 be be bb 01 3f
       0.080071546 0.64966387 -0.29357877 0.50677097
000080 91 4a 35 3f d9 57 19 3f c5 a7 7d be 35 16 37 3f
       0.70816904 0.5989967 -0.2477103 0.7151826
000090 83 b2 e5 3e 2d c2 c2 be eb 28 07 3f 80 67 ac 3e
       0.44862756 -0.3803877 0.5279681 0.33672714
0000a0 2d 34 fe 3e 73 c8 02 3f d4 df f9 3d 19 68 f2 bc
       0.49649182 0.5108711 0.12200895 -0.029590653
0000b0 92 36 fc 3e 58 38 f8 3e cd 56 0e 3e cc 8a a5 3d
       0.49260384 0.48480487 0.139003 0.08083114
0000c0 01 33 a7 3e 50 bc 2e 3e 3c ce bb be 2f b2 1b 3f
       0.326561 0.17064023 -0.36680782 0.6081876
0000d0 62 75 21 3f 0a 74 df 3e 12 bf 94 3e 66 13 32 3e
       0.63069737 0.43643218 0.29052025 0.17390212
0000e0 47 c3 14 3f f3 96 2a 3e cf 63 68 3e c9 1c 6d 3d
       0.5811047 0.16659145 0.22694324 0.05788878
0000f0 fd f5 92 3e 51 fd c4 be a2 cd 39 3e 67 a1 39 3d
       0.287033 -0.38474515 0.18144849 0.04531994
000100 53 ae 5c be db 24 31 bf b4 62 d0 bd 25 de 53 3e
       -0.21550874 -0.6919686 -0.10175076 0.2069021
000110 04 db 86 bf 6d 38 1a bd a5 dd 07 3e ab 1a 02 3e
       -1.0535588 -0.037651468 0.13268144 0.12705486
000120 4c 35 a4 be 36 b1 56 be 06 db 97 bd 56 f3 86 3e
       -0.32071912 -0.20966038 -0.07414822 0.26357526
000130 6e 23 70 bd b1 e2 b9 bd fc 46 5e 3c bf f1 de ba
       -0.05862754 -0.09076441 0.013566729 -0.0017009302
000140 9e 21 02 3d 16 69 1e 3e 2f 8b e3 be b6 d3 d2 bd
       0.03177034 0.15469775 -0.44442126 -0.10294287
000150 aa d9 16 3e 13 ce 29 bc 88 32 9d bd 2e b3 82 be
       0.1473147 -0.010364073 -0.07675654 -0.25527328
000160 39 e4 2e be 16 c5 24 be ab b1 5d be a6 b8 a1 3e
       -0.17079248 -0.16090807 -0.21649806 0.31586188
000170 84 8d 37 bf bc 92 8a be e0 21 b3 bc 48 eb 2b 3f
       -0.7170031 -0.27065074 -0.021866739 0.67155886
000180 b7 02 2d 3e 71 d5 25 be 0e 72 9c 3d 29 a1 65 bf
       0.16895567 -0.16194703 0.07638942 -0.89699036
000190 cf 71 6b be 83 f9 2b 3e 11 6b b3 3d 71 a2 19 bf
       -0.22992633 0.167944 0.08760656 -0.6001349
0001a0 63 12 16 bf 7c aa ba be ba f4 f2 be f1 1b 0c 3d
       -0.58621806 -0.36458194 -0.47452337 0.034206335
0001b0 93 60 83 3e 6c 72 12 be d3 d7 88 3d eb 05 15 39
       0.25659618 -0.14301461 0.0668179 0.00014211952
0001c0 85 b6 e5 be 5f 01 37 3b 9b 5a db be 17 c0 3a be
       -0.44865814 0.0027924401 -0.42842564 -0.18237339
0001d0 11 d2 6e 3d 93 1b 4c be e4 7a 44 bf d0 57 ab be
       0.058305804 -0.19932394 -0.76750016 -0.33465433
0001e0 c7 ee 4d 3e 60 17 1e bf af 61 ec be 20 65 41 be
       0.20110618 -0.6175442 -0.46168277 -0.18886232
0001f0 66 c4 93 3d 18 d6 cf bc 7a 42 bf bf df e6 cd 3d
       0.072151944 -0.025370643 -1.4942162 0.10053801
000200 93 eb c3 bd 5e ac ee be b1 04 06 be 0a ee 4b 3c
       -0.095664166 -0.4661588 -0.13087727 0.01244689
000210 33 34 85 be 46 98 23 3c 47 b0 f5 3e 1b 02 8b 3d
       -0.26016387 0.009985035 0.4798605 0.06787511
000220 05 11 a7 3d 2e ed 76 3d 9b 16 4a 3e 8d 2d e8 bc
       0.08157543 0.060284786 0.19735186 -0.028342033
000230 c3 53 6b bd 15 bf 80 3c 43 86 0d 3e 10 85 95 3b
       -0.05745293 0.015716115 0.13820748 0.0045629814
000240 e1 35 28 3f 2f e9 92 3e e0 d8 1d bf 37 3e 1a 3d
       0.6570721 0.2869353 -0.6165905 0.03765699
000250 53 12 ab bd cc 03 c3 be fd 5c 33 bf 95 b1 cd bc
       -0.083531044 -0.38088834 -0.70063764 -0.025109092
000260 86 f4 cd bd 54 19 3f 3c 4d 7b 87 3f c1 88 1d 3f
       -0.10056405 0.011663754 1.0584503 0.61536795
000270 5c 3f 5d bf bb 82 92 bc 94 7f 82 3d dd 54 0f bf
       -0.86424804 -0.017884603 0.0637199 -0.55988866
000280 42 63 a6 be 5c 60 b4 3e 81 67 84 be 11 d7 cc 3e
       -0.32497603 0.35229766 -0.25860217 0.40007833
000290 b2 37 07 3f 01 2c a7 3e 31 44 64 3b 5d 91 b9 be
       0.5281936 0.3265076 0.0034830684 -0.36243716
0002a0 d9 57 e6 be 6c 29 8a bd 8c 54 ac 3e 5a 4b 2d bd
       -0.44988897 -0.06746182 0.33658254 -0.04230819
0002b0 15 c8 c0 3e 3d 08 d0 be 2f 1c 6a 3e f3 f0 ca be
       0.3765265 -0.40631285 0.22862314 -0.39636955
0002c0 82 cb 66 bd 02 64 9a be c9 6e 88 be a5 1b 41 3d
       -0.056346424 -0.30154425 -0.26647022 0.047145505
0002d0 20 38 ad be b8 13 b9 be 14 6e a1 be ab 24 84 bb
       -0.33831882 -0.36147857 -0.31529295 -0.0040326915
0002e0 86 7b a2 bd 9b 4f 4c bd a4 8c 94 be 7c c1 54 3e
       -0.079337165 -0.049880605 -0.2901355 0.20776933
0002f0 67 2c 1c bf ec 2c 73 3e df f7 b1 be d5 2c e8 bc
       -0.6100525 0.23747605 -0.34759423 -0.02834169
000300 71 c6 1c bf 9e ea 81 be 47 31 22 3e 9d ee 0a 3e
       -0.612403 -0.2537431 0.1583911 0.13567586
000310 ea c8 14 3e f4 b5 c7 bd 54 2c 32 bf c6 9d b0 3e
       0.14529768 -0.09751502 -0.6959889 0.34495372
000320 5b 30 16 3f 1a 2f d8 be 08 b2 39 3e 2d 74 f3 3e
       0.58667535 -0.42223436 0.1813432 0.47549573
000330 3f 19 21 bd be ad dc bd 9c 97 de 3e 16 c2 c4 bc
       -0.039330717 -0.10775326 0.43475044 -0.024018329
000340 7c 10 33 be e1 56 a4 be db 66 8e 3c 32 3c 81 bc
       -0.17486757 -0.32097533 0.01738303 -0.015775774
000350 9a 91 0e 3e e8 19 96 3e 45 0a 12 3f 83 63 f1 bd
       0.1392273 0.2931664 0.5704692 -0.117865585
000360 48 31 c9 3e de 71 07 3e 00 3e e5 be 8d 1d 3c 3e
       0.3929541 0.1322703 -0.44773865 0.18370648
000370 98 0d 1b 3d 28 bb 1b 3e e0 0a 85 3d 1f 72 1f 3f
       0.03785476 0.15208113 0.06496215 0.6228351
000380 1b 8c c2 3e 23 a9 d0 bd c1 61 40 3e 3b 1e 8c be
       0.37997517 -0.1018851 0.1878729 -0.27366814
000390 20 82 a9 3e 19 52 a2 bd 59 e9 8d bc 2c c1 9e 3e
       0.3310709 -0.07925815 -0.017323183 0.31006753
0003a0 11 d0 1b 3e 97 25 37 3f c2 ae a1 be 12 df bf bd
       0.1521609 0.7154173 -0.31578642 -0.09368719
0003b0 ea 65 2b be 65 16 8a bf 3f 25 6d 3d 58 d0 92 be
       -0.16738096 -1.0788084 0.05789685 -0.2867458
0003c0 15 5b d7 be 60 9f cf 3d 68 87 89 3e 04 a5 f4 bd
       -0.42061678 0.1013782 0.2686112 -0.11945537
0003d0 4c 54 65 3e 1f 37 46 3e 85 b6 65 3e cd 58 66 bc
       0.22395438 0.19356965 0.22432907 -0.014059258
0003e0 f9 21 58 3d e8 57 b5 3e 10 7a fe 3e 4a cc ba 3d
       0.052766774 0.3541863 0.497025 0.09120996
0003f0 96 24 09 be b9 bb 97 3e 36 99 45 be 22 8b 35 bc
       -0.13392863 0.2963541 -0.19296727 -0.011080535

gnn_list.0.nn.2.bias f4 [64]
000000 ed 4a b5 3c d1 32 e8 be 3e db 9d be 9b 7a 82 3d
       0.022130454 -0.4535127 -0.3083133 0.063710414
000010 02 29 2d 3e 12 b9 54 be 48 00 6c be 84 94 b1 be
       0.16910174 -0.20773724 -0.23046982 -0.3468362
000020 5d 87 36 3d e4 9f 56 bd 91 f6 92 bd 92 97 f5 bd
       0.044562686 -0.052398577 -0.07175935 -0.119918
000030 f4 7b 4a be 8c 51 bf bd f4 e4 d6 bc e1 f3 d7 3d
       -0.19773847 -0.09341726 -0.02623222 0.10544563
000040 75 39 b7 be f5 e9 b4 bd 17 d9 ae 3c 36 06 15 be
       -0.35786024 -0.08833686 0.02134375 -0.1455315
000050 46 d1 29 3c 9a e3 be bd 5f 90 41 be f1 90 ec bd
       0.010364836 -0.09320755 -0.1890273 -0.11551083
000060 16 65 3f be 34 50 87 be 79 d3 a5 be 9e c2 cc 3d
       -0.18690905 -0.26428378 -0.32387903 0.09998058
000070 f9 b5 33 bd e9 b3 39 be de d5 19 3d 32 54 fe 3d
       -0.043874715 -0.18135037 0.037557475 0.12418403
000080 25 e5 2e bd 4e b7 19 3d 9c 71 db 3d c7 7d 2a be
       -0.042698998 0.03752833 0.10715029 -0.16649543
000090 22 48 eb be 82 44 70 be 84 0e 3e be a8 5c 8f be
       -0.4595347 -0.23463634 -0.18560225 -0.2800038
0000a0 0b c9 19 3e d4 94 50 3d 03 56 2f 3d 99 da e8 3d
       0.15018098 0.050923184 0.042806637 0.11369819
0000b0 9f 4c e2 3d 94 d5 ec bd bc 71 b0 be e9 39 02 be
       0.110497706 -0.11564174 -0.34461772 -0.12717403
0000c0 46 61 80 be 70 63 af 3d c9 24 1f be 2b 66 f1 3d
       -0.25074214 0.08563888 -0.15541376 0.11787065
0000d0 0f 1d e2 bb 60 a7 0d 3e 04 44 7a be 6e ff d2 bc
       -0.0069004367 0.1383338 -0.24440008 -0.025756564
0000e0 3a bc 96 3d 5a ef e1 bd 8e 32 08 3e ea 1d 09 3b
       0.0736012 -0.11031981 0.13300535 0.0020922371
0000f0 84 69 d9 bd c2 4b 70 3d d6 d6 6f be a0 e8 83 bd
       -0.10615829 0.058666 -0.23421797 -0.06440854

gnn_list.0.nn.3.weight f4 [64]
000000 3b cf 12 3f bf 8c ba 3e c0 01 d3 3e 28 42 28 3f
       0.5734746 0.36435506 0.41212273 0.65725946
000010 66 99 ce 3e 6a c9 18 3f a5 e1 dc 3e 48 5e 39 3f
       0.4035141 0.59682333 0.43140903 0.72409487
000020 75 bb 0c 3f e8 bb af 3e c4 c1 11 3f 01 6b ce 3e
       0.54973537 0.3432305 0.5693629 0.40316013
000030 0f 7e c2 3e 20 6f 0d 3f 68 37 1d 3f 73 50 b9 3e
       0.379868 0.5524769 0.6141267 0.3619419
000040 5c 7e 01 3f c6 d6 ad 3e d1 02 0b 3f 20 fc ca 3e
       0.50583434 0.33952922 0.5430117 0.3964548
000050 96 cf e0 3e 00 b7 cd 3e 2e 96 92 3e fe 40 16 3f
       0.43908376 0.4017868 0.28630203 0.5869292
000060 57 59 10 3f 6b 04 e0 3e a3 ca 16 3f e3 64 0c 3f
       0.5638632 0.4375337 0.5890295 0.5484144
000070 8f e4 c2 3e c0 3b 95 3e 47 75 11 3f 5e 1a e5 3e
       0.38065 0.29147148 0.56819576 0.4474668
000080 6d 38 c7 3e ba c7 07 3f aa d4 e2 3e a8 cd 20 3f
       0.38910237 0.53039134 0.44302875 0.62813807
000090 f5 c5 42 3f c0 52 37 3f d1 3e ba 3e 54 23 14 3f
       0.7608331 0.7161064 0.3637605 0.57866406
0000a0 b7 22 9f 3e 89 24 91 3e e1 1c cb 3e b8 bf 06 3f
       0.31081173 0.28348187 0.3967047 0.5263629
0000b0 af 5c 2f 3f a7 60 e8 3e ec c8 d4 3e 1c 98 c7 3e
       0.685008 0.4538624 0.4155954 0.38983238
0000c0 45 f8 16 3f 10 0d de 3e 4a 65 0d 3f d5 86 ff 3e
       0.5897258 0.4336934 0.5523268 0.49907556
0000d0 be 4f e7 3e ce c3 50 3f d0 78 97 3e c2 8d 15 3f
       0.45178026 0.81548774 0.2958436 0.5841943
0000e0 25 e4 e2 3e ea ba a7 3e bf 47 9b 3e 89 73 b8 3e
       0.44314685 0.32759792 0.30328175 0.36025646
0000f0 36 59 fe 3e f4 82 a7 3e 0b ab 05 3f d6 89 6f 3e
       0.49677438 0.32717097 0.52214116 0.23392424

gnn_list.0.nn.3.bias f4 [64]
000000 38 7f f2 be e4 ad bb bd c9 38 ef bd b4 15 11 be
       -0.47362685 -0.091640264 -0.11680753 -0.14168435
000010 e0 87 96 be e9 92 25 3c 4a d4 bc be fd 9d 8a be
       -0.2940054 0.010105827 -0.36880714 -0.2707366
000020 5f 22 01 be 93 a8 93 be bd 24 87 be 40 2c c8 be
       -0.12610768 -0.2883955 -0.26395217 -0.3909626
000030 c4 b6 05 be 90 23 23 be 7e ca da be 69 72 8c be
       -0.13058001 -0.15931535 -0.42732614 -0.27431038
000040 3e fc 03 bf 12 07 18 be 52 ec f5 be 12 e6 eb bd
       -0.51556766 -0.14846447 -0.4803186 -0.11518492
000050 be de 36 be 79 c2 08 be ee b9 3f be 97 bd 23 bd
       -0.17858407 -0.13355435 -0.1872327 -0.03997573
000060 4c c7 76 be 7d 5a 83 bd 76 00 66 3d ae c8 2b be
       -0.24099463 -0.06413744 0.056152783 -0.16775772
000070 aa c8 f8 bc c0 e6 a7 3c 04 25 2b be b9 9e 29 be
       -0.030369122 0.020495772 -0.16713339 -0.16564454
000080 15 76 6a be 00 6d b3 be 9e 0b 0a bd 36 a5 4c be
       -0.22896607 -0.35044098 -0.033702485 -0.19984898
000090 54 98 bd bd 4f 99 1b be 17 01 c0 bd 21 50 bb bd
       -0.0925757 -0.15195201 -0.09375208 -0.09146143
0000a0 4e 50 c2 bd 87 2f 23 be de 1e 8f be 32 9b 87 bd
       -0.09487973 -0.15936099 -0.27953237 -0.06621398
0000b0 4c e5 0f bf 06 e4 db bc 68 30 40 bd 0f 62 b3 bd
       -0.56209254 -0.026842128 -0.046921164 -0.087589376
0000c0 fb 68 be be 32 a9 84 be 23 db 8c be 10 50 e0 be
       -0.3718947 -0.25910336 -0.27510938 -0.43811083
0000d0 5e 0c e0 be 49 e2 83 be 6f c6 cd bd 8a e5 6f be
       -0.43759435 -0.2575858 -0.10047614 -0.23427406
0000e0 03 d9 b7 be 77 be 4e 3d 65 6f 3a bd 19 ef 4f be
       -0.35907754 0.05047461 -0.04551639 -0.20306052
0000f0 47 6c 1d be 7d 17 25 be 84 b8 60 3d 0a fd 39 be
       -0.15373336 -0.16122241 0.054863468 -0.18162933

gnn_list.0.nn.3.running_mean f4 [64]
000000 f4 ee a2 40 8b b8 b8 c0 f4 f4 ac c0 cd d6 99 3f
       5.091669 -5.772527 -5.4049015 1.2018677
000010 20 5a 43 40 1f 08 9f c0 09 f1 67 c0 5c 52 e7 40
       3.0523758 -4.9697413 -3.6240866 7.2288036
000020 35 e6 dd 40 c4 5c 51 3f fd 24 2c 3e 1e d2 66 c0
       6.9343514 0.81782174 0.16810985 -3.6065745
000030 f1 d8 46 3f 23 c0 88 c0 bd e2 65 40 0b 6f 86 40
       0.77674776 -4.273454 3.591964 4.201055
000040 d5 42 c2 40 4a 8c 54 c0 73 34 92 3f ab 28 52 3f
       6.070658 -3.3210626 1.1422256 0.82093304
000050 50 4c 14 c0 0c 35 03 40 1a 6c d0 c0 5d 3e 79 c0
       -2.3171577 2.0501127 -6.513196 -3.8944314
000060 47 6e dd c0 75 6a a5 c0 52 cb b3 c0 cd be 6a c0
       -6.9197116 -5.1692452 -5.6185694 -3.6678956
000070 b2 d7 36 c0 30 9f 7e c0 f6 f1 42 c0 ac b1 3c bf
       -2.856915 -3.978466 -3.0460181 -0.73708606
000080 a6 ef 45 c0 31 db 55 3e c7 25 54 bf 33 a5 b8 3f
       -3.092752 0.20884396 -0.82870144 1.4425415
000090 a5 b1 02 c1 80 04 d8 40 e7 09 ab c0 4a af fb c0
       -8.16837 6.7505493 -5.344959 -7.8651476
0000a0 03 10 c6 bf dd 81 c8 bf 1a f5 bc bf 6e f8 dd 3f
       -1.5473636 -1.5664631 -1.4762299 1.734144
0000b0 68 90 48 40 8a a4 67 c0 cf 01 49 c0 49 19 0c 40
       3.1338139 -3.6194177 -3.1407354 2.1890433
0000c0 fc 7c 72 40 42 e9 1a 3f 46 f4 f2 be b5 6a af be
       3.7888784 0.60512173 -0.4745199 -0.34261099
0000d0 e4 af 3b 3f 74 29 6e be d4 98 53 c0 af e2 8c bd
       0.7331526 -0.23258 -3.306203 -0.06879174
0000e0 e5 43 84 3f 71 41 57 c0 e6 7b 21 bf d3 32 2a bf
       1.033322 -3.3633692 -0.6307968 -0.664838
0000f0 9a d9 83 40 51 d4 20 c0 18 22 b2 c0 83 98 f6 3e
       4.1203127 -2.5129588 -5.566662 0.48163232

gnn_list.0.nn.3.running_var f4 [64]
000000 d9 7a 5e 40 2b a1 25 40 82 b8 5b 40 45 ad c7 3f
       3.476248 2.587962 3.4331365 1.5599753
000010 a4 29 d5 3f 8e 5b 2e 40 3a 55 e6 3f e5 87 98 40
       1.6653333 2.724338 1.7994759 4.7665887
000020 35 d0 a0 40 d0 5c f9 3f 8c c1 af 3f b1 7c 91 3f
       5.025416 1.9481449 1.3730941 1.1366178
000030 bb b2 3d 40 2b 9c 46 40 2a d9 5d 40 f9 f2 e1 3f
       2.9640338 3.1032817 3.4663796 1.7652274
000040 97 88 49 40 26 3e ad 3f 6a b4 01 40 aa e1 5d 40
       3.1489618 1.3534591 2.0266366 3.4668984
000050 30 4f d7 3f 69 df 24 40 9a d4 26 40 c8 b9 26 40
       1.6821041 2.5761359 2.6067262 2.6050892
000060 fd 17 81 40 a3 74 31 40 38 ff 3c 40 b9 3d 5f 40
       4.0341783 2.772744 2.9530773 3.4881423
000070 0d 56 14 40 6f 1c 11 40 ea a3 24 40 a5 14 4b 3f
       2.3177521 2.2673604 2.5725045 0.79328376
000080 c3 65 8f 3f 0c 12 34 40 1d 01 21 40 c6 c6 34 40
       1.120293 2.8136015 2.515693 2.8246322
000090 18 19 b1 40 f8 02 a6 40 e5 60 54 40 1f bf 9f 40
       5.534313 5.1878624 3.318414 4.99208
0000a0 72 1e 39 40 20 74 a4 3f f7 74 4b 40 5b 6f 98 40
       2.8924832 1.2847939 3.179014 4.763593
0000b0 66 f4 a2 3f 33 89 c3 3f 35 93 07 40 92 de a2 40
       1.2730834 1.5276245 2.1183598 5.089669
0000c0 3d 07 7a 40 f2 81 2a 40 90 7e 5a 40 e7 2f a5 3f
       3.9066918 2.6641812 3.4139748 1.2905244
0000d0 96 ef 5c 3f f1 71 cf 3f c7 32 09 40 77 63 e3 3f
       0.8630308 1.6206647 2.1437242 1.7764729
0000e0 5f f9 fc 3f 94 8d 57 40 8b 5b 1f 40 3e 61 b5 3f
       1.9763602 3.3680162 2.4899623 1.4170301
0000f0 d5 d9 dc 3f b5 58 0d 40 02 98 3a 40 a2 9a 81 3f
       1.7253977 2.2085392 2.9155278 1.0125315

gnn_list.1.nn.0.weight f4 [64, 64]
000000 bb a9 02 3e 85 cc d4 bd 72 9e fc be 9a ae 52 3e
       0.1276006 -0.103905715 -0.49339634 0.20574418
000010 ba 56 1d be 7d 79 cf 3e 36 22 22 bf 35 27 83 3e
       -0.15365115 0.40522376 -0.6333345 0.2561585
000020 a4 9d 21 bc 3b 34 75 bd 54 fe dd bf 80 d4 09 bf
       -0.009864245 -0.059864264 -1.734324 -0.53839874
000030 2c 62 4d 3e 3d b4 4a be 13 d7 40 3e 30 d9 46 be
       0.20056981 -0.19795318 0.18832044 -0.19418788
000040 40 09 a6 3e e8 02 79 3e 10 70 06 be 58 6e 71 3e
       0.32428932 0.24317515 -0.13128686 0.23577249
000050 77 c8 15 be d4 09 75 3e 4b ca 0c be 53 de a8 3e
       -0.14627253 0.2392953 -0.13749044 0.3298212
000060 f7 42 22 be 3c 59 b0 bc dd de a4 3e 0e 27 db be
       -0.15845858 -0.021526925 0.3220128 -0.42803234
000070 d5 83 5b 3e a9 e5 54 bf c4 f4 bf bf ee 6b 2f bf
       0.21437009 -0.83162934 -1.4996572 -0.6852406
000080 8c 2e 85 be 20 d7 f0 bd 12 01 9d 3e f8 6e ab 3d
       -0.26012075 -0.11759782 0.3066488 0.08370775
000090 12 c9 9c 3d 86 67 34 3e 3e 20 73 bf 58 07 34 3e
       0.076555386 0.17617616 -0.9497107 0.17580926
0000a0 96 98 d6 bd be e0 1e 3e a3 3c 67 bf 10 24 be bc
       -0.10478322 0.1551542 -0.903269 -0.023210555
0000b0 38 fe e5 bd c1 b9 c9 be b8 8c f1 be 14 36 dc bd
       -0.11230129 -0.3939953 -0.47177672 -0.10752502
0000c0 54 bf 00 3e 0a ea d9 bd 1d de de bd ad 2a 15 bf
       0.12572986 -0.106403425 -0.108822085 -0.58268243
0000d0 71 f5 be 3d 4c da 82 3e 0d e2 b2 be 39 09 79 3d
       0.09324158 0.25557172 -0.34938088 0.06079981
0000e0 07 4f a7 be c2 ed 87 bf 0d ea cb 3d 13 29 af be
       -0.3267748 -1.0619433 0.09956751 -0.34211025
0000f0 82 0c c7 3c 96 83 8b bf 3b 7c b8 3e d5 50 43 bf
       0.024297956 -1.0899532 0.3603228 -0.76295215
000100 e1 47 84 bd 4b b1 db 3d c4 ff 11 3d 21 62 19 be
       -0.06459022 0.10727175 0.035644308 -0.1497884
000110 58 08 e8 3c f3 e2 9e bd c7 c3 66 bc 8b af 45 bd
       0.028324291 -0.07758131 -0.014084763 -0.048263114
000120 3c 22 1f be 2e 99 5c 3b f4 4b 46 bd ef a9 62 3d
       -0.15540403 0.0033660638 -0.04841228 0.055337843
000130 90 f1 c9 3c 6b a9 a7 bd d1 e4 d6 3b f9 cc 5b bd
       0.024651319 -0.08186611 0.0065580388 -0.053662274
000140 3d f0 b1 bd 13 7b 01 bd 4a d3 07 be 0e de b0 bc
       -0.086884 -0.031611513 -0.13264194 -0.021590259
000150 92 10 16 be 2e 18 43 be 13 55 16 be 55 5e 63 bd
       -0.14654759 -0.19052193 -0.1468089 -0.055509884
000160 44 02 9c bd 42 f1 49 3d fa a4 11 be 14 75 ea bd
       -0.0761762 0.049302347 -0.1422309 -0.11448112
000170 5d 9a e7 bd 1f 88 10 be 2f 15 c9 3d b6 1f 3f bd
       -0.11308739 -0.14114426 0.098184936 -0.0466611
000180 2a 26 f0 3b 6e 2e 8b 3c c8 bf 05 3d fb eb fb bd
       0.0073287683 0.016989913 0.0326536 -0.12300869
000190 92 47 b0 bd 38 7d aa bd 9c 70 b6 bb 3d ff 17 be
       -0.08607401 -0.08324665 -0.0055676233 -0.1484346
0001a0 fd 9b 02 be 79 d9 5f 3d cb ec 6d 3d b9 67 23 be
       -0.12754817 0.054650757 0.05808715 -0.15957536
0001b0 6b 60 07 be bd 4a 07 3d 77 d1 2e bd b4 8f a0 3c
       -0.13220374 0.03303026 -0.04268023 0.019599773
0001c0 85 71 06 be 39 b3 7c bc c4 2b 59 bd 16 b2 92 bd
       -0.13129242 -0.015423589 -0.053020254 -0.071628734
0001d0 11 07 3a be 0e e5 4d bd fe 08 21 3d 3e 6b 28 be
       -0.18166758 -0.05026727 0.039315216 -0.1644716
0001e0 b1 85 69 bc 80 2c 7b 3d 24 63 a5 3c 46 46 67 bd
       -0.014253066 0.061321735 0.020188875 -0.056463502
0001f0 68 73 91 3d 66 7b 48 bd 4b b3 db 3d 3c fc c9 3c
       0.0710209 -0.048945807 0.10727557 0.024656408
000200 76 78 98 be 2a c6 16 3e 31 b8 f6 bd ad 69 25 bf
       -0.29779404 0.14724031 -0.120468505 -0.64614373
000210 e6 9f 7c be 45 10 e1 3a 5d 02 74 bd a9 86 cd 3e
       -0.24670371 0.0017170986 -0.059572566 0.401418
000220 2a 90 44 3e 17 6b 59 bd 20 2f a9 3d b3 ef 83 3e
       0.19195619 -0.053080644 0.082609415 0.25768813
000230 ea 0a a6 3e 24 df a3 bd 2a 56 18 3e f9 13 02 bf
       0.32430202 -0.08001545 0.14876619 -0.50811726
000240 ae 92 9c 3e a4 f7 17 be ad e4 e1 3e 98 bf 16 3e
       0.30580658 -0.14840561 0.44119778 0.14721525
000250 82 75 10 3e 55 58 19 3d 89 43 8a 3e cf 9d 24 bf
       0.14107326 0.037437756 0.2700465 -0.64303297
000260 8f 2b 00 3d 36 2e 88 be 34 ee 88 bf d2 ad c3 be
       0.03129154 -0.26597756 -1.0697694 -0.38218552
000270 2f e6 aa bd db b8 ae 3e eb 7c 85 3e 6d 6f 16 3e
       -0.08344685 0.3412541 0.26071867 0.14690943
000280 df e3 e1 3e 95 2c 28 3f dc d7 10 bf 6b 60 c5 bd
       0.44119164 0.65693027 -0.56579375 -0.09637531
000290 89 a0 04 3e 03 03 a8 3e 21 4d 66 bd 6e ba 0d bc
       0.12951864 0.32814798 -0.0562259 -0.008650405
0002a0 92 80 4c be 7e c6 44 bd fd 5e 06 be 0f b6 4a 39
       -0.1997092 -0.04804086 -0.13122173 0.00019332043
0002b0 77 34 b5 be 81 a8 c7 be f9 36 64 3e f6 53 7c 3e
       -0.3539159 -0.38995746 0.22286595 0.24641404
0002c0 79 9b fe 3e e6 ca 95 3d b2 9f a6 bb 6d 58 95 3c
       0.4972799 0.073140904 -0.005084955 0.018230641
0002d0 87 ad 2d be 9e f5 13 3f ac 84 0c bd 0e 91 2c bf
       -0.16960727 0.5779666 -0.034306213 -0.67408836
0002e0 a3 fb 0d bd 80 1c 0d 3e 93 a0 8d 3e 87 ff 2e 3e
       -0.034663808 0.13780403 0.2766157 0.17089663
0002f0 5a a6 90 3e 1a 09 e5 3d b7 8d 13 be fa 15 bc bd
       0.28251916 0.111833766 -0.14409529 -0.09183879
000300 42 f3 78 3d 4a 3a 84 bf ca b9 5f be 19 6f 02 3e
       0.060778864 -1.0330288 -0.21848217 0.12737693
000310 67 9b 82 3e 77 d5 88 bf 01 66 66 be 57 06 6c 3e
       0.25509188 -1.0690144 -0.22499849 0.23049293
000320 d1 81 d7 3e 98 d8 b8 bd ff 22 aa 3e bc de 25 bf
       0.4209123 -0.09025687 0.33229825 -0.6479299
000330 e6 2a c6 3e 75 6e 97 be 4d a5 7b 3e 98 05 a2 be
       0.38704604 -0.2957646 0.24574776 -0.31644893
000340 ee b1 06 3e 24 27 84 bf d5 85 96 bd b0 22 0a 3e
       0.13153812 -1.0324445 -0.07349745 0.13489795
000350 35 1b f3 bd 05 bb c6 3d ad 03 1b bf e0 86 a9 bf
       -0.11870424 0.0970364 -0.60552484 -1.3244286
000360 6c 6d 98 be b7 22 d1 be 2a 3c ff be 4c 84 41 be
       -0.29770982 -0.40846798 -0.4985059 -0.18898124
000370 ba f3 5d bf db f3 0e 3f d9 6a a3 3e 54 7d 53 3e
       -0.8670002 0.55840844 0.31917456 0.20653278
000380 19 97 a2 3e f1 64 55 3e cd 42 2b bf 57 8c 14 bf
       0.31755903 0.20839287 -0.66898805 -0.5802664
000390 b0 b1 cd be 4e ae 2c 3d 62 92 67 be a6 06 2a bf
       -0.40174627 0.042158417 -0.22614434 -0.66416395
0003a0 01 ed 17 bf 23 53 72 bf b5 77 9e bf 0f 81 b4 3e
       -0.59346014 -0.94658107 -1.2380282 0.35254714
0003b0 6b ea 06 be 1d f1 c4 bd f4 f0 67 3e d2 84 1f 3e
       -0.13175361 -0.09616301 0.2265051 0.1557801
0003c0 19 ac 6f 3e cc fb 5e 3e 85 87 1c bd 2f 75 87 3e
       0.23405494 0.2177574 -0.03821518 0.2645659
0003d0 4c ea b6 3c d5 92 9e bd 55 e3 13 be e3 e6 f1 be
       0.022328518 -0.0774285 -0.14442189 -0.47246465
0003e0 c4 fc c7 3e ed 73 b8 3e e8 3c 03 3d ef 3f 4d 3e
       0.39060032 0.36025944 0.032040507 0.2004392
0003f0 ce 2f 2e 3e 98 ae c5 3d ac 34 77 bf 56 d8 e8 3e
       0.17010424 0.09652442 -0.96564746 0.4547755

gnn_list.1.nn.0.bias f4 [64]
000000 41 8e a0 3e 5d 95 aa bc a8 59 78 be ce cc fe 3d
       0.3135853 -0.020823175 -0.24252951 0.12441407
000010 09 36 39 3e 4e c5 5c bd 8f 38 0a be fe 76 61 3e
       0.18087019 -0.053899102 -0.13498138 0.22018048
000020 d8 7c 4c be 3c dc 3b 3d f0 e6 c0 3e 64 b6 ce be
       -0.19969499 0.04586433 0.3767619 -0.40373528
000030 21 7d 61 3e 5c 75 16 bd f4 67 e3 3d d6 e1 9e 3e
       0.22020389 -0.036733016 0.11103812 0.31031674
000040 19 9a 90 3e c8 6a d8 3d bb 6a 03 be 2a d3 0c be
       0.28242567 0.10567242 -0.12833683 -0.13752428
000050 96 7f bd bc 14 8d 53 be c8 bb a5 be 6a ce e6 3d
       -0.023132127 -0.20659286 -0.32369828 0.11269839
000060 fe cd 39 3e d6 e4 9c bd 4a af 6e 3c 33 42 3a 3f
       0.18144986 -0.076608345 0.014568159 0.7275726
000070 d9 1b 6b 3e e2 89 b3 3e f9 be ee bc 84 c9 1a be
       0.22959842 0.35066134 -0.029143797 -0.15115935
000080 37 ad 1c be 61 f0 6f bd 98 47 0b be f2 37 88 be
       -0.15300451 -0.058578853 -0.1360153 -0.26605183
000090 ee 31 18 be f0 9d be bc 9e a0 84 3e 97 ea 83 3e
       -0.14862797 -0.02326867 0.2590379 0.25764915
0000a0 d7 3f 2b 3e 3e 4f 26 be 5f 8a 2f 3e 97 2e a4 3e
       0.16723572 -0.16241166 0.17142628 0.32066795
0000b0 1e dd 4e 3e 32 5e a6 bd 09 fe 2f 3e ef af 00 bd
       0.20201537 -0.08123435 0.1718675 -0.031417783
0000c0 f0 23 10 be c7 1d ee be ab 32 5d bd 27 fa 1b 3e
       -0.14076209 -0.46507093 -0.0540034 0.15232144
0000d0 6e 3b 31 3e cf 1f 1f 3e 75 1e 8e be 2f 9f 13 be
       0.17307827 0.15539478 -0.27757612 -0.14416192
0000e0 d3 2a 30 bf 9f 4e 41 3e 3e 1c 07 be 44 42 c1 3b
       -0.68815345 0.18877648 -0.13194367 0.005897792
0000f0 11 e5 9a bd 13 91 db bd 34 b5 d6 3c ca 8b 0b 3e
       -0.07563222 -0.1072103 0.026209451 0.13627544

gnn_list.1.nn.2.weight f4 [64, 64]
000000 84 7f e2 3e f8 ab 88 bc cb c7 f3 be 99 af 20 3d
       0.44237912 -0.016683564 -0.47613367 0.039229963
000010 35 60 bc 3e e5 94 22 3d 73 6d f7 3c c8 5e 19 3e
       0.3679215 0.03969278 0.030203557 0.14977562
000020 b8 f0 64 bd 14 81 4a bd 97 a1 72 3e 59 01 8e bd
       -0.05589363 -0.049439505 0.23694454 -0.06933851
000030 ac 18 43 be 3a b7 c6 bd 23 c6 82 bc 89 19 10 be
       -0.1905238 -0.097029164 -0.01596362 -0.14072241
000040 b4 cb c6 3e 58 a4 a1 3e 40 cd 24 be 6f ce 8b bc
       0.38827288 0.31570697 -0.16093922 -0.017066209
000050 23 6e fb bd 12 be 96 be 59 78 c1 39 06 66 0d 3e
       -0.12276866 -0.29441887 0.00036901495 0.1380845
000060 7b cd 8c 3e 88 f7 bd bd 63 a4 c2 3c 03 fc c8 be
       0.2750052 -0.092757285 0.023760026 -0.3925477
000070 f4 d6 4c bc 5c b7 6b 3e 32 d4 8b 3d 38 5c 37 bf
       -0.012502421 0.23019165 0.068275824 -0.7162509
000080 25 bd 8e 3d fa 03 51 be ba 66 ae bc 5e 94 8b be
       0.0696967 -0.20411673 -0.021289218 -0.27261633
000090 e3 5b 7e be d2 b7 af 3e ff 4d 10 bf 14 7f 43 be
       -0.2483974 0.3431993 -0.5636901 -0.19091445
0000a0 75 4c ed 3e e5 00 ad be cc 11 69 be 03 b9 32 3e
       0.46347395 -0.33789745 -0.22760695 0.17453389
0000b0 93 1a 83 3e 90 06 88 3d 2d 2d 54 3d 0e ef 5e bd
       0.25606212 0.06641877 0.051800895 -0.0544272
0000c0 06 46 8a be de 5b 21 3d 1e ae 9f be e2 f7 b6 3e
       -0.2700655 0.039394252 -0.31187528 0.35735995
0000d0 5e 98 e3 be ec db b8 3d 64 b7 77 bf a2 53 84 bd
       -0.44452184 0.09026322 -0.96764207 -0.06461264
0000e0 36 ff 01 bf ce dd b7 bf 31 e9 de 3d bc 05 7a be
       -0.50780046 -1.4364564 0.108843215 -0.2441625
0000f0 b8 c9 cd 3c 54 48 02 bf 2c 1d b7 3e 25 61 2f be
       0.025120601 -0.50891614 0.35764444 -0.17126901
000100 3d d1 c0 be 11 5d a6 bd 5b 92 5a be 1c 2c d2 3d
       -0.37659636 -0.0812322 -0.21344893 0.102623194
000110 f4 d3 b3 3e 08 40 57 3d 6b e7 c4 3d 7a 5a c2 3d
       0.35122645 0.0525513 0.09614452 0.09489913
000120 6c 39 86 be 56 7d 05 bd 73 eb 4a 3e 74 1a d7 be
       -0.26215684 -0.032590233 0.19816379 -0.4201237
000130 c0 53 ea be 66 70 6b bd 16 bc 88 3e 97 f9 a8 3e
       -0.4576702 -0.05748024 0.26705998 0.33002922
000140 37 6a 6c 3d 4e c5 3b 3c eb 0a 40 bd 4b 29 10 be
       0.057718482 0.011460615 -0.046885412 -0.14078252
000150 25 a9 c2 bc 4a 6d 1b bf f9 7c 4e 3e 27 b6 7c 3e
       -0.023762295 -0.60713637 0.20164861 0.2467886
000160 78 cf e4 be bb 5d 36 3c f3 94 cc bd d2 98 e1 bc
       -0.44689536 0.0111307455 -0.09989347 -0.02753869
000170 36 b2 d4 3d 99 9e 22 3e cd 6f be 3d 51 e4 06 3e
       0.103855535 0.15880813 0.09298668 0.13173033
000180 dd 87 0b be 21 f4 a9 bd 10 17 13 be a0 04 3c bd
       -0.13626046 -0.08298517 -0.14364266 -0.04590285
000190 f9 1c 98 3e a8 f1 44 3e af a7 b6 be 73 6b 11 bf
       0.29709604 0.1923281 -0.35674807 -0.5680458
0001a0 7f 4c 21 3e 84 b9 b2 be 85 d1 e6 be c2 61 c7 be
       0.15751837 -0.34907162 -0.45081726 -0.3894177
0001b0 7a 5a 7d bd 0b 7c f5 bd 3b eb 68 bd 63 1a 8a 3d
       -0.061853863 -0.1198655 -0.05686496 0.06743314
0001c0 e9 dc 41 3e f8 54 90 3e 32 af e4 be a0 bc 6b 3d
       0.18931927 0.28189826 -0.44664913 0.057552934
0001d0 69 98 fc 3e 5b cf 97 3e 29 40 9b bf d1 eb c1 3c
       0.4933503 0.29650387 -1.2128955 0.023672016
0001e0 a0 ff d6 bd 31 ab ed bd d4 5b 14 3e d3 ee 05 3e
       -0.10497975 -0.11604918 0.14488155 0.13079385
0001f0 73 0a 79 3d 70 35 0c be 3d bc 6b be e5 78 ad 3e
       0.06080098 -0.1369226 -0.23021026 0.33881298
000200 5a d1 72 be ba 80 5a bd fe d1 9b 3e cc 57 d3 be
       -0.23712674 -0.05334542 0.3043365 -0.4127792
000210 c9 17 48 bf 5f 37 00 3e 3f 4e bc bd 68 2a 69 bf
       -0.78161293 0.12521122 -0.09194612 -0.9108033
000220 be a0 b4 3d 7f 85 9b 3d 5f 10 84 be 33 fb f9 bd
       0.08819722 0.07593822 -0.2579374 -0.122061156
000230 3d 07 8c 3d a7 b9 3c 3c 5b a3 1a be f4 d1 5b be
       0.06837318 0.011518872 -0.15101378 -0.2146681
000240 c3 17 84 bc 09 fa a7 be c6 9d a8 bd c5 4d 13 be
       -0.016124612 -0.3280795 -0.08233218 -0.14385135
000250 d5 fc 9f bb cf a1 da 3e 7b 72 70 be 40 ce 2e 3d
       -0.004882435 0.42701575 -0.23481171 0.042677164
000260 93 48 00 be 3b 39 49 3b e4 c8 f5 3c ef 8b 6a 3e
       -0.12527685 0.0030704278 0.030003019 0.22904943
000270 f8 ec 28 bd fb a7 f4 3d d3 e5 48 bd f9 98 19 3f
       -0.041241616 0.11946102 -0.049047302 0.5999904
000280 2f 6c a4 bc b1 95 50 be 3d d9 02 3e a9 2d a8 be
       -0.020071117 -0.20369603 0.12778182 -0.32847336
000290 4c 17 a2 3e ab 51 75 3e db 7e 1b 3f 34 00 34 be
       0.316584 0.23956935 0.6074044 -0.17578202
0002a0 58 1a 8d be 69 20 d8 be f8 73 2f bf 85 65 d7 be
       -0.2755916 -0.42212227 -0.6853633 -0.4206964
0002b0 f2 f5 5e bd c9 5c bc 3d 32 fc 87 be c1 ef b0 3c
       -0.05443377 0.09197385 -0.26559597 0.021598699
0002c0 79 3a 22 ba c3 16 8c 3e ad 17 82 be a5 d6 ea 3e
       -0.00061885227 0.27361116 -0.25408688 0.45866886
0002d0 df 0e 05 3f 2e 37 61 3c 66 66 a5 be 6c 4b 30 3b
       0.51975816 0.013746066 -0.32304686 0.0026900424
0002e0 3d 71 6e 3f 60 95 de 3b 5d f6 bf 3d de 82 79 3c
       0.9314154 0.006792709 0.09373162 0.015228955
0002f0 65 94 9c bd c7 34 66 3e 41 36 21 be 82 11 ac bd
       -0.076454915 0.2248107 -0.15743352 -0.08401777
000300 44 63 c9 be 23 73 83 3d 2b c6 16 bc 99 57 fc 3e
       -0.39333546 0.06418445 -0.00920252 0.49285582
000310 0c 41 35 3d 59 ab ea bd f6 c3 89 3c 45 17 e0 3d
       0.044251487 -0.11458463 0.016817074 0.10941938
000320 b1 d5 47 3d cb 8c 12 bd 50 65 ef 3d c3 cb 20 bf
       0.048787776 -0.035778802 0.11689246 -0.62810916
000330 7f 9d e2 be d0 36 54 3d 2e 32 b2 3e a7 c0 c0 be
       -0.44260785 0.051810086 0.3480391 -0.37646982
000340 bd 24 ab be 3c 16 9e 3e ca 45 f1 3d 6a 49 35 3e
       -0.33426467 0.30876338 0.11780889 0.17703786
000350 49 b9 65 3d b5 82 82 3d f4 53 cb 3e 46 e4 f6 be
       0.056084905 0.06372587 0.3971249 -0.48221034
000360 3b 09 14 be 6d b6 91 3c e6 ac fa bc 8a 6a 36 be
       -0.14456646 0.017787183 -0.030600023 -0.17814079
000370 86 7a 1f bf 9b 31 e7 be 7a 18 37 3d 96 bc a5 3e
       -0.6229633 -0.45155033 0.044701077 0.32370442
000380 b5 d7 00 3e dd 97 14 be 23 33 e7 be 84 64 98 3e
       0.12582286 -0.14511056 -0.45156202 0.29764187
000390 ba 93 0e bf c5 6b da 3d 41 c5 5e bf e6 d4 29 be
       -0.5569416 0.10665087 -0.87019736 -0.1658512
0003a0 d5 41 df 3e 8a 49 f9 3e ea 16 65 3f 2e be 78 be
       0.43604913 0.48688918 0.8948809 -0.24291298
0003b0 15 2d c4 bd d9 23 80 bd 35 48 ee 3e d8 76 dc bd
       -0.09578911 -0.062568374 0.46539465 -0.10764855
0003c0 99 4e bf 3e 9d 81 98 be af 38 cd be 6d 86 a1 3d
       0.37364653 -0.29786387 -0.4008231 0.07886968
0003d0 19 2e 7e b9 91 fd ad bd 15 62 8a be f7 ac 8c bc
       -0.000242405 -0.084956296 -0.27027956 -0.01717232
0003e0 70 f1 b2 3e 82 dc be 3d ce 62 e8 bc cd 56 22 3f
       0.34949827 0.09319402 -0.028367426 0.634137
0003f0 76 1a 5d bc 03 af 0b 3f 81 b0 5e 3d ff 8e be be
       -0.013495078 0.5456392 0.054367546 -0.37218472

gnn_list.1.nn.2.bias f4 [64]
000000 1b 84 a8 3d 2b cf 6a 3d 3b d6 93 bd 92 61 ee 3d
       0.08228322 0.057326477 -0.072185956 0.11639704
000010 72 50 55 3d 8a f8 b1 3d 10 72 7d bd 4a c7 41 bc
       0.05207867 0.08689983 -0.061876357 -0.011827299
000020 53 8e b8 3c d3 5c d4 bd 58 31 80 bb d4 00 73 bd
       0.022528803 -0.10369267 -0.0039121322 -0.05932696
000030 52 9b c7 3c 52 2e 70 3c 8b c5 92 3c b3 9c 5a bd
       0.024366055 0.014659481 0.017916461 -0.053372096
000040 b5 5f c2 3d 02 6c 14 bb fe f4 8c 3d a6 2b 82 bd
       0.09490911 -0.0022647385 0.06882666 -0.063559815
000050 3f 3a 23 3d 7c 3a fa 3d 25 6a 15 be 23 22 14 3d
       0.03985047 0.12218186 -0.14591272 0.036165368
000060 c9 e6 fb 3c 10 74 0d 3e f1 47 0e bc 3f 03 0f bd
       0.030749695 0.13813806 -0.008684144 -0.034915205
000070 a5 bf 00 bc e9 06 dd 3d 56 c6 24 3e af 5e e0 bd
       -0.007858192 0.10792334 0.16091284 -0.109555595
000080 ed 00 cf bb 6a 20 68 bd 9a 73 49 bd 24 ab 61 bd
       -0.006317249 -0.056671537 -0.049182512 -0.055094853
000090 5e ae 67 bc 2f bc d1 3d ce 5e 11 be 54 d1 0a be
       -0.0141406935 0.10240971 -0.14196321 -0.13556415
0000a0 49 fc f9 bc 51 c6 e3 bd d4 06 bf 3c b7 b1 e0 3d
       -0.030515807 -0.1112181 0.023318686 0.109713964
0000b0 28 64 8d 3d 58 48 d5 3d d7 bd f2 3b e8 ea e6 3d
       0.06903869 0.10414189 0.0074078846 0.112752736
0000c0 a3 c8 6c 3d 7c 31 e1 bd 10 71 5a 3d a3 ad 66 bd
       0.05780853 -0.109957665 0.05333048 -0.056317937
0000d0 29 ca c0 bc d8 c5 78 3d 07 4b 31 bd 48 b9 00 3d
       -0.023533897 0.060735554 -0.043284442 0.031426698
0000e0 fb e4 02 be 2c e7 30 3d 0c 46 e8 3d 54 d7 af 3c
       -0.12782662 0.043189213 0.113414854 0.021464981
0000f0 c9 c6 51 bd 2a f1 d5 bd 81 a3 9b 3d a1 f3 2d bd
       -0.051214967 -0.10446389 0.07599545 -0.04246867

gnn_list.1.nn.3.weight f4 [64]
000000 be f3 12 3f cb 6d 15 3f fa 9e 04 3f b0 28 28 3f
       0.5740317 0.58370656 0.5180508 0.65687084
000010 4e f9 68 3f 24 a4 51 3f 43 7b 53 3f 3c 04 21 3f
       0.9100541 0.81891084 0.8260996 0.62897086
000020 ed ae f6 3e 25 f4 40 3f cb 46 23 3f 33 82 f2 3e
       0.48180333 0.75372535 0.63779896 0.4736496
000030 2c ed 53 3f 32 4f 19 3f 70 88 08 3f 9c 68 44 3f
       0.8278377 0.5988647 0.5333319 0.7672212
000040 31 dc ea 3e 2e 68 24 3f 26 c4 6a 3f a5 3a 13 3f
       0.45871118 0.64221466 0.9170555 0.5751136
000050 26 d9 33 3f 10 43 51 3f 3b 29 2e 3f 95 ab 39 3f
       0.7025322 0.81742954 0.6803166 0.7252744
000060 b4 ef 11 3f 39 06 23 3f d8 29 13 3f 3f 48 61 3f
       0.5700638 0.6368137 0.57485723 0.88000864
000070 01 02 65 3f eb a6 27 3f dc 90 50 3f 67 8a 21 3f
       0.8945618 0.6548907 0.8147104 0.6310181
000080 e1 de 05 3f 31 cd 43 3f bb 0a 48 3f 69 05 21 3f
       0.5229321 0.7648497 0.78141373 0.6289888
000090 de bd 19 3f 69 ae 09 3f 4d 43 88 3f f2 fa 30 3f
       0.6005534 0.53781754 1.0645539 0.6913291
0000a0 42 a9 3b 3f a9 0f 52 3f 77 9a 28 3f 55 0e 48 3f
       0.7330514 0.82055146 0.65860695 0.7814687
0000b0 1b af 48 3f 7b 61 21 3f c4 ba 25 3f 8d 6f eb 3e
       0.7839219 0.6303937 0.64738107 0.45983544
0000c0 2e 77 14 3f cd 60 48 3f 5b ab 4c 3f 21 da 09 3f
       0.57994354 0.78272706 0.7994897 0.53848463
0000d0 39 10 2a 3f 2b e4 01 3f f5 a2 f9 3e 9e 7e 48 3f
       0.66431004 0.5073878 0.4875714 0.783182
0000e0 3c 52 46 3f ff c7 17 3f 37 19 33 3f a3 b6 71 3f
       0.7746923 0.59289545 0.6996035 0.94419307
0000f0 75 7b de 3e 72 b6 1b 3f 21 f4 33 3f 4a ff 10 3f
       0.43453565 0.60825264 0.70294386 0.5663954

gnn_list.1.nn.3.bias f4 [64]
000000 28 ed 7c be dd 11 60 be 3b a4 9b be cf 7b bd be
       -0.24699843 -0.21881814 -0.30398735 -0.3700852
000010 d1 e8 48 bf 07 5e e7 be 00 27 c7 bd 0f df bd be
       -0.7848025 -0.45188925 -0.097242355 -0.37084243
000020 4e 58 0b be 7d 8f 91 be e1 26 56 bd cb 25 a6 bd
       -0.13607904 -0.28429785 -0.05228317 -0.08112677
000030 25 ad 02 bf 34 b8 d0 be 6c 5a 84 be d1 95 be be
       -0.5104545 -0.40765536 -0.25850236 -0.37223676
000040 da ab 78 be 13 56 85 be df b0 a0 be 26 7d d6 be
       -0.24284306 -0.26042232 -0.31384942 -0.41892356
000050 71 96 b2 be a7 a2 ee be cc c6 a1 bd af 3a b5 bd
       -0.34880403 -0.4660847 -0.078992456 -0.08849084
000060 4f 62 c9 be 19 c9 02 be 3c 77 a1 bd e4 72 57 be
       -0.39332816 -0.12772025 -0.0788407 -0.21039921
000070 40 eb 00 bf 16 de 0b be 73 8a d1 be 2a a3 10 bd
       -0.50358963 -0.13658938 -0.4092594 -0.035311855
000080 17 b3 22 bc 6c 38 5d be f2 81 a2 be 59 b0 48 be
       -0.009930394 -0.21603554 -0.31739765 -0.19598521
000090 88 18 c0 3d 8b 4c 10 be a3 dc 87 be c5 af 50 be
       0.09379679 -0.14091699 -0.2653552 -0.20379551
0000a0 70 3a a2 be cf 27 b3 be 25 dc c8 be 6e 40 99 be
       -0.3168521 -0.3499131 -0.39230457 -0.29931968
0000b0 33 09 9d be 29 e8 11 be 23 1d 0b be b7 48 c7 bd
       -0.3067108 -0.14248718 -0.13585334 -0.09730666
0000c0 9d 7b 43 bd 0e 1f 9e bd 18 ba fe be be 23 3f be
       -0.04772531 -0.07720767 -0.49751353 -0.18665978
0000d0 0b e4 80 be 74 b0 9e be 07 28 5d be 70 4c 09 bf
       -0.25173983 -0.30993998 -0.215973 -0.5363226
0000e0 8f ba 74 be 39 d5 b0 be ea ac 62 be c0 cc f4 be
       -0.23899291 -0.34537676 -0.22136274 -0.47812462
0000f0 91 65 5b be 52 12 dc be 0b 3b 83 be 03 2c 18 be
       -0.21425463 -0.42982727 -0.25630984 -0.14860539

gnn_list.1.nn.3.running_mean f4 [64]
000000 1c 54 2f c1 80 2f 12 c1 1e f6 1f 40 e8 d7 f2 c0
       -10.9580345 -9.136597 2.4993968 -7.5888557
000010 ef bc 7e 40 5d a6 e4 40 98 a9 45 c1 0a 4d 5c c0
       3.9802816 7.145308 -12.353905 -3.442202
000020 9d 85 01 c1 66 8f 45 c0 43 f2 28 3f f1 8b dd bf
       -8.09512 -3.0868773 0.6599466 -1.7308332
000030 98 bf cf 3f 6b 5d 34 c0 b9 60 0c c0 3e 83 6c 3f
       1.6230345 -2.8182018 -2.1934035 0.9238776
000040 63 ac 89 c0 9a e5 06 c1 0b a4 00 c1 ca a2 11 c0
       -4.3022933 -8.431055 -8.04005 -2.2755609
000050 fd 52 4d 41 a5 cc 16 41 21 cd b5 c0 62 49 21 c1
       12.832761 9.424962 -5.68129 -10.080416
000060 97 2f d4 3f 13 dc 96 c0 94 b2 3e 40 46 79 57 c0
       1.6577023 -4.7143645 2.9796495 -3.366777
000070 64 c5 d2 c0 78 b7 06 c1 bc 12 e8 c0 62 d1 81 c0
       -6.5865955 -8.419792 -7.252287 -4.0568094
000080 28 5f 37 c1 e1 2d 24 c1 51 42 93 c0 f6 ff 59 c0
       -11.4607315 -10.261201 -4.6018453 -3.4062476
000090 cf 4e df 40 94 ce 6a bf 77 b2 f6 c0 4d f7 91 40
       6.97837 -0.91721463 -7.7092853 4.561438
0000a0 35 46 be c0 42 0a a8 3f f7 6f cd 3f a8 2b 35 41
       -5.94607 1.312813 1.6049794 11.323158
0000b0 f0 b0 8b c0 8d 82 49 40 50 81 04 c0 4e 24 8b bf
       -4.365349 3.1485932 -2.0703926 -1.0870454
0000c0 81 ba 2b c1 0e c7 41 c1 16 7c 86 bf 8e c7 a7 c0
       -10.733033 -12.111097 -1.0506618 -5.2431097
0000d0 72 93 61 c0 fd ad 79 c0 fe 16 04 3d 05 da a5 c0
       -3.5246243 -3.9012444 0.03224849 -5.1828637
0000e0 00 78 a0 c0 77 5d 65 40 15 05 80 40 aa 17 c3 c0
       -5.0146484 3.5838296 4.0006204 -6.0966387
0000f0 49 0c b3 c0 19 3a 0b 41 2b 87 15 c1 13 b9 22 be
       -5.5952497 8.701684 -9.3455 -0.15890913

gnn_list.1.nn.3.running_var f4 [64]
000000 83 52 c3 41 4d d8 89 41 bd db 9a 41 c5 45 ce 41
       24.415289 17.230616 19.357294 25.784067
000010 a2 87 19 42 8b 6f 04 42 cc 28 c5 41 5d 2f 9f 41
       38.382454 33.10893 24.64492 19.898127
000020 f2 a8 af 41 48 87 86 41 5f f5 5e 41 b2 0d 2b 41
       21.957493 16.816055 13.934905 10.690844
000030 c5 6c ac 41 fb 0e 95 41 51 89 b2 41 6d c1 fd 41
       21.55311 18.632315 22.317049 31.719446
000040 3d da 60 41 cc da 8d 41 06 1b d8 41 9a 8e 3c 41
       14.053281 17.731834 27.013195 11.784815
000050 74 6d 16 42 29 a4 f4 41 9f fa 7f 41 2b 71 19 42
       37.606888 30.580156 15.998687 38.360516
000060 1e d3 c1 41 74 65 98 41 72 1a cc 41 09 6d 19 42
       24.228085 19.049538 25.512913 38.35648
000070 f6 16 2f 41 a5 14 26 42 fd 73 93 41 c4 74 af 41
       10.943106 41.52016 18.431635 21.932014
000080 8d 8b f3 41 08 05 c5 41 cd da c5 41 47 42 4f 41
       30.44314 24.627457 24.731836 12.953681
000090 00 1c 26 42 cd 1e e0 41 84 31 03 42 d2 40 be 41
       41.527344 28.01504 32.798355 23.78165
0000a0 13 8e 72 41 2e 88 ad 41 db de 9d 41 a3 77 db 41
       15.159686 21.691494 19.733816 27.433416
0000b0 59 6b 8a 41 2f cf 09 42 70 b2 93 41 c4 71 bb 41
       17.302416 34.452328 18.462128 23.43055
0000c0 68 84 ce 41 3e 90 5c 42 45 59 7e 41 1c 2f b7 41
       25.814651 55.14086 15.896794 22.898003
0000d0 c4 08 ad 41 05 1a 72 41 48 3d a3 41 bb 21 ef 41
       21.62928 15.131352 20.404922 29.89147
0000e0 f0 ba bf 41 55 44 5f 41 0f 2d b6 41 a1 00 40 42
       23.966278 13.954183 22.772001 48.000614
0000f0 3e c3 fd 41 3b 91 a8 41 0f 70 32 41 f4 5f d5 41
       31.720333 21.070913 11.152358 26.671852
