model_saved/AIDS700nef/2022-03-17_10-42-12/GSC_GNN_AIDS700nef_checkpoint_p20.pth (torch, 297351 bytes, 61 tensors)

gnn_list.0.nn.0.weight f4 [64, 29]
0	0xbfb98b30	-1.4495602
1	0x3f17af65	0.59252006
2	0xbf13a207	-0.5766911
3	0x3ec25665	0.3795654
4	0x3e0ee442	0.13954261
5	0x3c070ddf	0.008243053
6	0x3e12eea6	0.1434885
7	0xbd5925d3	-0.053014588
8	0xbe59229c	-0.21204609
9	0x3ec85c0c	0.39132726
10	0x3b32254a	0.002718287
11	0x3f54894d	0.83022004
12	0xbe108986	-0.14114961
13	0xbea526e5	-0.32256237
14	0xbecb1009	-0.3966067
15	0xbde27070	-0.11056602
16	0xbe976871	-0.2957187
17	0xbe7f4440	-0.24928379
18	0x3ee5f5db	0.44914135
19	0xbec36cad	-0.3816885
20	0xbee435e0	-0.44572353
21	0xbec59fda	-0.3859852
22	0x3d8f4f95	0.06997601
23	0xbcd2e47e	-0.02574372
24	0x3ca9183b	0.020641437
25	0x3d8bd003	0.068267845
26	0x3d9e2d10	0.07723439
27	0xbd225370	-0.039630353
28	0x3dfeefa6	0.12448053
29	0x3ebb210d	0.36548653
30	0x3e92fc2d	0.2870802
31	0x3ec1b66b	0.37834486
32	0x3eac410f	0.33643386
33	0x3e744f4a	0.23858371
34	0x3d16a662	0.03677977
35	0x3f322e79	0.6960216
36	0x3ece07db	0.40240368
37	0x3e9aeb6a	0.30257732
38	0x3ea3f788	0.3202479
39	0x3f33a147	0.70167965
40	0x3e29cab1	0.16581227
41	0x3e809353	0.251124
42	0x3f0e75ec	0.55648685
43	0x3e38a7ae	0.18032715
44	0x3ed6a41c	0.4192208
45	0x3f198b30	0.5997801
46	0x3dac8ad8	0.0842492
47	0x3ef3a2b1	0.4758506
48	0xbec48cad	-0.38388577
49	0x3ed72033	0.42016754
50	0x3ec494fa	0.3839491
51	0x3ef16689	0.4714854
52	0x3f4020bc	0.7504995
53	0x3cac0ce4	0.02100224
54	0x3e30abff	0.17253111
55	0xbc474d30	-0.012164399
56	0x3c4f5b85	0.012656097
57	0x3e0cd27e	0.13752171
58	0x3d693075	0.056930978
59	0x3e43a908	0.19107449
60	0x3e6e3374	0.23261815
61	0x3e449240	0.19196415
62	0x3ee37751	0.4442697
63	0x3d186564	0.03720607
64	0xbf201e6c	-0.6254642
65	0x3f16719d	0.5876711
66	0xbe41351e	-0.18867919
67	0x3e5ca013	0.21545438
68	0x3d393bf6	0.0452232
69	0x3e668c4c	0.22514457
70	0x3ed91d68	0.42405248
71	0xbd979ee5	-0.074033536
72	0x3e872a2b	0.2639936
73	0xbe1b170a	-0.15145507
74	0x3f11eb87	0.5700001
75	0x3e9d1a9d	0.30684367
76	0x3e0656a3	0.13118987
77	0x3e3b8fcd	0.18316574
78	0x3f737b8f	0.9511041
79	0x3ea6808f	0.32519957
80	0xbe1d4233	-0.15357284
81	0xbedb6c39	-0.42856005
82	0x3de6b0f7	0.11264222
83	0x3e23a451	0.1598065
84	0x3e34ff12	0.17675427
85	0xbceab20d	-0.028649354
86	0x3e38079d	0.17971654
87	0xbe3b8e59	-0.1831602
88	0x3eafa754	0.3430735
89	0x3ee39784	0.44451535
90	0xbe281794	-0.16415244
91	0xbf2641bc	-0.6494405
92	0xbdbd18e5	-0.09233264
93	0xbe85a5ee	-0.26103157
94	0xbdacd22d	-0.08438525
95	0xbe1425ef	-0.14467596
96	0xbe784ba4	-0.24247605
97	0xbe1979c4	-0.14987856
98	0xbe97bfaa	-0.29638416
99	0xbde654af	-0.11246621
100	0xbe077353	-0.13227586
101	0x3c9e9434	0.019357778
102	0xbead2a78	-0.33821464
103	0xbde44890	-0.11146653
104	0x3d109f2c	0.035308048
105	0xbe473bfc	-0.19456476
106	0x3d23ef4f	0.040023144
107	0x3ea69819	0.32537916
108	0x3e155e10	0.14586663
109	0x3d660255	0.056154568
110	0x3cb55adb	0.02213805
111	0xbdbba23e	-0.091618046
112	0x3db41f87	0.08795076
113	0xbd76e76b	-0.06027929
114	0x3dd37896	0.10325734
115	0xbd07fd0c	-0.03320031
116	0x3ed8359c	0.422284
117	0x3eca6809	0.39532498
118	0xbfa89779	-1.3171226
119	0xbf1df34c	-0.61699367
120	0x3e024e70	0.12725234
121	0xbbcb8faf	-0.006212197
122	0xbee0b410	-0.43887377
123	0xbe23494c	-0.1594593
124	0x3e0f61e7	0.1400219
125	0x3f321ca5	0.6957496
126	0x3f1edf33	0.62059325
127	0x3ea8fee2	0.3300696
128	0x3c5403af	0.012940331
129	0x3f0057ce	0.5013398
130	0x3ec74cb6	0.38925713
131	0x3f01663d	0.5054663
132	0xbea9a0f5	-0.33130613
133	0x3f09f133	0.53883666
134	0x3e54e650	0.20790982
135	0x3e9c6bc0	0.30550957
136	0x3dd9496f	0.106097095
137	0x3e91ca60	0.28474712
138	0x3eb76069	0.35815743
139	0x3f21dd4d	0.63228303
140	0x3d938b5f	0.07204317
141	0xbce097f7	-0.027416212
142	0x3c2b5701	0.010457755
143	0xbcef8f47	-0.029243125
144	0x3d8b938e	0.06815253
145	0xbe0e2646	-0.13881788
146	0xbdc85f59	-0.09783811
147	0xbd000a7f	-0.03126001
148	0xbd06c75e	-0.032904975
149	0xbe42f4f5	-0.19038756
150	0x3d3b8058	0.045776695
151	0xbcc3b8b0	-0.023891777
152	0x3d89b44c	0.06723842
153	0xbcaaf7d5	-0.020870129
154	0xbdd0b3b4	-0.10190526
155	0xbdce5911	-0.10075582
156	0x3d0af32e	0.03392332
157	0xbdc9e03e	-0.09857224
158	0xbda2b730	-0.079450965
159	0x3d7a03ae	0.061038665
160	0x3dd4236d	0.103583194
161	0xbd4fe08c	-0.050751254
162	0x3cf54ed6	0.029944818
163	0x3e4e2947	0.20132934
164	0x3c279f39	0.010230833
165	0xbc107eca	-0.008819291
166	0x3d3b5391	0.045733992
167	0xbde4bce9	-0.11168844
168	0xbd9db418	-0.07700366
169	0xbd9397ca	-0.07206686
170	0x3dd0cda5	0.101954736
171	0xbd2ea081	-0.042633537
172	0x3dc780ed	0.097413875
173	0xbdd7b105	-0.10531811
174	0xbe8c066e	-0.27348655
175	0x3f03d740	0.5150032
176	0x3d151af2	0.03640265
177	0xbf2be7cc	-0.6715057
178	0xbd8e9c3b	-0.06963392
179	0xbf04bb39	-0.5184818
180	0xbd2e13e9	-0.042499457
181	0xbec1d828	-0.37860227
182	0xbced0aea	-0.028935868
183	0xbea8c354	-0.32961524
184	0xbc5c32ca	-0.013439843
185	0x3ec72588	0.38895822
186	0xbdec77a8	-0.1154626
187	0xbe0e44d8	-0.1389345
188	0xbdbfa53b	-0.09357687
189	0xbf48b01d	-0.7839373
190	0xbd67798c	-0.0565124
191	0xbf231780	-0.63707733
192	0xbe16dfce	-0.14733812
193	0xbe221fbe	-0.15832421
194	0xbcbfe05d	-0.023422414
195	0xbdb49d9d	-0.08819125
196	0xbdf1f1c1	-0.11813689
197	0xbd404918	-0.046944708
198	0xbcf859ff	-0.030316351
199	0x3e2d1d10	0.16905618
200	0xbdbfe5bc	-0.0936999
201	0x3cae6638	0.021288976
202	0xbdd886f6	-0.10572617
203	0xbd71c6ee	-0.059027605
204	0xbea44d61	-0.32090285
205	0xbecb5605	-0.39714065
206	0x3ee0f28c	0.4393505
207	0xbe16de9d	-0.14733358
208	0xbe300f76	-0.17193398
209	0xbee4c304	-0.44680035
210	0xbe0adb49	-0.13560213
211	0xbeb66b1f	-0.35628602
212	0x3e4fcefa	0.20293799
213	0xbe84154f	-0.25797507
214	0xbf6207e5	-0.88293296
215	0x3ee75df4	0.45188868
216	0xbe20247c	-0.15638918
217	0xbe74419f	-0.23853157
218	0x3b4a4c1b	0.0030868116
219	0xbdf58994	-0.119891316
220	0xbe9926bc	-0.29912364
221	0x3dd77d79	0.10521979
222	0x3dca7287	0.098851256
223	0xbda98fd4	-0.08279386
224	0xbe362537	-0.17787634
225	0x3f10f78f	0.56627744
226	0xbeae41d0	-0.34034586
227	0xbe08f446	-0.13374433
228	0xbe2a00ac	-0.16601819
229	0x3e10d0e1	0.14142181
230	0x3c68416b	0.014175753
231	0xbcb34aeb	-0.02188631
232	0xbe8c6ce1	-0.27426818
233	0xbe7a6366	-0.2445198
234	0xbf01b727	-0.50670093
235	0x3f0915c3	0.5354883
236	0x3ed220b7	0.41040584
237	0xbe0cb298	-0.13740003
238	0xbea0909f	-0.31360337
239	0xbdfa95e2	-0.12235619
240	0xbf0347e2	-0.5128156
241	0x3e82026c	0.25392473
242	0x3d9dbc54	0.07701936
243	0xbecc232b	-0.3987058
244	0xbda9f784	-0.08299163
245	0xbe970cdb	-0.29501995
246	0xbd06b93a	-0.03289149
247	0xbd841374	-0.06449023
248	0xbbc3e45c	-0.0059781503
249	0x3e22dad7	0.15903793
250	0xbe951a3e	-0.29121584
251	0x3ee7aae5	0.4524757
252	0xbe6682f4	-0.22510892
253	0xbe34517a	-0.17609206
254	0xbe061cd7	-0.13096939
255	0xbdc2c17d	-0.09509561

gnn_list.0.nn.0.bias f4 [64]
0	0xbd176207	-0.03695872
1	0xbea884bc	-0.32913768
2	0xbf0874ef	-0.53303427
3	0xbef4bc5a	-0.4779995
4	0x3d09f70b	0.033682864
5	0xbe117160	-0.14203405
6	0xbe9f942d	-0.31167737
7	0x3e664b1c	0.2248959
8	0x3ec8cff0	0.39221144
9	0xbd294fe4	-0.041335955
10	0x3dbf04fb	0.09327122
11	0x3d3e77f1	0.046501104
12	0xbe43fdde	-0.19139811
13	0xbd6d852c	-0.05798833
14	0xbdb0f2c8	-0.08640057
15	0xbd8e20cd	-0.0693985
16	0xbe0120cd	-0.12610169
17	0xbf0949e6	-0.53628385
18	0xbf19c587	-0.6006703
19	0xbd87b86f	-0.06626975
20	0xbe4a16fa	-0.19735327
21	0x3e2a0c29	0.16606201
22	0xbdef69b8	-0.11690086
23	0xbf1354f4	-0.57551503
24	0xbe0872ed	-0.1332509
25	0x3e684bd7	0.2268518
26	0xbdb011c3	-0.08597138
27	0x3e8db5dc	0.2767781
28	0xbf2cab31	-0.6744872
29	0xbda79738	-0.081831396
30	0x3e55094b	0.20804326
31	0xbe35ea81	-0.17765237
32	0xbefe7d8d	-0.49705163
33	0xbe4bf739	-0.19918527
34	0x3d5a40ef	0.05328458
35	0x3de1b99f	0.110217325
36	0xbe6cb066	-0.23114166
37	0xbf0c6299	-0.5483795
38	0xbf086ba5	-0.5328925
39	0xbdd12531	-0.10212172
40	0xbd56359d	-0.052297223
41	0xbe7ce4fe	-0.24696729
42	0xbe15bebf	-0.14623545
43	0xbe2b3664	-0.16719967
44	0xbf053444	-0.52032876
45	0x3d8742ae	0.06604515
46	0xbe539b27	-0.20664655
47	0xbeb981c6	-0.36231822
48	0xbf0680e1	-0.52540404
49	0xbf164c87	-0.5871052
50	0xbda8cd35	-0.08242265
51	0xbe13359d	-0.1437592
52	0x3da156f3	0.07877912
53	0x3ec1ba08	0.37837243
54	0xbe8ffda9	-0.28123215
55	0xbeeb9619	-0.46012953
56	0xbc83b4f7	-0.016077502
57	0x3eb99eea	0.36254054
58	0x3d86f3ec	0.06589493
59	0xbe0da294	-0.1383155
60	0xbdffecf4	-0.12496367
61	0xbe39bd78	-0.18138683
62	0xbf33072f	-0.69932836
63	0xbe638c01	-0.22221376

gnn_list.0.nn.2.weight f4 [64, 64]
0	0x3ec60557	0.3867595
1	0x3f22f750	0.6365862
2	0x3dd7d0be	0.10537861
3	0x3e6dbc38	0.23216331
4	0xbee2d2bc	-0.44301403
5	0x3d0d815f	0.034547206
6	0x3bba705b	0.0056896633
7	0x3ddfa405	0.10919956
8	0x3e38c8f4	0.18045408
9	0xbdad24bf	-0.084542744
10	0x3c1b36f6	0.009473553
11	0x3e2d9f89	0.16955389
12	0xbe3c6e41	-0.18401434
13	0xbdbf647f	-0.0934534
14	0x3e15d9b2	0.14633825
15	0xbd1ac684	-0.037786976
16	0xbe5a5c31	-0.2132423
17	0xbd213ac6	-0.03936269
18	0x3ef6cf9b	0.48205265
19	0x3c664b44	0.014056031
20	0x3dec90c4	0.11551049
21	0x3e368397	0.17823635
22	0xbd5cac71	-0.05387539
23	0x3eb68097	0.3564498
24	0x3e075d22	0.13219121
25	0xbf0f91d8	-0.56081915
26	0xbf4565ca	-0.7710844
27	0xbefb7b49	-0.49117497
28	0x3dbe161d	0.092815615
29	0x3f20ef7f	0.6286544
30	0xbe92a02a	-0.2863782
31	0x3f0cf348	0.5505872
32	0x3f329630	0.6976042
33	0x3f17396e	0.59072006
34	0xbe78f4fe	-0.24312207
35	0x3f2c042e	0.6719388
36	0x3ee5afd2	0.44860703
37	0xbecc69d1	-0.39924482
38	0x3f04967c	0.5179212
39	0x3ea9bf06	0.33153552
40	0x3efeb04b	0.49743876
41	0x3efd9771	0.49529603
42	0x3e05d51c	0.13069576
43	0xbcf26819	-0.029590653
44	0x3ee68c54	0.45028937
45	0x3ef7d44e	0.48404163
46	0x3e1751ce	0.147773
47	0x3dac4c52	0.084129944
48	0x3eae0d71	0.3399463
49	0x3e41b0d5	0.18915112
50	0xbebc3f1e	-0.36766905
51	0x3f192222	0.5981771
52	0x3f1fee0a	0.62472594
53	0x3edab8d2	0.42719132
54	0x3e9231e3	0.28553686
55	0x3e4530eb	0.19256942
56	0x3f148e5b	0.5802972
57	0x3e2d2aaa	0.16910806
58	0x3e80f62f	0.25187823
59	0x3d6ca29a	0.057772256
60	0x3e9a042f	0.30081317
61	0xbebb89e4	-0.3662864
62	0x3e392226	0.18079433
63	0x3d5acd8a	0.053418674
64	0xbe389ba8	-0.18028128
65	0xbf30cfbc	-0.6906698
66	0xbdeb847d	-0.114998795
67	0x3e55dc62	0.2088485
68	0xbf8bace8	-1.0912142
69	0xbd1a386d	-0.037651468
70	0x3e11c2bc	0.14234442
71	0x3de939e1	0.11387993
72	0xbe9d482e	-0.3071913
73	0xbe5e0558	-0.21681726
74	0xbdbf43d2	-0.093391076
75	0x3e660b8b	0.22465341
76	0xbd8aaaea	-0.067708805
77	0xbdb9e2b1	-0.09076441
78	0x3d02fe4a	0.03198079
79	0xbd667978	-0.056268185
80	0xbc876a15	-0.016530076
81	0x3e11078c	0.14163035
82	0xbedee7de	-0.43536276
83	0xbdd2d3b6	-0.10294287
84	0x3e273aa2	0.1633096
85	0xbcdbc944	-0.02682937
86	0xbd9e1b34	-0.07720032
87	0xbe8237f8	-0.25433326
88	0xbe316217	-0.17322575
89	0xbe313bc4	-0.17307955
90	0xbe668334	-0.22510988
91	0x3ea24e19	0.3170021
92	0xbf33d29a	-0.7024323
93	0xbe9000cf	-0.28125617
94	0xbc6b1fac	-0.014350813
95	0x3f2eee92	0.6833278
96	0x3e23b6bf	0.15987681
97	0xbe42c627	-0.19020902
98	0x3dc98d6b	0.098414265
99	0xbf62d1f4	-0.88601613
100	0xbe4be539	-0.1991166
101	0x3e272f0c	0.1632654
102	0x3dab669c	0.083691806
103	0xbf188643	-0.5957987
104	0xbf12f23d	-0.57400876
105	0xbeb05c06	-0.34445208
106	0xbef63669	-0.48088387
107	0x3d0c1bf1	0.034206335
108	0x3e73e707	0.23818599
109	0xbde02f58	-0.1094653
110	0x3d5737a0	0.052543283
111	0xbbef5bba	-0.007304636
112	0xbee36880	-0.44415665
113	0x39ded1ba	0.00042499398
114	0xbeea5e30	-0.45774984
115	0xbe4ca42a	-0.19984499
116	0x3cfa83ae	0.030580368
117	0xbe5003ba	-0.20313922
118	0xbf406ae3	-0.75163096
119	0xbead5503	-0.3385392
120	0x3e469800	0.19393921
121	0xbf26842d	-0.65045434
122	0xbee4433d	-0.4458255
123	0xbe2011b6	-0.15631756
124	0x3da55061	0.08071972
125	0xbd2877be	-0.04112982
126	0xbfbc13d4	-1.4693551
127	0x3d9f08c0	0.07765341
128	0xbdec9cc6	-0.1155334
129	0xbeec154f	-0.46110007
130	0xbddb61fa	-0.10712047
131	0x3d2e89d5	0.042611916
132	0xbe90dcf2	-0.28293568
133	0x3c239846	0.009985035
134	0x3f00cb28	0.5030999
135	0x3d74559d	0.05965196
136	0x3d7c8274	0.061647847
137	0x3d7a76ad	0.061148334
138	0x3e2d3568	0.16914904
139	0xbcab1f41	-0.020888926
140	0xbd844c6f	-0.06459891
141	0x3c80bf15	0.015716115
142	0x3e191b74	0.14951879
143	0x3c73686d	0.01485644
144	0x3f2f3a66	0.68448484
145	0x3e8e8769	0.27837685
146	0xbf1af731	-0.60533434
147	0x3d1a3e37	0.03765699
148	0xbd435eee	-0.047697954
149	0xbebf3ded	-0.37351933
150	0xbf305d87	-0.6889271
151	0xbce1799d	-0.02752381
152	0xbdb0c59c	-0.08631441
153	0x3b3c6239	0.0028745069
154	0x3f89c24c	1.076242
155	0x3f1f9e6a	0.62351096
156	0xbf596181	-0.84914404
157	0xbcd0ec50	-0.025503308
158	0x3d4e59c3	0.050378572
159	0xbefebed6	-0.4975497
160	0xbea43b97	-0.32076713
161	0x3eb30eda	0.34972268
162	0xbe8d00c2	-0.2753964
163	0x3eb38bf0	0.350677
164	0x3eefa094	0.468022
165	0x3eaa3a13	0.33247432
166	0x3ce89184	0.0283897
167	0xbebe2931	-0.37140802
168	0xbee21999	-0.44160154
169	0xbd8419de	-0.06450246
170	0x3e9f570d	0.31121102
171	0xbd2d4b5a	-0.04230819
172	0x3ec02ae7	0.37532732
173	0xbee474e8	-0.44620442
174	0x3e51afe0	0.20477247
175	0xbecc33d6	-0.39883298
176	0xbd3dd546	-0.04634597
177	0xbe8ddf6a	-0.27709514
178	0xbe905e53	-0.28196964
179	0x3d759d11	0.059964243
180	0xbea2c093	-0.31787547
181	0xbeafdae8	-0.343467
182	0xbea996b9	-0.33122805
183	0xbd201f7d	-0.03909253
184	0xbd8eff87	-0.06982332
185	0xbda18c7d	-0.07888124
186	0xbe898dbc	-0.26865947
187	0x3e4d6dbc	0.20061392
188	0xbf13cd97	-0.5773558
189	0x3e51c633	0.20485763
190	0xbeb4e16c	-0.35328233
191	0xbd254115	-0.04034527
192	0xbf16a17c	-0.58840156
193	0xbe78170f	-0.24227546
194	0x3e221dbe	0.15831658
195	0x3e21c7b3	0.15798835
196	0x3e07e558	0.13271081
197	0xbdc7b5f4	-0.09751502
198	0xbf2cf8af	-0.6756696
199	0x3eac36cd	0.3363556
200	0x3f1417a7	0.5784859
201	0xbee29761	-0.44256118
202	0x3e25772e	0.16158745
203	0x3eee1763	0.46502218
204	0xbd525d46	-0.051358484
205	0xbddcadbe	-0.10775326
206	0x3eec1702	0.46111304
207	0xbd23cf70	-0.03999275
208	0xbe529c40	-0.20567417
209	0xbea3e367	-0.32009432
210	0x3d23c624	0.039983884
211	0xbc813c32	-0.015775774
212	0x3e2d97d6	0.16952452
213	0x3e9a1fea	0.30102473
214	0x3f16c956	0.58900964
215	0xbdd70245	-0.1049848
216	0x3ece3398	0.40273738
217	0x3ddd4b37	0.10805362
218	0xbed75b85	-0.4206201
219	0x3e43c174	0.19116765
220	0x3d696fe8	0.056991488
221	0x3e165491	0.14680697
222	0x3d69efbb	0.05711339
223	0x3f1790ed	0.59205514
224	0x3eb625ea	0.355758
225	0xbdf0d287	-0.11758905
226	0x3e34833e	0.1762819
227	0xbe8cea16	-0.27522343
228	0x3eaf6148	0.34253907
229	0xbd4d2159	-0.05008063
230	0xbbae76cd	-0.0053242208
231	0x3e9a568d	0.30144158
232	0x3e266954	0.16251117
233	0x3f371487	0.715157
234	0xbea8b1e4	-0.3294822
235	0xbdbfdf12	-0.09368719
236	0xbe2a1e6c	-0.16613168
237	0xbf85e7eb	-1.0461401
238	0x3daecc2c	0.085350364
239	0xbe86154f	-0.26188132
240	0xbecd85d6	-0.4014117
241	0x3dd1bf73	0.10241594
242	0x3e833518	0.25626445
243	0xbdd19509	-0.10233504
244	0x3e57a11e	0.21057555
245	0x3e4c7ef3	0.19970302
246	0x3e6ed141	0.23322012
247	0xbce9b5c1	-0.02852905
248	0x3da7d9af	0.08195817
249	0x3eb15333	0.34633788
250	0x3f04cb11	0.51872355
251	0x3dc234b4	0.094827086
252	0xbde47065	-0.1115425
253	0x3e8df93a	0.27729207
254	0xbe3e44ed	-0.1858098
255	0x3d299684	0.04140331

gnn_list.0.nn.2.bias f4 [64]
0	0x3cf002c4	0.029298194
1	0xbee86ed4	-0.45397055
2	0xbe9c6d7f	-0.3055229
3	0x3d7c518f	0.061601218
4	0x3e287485	0.16450699
5	0xbe564e5c	-0.20928329
6	0xbe6739e2	-0.22580674
7	0xbeabd95e	-0.33564276
8	0x3d40ecb5	0.04710074
9	0xbd5729f1	-0.052530233
10	0xbd8fb55c	-0.070170134
11	0xbdea636b	-0.11444744
12	0xbe4755f0	-0.19466376
13	0xbdd0a0c5	-0.10186914
14	0xbcc87299	-0.024468707
15	0x3ddccdfd	0.10781477
16	0xbeb4cb38	-0.35311294
17	0xbdb1e0bc	-0.08685443
18	0x3caa0df1	0.0207586
19	0xbe1746ba	-0.14773074
20	0x3bd0face	0.0063775545
21	0xbdb823ef	-0.08991229
22	0xbe3f7437	-0.18696676
23	0xbdf6e62f	-0.12055623
24	0xbe3c1168	-0.18366015
25	0xbe88c8ab	-0.26715598
26	0xbea67cfa	-0.32517225
27	0x3dc788bc	0.09742877
28	0xbd1f9285	-0.03895809
29	0xbe39ea1e	-0.18155715
30	0x3d47a3fc	0.048740372
31	0x3dfad528	0.122476876
32	0xbd05724c	-0.032579705
33	0x3d21eb6c	0.039531156
34	0x3dd940f4	0.10608092
35	0xbe2a8055	-0.16650517
36	0xbeeae127	-0.45874903
37	0xbe687b08	-0.22703183
38	0xbe3dbcf2	-0.18529108
39	0xbe8e6277	-0.27809498
40	0x3e1ab52b	0.15108173
41	0x3d5984ef	0.05310529
42	0x3d39a66f	0.04532474
43	0x3df45927	0.11931067
44	0x3de7852c	0.113046974
45	0xbde265c7	-0.11054569
46	0xbeac7ecf	-0.33690497
47	0xbe001507	-0.12508021
48	0xbe7ddf90	-0.24792314
49	0x3dae918f	0.08523857
50	0xbe1e62e6	-0.15467414
51	0x3def0679	0.116711564
52	0xbbd97bb2	-0.00663706
53	0x3e053629	0.13008942
54	0xbe7a25f8	-0.24428546
55	0xbcf0ea97	-0.029408736
56	0x3d9b5fd4	0.07586637
57	0xbde369f4	-0.11104193
58	0x3e0b386d	0.13595743
59	0x3a7bc371	0.0009604013
60	0xbde5cdb9	-0.11220879
61	0x3d739a8f	0.05947357
62	0xbe6d6f9e	-0.2318711
63	0xbd8679e3	-0.06566217

gnn_list.0.nn.3.weight f4 [64]
0	0x3f134723	0.5753042
1	0x3ec0947e	0.3761329
2	0x3ed16555	0.40897623
3	0x3f2b9dc1	0.6703759
4	0x3ece5184	0.40296566
5	0x3f195522	0.5989553
6	0x3ed9a538	0.42508864
7	0x3f3aec26	0.73016584
8	0x3f0e8445	0.5567058
9	0x3eb1d4d6	0.34732693
10	0x3f15bd56	0.5849203
11	0x3ed69fc1	0.41918758
12	0x3ec13f4e	0.3774361
13	0x3f110ced	0.5666035
14	0x3f20b4ab	0.6277568
15	0x3eba78ce	0.36420292
16	0x3f038858	0.5137992
17	0x3eac3679	0.3363531
18	0x3f0b3cf6	0.54389894
19	0x3eccae02	0.39976507
20	0x3ee2e72c	0.44316995
21	0x3eccc15c	0.39991271
22	0x3e906e75	0.28209272
23	0x3f1bcd0b	0.60859746
24	0x3f10f80a	0.5662848
25	0x3ee39f37	0.4445741
26	0x3f1bd825	0.60876685
27	0x3f0ccfb7	0.5500445
28	0x3ecddab2	0.40205914
29	0x3e986cfe	0.29770654
30	0x3f153485	0.58283263
31	0x3ee9078c	0.4551357
32	0x3ecbb5d7	0.3978717
33	0x3f06ce79	0.526588
34	0x3eed3fa4	0.46337616
35	0x3f23c73b	0.63975877
36	0x3f449924	0.76796174
37	0x3f39201e	0.7231463
38	0x3ebc41dd	0.36769
39	0x3f1732fd	0.59062177
40	0x3ea5de2a	0.3239606
41	0x3e94130e	0.28920788
42	0x3ece9fb5	0.40356222
43	0x3f066fc1	0.5251427
44	0x3f2f7c40	0.68548965
45	0x3eee70a3	0.4657031
46	0x3edb732c	0.42861307
47	0x3ec02491	0.37527898
48	0x3f198abf	0.59977335
49	0x3ed6b713	0.4193655
50	0x3f0fb1ea	0.5613085
51	0x3f0093b5	0.50225383
52	0x3ee75f0f	0.4518971
53	0x3f4f4fe3	0.8098127
54	0x3e96c56f	0.29447505
55	0x3f1516ba	0.58237803
56	0x3edebeba	0.43504888
57	0x3eade5a1	0.33964255
58	0x3e997f1c	0.2997979
59	0x3eb95589	0.3619807
60	0x3efca944	0.4934789
61	0x3eadff39	0.33983782
62	0x3f09bda1	0.53804976
63	0x3e70bdc2	0.23509887

gnn_list.0.nn.3.bias f4 [64]
0	0xbef144a4	-0.4712268
1	0xbdad3154	-0.08456674
2	0xbde2e318	-0.11078471
3	0xbe042854	-0.12906009
4	0xbe9b651a	-0.30350572
5	0xbbe36a6f	-0.006940178
6	0xbec73239	-0.38905504
7	0xbe91534d	-0.28383866
8	0xbe11c82a	-0.14236513
9	0xbe8c7d9c	-0.27439582
10	0xbe84b2c7	-0.25917646
11	0xbebb6370	-0.36599302
12	0xbe1506f7	-0.14553438
13	0xbe14f51b	-0.14546625
14	0xbed166a9	-0.40898636
15	0xbe90d3fc	-0.2828673
16	0xbf025dc3	-0.5092432
17	0xbe154a81	-0.14579202
18	0xbef1b8ff	-0.47211453
19	0xbdf08303	-0.117437385
20	0xbe36c06d	-0.17846842
21	0xbe10497f	-0.14090537
22	0xbe40a36a	-0.18812338
23	0xbd0068da	-0.031349994
24	0xbe692c9d	-0.22770925
25	0xbd8b349b	-0.06797143
26	0x3d8d8509	0.0691014
27	0xbe2a9e24	-0.16661888
28	0xbd55e131	-0.052216712
29	0x3cefb5c7	0.029261483
30	0xbe2703c5	-0.16310032
31	0xbe2e698e	-0.17032453
32	0xbe5e2f12	-0.21697643
33	0xbeb514c3	-0.35367402
34	0xbcfd8d84	-0.030951269
35	0xbe3f7ef5	-0.18700774
36	0xbdd579ea	-0.10423644
37	0xbe351d61	-0.17686988
38	0xbdaf1258	-0.08548421
39	0xbdb412ac	-0.08792624
40	0xbdcb3937	-0.09923022
41	0xbe2004f9	-0.15626897
42	0xbe89ce93	-0.26915416
43	0xbd993260	-0.074803114
44	0xbf10a865	-0.5650695
45	0xbcd28a68	-0.025700763
46	0xbd148875	-0.036262948
47	0xbdc46307	-0.095892005
48	0xbeb3a8f4	-0.35089839
49	0xbe8e8b57	-0.27840683
50	0xbe810f94	-0.25207198
51	0xbee48d1a	-0.44638902
52	0xbee37f0e	-0.44432873
53	0xbe8a4d4b	-0.27012095
54	0xbe026dba	-0.1273717
55	0xbe70fa41	-0.23532964
56	0xbeb96315	-0.36208406
57	0x3d370948	0.044686586
58	0xbd49911f	-0.049210664
59	0xbe593807	-0.21212779
60	0xbe38dc4e	-0.1805279
61	0xbe2a4fc0	-0.16631985
62	0x3d297dd5	0.04137977
63	0xbe2bfdbb	-0.16796009

gnn_list.0.nn.3.running_mean f4 [64]
0	0x40a5d605	5.1823754
1	0xc0b6311b	-5.6934943
2	0xc0a47c40	-5.140167
3	0x3fb1905e	1.3872182
4	0x403ca4a9	2.94755
5	0xc09c04b7	-4.8755755
6	0xc068c3a0	-3.63694
7	0x40e3c6b3	7.1180053
8	0x40dcad3d	6.8961473
9	0x3f306e28	0.68918085
10	0x3e729138	0.23688209
11	0xc0680365	-3.6252072
12	0x3eba963b	0.36442742
13	0xc07b79d3	-3.9293106
14	0x4065610f	3.584049
15	0x4083d5c6	4.1198454
16	0x40c38d83	6.1110244
17	0xc045c3bb	-3.0900714
18	0x3f9274de	1.1441915
19	0x3f561854	0.8363087
20	0xc0129967	-2.290613
21	0x3fefbafa	1.8728936
22	0xc0cc75c2	-6.3893747
23	0xc06a585d	-3.6616433
24	0xc0da0f94	-6.8144016
25	0xc0a28277	-5.078426
26	0xc0b4e690	-5.653145
27	0xc0623a60	-3.534813
28	0xc041f521	-3.0305865
29	0xc080810a	-4.015752
30	0xc03b4315	-2.9259694
31	0xbf3923b9	-0.72320133
32	0xc0495b80	-3.1462097
33	0x3dbaa3e2	0.091132894
34	0xbf6e47b0	-0.93078136
35	0x3fc21955	1.5163981
36	0xc100b426	-8.043982
37	0x40d31283	6.5960097
38	0xc0a58401	-5.1723638
39	0xc0f5e705	-7.6844506
40	0xbff86838	-1.9406805
41	0xbfb91aee	-1.4461343
42	0xbfb0cc44	-1.3812337
43	0x3fcace0d	1.5844132
44	0x404c3150	3.1905098
45	0xc076ef74	-3.858365
46	0xc0495401	-3.1457522
47	0x3fd7063f	1.6798781
48	0x406e6726	3.7250457
49	0x3f103293	0.5632717
50	0xbf0daa98	-0.5533843
51	0xbe5b2223	-0.21399741
52	0x3f286829	0.65783936
53	0xbea66cbd	-0.32504836
54	0xc059a841	-3.4008944
55	0xbd78ccdc	-0.060742244
56	0x3f4c791c	0.798723
57	0xc049e6a6	-3.1547027
58	0xbf76caef	-0.964034
59	0xbf00deb4	-0.5033982
60	0x408644be	4.1958914
61	0xc02903aa	-2.6408486
62	0xc0ae0742	-5.438386
63	0x3d8e824e	0.069584474

gnn_list.0.nn.3.running_var f4 [64]
0	0x4063ebd5	3.561269
1	0x40210560	2.515953
2	0x403d8e1a	2.9617982
3	0x3fd879ab	1.691213
4	0x3fd48f54	1.660624
5	0x40326d6d	2.7879288
6	0x3fe347cc	1.7756286
7	0x4093b723	4.6161056
8	0x409efde2	4.9684916
9	0x4006b9e8	2.1050968
10	0x3fb4a511	1.4112874
11	0x3f99a003	1.2001957
12	0x402ec3b4	2.7306948
13	0x402e4125	2.722726
14	0x405da86e	3.4634051
15	0x3fe25203	1.7681278
16	0x404831f0	3.128048
17	0x3f999275	1.199782
18	0x3ffbbca1	1.966694
19	0x405d2369	3.4552863
20	0x3fd9d572	1.7018263
21	0x4022fca6	2.5466704
22	0x401656aa	2.3490396
23	0x40262985	2.5962842
24	0x407d7ae4	3.9606256
25	0x402aef7d	2.6708672
26	0x403a6fcd	2.9130738
27	0x404bc248	3.183733
28	0x401f83ca	2.4924188
29	0x40145b70	2.318081
30	0x40213e25	2.519418
31	0x3f4b18fc	0.79335
32	0x3f91be29	1.1386157
33	0x4048aecc	3.1356688
34	0x4029970f	2.649845
35	0x4048ebf0	3.1394005
36	0x40aa317f	5.318542
37	0x40a1860b	5.0476127
38	0x404e4ec2	3.223557
39	0x4096cf2f	4.712791
40	0x40297892	2.647984
41	0x3fa97aa3	1.3240551
42	0x40495568	3.1458378
43	0x40910057	4.5312915
44	0x3facf1b3	1.3511261
45	0x3fc90081	1.5703279
46	0x4005e556	2.0921226
47	0x40a7fac9	5.2493634
48	0x407273b3	3.7883117
49	0x4030838f	2.7580297
50	0x406f7588	3.7415485
51	0x3f955ab8	1.166831
52	0x3f4c9e10	0.79928684
53	0x3fda1bd9	1.7039748
54	0x400f118f	2.2354467
55	0x3fe26b90	1.7689075
56	0x4001cf7c	2.0282888
57	0x40496f90	3.1474342
58	0x403b1f14	2.9237719
59	0x3fb38423	1.40247
60	0x3fe6cb6c	1.803083
61	0x400d508c	2.2080412
62	0x4032bf7f	2.792938
63	0x3f85dbd1	1.0457708

gnn_list.1.nn.0.weight f4 [64, 64]
0	0x3e054458	0.13014352
1	0xbdc93b0e	-0.09825717
2	0xbef7c2d5	-0.48390833
3	0x3e4c1935	0.1993149
4	0xbe2f2e4d	-0.17107506
5	0x3ec9b73b	0.39397606
6	0xbf1a6e87	-0.603249
7	0x3e84fda3	0.2597476
8	0xbb832145	-0.004001769
9	0xbd5c29cd	-0.0537508
10	0xbfd93958	-1.6970625
11	0xbf0c3ce3	-0.54780406
12	0x3e27425c	0.16333908
13	0xbe50932b	-0.2036864
14	0x3e41ef43	0.18938927
15	0xbe2a4e5f	-0.16631459
16	0x3ea31dd7	0.31858703
17	0x3e8c42a7	0.27394602
18	0xbe16a074	-0.14709646
19	0x3e6bfe03	0.23046117
20	0xbe1fbd31	-0.15599515
21	0x3e5b92c1	0.21442701
22	0xbdc2f165	-0.095186986
23	0x3ea8e597	0.32987663
24	0xbe2bb34e	-0.16767618
25	0xbd427700	-0.04747677
26	0x3e9b2672	0.3030277
27	0xbed92a99	-0.42415312
28	0x3e54ec92	0.2079337
29	0xbf5fc393	-0.874078
30	0xbfc568fb	-1.5422662
31	0xbf36beb5	-0.71384746
32	0xbe9f2c7b	-0.31088623
33	0xbda767cc	-0.081740946
34	0x3ea51ac4	0.32246983
35	0x3de306ad	0.11085258
36	0x3d849d94	0.06475368
37	0x3e3c94ee	0.18416187
38	0xbf726e90	-0.94699955
39	0x3e32b54b	0.1745197
40	0xbdd89cab	-0.10576757
41	0x3e309eeb	0.17248122
42	0xbf6a8e13	-0.9162304
43	0xbcde8e91	-0.02716759
44	0xbd928413	-0.071540974
45	0xbeea7552	-0.45792633
46	0xbee33337	-0.4437501
47	0xbdbb5380	-0.09146786
48	0x3df6b972	0.1204709
49	0xbdb36f5e	-0.08761476
50	0xbdf3d989	-0.11906726
51	0xbf09669b	-0.5367219
52	0x3d6449b8	0.055734366
53	0x3e8852ce	0.26625675
54	0xbeb2d10b	-0.34925112
55	0x3d888fa0	0.06668019
56	0xbe8b2937	-0.27179882
57	0xbf8ac9bd	-1.0842816
58	0x3dca9776	0.0989217
59	0xbe89a7f2	-0.26885945
60	0x3d303876	0.043022595
61	0xbf90f184	-1.1323705
62	0x3eb0433d	0.344263
63	0xbf369c21	-0.71331984
64	0xbd8447e1	-0.06459022
65	0x3ddbb14b	0.10727175
66	0x3d11ffc4	0.035644308
67	0xbe196221	-0.1497884
68	0x3ce80858	0.028324291
69	0xbd9ee2f3	-0.07758131
70	0xbc66c3c7	-0.014084763
71	0xbd45af8b	-0.048263114
72	0xbe1f223c	-0.15540403
73	0x3b5c992e	0.0033660638
74	0xbd464bf4	-0.04841228
75	0x3d62a9ef	0.055337843
76	0x3cc9f190	0.024651319
77	0xbda7a96b	-0.08186611
78	0x3bd6e4d1	0.0065580388
79	0xbd5bccf9	-0.053662274
80	0xbdb1f03d	-0.086884
81	0xbd017b13	-0.031611513
82	0xbe07d34a	-0.13264194
83	0xbcb0de0e	-0.021590259
84	0xbe161092	-0.14654759
85	0xbe43182e	-0.19052193
86	0xbe165513	-0.1468089
87	0xbd635e55	-0.055509884
88	0xbd9c0244	-0.0761762
89	0x3d49f142	0.049302347
90	0xbe11a4fa	-0.1422309
91	0xbdea7514	-0.11448112
92	0xbde79a5d	-0.11308739
93	0xbe10881f	-0.14114426
94	0x3dc9152f	0.098184936
95	0xbd3f1fb6	-0.0466611
96	0x3bf0262a	0.0073287683
97	0x3c8b2e6e	0.016989913
98	0x3d05bfc8	0.0326536
99	0xbdfbebfb	-0.12300869
100	0xbdb04792	-0.08607401
101	0xbdaa7d38	-0.08324665
102	0xbbb6709c	-0.0055676233
103	0xbe17ff3d	-0.1484346
104	0xbe029bfd	-0.12754817
105	0x3d5fd979	0.054650757
106	0x3d6deccb	0.05808715
107	0xbe2367b9	-0.15957536
108	0xbe07606b	-0.13220374
109	0x3d074abd	0.03303026
110	0xbd2ed177	-0.04268023
111	0x3ca08fb4	0.019599773
112	0xbe067185	-0.13129242
113	0xbc7cb339	-0.015423589
114	0xbd592bc4	-0.053020254
115	0xbd92b216	-0.071628734
116	0xbe3a0711	-0.18166758
117	0xbd4de50e	-0.05026727
118	0x3d2108fe	0.039315216
119	0xbe286b3e	-0.1644716
120	0xbc6985b1	-0.014253066
121	0x3d7b2c80	0.061321735
122	0x3ca56324	0.020188875
123	0xbd674646	-0.056463502
124	0x3d917368	0.0710209
125	0xbd487b66	-0.048945807
126	0x3ddbb34b	0.10727557
127	0x3cc9fc3c	0.024656408
128	0xbe8a5dab	-0.27024588
129	0x3e1a6e21	0.15081073
130	0xbdedeca8	-0.11617404
131	0xbf2484da	-0.64265215
132	0xbe6590f9	-0.22418584
133	0x3c3858dd	0.011251655
134	0xbd437553	-0.04771931
135	0x3ed5373d	0.41643706
136	0x3e6363e4	0.22206074
137	0xbbfd06ef	-0.007721774
138	0x3dc50d57	0.09621685
139	0x3e646c91	0.2230704
140	0x3eae735c	0.34072387
141	0xbd959065	-0.07302932
142	0x3e1cb7ef	0.1530454
143	0xbefc901d	-0.493287
144	0x3eb0b557	0.3451335
145	0xbe13322f	-0.14374612
146	0x3ef335f8	0.47502112
147	0x3e2b2eeb	0.16717117
148	0x3e1eccf1	0.15507866
149	0x3d2569b6	0.040384017
150	0x3e893471	0.26797822
151	0xbf293e5a	-0.66110766
152	0x3d2ff6fa	0.042960145
153	0xbe782f29	-0.2423674
154	0xbf875579	-1.0572959
155	0xbec098e6	-0.37616652
156	0xbda06ac2	-0.078328624
157	0x3eae8d0d	0.34091988
158	0x3e82ebd6	0.25570554
159	0x3e26cb1a	0.16288415
160	0x3ee59f87	0.44848272
161	0x3f29c193	0.66310996
162	0xbf0b4994	-0.54409146
163	0xbda9d9d1	-0.08293498
164	0x3e08e984	0.13370329
165	0x3eb789b5	0.3584725
166	0xbd485471	-0.048908655
167	0xbbda688b	-0.0066652945
168	0xbe3d33d1	-0.18476798
169	0xbd156186	-0.03646996
170	0xbddc125d	-0.1074569
171	0x3cafd618	0.021464393
172	0xbebc9244	-0.36830342
173	0xbec86b34	-0.3914429
174	0x3e67635e	0.225965
175	0x3e7f0162	0.24902871
176	0x3efdba12	0.49556023
177	0x3d2d359f	0.042287465
178	0x3cf4c866	0.029880714
179	0x3d6a9cd6	0.057278477
180	0xbe1b06ac	-0.15139264
181	0x3f15429a	0.5830475
182	0xbced186d	-0.028942311
183	0xbf274318	-0.6533675
184	0xbc9d5509	-0.019205587
185	0x3e17ec0e	0.14836141
186	0x3e927f95	0.28612962
187	0x3e5b1449	0.21394457
188	0x3e9d82d9	0.3076389
189	0x3e0249a6	0.12723407
190	0xbe0a97e3	-0.13534503
191	0xbdb6f208	-0.089328825
192	0x3dc7a244	0.097477466
193	0xbf8622e6	-1.04794
194	0xbe719ca2	-0.23594907
195	0x3e3f9510	0.18709207
196	0x3e91905a	0.28430444
197	0xbf836e7f	-1.0268096
198	0xbe3fd9ef	-0.18735479
199	0x3e8aa977	0.27082416
200	0x3ee29bd3	0.4425951
201	0xbdcdf902	-0.1005726
202	0x3e9fb54e	0.31193012
203	0xbf2533f5	-0.64532405
204	0x3ed40f1b	0.41417775
205	0xbeaea968	-0.34113622
206	0x3e8ea368	0.27859044
207	0xbe95bd03	-0.29245767
208	0x3e29b057	0.16571175
209	0xbf820361	-1.0157281
210	0xbd6e4668	-0.058172613
211	0x3e2de4d8	0.16981828
212	0xbe172f80	-0.14764214
213	0x3e1682b7	0.14698301
214	0xbf1bc44d	-0.60846406
215	0xbfa04d4b	-1.2523588
216	0xbeaa5d28	-0.33274198
217	0xbed3c77d	-0.41363135
218	0xbef07ab4	-0.46968615
219	0xbe704821	-0.23465015
220	0xbf571c5e	-0.8402766
221	0x3f0e3a8c	0.55558085
222	0x3e9f43b6	0.31106347
223	0x3e45d300	0.19318771
224	0x3e90ae75	0.282581
225	0x3e811394	0.2521025
226	0xbf1c19b6	-0.6097673
227	0xbf0c51b5	-0.54812175
228	0xbed4114b	-0.41419443
229	0x3d8abadf	0.06773924
230	0xbe882f08	-0.26598382
231	0xbf2a18a8	-0.6644387
232	0xbf13d2a9	-0.57743317
233	0xbf64f598	-0.89437246
234	0xbf9f31f5	-1.2437121
235	0x3eb81e95	0.35960832
236	0xbe0d3cf3	-0.13792782
237	0xbdc0c8ec	-0.09413323
238	0x3e3959d4	0.18100673
239	0x3e4a4548	0.19752991
240	0x3e8c07c8	0.27349687
241	0x3e481d39	0.19542398
242	0xbc9e1e06	-0.019301426
243	0x3e7565e2	0.23964646
244	0x3d8db8dc	0.06920025
245	0xbcbbb8cf	-0.022915272
246	0xbe25781d	-0.16159101
247	0xbeeec421	-0.4663401
248	0x3ea74d3d	0.32676116
249	0x3eb73672	0.35783726
250	0x3d81cb9e	0.06337665
251	0x3e5893a8	0.21150076
252	0x3e32a03b	0.17443936
253	0x3d9877f4	0.07444754
254	0xbf674c74	-0.90351033
255	0x3ef0e11a	0.4704674

gnn_list.1.nn.0.bias f4 [64]
0	0x3e9d1f20	0.3068781
1	0xbcaa955d	-0.020823175
2	0xbe589c62	-0.21153405
3	0x3e0a49b6	0.13504681
4	0x3e36215b	0.17786162
5	0xbd5cc54e	-0.053899102
6	0xbe0a388f	-0.13498138
7	0x3e58bf1f	0.21166657
8	0xbe58d966	-0.21176681
9	0x3d3bdc3c	0.04586433
10	0x3ecc56a9	0.39909866
11	0xbee50bf9	-0.44735697
12	0x3e70f9e5	0.23532827
13	0xbd16755c	-0.036733016
14	0x3de54489	0.11194713
15	0x3e94c36f	0.29055354
16	0x3e92aa51	0.28645566
17	0x3dda010e	0.106447324
18	0xbe036abb	-0.12833683
19	0xbe0cd32a	-0.13752428
20	0xbcbd7f96	-0.023132127
21	0xbe1fcf80	-0.15606499
22	0xbeaa6e84	-0.33287442
23	0x3deac858	0.11463994
24	0x3e341fbd	0.17590232
25	0xbd9ce4d6	-0.076608345
26	0x3c6eaf4a	0.014568159
27	0x3f385376	0.7200235
28	0x3e7948ed	0.24344225
29	0x3eb0e461	0.3454924
30	0xbceebef9	-0.029143797
31	0xbe16c79c	-0.14724582
32	0xbe1cad37	-0.15300451
33	0xbd8551b4	-0.06509724
34	0xbe0e2ca3	-0.13884215
35	0xbe811fcf	-0.2521958
36	0xbde838ed	-0.11338983
37	0xbc0a0bd0	-0.008425668
38	0x3e8109b1	0.25202706
39	0x3e8b9f72	0.27270085
40	0x3e276f31	0.1635101
41	0xbe33a372	-0.17542818
42	0x3e298870	0.16555953
43	0x3ea42e97	0.32066795
44	0x3e4a45ad	0.19753142
45	0xbda65e32	-0.08123435
46	0x3e1d1ae5	0.1534229
47	0xbd00afef	-0.031417783
48	0xbdf7fc01	-0.12108613
49	0xbee23aee	-0.44185585
50	0xbd7011be	-0.05861067
51	0x3e2c37cf	0.16818164
52	0x3e26ae88	0.16277516
53	0x3e1870bf	0.14886759
54	0xbe976f35	-0.29577032
55	0xbe139f2f	-0.14416192
56	0xbf2af7e3	-0.66784495
57	0x3e4c983e	0.19979951
58	0xbdf659ec	-0.1202887
59	0x3bd02abe	0.0063527515
60	0xbd9ae511	-0.07563222
61	0xbdc567a4	-0.096389085
62	0x3d20c11c	0.039246663
63	0x3df750cd	0.120759584

gnn_list.1.nn.2.weight f4 [64, 64]
0	0x3ee626ac	0.4495138
1	0xbc88abf8	-0.016683564
2	0xbee9ce0e	-0.4566502
3	0x3d2eb539	0.042653296
4	0x3eb3e6ea	0.3513711
5	0x3d2294e5	0.03969278
6	0x3cf76d73	0.030203557
7	0x3e0de60e	0.1385729
8	0xbd08c070	-0.033386648
9	0xbd4a8114	-0.049439505
10	0x3e8c242d	0.2737135
11	0xbd6c3a0e	-0.057672553
12	0xbe497af3	-0.19675808
13	0xbdc6b73a	-0.097029164
14	0xbca46c9f	-0.020071326
15	0xbdf11906	-0.11772351
16	0x3ebee399	0.37283018
17	0x3e968e94	0.29405653
18	0xbe24cd40	-0.16093922
19	0xbc8bce6f	-0.017066209
20	0xbdfb6e23	-0.12276866
21	0xbe902fa9	-0.28161362
22	0x3a0ba21b	0.0005326585
23	0x3e0fd9e7	0.14047967
24	0x3e8ec870	0.27887297
25	0xbdbdf788	-0.092757285
26	0x3cc2a463	0.023760026
27	0xbed83526	-0.4222805
28	0xbbb01b75	-0.005374367
29	0x3e54316f	0.20721982
30	0x3d8bd432	0.068275824
31	0xbf3db2ea	-0.74101126
32	0x3d8ebd25	0.0696967
33	0xbe560f88	-0.20904362
34	0x3a89d0d6	0.0010514508
35	0xbe910021	-0.2832041
36	0xbe82d50b	-0.25553164
37	0x3eb19b2c	0.346887
38	0xbf109a64	-0.5648558
39	0xbe5dd677	-0.21663843
40	0x3ec055e5	0.37565532
41	0xbeaa501a	-0.33264238
42	0xbe7bcf94	-0.24590904
43	0x3e54a018	0.20764196
44	0x3e915c41	0.28390697
45	0x3d880690	0.06641877
46	0x3d12a540	0.035802126
47	0xbd5eef0e	-0.0544272
48	0xbe8a88cc	-0.27057493
49	0x3cfccd28	0.030859545
50	0xbea2e885	-0.31818023
51	0x3eb14936	0.34626168
52	0xbeea5982	-0.45771414
53	0x3d3d340c	0.046192214
54	0xbf6a2b6e	-0.9147252
55	0xbd8453a2	-0.06461264
56	0xbf062f0b	-0.5241553
57	0xbfaf3ff2	-1.369139
58	0x3dd9c132	0.10632552
59	0xbe66140a	-0.22468582
60	0x3ccdc9b8	0.025120601
61	0xbf0c40e6	-0.5478653
62	0x3eb0ee4c	0.34556806
63	0xbe2bbb70	-0.1677072
64	0xbeccc126	-0.3999111
65	0xbda65d11	-0.0812322
66	0xbe3586a6	-0.17727146
67	0x3dee2da0	0.11629796
68	0x3ec48ea7	0.38390085
69	0x3d574008	0.0525513
70	0x3dc4e76b	0.09614452
71	0x3df452c0	0.11929846
72	0xbe7d667b	-0.24746124
73	0xbd057d56	-0.032590233
74	0x3e431b55	0.19053395
75	0xbed05661	-0.40690902
76	0xbee1c2f8	-0.44094062
77	0xbd6b7066	-0.05748024
78	0x3e8dc24d	0.27687302
79	0x3eaebf2b	0.34130225
80	0x3d786779	0.060645554
81	0x3c840247	0.016114367
82	0xbd400aeb	-0.046885412
83	0xbe10294b	-0.14078252
84	0xbcc2a925	-0.023762295
85	0xbf1b8e0d	-0.6076363
86	0x3e4bfb20	0.19920015
87	0x3e80579a	0.25066835
88	0xbef0846c	-0.4697603
89	0x3c365dbb	0.0111307455
90	0xbdcc94f3	-0.09989347
91	0xbc7e7978	-0.01553189
92	0x3c9e8c39	0.019353973
93	0x3e508409	0.20362867
94	0x3dbe6fcd	0.09298668
95	0x3e2b19c5	0.16709049
96	0xbe0b87dd	-0.13626046
97	0xbd1f2912	-0.038857527
98	0xbe09e8f8	-0.13467777
99	0xbae7e7af	-0.0017692948
100	0x3eaacb3c	0.3335818
101	0x3e40c197	0.18823849
102	0xbe971acf	-0.2951264
103	0xbf0f6c2b	-0.56024426
104	0x3dff24ca	0.12458189
105	0xbeae44d2	-0.3403688
106	0xbee62e52	-0.44957215
107	0xbebbe14a	-0.3669532
108	0xbdddf681	-0.108380325
109	0xbdf57c0b	-0.1198655
110	0xbd8c61ca	-0.06854589
111	0x3d8a1a63	0.06743314
112	0x3e4d0485	0.20021255
113	0x3e97940e	0.29605144
114	0xbedfc67b	-0.43706116
115	0x3d1ec221	0.038759355
116	0x3ef32112	0.47486168
117	0x3ea58d1c	0.3233422
118	0xbf97964a	-1.184274
119	0x3cc1ebd1	0.023672016
120	0xbd9a0005	-0.07519535
121	0xbe1e74c6	-0.15474233
122	0x3e1812e1	0.14850952
123	0x3e0bae8c	0.13640803
124	0x3d790a73	0.06080098
125	0xbe1bc247	-0.1521083
126	0xbe6678c1	-0.22507001
127	0x3eaff7c8	0.3436873
128	0xbe8102d6	-0.25197476
129	0xbd5a80ba	-0.05334542
130	0x3e9bd6a3	0.30437192
131	0xbed265cb	-0.41093287
132	0xbf412040	-0.75439835
133	0x3e00375f	0.12521122
134	0xbdbc4e3f	-0.09194612
135	0xbf64029f	-0.890665
136	0x3defce38	0.11709255
137	0x3d9b857f	0.07593822
138	0xbe8114a9	-0.25211075
139	0xbe095784	-0.13412291
140	0x3d425eab	0.047453564
141	0x3c3cb9a7	0.011518872
142	0xbe38f255	-0.18061192
143	0xbe8b37cb	-0.27191004
144	0xbb5b2ca9	-0.0033443368
145	0xbeafab76	-0.34310502
146	0xbda89dc6	-0.08233218
147	0xbe134dc5	-0.14385135
148	0xbb9ffcd5	-0.004882435
149	0x3ece9936	0.40351266
150	0xbe655cd4	-0.22398692
151	0x3d905253	0.07046952
152	0xbde2a036	-0.11065714
153	0x3b49393b	0.0030704278
154	0x3cf5c8e4	0.030003019
155	0x3e6b7762	0.2299476
156	0xbd45d270	-0.048296392
157	0x3d8860ad	0.066590644
158	0xbd48e5d3	-0.049047302
159	0x3f1548b3	0.58314055
160	0xbca46c2f	-0.020071117
161	0xbe55e999	-0.20889892
162	0x3dd5a62f	0.10432088
163	0xbe8de5db	-0.27714428
164	0x3ea33120	0.31873417
165	0x3e7d2134	0.24719697
166	0x3f13c38b	0.5772025
167	0xbe4b498f	-0.19852279
168	0xbe883a22	-0.26606852
169	0xbeda6464	-0.42654717
170	0xbf32903f	-0.6975135
171	0xbed27785	-0.4110681
172	0xbd7914c8	-0.060810834
173	0x3dbc5cc9	0.09197385
174	0xbe71023c	-0.23536009
175	0x3cb0efc1	0.021598699
176	0xbbe1c097	-0.0068894136
177	0x3e8423ca	0.25808555
178	0xbe90f648	-0.28312898
179	0x3ef63640	0.48088264
180	0x3efbe27a	0.49196225
181	0x3c2cf65d	0.010556784
182	0xbeb2e21e	-0.3493814
183	0x3b304b6c	0.0026900424
184	0x3f6e9361	0.9319363
185	0x3c39bc09	0.011336335
186	0x3db5aea7	0.08871203
187	0x3c93a024	0.018020697
188	0xbd9c9465	-0.076454915
189	0x3e61b4e9	0.22041668
190	0xbe0e4000	-0.13891602
191	0xbdad84ca	-0.08472593
192	0xbeb31c86	-0.349827
193	0x3d837323	0.06418445
194	0x3ac7e06f	0.0015249382
195	0x3efda61c	0.49540794
196	0x3d2b1e1e	0.04177677
197	0xbdeaab59	-0.11458463
198	0x3c89c3f6	0.016817074
199	0x3dbb6cee	0.09151636
200	0x3d6ec2e7	0.058291342
201	0xbd128ccb	-0.035778802
202	0x3e0c20ac	0.13684338
203	0xbf212d88	-0.629601
204	0xbecbcd41	-0.39805034
205	0x3d5436d0	0.051810086
206	0x3eb0fc37	0.34567425
207	0xbec2b0a1	-0.38025382
208	0xbeaa05a7	-0.33207437
209	0x3ea51ab7	0.32246944
210	0x3df145ca	0.11780889
211	0x3e35496a	0.17703786
212	0x3d65b949	0.056084905
213	0x3d6ede05	0.058317203
214	0x3ecfe382	0.40603262
215	0xbefc6ec8	-0.4930327
216	0xbe2d29f7	-0.1691054
217	0x3c91b66d	0.017787183
218	0xbcfaace6	-0.030600023
219	0xbe40de4e	-0.18834803
220	0xbf292188	-0.6606679
221	0xbee33626	-0.4437725
222	0x3d37187a	0.044701077
223	0x3ea830d1	0.32849744
224	0x3e00d7b5	0.12582286
225	0xbe29e3f6	-0.16590866
226	0xbed86611	-0.4226537
227	0x3ea47b4b	0.32125315
228	0xbf1335a9	-0.57503754
229	0x3dadf179	0.08493323
230	0xbf614824	-0.880007
231	0xbe522d11	-0.20525004
232	0x3ed296d6	0.41130704
233	0x3efc7da4	0.49314606
234	0x3f5e473c	0.86827445
235	0xbe61c65e	-0.22048327
236	0xbdad278a	-0.08454807
237	0xbd8023d9	-0.062568374
238	0x3ed85fef	0.42260692
239	0xbddc76d8	-0.10764855
240	0x3ecf4c9d	0.4048814
241	0xbe9e7e7a	-0.3095587
242	0xbeb54a5a	-0.35408288
243	0x3db4e6c7	0.0883308
244	0xbcfc68a0	-0.030811608
245	0xbe08f055	-0.1337293
246	0xbe8b2d18	-0.2718284
247	0xbc8cacf7	-0.01717232
248	0x3ea5de04	0.32395947
249	0x3d94442f	0.072395675
250	0xbd287183	-0.04112388
251	0x3f269560	0.6507168
252	0xbc5d1a76	-0.013495078
253	0x3f0951f5	0.5364068
254	0x3cf8967e	0.030345198
255	0xbebf6850	-0.37384272

gnn_list.1.nn.2.bias f4 [64]
0	0x3da989a0	0.08278203
1	0x3d7392f2	0.05946631
2	0xbd9333bf	-0.07187604
3	0x3debdc9e	0.11516689
4	0x3d520503	0.05127431
5	0x3db4a6df	0.08820891
6	0xbd7409cd	-0.05957966
7	0xbc1951f5	-0.009357919
8	0x3cbe5e7e	0.023238417
9	0xbdd5e779	-0.104445405
10	0xbb92a5d3	-0.004475334
11	0xbd77c571	-0.06049103
12	0x3cd81a02	0.026379589
13	0x3c5bd7af	0.013418122
14	0x3c914704	0.017734058
15	0xbd5e005d	-0.054199565
16	0x3dc27021	0.09494043
17	0xbb3559da	-0.0027671964
18	0x3d922692	0.07136263
19	0xbd81269e	-0.06306194
20	0x3d2a120a	0.04152111
21	0x3df7878f	0.120864026
22	0xbe1474db	-0.14497702
23	0x3d0ece27	0.03486457
24	0x3cfcc0af	0.030853597
25	0x3e0b0787	0.1357709
26	0xbc06315d	-0.00819048
27	0xbd0f072e	-0.034918956
28	0xbc03e79e	-0.008050827
29	0x3ddd4460	0.10804057
30	0x3e25b7ae	0.1618335
31	0xbddf1ef0	-0.10894573
32	0xbb8bf855	-0.004271547
33	0xbd62d48c	-0.05537848
34	0xbd478d21	-0.048718575
35	0xbd65b5fe	-0.056081764
36	0xbc753ff0	-0.014968857
37	0x3dd17bcf	0.10228693
38	0xbe119bec	-0.14219636
39	0xbe0ab45f	-0.13545369
40	0xbce4fd85	-0.027952919
41	0xbde3b4aa	-0.11118443
42	0x3cb87263	0.022515481
43	0x3de26ba9	0.11055691
44	0x3d8b1e42	0.067928806
45	0x3dd3d87a	0.10344024
46	0x3bbbc7f6	0.0057306243
47	0x3de6f616	0.11277406
48	0x3d737d82	0.059445865
49	0xbde10b62	-0.10988499
50	0x3d5f15e6	0.054464243
51	0xbd634218	-0.055482954
52	0xbcc1bec5	-0.023650536
53	0x3d78bf64	0.0607294
54	0xbd319441	-0.043354277
55	0x3cfafc2b	0.030637821
56	0xbe04309f	-0.12909172
57	0x3d2de24d	0.042452145
58	0x3de8d176	0.113680765
59	0x3cb10832	0.021610353
60	0xbd52ff13	-0.05151279
61	0xbdd1ee9c	-0.10250589
62	0x3d99728c	0.07492551
63	0xbd270c7b	-0.040783387

gnn_list.1.nn.3.weight f4 [64]
0	0x3f197c39	0.59955174
1	0x3f16a59f	0.5884647
2	0x3f082ad6	0.5319036
3	0x3f258111	0.64650065
4	0x3f6d6bdb	0.927427
5	0x3f4f64d4	0.81013227
6	0x3f578fd0	0.84203815
7	0x3f2253f8	0.63409376
8	0x3f02efec	0.5114734
9	0x3f41901f	0.75610536
10	0x3f22b397	0.6355528
11	0x3eece09d	0.46265116
12	0x3f5401f6	0.8281549
13	0x3f1b2ea2	0.6061803
14	0x3f08f4dc	0.53498626
15	0x3f43b677	0.76450294
16	0x3ee5a9b5	0.4485604
17	0x3f23939c	0.6389711
18	0x3f691b37	0.9105715
19	0x3f0e6763	0.55626506
20	0x3f3236dc	0.6961496
21	0x3f56d72d	0.8392208
22	0x3f2f05f3	0.6836845
23	0x3f3ad2fd	0.7297819
24	0x3f13f4ba	0.577953
25	0x3f263522	0.64924824
26	0x3f0fc3e8	0.56158304
27	0x3f649b07	0.8929905
28	0x3f676241	0.903843
29	0x3f264829	0.6495386
30	0x3f592c02	0.84832776
31	0x3f2b0f58	0.6682029
32	0x3f0d6710	0.55235386
33	0x3f4b5ebb	0.7944142
34	0x3f4a6aa2	0.7906896
35	0x3f1f869a	0.6231476
36	0x3f177bbf	0.59173197
37	0x3f0d7c68	0.55267954
38	0x3f876de3	1.058041
39	0x3f35508b	0.70826024
40	0x3f4292e6	0.760054
41	0x3f58c25e	0.8467158
42	0x3f2c04e8	0.67194986
43	0x3f49a5aa	0.7876841
44	0x3f4c84e0	0.7989025
45	0x3f1e1894	0.61756253
46	0x3f284ab4	0.6573899
47	0x3ee6f403	0.4510804
48	0x3f15b2f0	0.5847616
49	0x3f4464bc	0.7671621
50	0x3f50b976	0.8153299
51	0x3f0a2dac	0.5397594
52	0x3f2b0fdc	0.66821074
53	0x3f03d719	0.5150009
54	0x3ef8e259	0.4861019
55	0x3f47229f	0.777872
56	0x3f4120e1	0.75440794
57	0x3f18eaa7	0.5973305
58	0x3f2eb549	0.6824537
59	0x3f765ff7	0.9624018
60	0x3edf007f	0.43555066
61	0x3f1f5b92	0.622491
62	0x3f3b0b6e	0.73064315
63	0x3f0f6adc	0.5602243

gnn_list.1.nn.3.bias f4 [64]
0	0xbe6cd1c5	-0.23126896
1	0xbe6751d3	-0.22589807
2	0xbe96f176	-0.29481095
3	0xbec009b3	-0.375074
4	0xbf44c29c	-0.7685945
5	0xbee6ee37	-0.45103619
6	0xbdbd8a21	-0.092548616
7	0xbebf3948	-0.3734839
8	0xbdd7e737	-0.105421476
9	0xbe8a1bf5	-0.26974455
10	0xbda530b1	-0.08065928
11	0xbdaa4746	-0.083143756
12	0xbf0439ee	-0.51650894
13	0xbed23fa7	-0.41064188
14	0xbe7f4b0b	-0.2493097
15	0xbec81d0d	-0.39084664
16	0xbe83bc55	-0.25729623
17	0xbe7e8fd1	-0.24859549
18	0xbe997fda	-0.29980356
19	0xbee4971b	-0.44646534
20	0xbebbc617	-0.36674568
21	0xbee16b35	-0.44027105
22	0xbda1ef14	-0.07906929
23	0xbda3d5fd	-0.079997994
24	0xbebfce3c	-0.37462032
25	0xbdf212b4	-0.118199736
26	0xbdd0c17a	-0.10193153
27	0xbe3e2516	-0.18568835
28	0xbefced1b	-0.49399647
29	0xbe139a36	-0.14414296
30	0xbec69d5d	-0.38791934
31	0xbc36d32a	-0.011158744
32	0x3b2bb0ca	0.0026197904
33	0xbe47064f	-0.19436
34	0xbea18d66	-0.3155319
35	0xbe3b4520	-0.18288088
36	0x3de07df2	0.10961522
37	0xbe131ef7	-0.14367281
38	0xbe88ad78	-0.26694846
39	0xbe4aff1a	-0.19823876
40	0xbe9d81dc	-0.30763137
41	0xbeb25e4d	-0.3483757
42	0xbec2409a	-0.37939912
43	0xbe975aee	-0.2956156
44	0xbe9e5f02	-0.3093186
45	0xbe128680	-0.1430912
46	0xbe0fc6c1	-0.14040662
47	0xbdf50408	-0.119636595
48	0xbce38d96	-0.027777474
49	0xbde2b96f	-0.11070525
50	0xbeff4b35	-0.49862066
51	0xbe57039b	-0.20997469
52	0xbe7e99e0	-0.24863386
53	0xbea24b0a	-0.31697875
54	0xbe69542d	-0.22786017
55	0xbf0ec069	-0.55762345
56	0xbe8a4958	-0.27009082
57	0xbeafcc8a	-0.34335738
58	0xbe6f955d	-0.23396821
59	0xbee68ca3	-0.45029172
60	0xbe5e1657	-0.2168821
61	0xbecc371b	-0.39885792
62	0xbe6e7886	-0.23288164
63	0xbe18feed	-0.14940996

gnn_list.1.nn.3.running_mean f4 [64]
0	0xc12edf01	-10.929444
1	0xc10c508f	-8.769668
2	0x4024639b	2.5685794
3	0xc100abe2	-8.041964
4	0x40619b44	3.5251017
5	0x40e021fd	7.004149
6	0xc14a8809	-12.658212
7	0xc05f200f	-3.4863317
8	0xc109a451	-8.602616
9	0xc052ecea	-3.29571
10	0x3fcb9863	1.590588
11	0xbfe69737	-1.8014897
12	0x40154bd6	2.3327537
13	0xc0326ea5	-2.7880032
14	0xc02373a9	-2.5539343
15	0x3f4ee600	0.808197
16	0xc091e72d	-4.5594697
17	0xc111fe77	-9.124625
18	0xc1020568	-8.12632
19	0xc01fdfe1	-2.4980395
20	0x41570026	13.437536
21	0x41130d0b	9.190684
22	0xc0ba1983	-5.815614
23	0xc124889d	-10.283353
24	0x3fe2b5fc	1.7711787
25	0xc09b6451	-4.8559957
26	0x40491988	3.1421833
27	0xc01a2b48	-2.4088917
28	0xc0cffc2b	-6.499532
29	0xc101fbeb	-8.124003
30	0xc102a061	-8.164155
31	0xc08990a8	-4.298908
32	0xc139d104	-11.613529
33	0xc122dde8	-10.179176
34	0xc096f364	-4.717211
35	0xc02f8e6e	-2.7430682
36	0x40da026e	6.8127966
37	0xbee2fd6e	-0.44333977
38	0xc1044482	-8.266726
39	0x409056be	4.5105886
40	0xc0c9f080	-6.310608
41	0x3fe85170	1.8149853
42	0x3fc27b3e	1.519386
43	0x413fe208	11.992683
44	0xc07f8fc8	-3.9931507
45	0x405dd369	3.4660285
46	0xbfbd1bed	-1.4774147
47	0xbca14d68	-0.01969023
48	0xc12fae24	-10.980015
49	0xc1485003	-12.519534
50	0xbeb6743b	-0.35635552
51	0xc0b95782	-5.791932
52	0xc085d547	-4.182285
53	0xc05eeb2e	-3.4831042
54	0xbea3a610	-0.31962633
55	0xc0b99208	-5.799076
56	0xc0cb454c	-6.352209
57	0x4090f48c	4.529852
58	0x4080871b	4.0164924
59	0xc0dd3709	-6.912968
60	0xc0a44d7b	-5.134458
61	0x41175643	9.45856
62	0xc11c7658	-9.7788925
63	0xbf2049ce	-0.62612617

gnn_list.1.nn.3.running_var f4 [64]
0	0x41d9e8b2	27.23862
1	0x41906bb5	18.052591
2	0x419e4cc0	19.787476
3	0x41c8a880	25.082275
4	0x4217af94	37.921463
5	0x420d4fbd	35.32787
6	0x41b79099	22.945604
7	0x4192ff32	18.374607
8	0x41c03c78	24.029526
9	0x419cfec1	19.624392
10	0x41762770	15.384628
11	0x413aa676	11.66564
12	0x41b916e0	23.13617
13	0x4198b1bf	19.08679
14	0x41ce1eb4	25.764992
15	0x41ee10ab	29.758139
16	0x4171b84c	15.107494
17	0x41a11b22	20.138248
18	0x41c46a44	24.551888
19	0x414b131b	12.692164
20	0x42185bba	38.089577
21	0x41fe438e	31.782986
22	0x41796226	15.586462
23	0x4225761d	41.365345
24	0x41b50316	22.626507
25	0x41905e63	18.046087
26	0x41d6cd71	26.850313
27	0x42171417	37.76962
28	0x4128ead3	10.55733
29	0x422eacba	43.66868
30	0x41a165d4	20.17472
31	0x41b98cd9	23.193773
32	0x42039197	32.892178
33	0x41b89d6b	23.076864
34	0x41c28344	24.314095
35	0x417e4bf5	15.893544
36	0x422e947f	43.645016
37	0x41e751d2	28.914951
38	0x42057fff	33.374996
39	0x41bd4e70	23.6633
40	0x4174e8d5	15.306844
41	0x41b26308	22.298355
42	0x4196ac5f	18.834166
43	0x41e0c51b	28.096243
44	0x418bde7e	17.483639
45	0x4218a060	38.156616
46	0x41a9b5ad	21.213709
47	0x41c09094	24.070595
48	0x41d87641	27.057741
49	0x42656d17	57.356533
50	0x416f5ecc	14.960644
51	0x41c2b254	24.337074
52	0x41c9d9a5	25.231272
53	0x418d3cd8	17.654709
54	0x41b1fa52	22.247227
55	0x41f43386	30.525158
56	0x41ceb241	25.837038
57	0x4181e714	16.237831
58	0x41b19256	22.196453
59	0x422f1432	43.769722
60	0x41f19d01	30.201662
61	0x41b4926f	22.5715
62	0x4143131c	12.192165
63	0x41d24a33	26.28623
