model_saved/IMDBMulti/2022-04-02_03-17-27/GSC_GNN_IMDBMulti_checkpoint.pth (torch, 509845 bytes, 41 tensors)

gnn_list.0.nn.0.weight f4 [64, 89]
0	0x3db8f0f0	0.0903033
1	0x3f55a9f0	0.8346243
2	0x3f0484e7	0.5176529
3	0x3e2e4c6d	0.17021342
4	0x3e7c9946	0.24667844
5	0x3e113ba9	0.14182915
6	0x3de08494	0.10962787
7	0x3e19c48d	0.15016384
8	0xbd35881a	-0.04431925
9	0xbe55f7cd	-0.2089531
10	0x3e1e9f99	0.15490569
11	0x3e24929d	0.16071554
12	0xbe3a2b9e	-0.18180701
13	0xbe692cd3	-0.22771005
14	0xbebc5e61	-0.36790755
15	0xbeaf40b7	-0.3422906
16	0xbdd9b6ee	-0.10630594
17	0xbe8f89c4	-0.28034794
18	0x3dcb48bb	0.099259816
19	0xbe08d0bd	-0.13360877
20	0xbeb5b4f9	-0.35489634
21	0xbc8b4cea	-0.017004449
22	0x3da8af51	0.08236564
23	0xbea3739a	-0.31924134
24	0xbdd1a966	-0.10237388
25	0xbe2a0889	-0.16604818
26	0xbe31e19c	-0.1737122
27	0xbf1628da	-0.58656085
28	0x3c916036	0.017746072
29	0xbe028141	-0.12744619
30	0xbdc8604b	-0.097839914
31	0xbcbed2a3	-0.023293799
32	0x3de90447	0.11377769
33	0x3e56d362	0.20979074
34	0xbc61ad72	-0.013774263
35	0x3e3a1f86	0.18176088
36	0x3e17ccc7	0.1482421
37	0x3da2c177	0.07947057
38	0x3e6efe5f	0.23339222
39	0x3c10fba1	0.0088490555
40	0x3e58a06d	0.21154948
41	0x3da69f3b	0.081358396
42	0xbd476262	-0.04867781
43	0x3e1dae82	0.153986
44	0xbe9f62c1	-0.3113003
45	0x3d66b4f4	0.056324914
46	0xbd5bd0e1	-0.053666
47	0x3f0ec828	0.55774164
48	0x3b230a7a	0.002487807
49	0x3e8194bb	0.25308785
50	0xbd27d550	-0.040974915
51	0x3db696ad	0.08915458
52	0xbdb3911a	-0.0876791
53	0x3e93d895	0.28876176
54	0x3d7b8257	0.0614036
55	0xbd9b1488	-0.075722754
56	0xbda1ac42	-0.07894184
57	0xbdadd80a	-0.08488472
58	0xbd9114fd	-0.07084081
59	0xbd15430d	-0.036440898
60	0xbd9cfc16	-0.07665269
61	0xbd5f270d	-0.0544806
62	0xbe7b59fb	-0.24546044
63	0x3d11b917	0.035576906
64	0x3ce647c2	0.028110389
65	0xbd963316	-0.073339626
66	0x3dc480e6	0.09594898
67	0xbdcc6d17	-0.09981745
68	0xbd944a7e	-0.07240771
69	0x3d89cb7a	0.06728263
70	0xbd710790	-0.058845103
71	0x3ca72ee6	0.020408105
72	0x3cfa64f6	0.03056572
73	0xbd68c3fb	-0.056827527
74	0xbb78249d	-0.003786362
75	0xbd9182fd	-0.07105062
76	0x3cfabd86	0.03060795
77	0xbd33edd6	-0.04392799
78	0x3d328257	0.043581333
79	0x3dd0b041	0.10189868
80	0x3d9513e1	0.07279182
81	0xbd1a78b1	-0.037712757
82	0xbd1fbb39	-0.03899691
83	0x3c81a3c4	0.01582516
84	0xbd0ce944	-0.034402147
85	0xbdd67bfe	-0.104728684
86	0xbd800241	-0.0625043
87	0xbc7f9495	-0.01559939
88	0xbda0d3fe	-0.07852934
89	0xbc4be638	-0.012445025
90	0xbd09fe0b	-0.03368954
91	0xbf5ee21e	-0.8706378
92	0xbd70e012	-0.05880744
93	0x3e5951da	0.2122263
94	0x3e6c31e4	0.23065907
95	0x3e52dc59	0.20591868
96	0x3e3a03ad	0.18165465
97	0x3dc783a0	0.09741902
98	0x3c67e95e	0.01415476
99	0xbda25a8b	-0.07927426
100	0x3e8c06fc	0.2734908
101	0x3d495473	0.049152803
102	0x3db4200b	0.08795174
103	0xb9ad617d	-0.00033069766
104	0xbd50f4e1	-0.051014785
105	0xbe378ecb	-0.17925565
106	0xbd9e2d1b	-0.07723447
107	0xbe3dbf52	-0.18530014
108	0xbe80f7ec	-0.2518915
109	0xbd8c484f	-0.06849729
110	0xbe6fd439	-0.234208
111	0xbe1f61a8	-0.15564597
112	0xbe82ad2a	-0.2552274
113	0xbe011ccd	-0.12608643
114	0xbf0a95a0	-0.5413456
115	0xbec2fd6d	-0.38083974
116	0x3b5bb3c6	0.0033523901
117	0xbf3e2ea5	-0.74289924
118	0x3e4a9365	0.19782789
119	0x3df01b5d	0.11723969
120	0x3db77571	0.08957947
121	0xbdb86759	-0.09004087
122	0xbf241a71	-0.64102846
123	0xbeb63920	-0.35590458
124	0xbdd3a8fb	-0.10334965
125	0xbe8df0d8	-0.27722812
126	0xbcf08c9d	-0.029363925
127	0xbdef15ea	-0.11674102
128	0x3d6efc2e	0.058345966
129	0xbef68115	-0.48145357
130	0xbbf45cd6	-0.007457356
131	0x3e2a7afc	0.16648477
132	0xbd3d8f3b	-0.046279173
133	0xbef08bdd	-0.46981707
134	0xbd6169d1	-0.055032555
135	0x3dcb6454	0.099312454
136	0xbeb28fc4	-0.3487531
137	0xbdc29bdb	-0.09502383
138	0xbe573b5e	-0.2101874
139	0xbdec50eb	-0.115388714
140	0x3daffcc2	0.085931316
141	0x3d46624a	0.04843358
142	0xbd16743b	-0.03673194
143	0xbc1a92ad	-0.009434384
144	0x3dd21af8	0.1025905
145	0xbe293227	-0.16523038
146	0xbd2ba342	-0.04190374
147	0xbe86c9f0	-0.2632594
148	0xbcfb5d30	-0.030684084
149	0x3c448b4b	0.011996101
150	0x3d5f18a6	0.054466866
151	0xbe9bfb53	-0.30465183
152	0x3d8eefc5	0.06979326
153	0xbd5deb17	-0.054179277
154	0xbc4f4aad	-0.012652081
155	0xbc683e03	-0.014174941
156	0x3dcaebe0	0.09908271
157	0x3d7d2497	0.061802473
158	0xbd6926ff	-0.056921955
159	0x3d4c1636	0.04982587
160	0x3cf07cf8	0.029356465
161	0x3bd11c55	0.0063815513
162	0xbdd879f8	-0.10570139
163	0x39ccf50c	0.00039092486
164	0x3d76d1ae	0.06025856
165	0xbead86ca	-0.33891898
166	0xbdc21d67	-0.09478264
167	0xbcbfba98	-0.023404405
168	0x3da35fcb	0.079772554
169	0xbd85a510	-0.06525624
170	0x3d1fc125	0.039002556
171	0x3dcbbe38	0.09948391
172	0x3dd811ba	0.10550256
173	0xbd4f80f2	-0.05066008
174	0xbdad1519	-0.0845129
175	0xbc173d0f	-0.009230866
176	0x3d2f7f6a	0.04284612
177	0xbe675fbb	-0.22595112
178	0xbdc9da35	-0.09856073
179	0xbf3416a8	-0.7034707
180	0x3edb5638	0.42839217
181	0x3e835100	0.25647736
182	0xbe8a8b32	-0.27059323
183	0xbf1893e3	-0.5960066
184	0xbf4be0eb	-0.7964007
185	0xbe0f3481	-0.13984872
186	0xbeb2c985	-0.34919372
187	0x3e9154c5	0.28384987
188	0x3df118aa	0.117722824
189	0xbcd41092	-0.025886808
190	0xbdbd2be6	-0.092368886
191	0xbeae110c	-0.3399738
192	0xbef82ff6	-0.4847409
193	0x3b8c475e	0.0042809686
194	0x3e345fed	0.17614718
195	0x3de21351	0.110388406
196	0xbd0d743d	-0.03453468
197	0x3dc3e76b	0.09565624
198	0x3e35b664	0.17745358
199	0x3e71705e	0.23578021
200	0x3eab3349	0.33437565
201	0x3e1d4354	0.15357715
202	0x3e3a81af	0.18213533
203	0xbf29e144	-0.66359353
204	0x3d5af568	0.053456694
205	0xbe11d147	-0.14239989
206	0x3d7defc1	0.061996225
207	0xbc799866	-0.0152340885
208	0xbdc89e46	-0.09795813
209	0xbed1a388	-0.40945077
210	0x3e14f3a9	0.14546074
211	0x3e7d4692	0.24733952
212	0xbda3d439	-0.07999463
213	0x3d842ef0	0.06454265
214	0xbf0401d4	-0.5156529
215	0xbdb83bcf	-0.089957826
216	0x3cc14a02	0.02359486
217	0xbe5a5a2c	-0.2132346
218	0xbe04bfde	-0.12963817
219	0xbd3f2515	-0.046666224
220	0xbc06ec7f	-0.008235096
221	0xbdbece5e	-0.09316705
222	0xbd5eb753	-0.05437405
223	0xbb6127c9	-0.003435599
224	0xbd9bfd50	-0.07616675
225	0xbd0d5e06	-0.034513496
226	0x3af92188	0.0019007185
227	0x3d2404eb	0.040043753
228	0xbe292ed9	-0.16521777
229	0xbd4783c9	-0.048709664
230	0x3d970558	0.07374066
231	0xbe2c36fd	-0.16817851
232	0xbda4fbcc	-0.08055839
233	0x3c4564c0	0.012047946
234	0xbd567ddc	-0.052366123
235	0xbd340540	-0.04395032
236	0x3a643cba	0.0008706559
237	0xbe71eb21	-0.23624851
238	0xbcf827d9	-0.030292438
239	0xbd3036cf	-0.04302102
240	0xbe4874c4	-0.19575793
241	0xbd80fc9e	-0.06298183
242	0xbc6acfbd	-0.014331755
243	0x3cdffbaf	0.027341692
244	0x3bbba2a7	0.005726177
245	0x3dbe2b8d	0.092856504
246	0xbc1822c3	-0.009285632
247	0x3dd6feaf	0.10497796
248	0xbdd8a3f2	-0.10578145
249	0xbc83a687	-0.016070617
250	0x3d479179	0.048722718
251	0xbda27ba6	-0.0793374
252	0xbda8f2c5	-0.082494296
253	0x3dd61eb1	0.10455073
254	0xbe7a33b6	-0.24433789
255	0x3da18102	0.078859344

gnn_list.0.nn.0.bias f4 [64]
0	0x3e435a1f	0.19077347
1	0xbdb19797	-0.086714916
2	0xbcb71155	-0.022347132
3	0x3d9927af	0.07478272
4	0xbbe1e27c	-0.006893454
5	0xbe355417	-0.17707859
6	0xbd8ede41	-0.06975985
7	0x3d3f9ad9	0.046778534
8	0x3df608f4	0.120134264
9	0xbdea4c6c	-0.114403576
10	0xbe76cbb3	-0.24101143
11	0x3db0d02f	0.08633458
12	0x3da10bbf	0.078635685
13	0xbcb499b0	-0.02204594
14	0xbd846bc7	-0.064658694
15	0xbcf3ed7b	-0.029776325
16	0x3dcda3d6	0.10041015
17	0x3c8cfbb9	0.017209874
18	0x3d9df55e	0.07712816
19	0x3dfccb81	0.12343503
20	0x3dbd1b86	0.09233765
21	0xbe0b935e	-0.13630435
22	0xbe040ecc	-0.1289627
23	0x3e626b55	0.22111256
24	0xbde6041e	-0.11231254
25	0x3d978fc5	0.07400469
26	0xbdf9297b	-0.12166115
27	0xbd7c8ba6	-0.061656617
28	0x3db2f706	0.08738522
29	0x3cc5abef	0.024129836
30	0x3bd0e64f	0.006375111
31	0x3e5d279c	0.21597141
32	0x3d918162	0.07104756
33	0xbec16646	-0.3777334
34	0x3ddfbe67	0.10924988
35	0x3dc17f9a	0.09448166
36	0xbe2156df	-0.15755795
37	0xbe336f91	-0.17523028
38	0x3d44db02	0.048060425
39	0xbe9a79bb	-0.30170998
40	0x3eabb83d	0.33539
41	0xbe93cfba	-0.2886942
42	0xbceaa2b7	-0.028642042
43	0x3d5785cc	0.052617833
44	0xbc00cbe8	-0.007861115
45	0x3e1554ac	0.14583081
46	0x3d1edf18	0.038786978
47	0xbd9f6b70	-0.07784164
48	0xbe03d37e	-0.12873647
49	0xbd405f7c	-0.04696606
50	0x3d83cf0c	0.064359754
51	0xbd5c29e8	-0.053750902
52	0x3ca40565	0.020022104
53	0x3dec2c9f	0.11531948
54	0xbd99ff18	-0.075193584
55	0x3d07aba8	0.03312269
56	0x3d8a504b	0.06753596
57	0x3c66ca45	0.014086311
58	0xbd8d7bb4	-0.0690836
59	0xbe0a01cb	-0.13477246
60	0xbd902e04	-0.07040027
61	0x3cbe9a95	0.02326707
62	0x3e2a859f	0.16652535
63	0xbe2c0a68	-0.16800845

gnn_list.0.nn.2.weight f4 [64, 64]
0	0xbead1299	-0.3380325
1	0xbe55b36d	-0.20869227
2	0xbd7d380d	-0.061821032
3	0xbe8b995a	-0.27265435
4	0x3beca837	0.007222201
5	0x3d8f39ce	0.06993447
6	0x3ce7a89e	0.028278645
7	0xbf04289d	-0.5162447
8	0x3b6194b5	0.0034420912
9	0xbe9de14c	-0.3083595
10	0xbe9281fd	-0.28614798
11	0xbf1fa44b	-0.62360066
12	0xbe808085	-0.25098053
13	0x3e81a538	0.25321364
14	0xbe6d5a51	-0.23178984
15	0xbe1870e4	-0.14886814
16	0xbdcc173a	-0.099653676
17	0x3bec5db9	0.007213321
18	0xbdcb770a	-0.09934814
19	0x3e715db6	0.23570904
20	0xbe375bbb	-0.17906086
21	0xbde3ac34	-0.111168295
22	0x3ea57c4f	0.32321402
23	0xbd613008	-0.054977447
24	0x3e4209bc	0.18949026
25	0xbedb66fd	-0.4285201
26	0xbe41022c	-0.18848485
27	0xbe5d2553	-0.2159627
28	0xbd252531	-0.04031867
29	0xbe629161	-0.2212577
30	0xbe823cbc	-0.25436962
31	0xbe02cbeb	-0.12773101
32	0xbdfe4c73	-0.12416925
33	0xbe0743d9	-0.13209476
34	0xbe888347	-0.26662657
35	0x3bb95b4c	0.0056566354
36	0x3ce2dd97	0.027693553
37	0x3d80386f	0.06260764
38	0xbe13f73c	-0.14449781
39	0xbdd31c66	-0.10308151
40	0xbe66433a	-0.22486582
41	0x3dcfddad	0.10149703
42	0xbc0218fe	-0.007940529
43	0xbd7ff0c7	-0.062485483
44	0x3d48af43	0.048995268
45	0x3e1d02ee	0.15333149
46	0xbe849809	-0.25897244
47	0xbe4467b9	-0.19180192
48	0xbda7b2e9	-0.08188421
49	0xbe2bd76d	-0.16781397
50	0xbe771179	-0.24127759
51	0x3d8790fb	0.0661945
52	0x3dd6cbf4	0.1048812
53	0xbe7a1328	-0.2442137
54	0xbe99b8aa	-0.300237
55	0xbdad4a7d	-0.08461473
56	0xbd77ee8e	-0.060530238
57	0x3ea1942d	0.31558362
58	0xbe35de2f	-0.17760538
59	0x3e19b308	0.15009701
60	0x3c114f64	0.008869026
61	0xbd64f16c	-0.0558943
62	0xbe474067	-0.19458161
63	0xbe23b5d7	-0.15987335
64	0x3d8f1632	0.06986655
65	0xbe97afad	-0.29626217
66	0xbe6213fe	-0.22077939
67	0x3e02453c	0.12721723
68	0xbecafa01	-0.39643863
69	0x3da04f3a	0.07827611
70	0xbe3c8968	-0.18411791
71	0x3e45cac6	0.19315633
72	0x3d5a6660	0.05332029
73	0x3d9ba5ae	0.0759996
74	0x3d5f7896	0.05455836
75	0xbe96008b	-0.2929729
76	0xbe0b6c59	-0.1361555
77	0x3e45648c	0.19276637
78	0x3ea2e146	0.31812495
79	0x3e01bd42	0.12669852
80	0x3ebc5f5e	0.3679151
81	0x3dbf97a0	0.09355092
82	0xbd3d06b6	-0.04614898
83	0x3e6023e2	0.21888688
84	0xba0c6119	-0.0005355045
85	0x3dca6f2f	0.09884488
86	0x3ce11b61	0.027478876
87	0x3da9fcb5	0.08300153
88	0xbe6363ce	-0.22206041
89	0xbdaa49d7	-0.08314865
90	0xbddea6a9	-0.10871632
91	0x3d407c4d	0.046993542
92	0xbe80dded	-0.25169316
93	0xbd6e3c20	-0.05816281
94	0x3e15ee2c	0.14641637
95	0xbd881e7c	-0.066464394
96	0x3e16f4a8	0.14741766
97	0xbdfc4abb	-0.12318941
98	0xbe83d995	-0.2575194
99	0xbd985a01	-0.07439042
100	0xbe045da1	-0.12926342
101	0x3d87137a	0.06595512
102	0xbe880303	-0.26564798
103	0xbca38414	-0.01996044
104	0xbf0b73db	-0.54473656
105	0xbe3ba22f	-0.18323587
106	0xbc1ea03d	-0.0096817585
107	0xbca98482	-0.020693067
108	0xbe8b4332	-0.27199703
109	0x3de1fcb4	0.110345274
110	0xbd1f3fb7	-0.038879123
111	0xbe4271dd	-0.18988748
112	0x3b53184a	0.0032210522
113	0xbd697944	-0.057000414
114	0xbecef6bc	-0.40422618
115	0x3ddcb951	0.10777534
116	0x3e6629f9	0.22476949
117	0x3e927d85	0.2861139
118	0x3d116d21	0.035504464
119	0xbd714eab	-0.058912914
120	0xbe84463b	-0.25834832
121	0xbda015f6	-0.07816689
122	0x3d8944dc	0.06702587
123	0xbd0deba8	-0.034648567
124	0xbd8f86a3	-0.07008102
125	0xbf04b979	-0.5184551
126	0x3e08c91a	0.13357964
127	0x3dbac01c	0.09118673
128	0x3e122c84	0.14274794
129	0x3dd842ed	0.1055964
130	0x3e12416e	0.14282772
131	0x3e7eec5d	0.24894853
132	0xbd3917e8	-0.045188814
133	0xbcaa18d2	-0.020763788
134	0xbdc379fc	-0.09544751
135	0x3d5f3aae	0.05449932
136	0xba27177d	-0.00063740445
137	0x3e06c733	0.13161926
138	0x3e012085	0.12610061
139	0x3e53f8d4	0.20700389
140	0x3d803f8a	0.06262119
141	0xbcba632c	-0.022752367
142	0x3dd5df4d	0.10442982
143	0xbd710fe8	-0.05885306
144	0x3dd9c6d3	0.10633626
145	0xbed5bdbd	-0.4174632
146	0xbeafabc9	-0.3431075
147	0x3d871c61	0.0659721
148	0x3dd934bf	0.10605764
149	0x3e9bf616	0.30461186
150	0xbec0fe18	-0.37693858
151	0xbe2351e4	-0.15949208
152	0xbd63ba67	-0.05559769
153	0xbd8cc511	-0.06873525
154	0x3c8088d0	0.015690237
155	0xbcda72f4	-0.026666142
156	0xbe47795f	-0.19479893
157	0xbd8f44be	-0.069955334
158	0x3e66a904	0.22525412
159	0xbe974a73	-0.29548988
160	0x3ce7253b	0.028215995
161	0x3e0910f7	0.13385378
162	0xbd3cdecb	-0.04611091
163	0x3d363a31	0.04448909
164	0xbe8e1a96	-0.27754658
165	0xbedb635f	-0.42849252
166	0xbc9d50a3	-0.01920349
167	0xbdc26b98	-0.09493178
168	0xbd3beb1f	-0.045878526
169	0xbe04f999	-0.12985839
170	0xbdb6e4ab	-0.08930334
171	0x3d7925ca	0.060827054
172	0x3e35a24d	0.17737694
173	0xbe82fd71	-0.25583985
174	0xbe306847	-0.17227279
175	0xbe663c42	-0.22483924
176	0x3ca61651	0.020274313
177	0x3d8520f4	0.06500426
178	0xbe2a068d	-0.16604061
179	0x3df98421	0.12183405
180	0xbe822d71	-0.25425294
181	0x3e57fcd5	0.21092542
182	0x3d489611	0.04897124
183	0x3df673b8	0.1203379
184	0x3cd2c4d5	0.025728622
185	0xbee347d2	-0.44390732
186	0xbe58fea4	-0.21190888
187	0xbe89b561	-0.26896194
188	0x3e28a37e	0.16468617
189	0xbca3867d	-0.01996159
190	0x3e1c4a4d	0.15262718
191	0xbe3075cb	-0.17232434
192	0xbcf7ee79	-0.03026508
193	0xbd63c8f7	-0.055611577
194	0x3ea5b6a2	0.323659
195	0x3e39dd4e	0.18150827
196	0xbe7998c0	-0.24374676
197	0x3df5afa6	0.11996393
198	0xbdfbbc4c	-0.12291774
199	0xbe108387	-0.14112674
200	0xbed1ce85	-0.40977874
201	0x3d96581c	0.07341024
202	0xbe50f100	-0.20404434
203	0xbeb60251	-0.35548642
204	0x3dc7166f	0.09721076
205	0x3dedc3a2	0.116095796
206	0x3d874a10	0.06605923
207	0xbdf896fd	-0.12138174
208	0xbf084d30	-0.5324278
209	0x3e96b23e	0.29432863
210	0xbdf337f3	-0.11875906
211	0x3dafe8d7	0.085893326
212	0xbee9a11d	-0.45630732
213	0xbdb319d1	-0.087451585
214	0x3da2d61a	0.07950993
215	0xbc016f2f	-0.007900043
216	0xbd486b57	-0.048930492
217	0xbe69343d	-0.22773834
218	0xbe7c7d6b	-0.24657218
219	0x3c804283	0.015656715
220	0x3de09c96	0.109673664
221	0x3ded9aea	0.11601813
222	0x3e060fe1	0.13091995
223	0xbd9cff26	-0.07665853
224	0xbe75c4c4	-0.24000841
225	0xbe1ae1b3	-0.1512516
226	0xbd866d26	-0.06563787
227	0xbe87c2a9	-0.265157
228	0xbe68f097	-0.22748028
229	0x3e6c9355	0.23103078
230	0xbd9892ef	-0.074499
231	0x3e46d582	0.19417384
232	0xbe76515d	-0.24054475
233	0x3ea12616	0.3147437
234	0x3dd15db3	0.1022295
235	0x3e15de03	0.14635472
236	0x3e7a440b	0.24440019
237	0xbc9f9fd3	-0.01948539
238	0xbd8b94f2	-0.068155184
239	0xbe1f52b5	-0.15558894
240	0x3e40ce2e	0.18828651
241	0x3cb44ec9	0.022010224
242	0x3d898e70	0.06716621
243	0x3c9f410b	0.019440195
244	0x3d9f9435	0.0779194
245	0xbe060718	-0.13088644
246	0xbda2ee0d	-0.07955561
247	0xbe7d3825	-0.24728449
248	0xbeed8874	-0.46393168
249	0x3cf1fcee	0.029539552
250	0x3d25d6b9	0.04048798
251	0x3d6b8e26	0.05750861
252	0x3e289179	0.16461743
253	0xbe0e664a	-0.13906208
254	0xbe7a56cc	-0.24447173
255	0x3d351374	0.044208005

gnn_list.0.nn.2.bias f4 [64]
0	0x3de74244	0.11291936
1	0x3e0bd268	0.13654482
2	0xbd0084d6	-0.031376682
3	0xbd806170	-0.06268585
4	0xbd60b1c3	-0.054857027
5	0xbc87dff8	-0.016586289
6	0x3e7e0d59	0.24809779
7	0x3e40649e	0.18788382
8	0xbc9cb23a	-0.019127954
9	0x3e040aa4	0.12894684
10	0x3d4d3d51	0.050107304
11	0xbcc21e61	-0.023696126
12	0xbe224d88	-0.15849888
13	0x3d7093f3	0.058734845
14	0x3e2b4d7f	0.16728781
15	0x3bb68ae5	0.0055707567
16	0x3d246de7	0.040143874
17	0x3dd668cf	0.104692094
18	0x3e511431	0.20417859
19	0x3ba6b76e	0.0050877845
20	0x3ba97f92	0.0051726783
21	0x3b3f2230	0.0029164664
22	0x3e1f8298	0.15577161
23	0x3cd8ad0a	0.026449699
24	0x3d88fcd7	0.066888504
25	0x3e232323	0.15931372
26	0x3dfae17b	0.12250038
27	0x3ac56ecf	0.0015062931
28	0x3dc904be	0.098153576
29	0xbd3b956b	-0.045796793
30	0xbe261201	-0.16217805
31	0x3db5e6bc	0.088819
32	0x3d843d56	0.064570114
33	0xbdba4388	-0.09094912
34	0x3e10d442	0.1414347
35	0x3d941511	0.072305806
36	0xbc8c1e98	-0.017104432
37	0xbdf55f82	-0.11981107
38	0x3e4d0d3a	0.20024577
39	0x3d48ead1	0.049052063
40	0xbe3b8793	-0.18313436
41	0x3da8989d	0.08232234
42	0xbca9b2e2	-0.02071518
43	0x3e2a90eb	0.16656844
44	0x3cff24b8	0.031145439
45	0x3ddd4d56	0.10805766
46	0x3e2b0744	0.1670199
47	0x3e35317e	0.17694661
48	0x3cee919f	0.029122172
49	0xbdae12f5	-0.084997095
50	0x3c8e9645	0.017405638
51	0xbe7703e5	-0.2412258
52	0x3da196df	0.078901045
53	0x3d3b4914	0.04572399
54	0x3d6d065e	0.0578674
55	0xbd442c8e	-0.047894053
56	0x3e180f61	0.14849617
57	0x3ddca310	0.10773289
58	0x3e5fa225	0.21839197
59	0x3e1205e9	0.14260067
60	0x3e23bbce	0.1598961
61	0x3ddc5dd6	0.10760085
62	0x3caa8e0d	0.020819688
63	0x3d2eb6de	0.042654864

gnn_list.0.nn.3.weight f4 [64]
0	0x3f0ed2b0	0.55790234
1	0x3ede0545	0.43363395
2	0x3f03b8fa	0.51454127
3	0x3f1edfc8	0.62060213
4	0x3ee714e4	0.45133126
5	0x3ef578b7	0.4794366
6	0x3f125cb7	0.5717272
7	0x3f00cc14	0.503114
8	0x3f14eb7f	0.5817184
9	0x3f062d82	0.5241319
10	0x3f1df97f	0.61708826
11	0x3f204217	0.62600845
12	0x3f16e433	0.58941954
13	0x3f27015a	0.6523644
14	0x3eeb434f	0.4594979
15	0x3ed3d074	0.41369975
16	0x3f03a855	0.5142873
17	0x3f16f3b8	0.58965635
18	0x3f1182db	0.56840295
19	0x3f05185c	0.51990294
20	0x3eefce3e	0.46837038
21	0x3f09c84f	0.5382127
22	0x3f18fe5b	0.59763116
23	0x3f11252b	0.5669734
24	0x3ef68ce5	0.4815437
25	0x3f021ca1	0.50824934
26	0x3ec770e1	0.38953307
27	0x3f10eb9c	0.5660951
28	0x3eead048	0.4586203
29	0x3ee4678f	0.4461026
30	0x3f148203	0.5801088
31	0x3ede2b80	0.43392563
32	0x3ee78625	0.45219532
33	0x3ee72599	0.45145872
34	0x3f07af8a	0.53002226
35	0x3f0939b3	0.5360367
36	0x3eee0d12	0.46494347
37	0x3ef022f6	0.46901673
38	0x3f00104f	0.50024885
39	0x3f0e091b	0.55482644
40	0x3edc9b35	0.43087164
41	0x3f0a5f0f	0.540513
42	0x3ef8e608	0.48613
43	0x3ef53a26	0.47895926
44	0x3f0e3da6	0.5556282
45	0x3f15788d	0.5838707
46	0x3ec4aa54	0.384112
47	0x3f0534d7	0.5203375
48	0x3f058f73	0.5217201
49	0x3f081fc0	0.53173447
50	0x3f15a489	0.58454186
51	0x3f000008	0.5000005
52	0x3eddc1ce	0.43311924
53	0x3ef1c96a	0.4722398
54	0x3ee78d11	0.45224813
55	0x3efabca4	0.48972046
56	0x3ef68a95	0.48152605
57	0x3f19a313	0.60014457
58	0x3ed5b193	0.4173704
59	0x3e8dfdc0	0.27732658
60	0x3f1d5856	0.61462915
61	0x3f0c295c	0.5475061
62	0x3f036cdc	0.5133798
63	0x3f083ee5	0.5322097

gnn_list.0.nn.3.bias f4 [64]
0	0xbe6d4a7f	-0.23172949
1	0xbe9e7456	-0.30948132
2	0xbf0dcdc2	-0.55392087
3	0xbec25620	-0.37956333
4	0xbee49329	-0.44643524
5	0xbc1f8f3a	-0.009738738
6	0xbdb9d76e	-0.09074293
7	0xbecadd22	-0.39621836
8	0xbeca5dba	-0.39524633
9	0xbe57a72c	-0.21059865
10	0xbe8f5aa1	-0.27998832
11	0xbba7b68d	-0.0051181973
12	0xbec1f4ee	-0.3788218
13	0xbee7660a	-0.45195037
14	0xbe9c5e6c	-0.30540788
15	0xbeb07071	-0.34460786
16	0xbd444ded	-0.04792588
17	0xbdf172bf	-0.11789464
18	0xbe141843	-0.1446238
19	0xbededc18	-0.43527293
20	0xbcf03179	-0.029320465
21	0xbe69e3ad	-0.22840758
22	0xbede5212	-0.4342199
23	0xbeb730a1	-0.35779288
24	0xbeafbe62	-0.34324938
25	0xbeaf833f	-0.3427982
26	0xbe76874f	-0.24075054
27	0xbe5b4a29	-0.21415009
28	0xbea6207e	-0.32446665
29	0xbe8cbf9c	-0.27489936
30	0xbed22792	-0.41045815
31	0xbe16d1f4	-0.14728528
32	0xbf0439e6	-0.51650846
33	0xbea6286e	-0.3245272
34	0xbc7333dc	-0.014843907
35	0xbe207dbe	-0.15672967
36	0xbebacdec	-0.3648523
37	0xbedd5d77	-0.4323537
38	0xbde73c1d	-0.112907626
39	0xbed577ba	-0.41692907
40	0xbec256d6	-0.37956876
41	0xbee78361	-0.45217422
42	0xbd7885f2	-0.060674615
43	0xbdb4a284	-0.0882006
44	0xbdc0a7c4	-0.09406999
45	0xbecc83d2	-0.3994432
46	0xb7b68de1	-2.1762158e-05
47	0xbde97c86	-0.11400704
48	0xbe8ba19b	-0.27271733
49	0xbf1cf4f2	-0.61311257
50	0xbe5cd3ba	-0.21565142
51	0xbee8d315	-0.45473543
52	0xbe0e7fe0	-0.13915968
53	0xbf2614fc	-0.6487577
54	0xbe3b5115	-0.18292649
55	0xbebab833	-0.36468658
56	0xbe4c4713	-0.19948988
57	0xbd7f7730	-0.062369525
58	0xbc45358d	-0.012036693
59	0xbe94fc1e	-0.290986
60	0xbe6c63d8	-0.23084962
61	0xbec7670b	-0.38945803
62	0xbe97ee34	-0.29673922
63	0xbddfa02d	-0.10919223

gnn_list.0.nn.3.running_mean f4 [64]
0	0xc0be187b	-5.9404883
1	0xbff55d76	-1.9169147
2	0xbfa295d8	-1.2701979
3	0xc038a839	-2.8852675
4	0xc094dba5	-4.651812
5	0xc070b212	-3.7608685
6	0xbfac0a17	-1.3440579
7	0xc0055e7e	-2.0838923
8	0xbfde22dd	-1.735439
9	0xc0756f76	-3.834928
10	0xc05d73e6	-3.4601989
11	0x3ea71a87	0.32637426
12	0xbe9085f7	-0.28227207
13	0xc0370670	-2.859768
14	0xc07f304a	-3.9873223
15	0xc04be080	-3.1855774
16	0xc093ea6e	-4.622367
17	0x3ea8db88	0.3297999
18	0xbe0eccdc	-0.13945335
19	0xbca6412c	-0.020294748
20	0xbf25b09b	-0.64722604
21	0xc07632e5	-3.8468564
22	0xc0a53230	-5.1623764
23	0xc0062cb6	-2.096479
24	0xc045d8a0	-3.0913467
25	0xbfff1b3d	-1.9930187
26	0xc09cd2e6	-4.9007444
27	0xc0004ec5	-2.0048077
28	0xc044cd17	-3.0750177
29	0xbfadf2c8	-1.3589716
30	0x3e5a1f85	0.21301086
31	0xbfe4a1ca	-1.7861874
32	0xbfd2f01f	-1.6479529
33	0xc0201e86	-2.501863
34	0xc013cd9a	-2.309424
35	0xc07c3aaa	-3.9410806
36	0xc0a15fc3	-5.0429397
37	0xbf81f990	-1.0154285
38	0xc02676e7	-2.6010072
39	0xbea5f634	-0.324144
40	0x40186afc	2.3815298
41	0xc0105287	-2.255037
42	0x401bd10d	2.4346344
43	0xbf90e856	-1.1320903
44	0xc09a5d5f	-4.823898
45	0xc086947c	-4.2056255
46	0xbfbc331b	-1.4703096
47	0xc0375a00	-2.8648682
48	0xc09489b4	-4.6418095
49	0x4024a0cd	2.5723145
50	0xc05133ac	-3.2687788
51	0xbf68f93e	-0.91005313
52	0xc094fc11	-4.65577
53	0xc012c31e	-2.293159
54	0xc02e018d	-2.7188447
55	0xc0ba09a2	-5.813676
56	0xc0749ddf	-3.8221357
57	0xc0015005	-2.020509
58	0xbe004a45	-0.12528332
59	0xc053c252	-3.3087354
60	0xc0935dc5	-4.6051965
61	0xc0a7ee8b	-5.247869
62	0xbf2b65a8	-0.6695199
63	0xc01a4fe1	-2.4111254

gnn_list.0.nn.3.running_var f4 [64]
0	0x417805c0	15.501404
1	0x4173ef71	15.245957
2	0x41225eed	10.148175
3	0x418a0f15	17.257364
4	0x4176a461	15.415132
5	0x4122cf41	10.175599
6	0x4122e8ac	10.181805
7	0x41135215	9.20754
8	0x40e6e1ac	7.215048
9	0x40d7d448	6.7446632
10	0x4138cf72	11.550646
11	0x41416d77	12.089225
12	0x41528e6f	13.159774
13	0x41584d0b	13.518809
14	0x415cd4cc	13.801952
15	0x413bfa6b	11.748637
16	0x40dd9b45	6.925204
17	0x410a362d	8.6382265
18	0x40fd1378	7.9086266
19	0x41612251	14.070878
20	0x412c0d3c	10.753231
21	0x41504c85	13.018682
22	0x40cf337a	6.4750338
23	0x40b34147	5.6017184
24	0x4158cd62	13.550142
25	0x4107d57d	8.489621
26	0x414e6029	12.898477
27	0x412bd73c	10.740047
28	0x412d3955	10.826497
29	0x40f908d5	7.782328
30	0x4117b985	9.482793
31	0x414f73b7	12.965751
32	0x40ad3c04	5.413576
33	0x410d49f6	8.830557
34	0x41018736	8.0955105
35	0x41408daf	12.034591
36	0x40f5c4fa	7.680295
37	0x418d7a38	17.684677
38	0x40f908c7	7.7823215
39	0x411b0681	9.689088
40	0x412f2bfc	10.948238
41	0x40e00ff0	7.0019455
42	0x41463e9c	12.3902855
43	0x4136f372	11.434435
44	0x40c91c21	6.2846837
45	0x41182b98	9.510643
46	0x41411b97	12.069236
47	0x4113e5c6	9.243597
48	0x409c372c	4.881735
49	0x410af320	8.684357
50	0x415cbd11	13.796159
51	0x418ea3a3	17.8299
52	0x41178364	9.469578
53	0x40e16136	7.0431166
54	0x4133b6a8	11.232094
55	0x418819b3	17.012548
56	0x41442172	12.258165
57	0x418b8eae	17.444668
58	0x41253b36	10.326956
59	0x4175d774	15.365101
60	0x41115429	9.083047
61	0x411edeb2	9.929369
62	0x40f8c6dc	7.774275
63	0x41726c2b	15.151408

mlp_list_inner.0.mlp_list.0.weight f4 [64, 64]
0	0x3be71b22	0.007052795
1	0x3ccbe81f	0.024890957
2	0x3d9ef7a5	0.07762078
3	0x3c0a3ce2	0.008437367
4	0x3dfa11c9	0.122104235
5	0xbeff7341	-0.4989262
6	0xbf1fd219	-0.6242996
7	0xbe3fea7f	-0.18741797
8	0xbe047619	-0.12935676
9	0xbef97fe4	-0.48730385
10	0xbd804df9	-0.06264872
11	0x3d18e9e5	0.037332434
12	0x3e70ffbd	0.23535056
13	0xbe27cba3	-0.16386275
14	0xbe86f3c5	-0.26357856
15	0x3e20ff1b	0.15722315
16	0xbeaf2508	-0.3420794
17	0x3d789e66	0.060697936
18	0x3da501ba	0.0805697
19	0xbe3ed40a	-0.18635574
20	0xbe80bd42	-0.25144392
21	0xbe660e3f	-0.22466372
22	0xbe0e4ac1	-0.13895704
23	0x3e0973d1	0.13423087
24	0xbe2bc61c	-0.16774791
25	0xbe1e7bcb	-0.15476911
26	0xbe729df9	-0.23693074
27	0xbe950a34	-0.29109347
28	0xbe03d64b	-0.12874715
29	0x3dc69c8b	0.09697827
30	0x3e019804	0.12655646
31	0x3dc20355	0.09473292
32	0x3e720f7a	0.23638716
33	0xbdba8aa9	-0.091084786
34	0xbdb26a72	-0.08711709
35	0x3c9a995b	0.018871954
36	0xbf0845f7	-0.5323176
37	0xbc6c2d2a	-0.014415065
38	0xbe10ff57	-0.14159904
39	0xbdaf0c14	-0.085472256
40	0xbd373820	-0.04473126
41	0x3df0542a	0.11734803
42	0x3dd89693	0.10575595
43	0x3d6eda79	0.05831382
44	0xbd87943b	-0.066200696
45	0xbc7808b9	-0.015138798
46	0xbc2206f6	-0.009889355
47	0x3e05f179	0.13080396
48	0xbcd45983	-0.025921589
49	0xbcf7b98d	-0.030239845
50	0x3e5c317d	0.21503253
51	0x3e0db836	0.13839802
52	0xbd7b8cdd	-0.061413635
53	0x3da1ae54	0.078945786
54	0xbbe51567	-0.0069910767
55	0xbdd51e5c	-0.10406181
56	0xbeb54c0f	-0.3540959
57	0xbd42dec3	-0.047575723
58	0xbec5fd3c	-0.38669765
59	0x3d4f76ce	0.05065041
60	0x3dbff4a2	0.09372832
61	0xbd5e6397	-0.054294195
62	0x3b814e9e	0.0039461395
63	0xbf10ebff	-0.566101
64	0xbdb3ef63	-0.08785894
65	0x3da124a4	0.07868317
66	0xbd9ca3d9	-0.07648439
67	0xbe45509e	-0.19269034
68	0xbd980cd4	-0.07424322
69	0x3e1e8413	0.1548007
70	0x3e11d6e2	0.14242128
71	0xbd8555cf	-0.06510507
72	0xbdf0bed2	-0.11755146
73	0xbd8e858c	-0.06959066
74	0x3d989628	0.07450515
75	0xbd9afec1	-0.07568122
76	0xbc6e5cc9	-0.014548489
77	0x3d05d7d7	0.032676544
78	0x3daed688	0.08537012
79	0x3d74ca3d	0.059763182
80	0xbe31251d	-0.17299314
81	0xbe13097d	-0.14359088
82	0xbe1d2106	-0.15344629
83	0xbd074678	-0.03302619
84	0x3cb55be1	0.022138538
85	0x3d8177bc	0.06321666
86	0xbc975ce8	-0.018476918
87	0xbe3f580c	-0.18685931
88	0xbe2fbbaf	-0.1716144
89	0xbd6661bd	-0.056245554
90	0xbd75cb3e	-0.06000828
91	0xbc17f725	-0.009275232
92	0x3df81251	0.121128686
93	0xbd95f202	-0.0732155
94	0x3e2567df	0.16152905
95	0xbb64b166	-0.0034895777
96	0x3d69694c	0.056985185
97	0xbdcd9343	-0.100378536
98	0xbdd053ac	-0.10172209
99	0x3e6f84ad	0.23390456
100	0xbe25f634	-0.162072
101	0xbdfde642	-0.12397434
102	0xbd035a0f	-0.03206831
103	0x3c9ca7a2	0.019122902
104	0xbe6ed17b	-0.23322098
105	0x3e4dd382	0.20100215
106	0xbe310d4e	-0.17290232
107	0x3d9819b3	0.07426777
108	0xbdbb246e	-0.09137808
109	0x3d9d22e6	0.07672672
110	0xbd6b072e	-0.057379894
111	0xbdd92289	-0.1060229
112	0x3d81e5ca	0.06342657
113	0xbd1ebaba	-0.038752295
114	0xbda9b4e8	-0.08286458
115	0xbe50373b	-0.20333569
116	0xbdbabc1e	-0.09117912
117	0x3d87ad40	0.06624842
118	0xba9a45c8	-0.0011770064
119	0x3d26822a	0.040651478
120	0xbd55efa9	-0.05223051
121	0xbd0bd272	-0.034136243
122	0xbe9d100f	-0.30676314
123	0xbc4827a5	-0.012216483
124	0x3c23261b	0.0099578155
125	0xbdfaf849	-0.12254388
126	0xbea099b7	-0.31367275
127	0x3c2c90a7	0.010532535
128	0x3d82dbdd	0.06389592
129	0x3cae943c	0.021310918
130	0xbc54a2cd	-0.012978268
131	0x3c510cee	0.01275943
132	0x3bf311bb	0.007417885
133	0xbdf00669	-0.11719973
134	0x3d2a7114	0.041611746
135	0xbe481825	-0.1954046
136	0xbd1a214d	-0.037629414
137	0x3d98f454	0.07468477
138	0xbe295626	-0.1653677
139	0xbec14cb3	-0.3775383
140	0xbd42b460	-0.0475353
141	0xbe3a7bed	-0.18211336
142	0x3dd22c19	0.10262317
143	0x3d4970b6	0.049179755
144	0x3e14b321	0.14521457
145	0xbdd13e8b	-0.10217007
146	0xbdadc4a6	-0.08484773
147	0xbe969663	-0.2941161
148	0xbcd875d8	-0.02642338
149	0xbce7e8c2	-0.02830923
150	0x3e31baa1	0.1735635
151	0xbe207fa9	-0.15673698
152	0x3d4ca407	0.049961116
153	0x3d867735	0.06565706
154	0x3d669d87	0.056302574
155	0xbe037d42	-0.12840751
156	0x3e418cf2	0.18901423
157	0x3e12a70c	0.14321536
158	0xbec8c4af	-0.39212558
159	0xbd82f89e	-0.06395076
160	0xbde77f87	-0.11303621
161	0x3dbe1db5	0.0928301
162	0xbe82f1ea	-0.2557519
163	0xbdd6c977	-0.10487645
164	0xbe75b9fc	-0.23996729
165	0xbdbc37f9	-0.091903634
166	0xbe402eec	-0.187679
167	0xbd4d61c1	-0.050142054
168	0xbe1dbccd	-0.15404053
169	0xbec17a79	-0.37788752
170	0xbe336ba8	-0.17521536
171	0xbcdfa6a1	-0.027301135
172	0x3dcdd880	0.1005106
173	0x3e85c6aa	0.2612813
174	0xbe03bd53	-0.1286519
175	0xbe106faa	-0.14105096
176	0x3dd6b5ff	0.10483932
177	0xbe2723f4	-0.16322309
178	0xbd9a7e83	-0.075436614
179	0xbe094202	-0.13404086
180	0x3d762535	0.060094077
181	0x3e16f7df	0.14742993
182	0xbb4450f4	-0.0029955478
183	0x3ddf385b	0.10899421
184	0x3e27ab76	0.16374001
185	0xbe35ea89	-0.1776525
186	0x3d83ec06	0.06441502
187	0xbe21606f	-0.15759443
188	0x3dfe27fc	0.1240997
189	0x3dfbcbe1	0.12294746
190	0xbeab2f33	-0.33434448
191	0xbd9bb696	-0.07603185
192	0x3e386116	0.18005785
193	0x3db83bdd	0.08995793
194	0x3d2b76e4	0.04186143
195	0x3e75cc7c	0.24003786
196	0xbd9ab822	-0.07554652
197	0xbdee47bc	-0.11634776
198	0x3a78f6d3	0.0009497229
199	0xbf151eb7	-0.5824999
200	0x3dd4b24b	0.10385569
201	0xbe3c372e	-0.18380424
202	0xbf076394	-0.5288632
203	0x3d8564a4	0.06513336
204	0xbd50104f	-0.050796803
205	0x3d0f3f8f	0.034972724
206	0xbda5536a	-0.080725506
207	0xbd5fb3ec	-0.054614946
208	0xbe6d860c	-0.23195666
209	0xbd4f41f6	-0.050600015
210	0xbd9426cf	-0.07233965
211	0x3e280529	0.16408218
212	0xbe9dbb33	-0.30806884
213	0x3d6c507a	0.057693936
214	0x3dc02d2d	0.093836166
215	0xbd54c818	-0.051948637
216	0xbe57ca20	-0.21073198
217	0xbec46cf4	-0.38364375
218	0xbecdbd7e	-0.40183634
219	0x3e9ceb20	0.30648136
220	0xbd8b2bc2	-0.067954555
221	0xbd6311bd	-0.05543684
222	0x3e33ad10	0.17546487
223	0x3d5b508c	0.053543612
224	0xbdaf86cc	-0.08570632
225	0xbec5bdcf	-0.38621375
226	0xbe37cad4	-0.17948467
227	0xbe3ed5ce	-0.18636248
228	0xbefc8849	-0.49322727
229	0xbdb90bc0	-0.09035444
230	0x3e8b4680	0.27202225
231	0xbf02305e	-0.5085505
232	0x3e064aac	0.13114423
233	0x3dc11a2a	0.094288185
234	0x3e8a22b4	0.269796
235	0x3ea6390d	0.324654
236	0xbf149b41	-0.580494
237	0xbd3a69b3	-0.04551096
238	0x3c268142	0.010162653
239	0x3d317f73	0.043334436
240	0xbedb2280	-0.4279976
241	0x3eb638cb	0.35590205
242	0xbcddd6a3	-0.027079886
243	0x3e815c87	0.25265905
244	0xbec1835f	-0.3779554
245	0x3dcee888	0.101029456
246	0xbe68dedb	-0.22741263
247	0xbead45f1	-0.33842424
248	0xbe078c27	-0.13237058
249	0x3e07f9d9	0.13278903
250	0xbb88d6a4	-0.004175978
251	0x3dae0b61	0.08498264
252	0xbe4a511e	-0.19757506
253	0xbedf73cd	-0.43643036
254	0x3cb1bfe1	0.02169794
255	0xbe8f926c	-0.280414

mlp_list_inner.0.mlp_list.0.bias f4 [64]
0	0x3e39f596	0.1816009
1	0x3e04062c	0.1289298
2	0x3e2fe729	0.17178024
3	0xbbc8f2eb	-0.0061324737
4	0x3e191180	0.14948082
5	0x3ddb9981	0.10722638
6	0x3cee8adf	0.029118953
7	0xbd829e7b	-0.06377884
8	0x3ddc4eca	0.10757215
9	0x3e31cbeb	0.17362945
10	0x3db26426	0.08710508
11	0xbdc31c69	-0.09526903
12	0x3b876417	0.0041318047
13	0xbe4304de	-0.19044825
14	0x3eedd9e2	0.46455294
15	0x3e7571ed	0.2396924
16	0x3f4bf036	0.7966341
17	0x3eddcec0	0.433218
18	0xbe198f62	-0.14996102
19	0x3e74dcd6	0.23912367
20	0xbcf4f529	-0.029902058
21	0xbe056b22	-0.13029149
22	0xbcf2842f	-0.029604046
23	0x3ebba356	0.36648053
24	0x3e1c5dc5	0.15270145
25	0x3e2c4443	0.16822915
26	0x3e117341	0.14204122
27	0x3c00033c	0.007813271
28	0x3f543f0e	0.82908714
29	0x3d4f3780	0.05059004
30	0x3ec3f898	0.382756
31	0xbddcf5c9	-0.10789067
32	0x3d463f68	0.048400313
33	0x3e725f3a	0.23669139
34	0x3e0a0a4e	0.13480493
35	0x3db7e415	0.0897905
36	0xbe32b2ff	-0.17451094
37	0xbdabf389	-0.0839606
38	0x3e7d7951	0.2475331
39	0x3dedcd25	0.11611394
40	0xbe3ebfea	-0.18627897
41	0x3df98428	0.1218341
42	0x3e8c372d	0.27385846
43	0x3b5d707f	0.0033788977
44	0xbdf0e2e1	-0.11762024
45	0xbc64f728	-0.013974942
46	0x3df67e26	0.1203578
47	0xbd9aa097	-0.07550161
48	0xbc8b2c7d	-0.016988987
49	0x3e81446c	0.25247514
50	0x3f366028	0.7124047
51	0x3e9d6c7e	0.30746835
52	0x3dfe7b24	0.12425831
53	0x3d7cc410	0.061710417
54	0x3e9c2fb2	0.3050514
55	0x3f2d0876	0.67591035
56	0x3e6c152e	0.23054954
57	0x3c690db7	0.014224461
58	0x3e88f761	0.26751235
59	0x3e8dd056	0.2769801
60	0x3d1c4cd0	0.03815919
61	0xbdcd7fdb	-0.10034152
62	0x3e2cbb77	0.16868387
63	0x3da53568	0.08066827

mlp_list_outer.0.mlp_list.0.weight f4 [64, 64]
0	0xbe0bd32b	-0.13654773
1	0xbe23848a	-0.15968528
2	0xbda29541	-0.07938624
3	0xbdcadf0e	-0.099058256
4	0xbe44a5b6	-0.19203839
5	0xbd1442d1	-0.036196534
6	0x3dfd6245	0.12372259
7	0x3e1a1bb0	0.15049624
8	0x3b4a3203	0.0030852563
9	0xbe8b3d03	-0.27194986
10	0xbd6dde7b	-0.058073502
11	0x3ccde44f	0.02513328
12	0xbe1f9a81	-0.15586282
13	0xbcdf42db	-0.027253559
14	0xbddb049a	-0.10694237
15	0xbe97caf2	-0.29647022
16	0xbc95bfe4	-0.018279977
17	0xbc819833	-0.015819645
18	0x3e3cd7a4	0.18441635
19	0xbe1476b0	-0.144984
20	0x3bf4d959	0.007472199
21	0xbba94643	-0.0051658466
22	0x3ca398a8	0.019970253
23	0xbe018a83	-0.12650494
24	0xbbe74a5f	-0.0070584263
25	0x3de1dfd5	0.11029021
26	0x3d8be3d1	0.06830562
27	0xbe2078fd	-0.15671153
28	0xbe87a326	-0.2649166
29	0xbbe59b7e	-0.0070070615
30	0xbe2f7565	-0.17134626
31	0xbded277c	-0.11579797
32	0x3d5d93dc	0.054096088
33	0x3d96b9ab	0.07359632
34	0xbdcc0bb5	-0.099631704
35	0xbdf7a14f	-0.12091314
36	0x3c63db1a	0.013907218
37	0x3d2b4655	0.04181512
38	0xbdbd4f0b	-0.09243592
39	0xbd34fa61	-0.044184092
40	0x3e2953da	0.16535893
41	0xbc1bf660	-0.00951919
42	0xbd909442	-0.07059528
43	0xbc319fe4	-0.010841344
44	0xbcf0ca18	-0.02939324
45	0xbd4edc4a	-0.050503053
46	0xbdc390d9	-0.09549112
47	0x3c2ba1d4	0.010475595
48	0xbd07d626	-0.033163212
49	0x3e451d4f	0.19249462
50	0x3da878dc	0.08226177
51	0xbde0ee8c	-0.10982999
52	0x3df343e4	0.118781835
53	0x3da79bb2	0.081839934
54	0xbcc6ae2a	-0.02425297
55	0xbe298477	-0.16554438
56	0xbd2462b1	-0.040133182
57	0x3e0a3535	0.1349686
58	0xbe474ed9	-0.19463672
59	0x3db6acd5	0.08919684
60	0x3d655ea8	0.055998474
61	0x3dbd74c2	0.092507854
62	0xbe01f74c	-0.12691993
63	0x3d9e0476	0.077156946
64	0xbe07bd62	-0.13255838
65	0xbd09f472	-0.033680387
66	0xbd281a61	-0.041040782
67	0xbe019e82	-0.12658122
68	0xbe510077	-0.20410334
69	0x3d1ad496	0.037800394
70	0xbe0b049a	-0.13575974
71	0x3bd5e6e2	0.0065277675
72	0x3e4efa69	0.20212711
73	0xbd8b6149	-0.06805665
74	0xbde443c7	-0.1114574
75	0xbe51dd65	-0.20494612
76	0xbda45a2f	-0.08025014
77	0xbe25c43e	-0.16188142
78	0x3d8206cd	0.063489534
79	0xbdd3de00	-0.103450775
80	0x3bccc991	0.0062496145
81	0xbeb93428	-0.36172605
82	0xbb21cb26	-0.0024687736
83	0xbd6a44ef	-0.057194646
84	0xbed0c632	-0.4077621
85	0x3dd1a62e	0.102367744
86	0x3daf4405	0.085578956
87	0xbd336ce7	-0.04380503
88	0x3db8af19	0.09017772
89	0x3f01fad6	0.5077337
90	0x3d2ccbd2	0.042186566
91	0xbb1141bd	-0.0022164427
92	0xbd09255e	-0.0334829
93	0x3dd937ff	0.106063835
94	0x3ced8fab	0.02899917
95	0xbd94f8af	-0.07273995
96	0xbd0a7aa3	-0.03380836
97	0xbd2869a0	-0.041116357
98	0xbe858406	-0.26077288
99	0xbda504cb	-0.08057555
100	0x3e0dc558	0.13844812
101	0xbcb19eb6	-0.021682125
102	0x3d114242	0.03546358
103	0xbd73a270	-0.059481084
104	0x3e057a6f	0.13034986
105	0x3dc2ce46	0.09512
106	0x3e375f76	0.17907509
107	0x3c38b66e	0.011273963
108	0xbd82b568	-0.06382257
109	0x3cc82176	0.024430018
110	0xbe484f25	-0.19561441
111	0xbd1210c7	-0.03566053
112	0x3f2be543	0.671467
113	0xbd117901	-0.03551579
114	0x3d3cb63e	0.046072237
115	0x3db2793b	0.08714529
116	0xbe338e65	-0.17534788
117	0xbe83d4f1	-0.257484
118	0x3c90accf	0.017660527
119	0x3dfe59a2	0.1241944
120	0xbcb4c8db	-0.022068432
121	0x3dc0e871	0.09419335
122	0xbde3f2b4	-0.11130276
123	0xbdb15b39	-0.086599775
124	0x3e2f4e78	0.17119777
125	0xbcb9a2d5	-0.022660652
126	0xbd79a203	-0.060945522
127	0x3d1a1330	0.037615955
128	0x3e6dc90b	0.23221223
129	0xbe8164a0	-0.25272083
130	0x3e4801d5	0.19531949
131	0x3cd42f8e	0.025901582
132	0xbd817246	-0.06320624
133	0xbe632f62	-0.22186044
134	0x3d6615aa	0.056173004
135	0xbc92c025	-0.017913887
136	0xbe0a8eb7	-0.13531004
137	0xbe07235e	-0.13197085
138	0xbe0405d1	-0.12892844
139	0xbd78b401	-0.06071854
140	0x3e73a7a5	0.2379442
141	0xbc605931	-0.01369314
142	0x3de2e1a6	0.11078195
143	0xbec53d30	-0.38523245
144	0x3df7f990	0.12108147
145	0xbd497cfb	-0.049191456
146	0xbe340a60	-0.17582083
147	0x3b436ae3	0.0029818348
148	0xbe1da7e4	-0.15396076
149	0x3d6701b5	0.056398112
150	0x3d613315	0.054980356
151	0xbe254540	-0.16139698
152	0x3c6f7e05	0.014617448
153	0x3de7361d	0.11289618
154	0x3e9ddc04	0.3083192
155	0x3e76be76	0.24096093
156	0x3deeea1b	0.11665746
157	0x3e8f902b	0.2803968
158	0xbdb09397	-0.086219005
159	0x3e69e105	0.22839744
160	0x3c19f9fe	0.009397982
161	0x3d195f92	0.03744466
162	0x3e5bcdbe	0.21465203
163	0x3db0c434	0.08631173
164	0x3cd46175	0.025925377
165	0xbdf25d60	-0.11834216
166	0xbd50e35c	-0.050998077
167	0x3dc6af4a	0.097014025
168	0x3def151e	0.1167395
169	0xbdb58f44	-0.088652164
170	0xbbdae64e	-0.0066802865
171	0xbee43d2a	-0.44577914
172	0x3e0a64b1	0.13514973
173	0xbdfbe331	-0.12299193
174	0xbe44cb2c	-0.19218129
175	0x3df7ef97	0.12106245
176	0x3d42de42	0.047575243
177	0xbdf76fba	-0.12081857
178	0x3e841264	0.2579528
179	0x3a892698	0.0010463772
180	0x3ddae61d	0.10688422
181	0x3da771a1	0.0817597
182	0x3dbde6f4	0.092725664
183	0x3e036ad0	0.12833714
184	0xbdd666ea	-0.10468848
185	0xbda7bc69	-0.08190233
186	0xbe0eb1fb	-0.13935082
187	0xbb0a6055	-0.0021114547
188	0xbe10cfa1	-0.14141704
189	0xbda424fc	-0.08014867
190	0x3df69565	0.120402135
191	0x3d6bcf40	0.057570696
192	0xbd092b4e	-0.033488564
193	0xbd89161d	-0.06693671
194	0xbdd124d5	-0.10212103
195	0xbdffafb8	-0.124846876
196	0x3da0803c	0.07836959
197	0x3d3ed92a	0.046593823
198	0x3d4208f8	0.047371835
199	0x3dc9ef37	0.0986008
200	0x3ecaf769	0.39641884
201	0x3def05ba	0.11671014
202	0x3da97543	0.08274319
203	0xbc946b48	-0.018117562
204	0xbc179782	-0.009252431
205	0xbde5db9e	-0.11223529
206	0xbcdbec0b	-0.026845952
207	0x3dfb8324	0.122808725
208	0x3d946599	0.07245941
209	0x3ece0fe9	0.40246513
210	0xbd27e907	-0.040993717
211	0x3de7680d	0.11299143
212	0xbdbd021d	-0.09228919
213	0x3df2965f	0.11845087
214	0x3e2669c5	0.16251285
215	0x3d79a7a3	0.060950886
216	0xbd091664	-0.03346862
217	0x3ed3a27e	0.4133491
218	0xbd5b3340	-0.053515673
219	0x3ce6f051	0.028190764
220	0x3d3714e1	0.044697646
221	0xbd36ee82	-0.044661053
222	0x3d99264f	0.0747801
223	0xbda11551	-0.07865394
224	0x3d8c2b39	0.068441816
225	0xbbff559a	-0.007792187
226	0x3d535842	0.05159784
227	0x3d02d150	0.031937897
228	0xbd24a982	-0.040200718
229	0x399327d3	0.00028067696
230	0x3d8d2950	0.06892645
231	0x3e5628d8	0.20914018
232	0x3ce9692d	0.028492535
233	0xbda7bc0f	-0.08190166
234	0xbc78757f	-0.015164732
235	0xbc868f30	-0.016425699
236	0xbdc576a5	-0.0964177
237	0x3dc92cc1	0.09822989
238	0x3e9e2fc6	0.30895823
239	0x3d87a4a4	0.066231996
240	0x3d6e9956	0.0582517
241	0xbe3a7a16	-0.18210635
242	0xbd027b5b	-0.031855922
243	0xbe4ae832	-0.19815138
244	0xbdbeeeec	-0.093229145
245	0x3d8ea44a	0.069649294
246	0xbd06e793	-0.03293569
247	0x3c51e955	0.012811978
248	0x3c0a2c39	0.008433395
249	0xbdc93623	-0.09824779
250	0x3da3a241	0.07989932
251	0xbd95fdb6	-0.07323782
252	0x3cd776f7	0.026301844
253	0x3d9b8b0f	0.07594883
254	0x3d9264be	0.07148121
255	0x3d62b38d	0.055347014

mlp_list_outer.0.mlp_list.0.bias f4 [64]
0	0x3ce28a0f	0.027653722
1	0x3f9f65cb	1.245294
2	0x3e404e91	0.1877997
3	0x3f8f719e	1.1206548
4	0x3bedb083	0.007253708
5	0x3e8c8bfa	0.27450544
6	0x3e474889	0.19461264
7	0x3e30f229	0.17279877
8	0x3f98b259	1.1929427
9	0x3e436f3e	0.19085404
10	0x3e9c9e20	0.3058939
11	0x3e79e5d4	0.24404079
12	0xbf7160f5	-0.9428857
13	0xbde8b6ac	-0.11362967
14	0x3c41e1f6	0.011833658
15	0x3e5fd38f	0.21858047
16	0xbdbf5695	-0.09342686
17	0x3cd32a39	0.02577697
18	0x3d75b697	0.059988584
19	0xbe018584	-0.12648588
20	0x3e953206	0.29139727
21	0x3ef52eeb	0.47887358
22	0xbf13bcea	-0.57710135
23	0xbe048d42	-0.1294451
24	0xbd12df16	-0.035857283
25	0x3e17b356	0.14814505
26	0x3ee79b5d	0.4523572
27	0x3ce95232	0.028481577
28	0x3f0f5447	0.5598797
29	0xbdee0cd8	-0.116235435
30	0xbdba061c	-0.090831965
31	0xbd8c9c26	-0.068657205
32	0x3c7e8665	0.015534972
33	0xbed14aeb	-0.4087747
34	0x3e7ea9e5	0.24869497
35	0x3f8812a7	1.0630692
36	0x3eefc50a	0.46830016
37	0xbe614edc	-0.22002739
38	0x3f2134d3	0.6297123
39	0xbf447b75	-0.7675088
40	0x3e64a036	0.2232674
41	0xbe106353	-0.14100389
42	0xbead473e	-0.33843416
43	0x3f24c3a5	0.6436103
44	0x3f5ee048	0.87060976
45	0xbe0183f9	-0.12648
46	0xbf1aec6c	-0.60517
47	0xbf093054	-0.5358937
48	0xbe2e65c3	-0.17031007
49	0x3ee44514	0.44583952
50	0x3e8fabf2	0.2806087
51	0x3e0c5c5a	0.13707104
52	0x3d8ada93	0.06779971
53	0x3e9fe967	0.3123276
54	0xbe3f0eb8	-0.18657959
55	0x3f177134	0.5915711
56	0xbc831d10	-0.016005069
57	0xbec0e430	-0.37674093
58	0xbe7f9282	-0.24958232
59	0x3d9a720d	0.07541285
60	0x3e427c97	0.1899284
61	0xbdb3b2a8	-0.0877431
62	0x3f3e6b57	0.7438254
63	0xbeaa23a0	-0.33230305

NTN.weight_matrix f4 [64, 64, 16]
0	0xbd2f3fc5	-0.042785425
1	0xbd165911	-0.036706034
2	0xbbfba06a	-0.007679035
3	0x3cc797ca	0.02436437
4	0x3d5211ee	0.05128663
5	0xbac56a77	-0.0015061636
6	0xbd81bdfe	-0.06335066
7	0x3b9d9188	0.0048086084
8	0xbca76659	-0.020434545
9	0x3c007161	0.007839532
10	0x3cf7c99d	0.030247504
11	0xbcd4dc8e	-0.025984075
12	0xbcd0de8c	-0.025496744
13	0x3d8668a3	0.065629266
14	0x3d630ef8	0.055434197
15	0x3d514673	0.051092576
16	0xbd1cc014	-0.038269117
17	0x3d1c2995	0.038125593
18	0xbc6bc4e9	-0.014390209
19	0x3d029a97	0.03188571
20	0x3bbaacc1	0.0056968634
21	0x3d0580ef	0.032593664
22	0xbd204534	-0.039128497
23	0x3d4ed2ed	0.050494123
24	0x3d28c84a	0.041206636
25	0x3d0cabaa	0.0343434
26	0x3d6445de	0.055730693
27	0xbd282524	-0.041051045
28	0x3c7b092d	0.015322012
29	0x3cc494ad	0.023996675
30	0xbd1a60d1	-0.037689988
31	0xbcd0724b	-0.025445124
32	0xbd6b9f64	-0.057525054
33	0xbd0f9eed	-0.035063673
34	0xbd19c5a1	-0.03754199
35	0xbaeff3bb	-0.001830689
36	0xb9d930df	-0.00041425877
37	0x3acbfdc9	0.0015563305
38	0xba4a31c2	-0.0007713103
39	0x3cd78e2f	0.026312916
40	0x3c8b0e90	0.016974717
41	0x3c9fbc85	0.019499073
42	0xbc356b6b	-0.011072974
43	0x3d58d442	0.0529368
44	0xbc6de2fb	-0.014519448
45	0xbc9a1caa	-0.018812496
46	0xbb86e3c4	-0.0041165072
47	0x3c969a33	0.018384075
48	0xbd32abc8	-0.043620855
49	0xbc9c18b3	-0.019054746
50	0x3c8caba6	0.017171692
51	0x3d1f8f05	0.038954753
52	0x3b65523e	0.0034991647
53	0xba987571	-0.001163168
54	0x3d1e1d6e	0.038602285
55	0x3cd867e4	0.026416726
56	0x3cf1bccb	0.029508969
57	0x3c1a3014	0.009410877
58	0x3caa1ef6	0.020766716
59	0x3870be40	5.7397643e-05
60	0xbd083417	-0.0332528
61	0x3d829491	0.06375993
62	0xbc2c57d8	-0.01051899
63	0xbc5f56d4	-0.013631541
64	0xbcfab702	-0.030604843
65	0x3cebe402	0.028795246
66	0xbc745748	-0.014913388
67	0x3d08cc06	0.033397697
68	0x3d15307b	0.036423188
69	0xbd0db226	-0.034593724
70	0xbc0fa8bc	-0.008768257
71	0xbb165818	-0.0022940692
72	0x3d243ba3	0.040095937
73	0x3c901573	0.017588353
74	0x3d57dd07	0.052701022
75	0x3cd27714	0.025691546
76	0xbcdffb5e	-0.02734154
77	0x3d60805b	0.05480991
78	0xbd2e3a9a	-0.042536356
79	0xbb440ae9	-0.002991373
80	0x3cb3287a	0.021869887
81	0x3d1df3ec	0.0385627
82	0xbcab6cf3	-0.020925974
83	0x3d0960e4	0.033539668
84	0x3c469e8b	0.0121227605
85	0x3a224ada	0.00061909633
86	0x3d0942c9	0.033510957
87	0x3d398285	0.04529049
88	0xbc59b7d2	-0.013288455
89	0x3c9cda79	0.019147145
90	0x3ce6ac6c	0.028158389
91	0x3d8130d0	0.06308138
92	0x3cfffd9a	0.031248856
93	0x3ca146b5	0.019687036
94	0x3c4a76f9	0.012357467
95	0xbba88633	-0.005142951
96	0xbd3ba243	-0.04580904
97	0xbcf550b3	-0.029945707
98	0xbcc1a34b	-0.023637434
99	0xbd225433	-0.03963108
100	0xbd1475ec	-0.03624527
101	0xbcd34734	-0.025790788
102	0xbc22f133	-0.009945202
103	0xbadbfc5c	-0.0016783583
104	0xbc6b9171	-0.014377938
105	0x3d8c9fd3	0.068664216
106	0x3d45f7fe	0.048332207
107	0x3d631bb0	0.055446327
108	0x3cee66b6	0.02910171
109	0x3d5a4297	0.05328616
110	0x3abdbcf3	0.0014475867
111	0xbc5d1c96	-0.013495585
112	0xbd043028	-0.032272488
113	0x3ca02778	0.01955007
114	0xbd49d2a0	-0.049273133
115	0xbd67fd11	-0.056637827
116	0x3c32c80d	0.010911954
117	0xbd788823	-0.060676705
118	0x3c976770	0.01848194
119	0xbce7ca67	-0.028294755
120	0xbcd5aaa0	-0.026082337
121	0x3d18c689	0.037298713
122	0x3cbd1d2a	0.023085196
123	0x3c8eab2f	0.017415611
124	0x3c7b2aa7	0.015329993
125	0x3c92d307	0.017922891
126	0x3d3adc17	0.04562005
127	0x3c17c4a5	0.009263192
128	0xbd4d00b0	-0.050049484
129	0x3cbb574d	0.022868777
130	0xbcee3aa7	-0.029080702
131	0xbd513d2c	-0.05108373
132	0x3d5ebdc7	0.054380205
133	0x3b475b1a	0.003041929
134	0x3c5a12bd	0.013310132
135	0x3d28f687	0.04125073
136	0xbce10d25	-0.027472088
137	0x3d57f172	0.052720495
138	0x3d8dce8c	0.06924161
139	0x3bf113d1	0.0073570986
140	0xbceac7f1	-0.028659793
141	0x3c2a8989	0.0104087675
142	0x3d20a877	0.03922316
143	0x3c9e9902	0.01936007
144	0x3ccbf153	0.024895346
145	0x3c2ed832	0.010671662
146	0xbd490a6e	-0.049082212
147	0xbd0426cd	-0.032263566
148	0x3ca44855	0.020054022
149	0xbcbbd360	-0.02292794
150	0x3bca5f8a	0.00617594
151	0x3d15f21f	0.036607858
152	0x3d48b205	0.048997898
153	0xbcc22ea7	-0.023703886
154	0x3d44458c	0.047917888
155	0x3d80293b	0.06257864
156	0x3d0d63bb	0.03451894
157	0x3baeeb25	0.00533809
158	0x3d7060e1	0.05868614
159	0xbd558f67	-0.052138712
160	0xbc3e1662	-0.011602016
161	0xbc257142	-0.010097804
162	0xbaaf6cc3	-0.0013383854
163	0xbd553dd2	-0.05206091
164	0xbb29bc81	-0.002589971
165	0xbd26162c	-0.04054849
166	0xbd33e04c	-0.043915078
167	0x3bdce22d	0.0067408294
168	0x3ce19fbd	0.02754199
169	0xbcc3a96b	-0.023884496
170	0xbb98f506	-0.004667881
171	0xbb3fb86b	-0.0029254209
172	0x3d3ad885	0.045616645
173	0x3c328b71	0.010897503
174	0x3c1b12d5	0.009464939
175	0x3d368532	0.04456062
176	0xbc4d32b2	-0.012524294
177	0xbcdc1337	-0.026864631
178	0xbd044637	-0.032293525
179	0x3bb8949e	0.005632951
180	0xbcf34dd4	-0.029700197
181	0x3cc4429c	0.023957543
182	0xbba0af6d	-0.004903725
183	0xbc311ab2	-0.010809587
184	0x3b303704	0.002688826
185	0xbccb122b	-0.024788937
186	0xbc493a34	-0.012281943
187	0xbcb01614	-0.021494903
188	0x3cb5b2b3	0.022179937
189	0xbcb2e6ad	-0.02183851
190	0xbcdcf1dc	-0.026970796
191	0xbcf1bd7e	-0.029509302
192	0x3a4bcbdd	0.00077742134
193	0xbb49f237	-0.0030814537
194	0x3c65ae4d	0.014018607
195	0xbd1e5125	-0.038651604
196	0x3d255ef5	0.04037376
197	0x3cd4db63	0.025983518
198	0xbb073bb1	-0.0020634944
199	0x3cafe6cf	0.021472363
200	0xbb7384c9	-0.0037158004
201	0xbd013d76	-0.031552754
202	0x3cf96fb7	0.030448778
203	0x3d73fb99	0.059566114
204	0x3d3d5d14	0.046231344
205	0xbcf658c0	-0.030071616
206	0x3d824066	0.06359939
207	0xbcfc06a0	-0.030764878
208	0xbc5abe71	-0.013351069
209	0x3c51989e	0.012792734
210	0xbd369a0b	-0.0445805
211	0x3d49b990	0.04924923
212	0x3d2f3b2f	0.04278105
213	0xbb9653e8	-0.004587639
214	0x3aaa43c6	0.0012990169
215	0x3c0b399d	0.008497623
216	0x3d4dd9fc	0.050256714
217	0x3d6a6b73	0.057231378
218	0x3d76fafe	0.06029796
219	0xbd12c570	-0.035832822
220	0xbc83b238	-0.016076192
221	0xbd0fb317	-0.035082903
222	0x3d082828	0.03324142
223	0x3c624e1c	0.013812568
224	0x3c99d9c8	0.018780604
225	0x3c4d4484	0.012528542
226	0xbd672842	-0.056434877
227	0x3b9c071a	0.0047615888
228	0x3d15ddb5	0.03658839
229	0x3d24d7ea	0.040244974
230	0x3bf89046	0.007585558
231	0xbb93b5f4	-0.0045077745
232	0x3bdf8d7b	0.0068222857
233	0xbc239166	-0.009983396
234	0xbc0fe860	-0.00878343
235	0x3c69e49e	0.014275698
236	0x3d5fb7df	0.054618713
237	0x3d65b4a4	0.056080475
238	0x3d768360	0.060183883
239	0x3d4a0a71	0.049326364
240	0x3cb7a0f9	0.022415625
241	0xbbf531e6	-0.007482755
242	0x3c1bc4ac	0.009507339
243	0xbcf695ba	-0.030100692
244	0x3ba118e6	0.004916298
245	0xbc78f1c5	-0.015194361
246	0x3c5ce270	0.013481721
247	0xbce2e5b6	-0.027697425
248	0x3cddaf77	0.027061207
249	0x3d44104a	0.047867097
250	0xbc07b55d	-0.0082829865
251	0x3ca9eb62	0.020742122
252	0xbd06f682	-0.032949932
253	0xbc81cd9d	-0.015845114
254	0xbcb3712e	-0.021904554
255	0x3c916a4d	0.017750883
