model_saved/IMDBMulti/2022-03-31_11-20-58/GSC_GNN_IMDBMulti_checkpoint.pth (torch, 516843 bytes, 53 tensors)

gnn_list.0.nn.0.weight f4 [64, 89]
00000000: 6acc dcbc c069 b0be 0c41 1fbf 7f08 ec3d
00000010: 0943 323e 9435 6b3e c16b e33e 8ec8 09bf
00000020: 0e42 223e 3efa 1dbf 4807 85bf 80ee 883c
00000030: 8932 a93e d32d 883d 74d7 c33d 70a8 673d
00000040: e1f6 853e 65a2 693e fc48 293e d5bb bc3d
00000050: e56f dd3d c27a 1e3e 4f73 3fbe 4ba4 3c3f
00000060: a1b0 85bd 1dc9 8c3f 11ef c33e bb59 973e
00000070: da15 77bf 0f51 03bf 2125 7d3d 8622 8bbe
00000080: 5adb dbbd e8e7 173f 56cc 09bd a43f 683e
00000090: 342b e3be 0d13 cdbc bfe2 b73c bcb5 463e
000000a0: d142 5bbe 97ee 8e3d 460d d5be e420 9fbe
000000b0: de73 93be e216 1bbe fc7e 4abb b809 8b3c
000000c0: 5ef8 ddbc 33b3 83bf e944 6e3c 3d56 4dbd
000000d0: b482 873d d9c9 0cbe a926 af3d 4365 bfbc
000000e0: aad5 d33d f0f3 cf3d 883d 623e acc2 bd3e
000000f0: 3af2 b93d 6c74 a0bd 5e1a ecbe b880 9ebc
00000100: e49a 453d 0d28 7e3c 84b6 b03d 8dcd e4bc
00000110: b6ae 15bb c22f 3abd 89bf ae3d fdd6 79bd
00000120: 3075 2bbd a6a0 78bd 4272 b1bd 800d 67bd
00000130: 1b2f 65be fbe1 55bb d4f5 c13c c36c 84bd
00000140: 3c29 80bd d138 08bd 2dce b8bd 0362 96bc
00000150: 86cd 4cbd cfe7 3cbc 9943 afbd eaf1 283d
00000160: b442 35be 0fe5 8e3b 95f1 1940 0e2b 853f
00000170: 3fa1 28bf 9cd0 083f e293 933e 0ad9 3b3e
00000180: 324e 4a3e cc4e 7a3d c991 353f 19ec 50bf
00000190: 62d6 d7be bb66 18bf 11ce 44bf 8501 0cbf
000001a0: 9f81 43bf 31fc e6be 7539 10bf 0751 bcbe
000001b0: 5e90 c9be 6b73 1e3e 4a8a 6c3d ce11 6fbe
000001c0: f5f3 81be bbdb ebbd 37e8 a83e 0ed1 703e
000001d0: aeb4 7a3e f2b0 4fbc edae 943c d854 3ebd
000001e0: e716 5abc 0162 043f c2cf 153f be56 383e
000001f0: 8c39 e83e f54a ce3d 797a 29bf 3a88 d7bd
00000200: 7287 923b 3a9b 263f 3bbe 59bd e03a e73e
00000210: 444d f33e 9c2c ab3f dba9 d83c ce27 b4bd
00000220: 9df1 af3f eb1b b5bd d5ed 9b3e 380c 3f3c
00000230: 3466 c83c ef40 443b e41f be3d 3fcb f8bb
00000240: c11b 45bd 8336 7fbe 1f75 d1bd 623d a03e
00000250: ed08 073d 72b7 cbbc 7f40 79bd fc0f 8e3b
00000260: 0e83 a23d 4ab4 1e3d 53da a6bd d249 84bc
00000270: e1a3 1cbd 8e96 193c f287 033c 65b7 cebd
00000280: 741d ad3d 5e86 91bd f401 c83d cad6 913d
00000290: 7f0b 573d 8427 56be bb13 163c fdbb 243d
000002a0: 6b57 e1bc 5c88 903d 7931 323d f9d5 6c3d
000002b0: eccb ccba f169 a53d 4563 6dbd b827 053d
000002c0: 01d7 afbd 1934 58be 4154 06bd c924 0cc0
000002d0: 15e9 80bf c607 c33d 5f15 12be 81ba 923e
000002e0: 8d99 6b3d d06c e1be f6fc 283f cf08 a73e
000002f0: fa45 203e 3e64 923e 26d1 313f d239 dbbe
00000300: 50d7 8d3d ca02 433e 6246 4b3e b266 1ebe
00000310: 3085 f33d 15b0 70be 76bf 4fbf 1178 993b
00000320: 4942 c8bd aadf 293b a678 71be cea2 7fbe
00000330: d568 abbe d7cc bb3e 1fc0 1bbf 1a37 a53e
00000340: 34f0 09bf cd7b ccbe bad7 973e d2ad 09bf
00000350: 890d a43d 09b3 d0be ec77 b43d 21b4 3ebc
00000360: 5062 5ebd 96dc 4e3d 2e24 8cbe 55ce 043d
00000370: 4a40 5cbe d237 45be 86e4 debc a7e9 e83d
00000380: 5e2c ac3d e4ae 80be df00 c33d 9c5e 773e
00000390: a2c3 ae3d e02b 393d 058e 43bd 0786 ba3e
000003a0: f989 41bd 4709 51bd 71c8 83be a692 903c
000003b0: be29 fdbe 9541 9ebe 409a 0a3d 497d 853d
000003c0: aaf9 e5be c789 60bc a217 2cbc 3204 853c
000003d0: 0a62 643c e38f b4bd 452f 483d d711 34bd
000003e0: 1c55 6abd 5ebd b9bd 0855 483b 3846 b1bb
000003f0: d231 bf3d c32e 51bd ab20 23be e13c 75bd
-0.026952941 -0.3445568 -0.6220863 0.11525058 0.17408384 0.22969657 0.44418147 -0.5382165
0.1584551 -0.61709964 -1.0392847 0.016715288 0.33046368 0.06649365 0.09562579 0.05655712
0.26164916 0.22815855 0.16531748 0.092155136 0.10812358 0.15476516 -0.1869633 0.7368819
-0.0652783 1.0998875 0.3826833 0.29560646 -0.9651772 -0.5129556 0.061802987 -0.27174777
-0.10735197 0.59338236 -0.033642136 0.22680527 -0.443689 -0.025033498 0.022446988 0.19405264
-0.21412207 0.06979101 -0.4161169 -0.3107978 -0.28799337 -0.15145448 -0.0030898442 0.016972408
-0.02709597 -1.0289062 0.014542797 -0.05013107 0.066167265 -0.13748874 0.08552296 -0.023363715
0.103434876 0.10153949 0.22093785 0.37062585 0.09079404 -0.07834706 -0.46113867 -0.019348487
0.04824342 0.015512479 0.08628562 -0.027930046 -0.0022839732 -0.0454557 0.08532626 -0.060996044
-0.041859806 -0.06070008 -0.08664371 -0.05640936 -0.2238125 -0.0032635916 0.02367679 -0.06466057
-0.06257865 -0.03325731 -0.090237 -0.018357283 -0.05000069 -0.011529877 -0.08557815 0.041246332
-0.17701226 0.004360802 2.40537 1.0403764 -0.6587104 0.5344331 0.28823763 0.18344513
0.19756392 0.061110303 0.70925575 -0.81610256 -0.4215575 -0.59531754 -0.7687693 -0.5468982
-0.7636966 -0.45114282 -0.5633767 -0.3678057 -0.39367956 0.15473716 0.05774907 -0.23346636
-0.25381437 -0.1151652 0.32989666 0.23517248 0.24482986 -0.012676464 0.018149817 -0.046467632
-0.013311124 0.5171204 0.5852014 0.1800184 0.45356405 0.10072891 -0.66202503 -0.1052403
0.0044717127 0.65080607 -0.053159934 0.45162106 0.47519886 1.3372989 0.02644818 -0.08796655
1.374561 -0.088432156 0.3045489 0.011660628 0.024462797 0.002994593 0.092834264 -0.007592588
-0.04812217 -0.24923138 -0.10227417 0.3129683 0.032967497 -0.024867747 -0.060852524 0.0043354016
0.07935153 0.038746156 -0.08147111 -0.016148482 -0.038242225 0.009374274 0.008028017 -0.100935735
0.08452883 -0.07105707 0.097659975 0.07121046 0.052501198 -0.20913512 0.009159978 0.040218342
-0.027507504 0.070572585 0.043504212 0.057821248 -0.0015624738 0.08076847 -0.057956 0.032508582
-0.085859306 -0.21113624 -0.032795195 -2.1897452 -1.0071131 0.09522967 -0.14265965 0.28657916
0.057519484 -0.4402833 0.6601099 0.32623908 0.15651694 0.28592104 0.6945976 -0.4281755
0.06925833 0.19044033 0.19851068 -0.15468863 0.11890638 -0.2350467 -0.8115152 0.0046835025
-0.09778268 0.0025920668 -0.2358118 -0.24964449 -0.33478418 0.36679718 -0.6084003 0.32268602
-0.53882146 -0.39938203 0.29656774 -0.53780854 0.08010394 -0.40761593 0.08811936 -0.011639626
-0.054292977 0.050503336 -0.27371353 0.032423336 -0.215089 -0.19259575 -0.027208578 0.11372691
0.084069 -0.2513343 0.095216505 0.24157184 0.08533408 0.045207858 -0.047742862 0.3643038
-0.04725072 -0.05103424 -0.25738862 0.017648052 -0.4944591 -0.3090941 0.03383851 0.06518037
-0.4491704 -0.013704724 -0.010503681 0.016237352 0.01393939 -0.08816507 0.048873205 -0.043962326
-0.057210073 -0.09069322 0.003056826 -0.005409982 0.09335674 -0.051069986 -0.1593043 -0.05987251

gnn_list.0.nn.0.bias f4 [64]
00000000: 2089 9bbe c9b9 413d 767e 6b3e 00e0 b2bd
00000010: c272 0b3d bf1d 9a3c eed9 d23e e2c0 a13e
00000020: 58fd 7fbe 95c8 c3bd bf47 eabc b625 9c3c
00000030: 8c6d 0abf b0b4 3dbe 47ed 04be 2404 aabe
00000040: e6fd a43d 223b 173e 188f 16be 50bc e0bb
00000050: daa8 f0bd 9f6b 8abe 25d9 92be 81c2 9dbd
00000060: f56e dbbd a169 cd3d 8198 dd3d aedd 073c
00000070: 8ff6 84be bd2f 68be c7ec 36be 15c9 813e
00000080: 66aa bbbe 6a59 e8bd f55d 9ebe 560c 87be
00000090: 25ed ca3d cb96 f3bd ddd3 0abe 39ed 033f
000000a0: 8730 64bd 5181 f43d f89c 94bd ddf1 a73d
000000b0: 04d0 203e f039 c3be 2cce 273e 5657 54bd
000000c0: 01f2 18be 4000 89be 2fa7 9dbd 70f4 e6be
000000d0: f9f6 53bc a92f d1be 38b9 c9be eb09 05be
000000e0: 1894 e3bd 9339 203e fedf 413d 1795 a1be
000000f0: 4d72 94be 099d cdbd a830 913d 4603 e4be
-0.30378056 0.04729632 0.2299746 -0.08734131 0.03404499 0.018813012 0.41181892 0.3159247
-0.24998987 -0.09559742 -0.028598664 0.01906095 -0.54073405 -0.18525958 -0.12981139 -0.33206284
0.0805624 0.14768651 -0.14703023 -0.006858386 -0.11750956 -0.27035233 -0.28681293 -0.07703114
-0.10714523 0.10029913 0.108201034 0.008292599 -0.2596936 -0.2267446 -0.17863761 0.25348726
-0.3665344 -0.113451794 -0.3093106 -0.263766 0.09908513 -0.11893996 -0.13557382 0.5153385
-0.05571034 0.11938728 -0.07256502 0.08200429 0.15704352 -0.3813014 0.16387242 -0.051841103
-0.14936067 -0.26758003 -0.07697903 -0.45108366 -0.012937301 -0.40856674 -0.39399123 -0.12992065
-0.11112231 0.15646963 0.047332756 -0.3155906 -0.28993455 -0.10039718 0.070893586 -0.44533747

gnn_list.0.nn.2.weight f4 [64, 64]
00000000: fb86 6dbd 9d29 e9be 553d cfbd 306a 2f3e
00000010: cd3c 303e 7983 323e 3495 1dbf 46f9 a93d
00000020: ca0b 763e 28eb e3bd 161b a3bf 3ee8 c43c
00000030: 3197 7e3d 1a08 c93b 6230 3c3e 71c2 9abe
00000040: 83d0 a9bd 1fc9 4b3d c8da ac3e 1f9a c6be
00000050: b835 223d 25cc 3a3e ced3 e63c 4090 73be
00000060: 86c7 bebe e924 0dbe d7d7 13be 68f1 16bf
00000070: be17 03bf f477 6dbd 450e e0bd 5684 8c3e
00000080: ff3b 663e 36f9 d73d 537b 28be fb0f 7a3e
00000090: 437b 2f3e 43fb c63c 513c 3dbf f09e 25be
000000a0: 3389 39be c945 2e3e d19b aa3e 847a c53e
000000b0: 7e1d a8be 323b 00be 1743 743e 92d6 65be
000000c0: 7fbd e53d fe93 6d3e 61e5 4e3e 34f5 ff3e
000000d0: bc9a 4abf 5072 8ebe a96f afbe f180 67bd
000000e0: 4f7b 6abd 3ed4 6fbe b915 f33e d987 afbe
000000f0: b4d0 d5be 9b15 19bf 8bbe debd 83e2 b93e
00000100: 4308 213e cf7b 443f d827 1ebd 8829 8b3e
00000110: 3ead 9e3d 25bb 0bbb cf64 bbbd 9d27 e53d
00000120: dbd4 7c3e 02f1 163f 86c5 ff3d 8005 cb3c
00000130: 4039 17be 78fa c9bc a900 253e a274 9abe
00000140: 6875 e6be 0ab2 a73e 508b b03e e906 83be
00000150: f60b 433f ced6 273e cd95 99be bf76 a33d
00000160: 0f58 a33e fa4b bbbd 8a2a 9f3d c0a8 b93e
00000170: ac57 b6be 8f77 f1bd 4e8b 1cbe f6e0 413e
00000180: dad6 9f3e 5e16 f4bd 3277 fbbe 8e0e ca3e
00000190: 105c 0cbe e080 ee3c 4dc4 42be 5c29 b13d
000001a0: 0625 85bd 6961 c83e 971d 77bd ed92 e23e
000001b0: 941d fdbc 4677 ffbe 83a2 fc3e e232 f0bd
000001c0: 07ec 0e3e 14db fe3e b8c9 f53d 3b5a 1d3f
000001d0: 471c 193e e807 803e 92b1 d73e 80bd adbe
000001e0: cde2 bb3e 9b71 41bf fbdf 8d3e 2822 d6bd
000001f0: 0959 1f3d 5831 31bf a12c 8dbe 6a05 e53e
00000200: 7940 bc3b 1a5b 99be 9190 673e 5884 503e
00000210: 8d3f 26bf d1bc 77be 9e00 dcbe b692 34bf
00000220: 0f1f 633e b203 ef3a 6d61 cf3d 7d53 af3e
00000230: 4ac3 08bd ffff fe3c db6d 0d3e e098 aebe
00000240: d3a5 f9bc 943a f3be 1328 a03d abb1 473e
00000250: fb93 cabd 41b1 4ebe edf2 183d 1882 d53e
00000260: d8c2 ccbe 326d d4bd 6214 023e 1259 843e
00000270: cd5e 46be cb55 1cbf 3092 21bc 0ed9 e23b
00000280: 7e0e 4cbf 54da 06bf 1f9e 19be 5885 9c3e
00000290: 64b7 5e3d 12d9 9dbe 08d3 683e 4742 dd3c
000002a0: 37a6 2cbf 0f84 b93d 5d42 7f3d 07cf 0bbf
000002b0: 3838 2ebf f1c0 a6bd f1f1 03bf 4c58 7a3e
000002c0: 1963 39be e0b3 e83d c940 41bf 6d43 dfbe
000002d0: 1af2 42be 5a42 b4be 18aa 17bd 4328 0ebe
000002e0: b60e 29be 441c f7be feee 073e a893 bbbd
000002f0: 72f8 3fbe ff68 abbd 44a6 a83e 4140 1cbf
00000300: ccbb c83d f965 63be 9a8e 2a3e e15c 22be
00000310: 4974 50be 575e d1be ef5f 9ebe bd4c d13e
00000320: 55c3 3e3e f86c 543d ba4e c23d 7b09 d0be
00000330: 3396 483e 3430 25be 442e 9f3e ccdc 2c3c
00000340: f3f7 353d a920 c0be d47c 8f3e 083b 783e
00000350: dfd5 9ebe 9954 11bf 7ecb 5a3e 868b 073e
00000360: 99ab d33e 8a9a 46be ae0d f53c d682 51be
00000370: 974d 23be 45de 12bf 2d94 8abe aae2 a2be
00000380: 6239 89bf 9b8e f13d 7c60 bbbe 5fd8 d33e
00000390: c2c4 51bd 0ded 24be 520a c53e 7863 9cbe
000003a0: 07e4 28be 4130 1d3f 0b6b 9dbe b3fb 11bf
000003b0: cc94 21bf 7377 5f3e e63c d1be 8d5a 2ebe
000003c0: 1a59 1cbd 805e 0cbe 546a 8dbe fdda a8be
000003d0: 9ed7 0a3e 5daf dbbe 8a47 673e 4c40 30be
000003e0: 7ee1 c83e 83c1 c23e 01bf f4be 6be2 c6bd
000003f0: b9db 5d3e 024b 55bd 29c9 3d3e 9a36 10be
-0.057990056 -0.4553956 -0.1011912 0.17130351 0.17210694 0.17432965 -0.6155579 0.08299498
0.24027935 -0.11128837 -1.2742641 0.024036523 0.062155906 0.006134999 0.18377832 -0.30226472
-0.082917236 0.04975235 0.33760667 -0.3878946 0.03960201 0.18241937 0.028177168 -0.23785496
-0.372616 -0.13783611 -0.14437805 -0.58962107 -0.512081 -0.057975724 -0.10940222 0.27444714
0.22483824 0.1054558 -0.16453294 0.24420159 0.17136864 0.024289733 -0.7392016 -0.16173911
-0.18118744 0.17018808 0.33322003 0.38570035 -0.32835 -0.12522581 0.23853718 -0.22445133
0.11217784 0.23200986 0.20204689 0.49991763 -0.79142356 -0.2782159 -0.34264877 -0.056519452
-0.057246502 -0.23420808 0.4747751 -0.3428333 -0.4176079 -0.5979859 -0.10876187 0.36305627
0.15725808 0.76751417 -0.038612217 0.27180123 0.07747887 -0.0021321264 -0.09150087 0.11189196
0.24690573 0.589615 0.124888465 0.024782896 -0.14767933 -0.024655566 0.16113533 -0.3016711
-0.4501145 0.3275302 0.34481287 -0.2559121 0.76190126 0.16390535 -0.299971 0.079816334
0.3190312 -0.09145351 0.077717856 0.3626156 -0.35613763 -0.11790382 -0.15287516 0.18933472
0.31218606 -0.11918329 -0.49114376 0.3946423 -0.13706994 0.029114187 -0.19020195 0.08650467
-0.06501202 0.39136818 -0.060330953 0.4425272 -0.030897893 -0.49895686 0.49342737 -0.11728455
0.13957225 0.49776518 0.120013654 0.61465806 0.14952193 0.25006032 0.42127663 -0.3393364
0.36696473 -0.75563973 0.27709946 -0.104557335 0.03890327 -0.6921592 -0.27573112 0.44730693
0.0057449904 -0.29952317 0.22613741 0.20362985 -0.6494072 -0.24193121 -0.4296922 -0.70536363
0.22179817 0.0018235354 0.10126004 0.34243384 -0.033389367 0.031127928 0.13811438 -0.3410101
-0.030474579 -0.4750563 0.078201436 0.19501369 -0.09891506 -0.20184804 0.037341047 0.41700816
-0.39992404 -0.1037239 0.12703088 0.25849205 -0.19372101 -0.6106841 -0.009861514 0.0069228476
-0.79709613 -0.5267689 -0.15001725 0.30570483 0.054374114 -0.30829674 0.22736752 0.027009143
-0.67441124 0.09058391 0.06231915 -0.54612774 -0.68054533 -0.081422694 -0.5154105 0.24447745
-0.18104209 0.113624334 -0.7548948 -0.4360613 -0.19037667 -0.35206872 -0.03702745 -0.13882546
-0.16509518 -0.48263752 0.13274762 -0.091590226 -0.18747118 -0.08369636 0.3293935 -0.61035544
0.098014444 -0.22206868 0.1665596 -0.15855743 -0.2035686 -0.40892288 -0.30932567 0.4087886
0.18629201 0.051861733 0.09487672 -0.40632233 0.19588546 -0.1613167 0.31089985 0.010550689
0.044425916 -0.37524918 0.28024924 0.24241269 -0.31022546 -0.5676971 0.21366689 0.13236818
0.41341856 -0.1939489 0.02991375 -0.20460066 -0.15947567 -0.57370406 -0.27066174 -0.31813556
-1.0720637 0.11794778 -0.3659705 0.41376016 -0.051213033 -0.16106053 0.38484436 -0.3054464
-0.16493236 0.61401755 -0.3074573 -0.5702469 -0.6311767 0.2182291 -0.40866774 -0.1702673
-0.03817091 -0.13707924 -0.27620184 -0.32979575 0.13558814 -0.4290723 0.22585884 -0.17212027
0.39234537 0.38038263 -0.47801974 -0.097111546 0.21665849 -0.052073486 0.18533768 -0.14083329

gnn_list.0.nn.2.bias f4 [64]
00000000: 7536 1a3e 706b dfbd 8463 f53c 22e2 963d
00000010: 409e 8e3b 4be9 31bc f8d9 50bd 2d0a b63d
00000020: 57a3 28bc 6223 f3bd f91a 223e 5fc5 d2bd
00000030: 7a8b 31bd f246 f83d 7f55 ea3d 3ce8 9cbd
00000040: 66b1 7a3c ad85 a8bd a44a 8ebc fec3 54bd
00000050: f4fd 0dbe 28ce 723d e901 913b 0053 aebc
00000060: f20e 3d3e e268 213d 0fca c13d b164 19bd
00000070: da4a 9ebd 57e7 253d fac3 5d3c 45d6 46be
00000080: e213 debd 79cf ec3d 1450 01bd 39c5 60be
00000090: d167 fc3c 7c33 1d3c c3f1 253d c1ce 8cbd
000000a0: ee7d 033e cc75 e33d edfc 533c 6d39 2ebc
000000b0: 05ff 863d 384d 523e 8360 253e bfd2 643d
000000c0: 0122 ba3c a699 153e c022 1d3e 2ceb dd3d
000000d0: ab4f 62bd af12 59bd 2239 dabc 8269 b53d
000000e0: cbb1 2a3d f04f 7a3e d7f8 a5bd 2bd9 773d
000000f0: 8f6f 233e ea59 ea3d ec2d 483d adaa 64be
0.15059836 -0.10909164 0.02995468 0.0736735 0.004352361 -0.010858844 -0.05098912 0.088886596
-0.0102928495 -0.11871983 0.15830602 -0.10291552 -0.043345906 0.12122907 0.11442088 -0.07661483
0.015301084 -0.08228622 -0.017369576 -0.051944725 -0.13866407 0.059278637 0.0044252765 -0.021279812
0.18462732 0.039406665 0.09462368 -0.037449542 -0.077291206 0.040503826 0.013535494 -0.19417675
-0.10843636 0.1156301 -0.03157051 -0.21950234 0.030811222 0.009594794 0.040513765 -0.06875373
0.12841007 0.11106452 0.01293872 -0.010633809 0.0659161 0.20537269 0.16150098 0.055865046
0.022721292 0.14609393 0.15345287 0.10835871 -0.05525176 -0.052996334 -0.026638571 0.08858015
0.041673463 0.24444556 -0.08104103 0.060509842 0.15960525 0.11442931 0.04887192 -0.22330733

gnn_list.0.nn.3.weight f4 [64]
00000000: 6417 ab3e bbfd 353f 4cee f03e 6264 bb3e
00000010: 9e00 923e fa1b 0b3f a614 063f d542 a93e
00000020: dbe2 b53e a59e cc3e eaa2 a53e b1c0 a33e
00000030: dbb7 f43e 7d97 c73e 8629 bf3e 00de 053f
00000040: 160b b03e 0f0d 8d3e 8f23 cc3e 9b88 8f3e
00000050: fbf0 ae3e cca3 cf3e 36a3 0e3f bc58 de3e
00000060: 78ff 653e 05b8 aa3e 0c30 e13e 47b9 903e
00000070: b77c 363e 2585 f93e fcd7 033f ca6e f03e
00000080: 93d3 7c3e f397 c53e dad4 d33e b6a3 b13e
00000090: 202d 923e bcae c93e be96 a63e eadd 063f
000000a0: 3218 c23e 40c9 fb3e 34bd e13e 3e9c 8d3e
000000b0: ba3f 0c3f 9629 063f 511b e63e 529e b83e
000000c0: d46d 6c3e 6607 f63e 581a 663e 8baf ea3e
000000d0: e8a9 b33e 6b7b d73e 82f1 f63e a3a3 f33e
000000e0: f327 bf3e 9317 923e 94b5 7d3e 61cd cc3e
000000f0: 6163 013f 20ab 013e 8527 bf3e 5c6b cf3e
0.33416283 0.71090287 0.47056806 0.36600024 0.28516096 0.54339564 0.52375257 0.330588
0.3552464 0.39964786 0.32350856 0.3198295 0.4779652 0.38982764 0.37336367 0.5229187
0.34383458 0.27549025 0.3987088 0.2803391 0.34168229 0.40554655 0.5571779 0.43427074
0.22460735 0.3334352 0.4398197 0.28266355 0.17821012 0.48734394 0.5150144 0.46959525
0.24690084 0.3859249 0.4137333 0.34695214 0.28550053 0.39391124 0.32536882 0.52682364
0.37909085 0.4917698 0.44089663 0.27658266 0.5478474 0.52407205 0.44942716 0.3605829
0.23088771 0.4805252 0.22470987 0.45837054 0.35090566 0.42086348 0.4823113 0.47585782
0.37335166 0.2853361 0.24776298 0.40000442 0.50542265 0.12662935 0.37334839 0.40511596

gnn_list.0.nn.3.bias f4 [64]
00000000: db62 e7bd 6aee 8cbe e32b a5be cc3b 3ebe
00000010: a044 ea3d d18c a9be aa07 97be 7989 94be
00000020: 390e 4ebe 3652 94be 5d7d 48bd 1c04 21bc
00000030: d2fc 81be 1979 e3be 7b76 34be 985f 9bbe
00000040: 1c7e 9ebe 53e3 23bc 1c72 6cbe 42de 47be
00000050: 2ea6 d6be 3e0f 28bf bd0c d4be aa1b 05be
00000060: 320c 9ebb 5c11 c0be a86f 1ebe d930 8bbd
00000070: e62e 12bd db77 31be 03c9 72be 7ad7 2abf
00000080: 7ad9 fdbc 227f b3bc 72cc 6fbd 9908 913d
00000090: 890e e5be b18a cfbd 79f2 213e 50df 92be
000000a0: fd40 713d ec89 f3be f612 7bbe a7ea 8a3d
000000b0: 11ba 9abe 4a7d c4be 790a 99be a075 91bd
000000c0: d1a8 953c 2b39 9abe 82c2 8c3c 7512 acbe
000000d0: 61f3 07be cdc2 babe 86eb abbe 3b92 02bf
000000e0: a759 06bf 4901 07be e0ad 31bd 376c 7fbe
000000f0: 821b a2be 77e3 c43d 3876 393d 86d3 05bf
-0.11298152 -0.27525645 -0.32260045 -0.18577498 0.114388704 -0.33115247 -0.29498035 -0.29011133
-0.20122613 -0.28968972 -0.04894768 -0.00982764 -0.253882 -0.44428328 -0.17623322 -0.3034637
-0.3095559 -0.010002929 -0.23090404 -0.19518378 -0.4192366 -0.6564826 -0.4141597 -0.12998834
-0.004823231 -0.37513244 -0.15472281 -0.06796426 -0.035689257 -0.17330877 -0.23709492 -0.6673504
-0.03098749 -0.021911208 -0.058544584 0.07081718 -0.44737652 -0.10133875 0.15815152 -0.28686
0.05889987 -0.47566164 -0.24518952 0.06783038 -0.30220082 -0.38376838 -0.29890803 -0.07102513
0.018268974 -0.3012174 0.017182592 -0.33607832 -0.13276435 -0.36476746 -0.33578128 -0.5100438
-0.5248055 -0.13184084 -0.04337871 -0.24943624 -0.31661612 0.09613698 0.045278758 -0.52275884

gnn_list.0.nn.3.running_mean f4 [64]
00000000: d778 cbc0 dd04 8e40 9908 09c1 9b19 9ac0
00000010: d474 9840 7775 9bc0 cdab 813f ea78 2bc1
00000020: c3a2 49c1 962f 05c1 fab8 03be 3d19 3540
00000030: e6e3 3bc1 7311 6040 7127 22be 140e 7340
00000040: f184 983f 6244 b540 a628 5fc0 f8c8 e0c0
00000050: 01ee 3840 34c5 b740 a4b9 2dc0 5a0c 9cc0
00000060: 01b0 b8c0 7555 cc40 4c14 bc40 c521 93c0
00000070: a875 1ac1 c483 abc0 c630 0cc1 f70d 2341
00000080: afb9 dbc0 d4ea 9d40 91fe 0ac1 48a7 45c1
00000090: cfcc 67c0 4df2 2dc1 dc86 afbf 23c2 bf3f
000000a0: fcf9 8140 099c c240 b95c 02bf 24e7 e6c0
000000b0: 2e96 34c1 3416 aec0 9075 0ac1 d566 c2c0
000000c0: e66b 3cbf 5774 a3c0 98c2 a640 fd0d 41c1
000000d0: dd56 4fc1 0902 28c1 7397 dc40 353c 10c1
000000e0: d9e6 6d40 7a84 bfc0 31dd c5c0 8edf 3ec1
000000f0: d4f7 d1c0 f830 9ac0 93a6 1fc1 eac6 8940
-6.358501 4.4380937 -8.564599 -4.8156257 4.7642612 -4.858089 1.0130554 -10.71702
-12.602237 -8.324118 -0.12863532 2.8296654 -11.743139 3.501065 -0.15835358 3.7977343
1.191557 5.6645975 -3.486856 -7.0245323 2.8895266 5.7428226 -2.7144556 -4.8765078
-5.771485 6.385432 5.8774776 -4.5978723 -9.653725 -5.3598347 -8.761908 10.190909
-6.8664165 4.9349155 -8.68715 -12.35334 -3.6218755 -10.871655 -1.3713031 1.4981121
4.0617657 6.0815473 -0.50922734 -7.2157154 -11.286665 -5.4402103 -8.653702 -6.0750527
-0.7360214 -5.1079516 5.211254 -12.065915 -12.958707 -10.500497 6.8934875 -9.014699
3.7172148 -5.9849215 -6.183251 -11.929579 -6.5615025 -4.8184776 -9.978168 4.3055315

gnn_list.0.nn.3.running_var f4 [64]
00000000: 42bc 7342 b604 5b42 72df 3842 aaee 3142
00000010: 3ba2 7242 a955 4842 0aa2 4e42 e46c 4442
00000020: a727 8642 0f80 3a42 0ef3 b542 1244 a542
00000030: 1b1b 5f42 30df 4b42 ddd8 8442 69fd 3242
00000040: d55a 3742 035b 5242 8da5 5042 c68a cc42
00000050: 69e8 3042 ccff 2e42 fa2b a342 4039 3e42
00000060: fea7 8842 7758 fd41 877b 2242 ebea 5f42
00000070: 8390 7842 cde5 6c42 ee90 b642 1862 4b42
00000080: ac2c 6942 06e3 4142 8491 5142 7e36 4442
00000090: 7d37 6542 8c29 3542 c071 7f42 38dc 7b42
000000a0: c7fb 5d42 d995 7f42 934c a942 94df 4142
000000b0: 0cd4 2442 6915 1042 ac99 4c42 4e5a 4042
000000c0: 4dd4 4a42 ed73 7442 61ce 9f42 9ffd 3c42
000000d0: e213 5542 beff 5d42 0341 7542 c54d cb41
000000e0: 6d8e 8d42 ed87 c242 12b7 0942 1203 3042
000000f0: d783 8f42 caba 5f42 351c 6042 6bec 2a42
60.933846 54.7546 46.21821 44.48307 60.65843 50.083652 51.65824 49.10634
67.077446 46.625057 90.97472 82.63295 55.77647 50.967957 66.42356 44.74747
45.838703 52.58888 52.16167 102.27104 44.226963 43.7498 81.58589 47.55591
68.32811 31.668196 40.620632 55.979412 62.141125 59.224415 91.283066 50.845795
58.293625 48.471703 52.392105 49.053215 57.304188 45.290573 63.861084 62.965057
55.495876 63.896336 84.64956 48.468338 41.207077 36.02091 51.15007 48.08819
50.707325 61.11321 79.90308 47.247677 53.269417 55.49975 61.313488 25.412973
70.778175 97.26548 34.42878 44.003 71.7575 55.93241 56.027546 42.730877

gnn_list.1.nn.0.weight f4 [32, 64]
00000000: d990 26be f1dc 40be 6f5e 82bd 090d 8bbd
00000010: 1f4d 3dbc 9844 053d 7db8 0c3d 6c43 68be
00000020: 8f5d 42be 6f6a 34be ddba 20be 63d0 05bd
00000030: 4f00 cdbd 0bed d0bd 7ec7 2abe 3eab 033d
00000040: 5813 303d 06e0 d0bd 2f3b 96bc 6919 4dbc
00000050: 820e 16bd 0f6d 5bbd d6bd ffbd b2be f93c
00000060: 11c3 c63c a30e 81bd 8916 2c3d c870 31be
00000070: cb81 80bd af0c 5b3d 004a a2bd 6851 0bbe
00000080: a85b 3bb8 40fe 18be 3611 d1bd 31df 9e3c
00000090: f5c1 ad3b fcd1 9c3d e15c e0bd 2c33 20be
000000a0: 1f31 3cbd ac1e 543d 06d6 05be 6bf9 4dbb
000000b0: 772f 30be ee9a 30be fa6c d0bc 0944 77bc
000000c0: 9a8c 27bd 318e 223d cef1 dcbd 15fa de3c
000000d0: b919 d2bc 6bd6 59bc abfa 16be 692a 1abd
000000e0: 858d 2abe 8d6a 153d 4382 f4bd b552 f6bd
000000f0: 95bb 2ebd 776a 5bbd 24ff 22be 95e7 85bd
00000100: e761 f83e f0f3 883d 4e23 a7be 0943 b0bd
00000110: 1e89 ad3e da16 2a3d a2d3 8cbe 7d98 d73e
00000120: ffe3 39bf 8488 2d3e f42e 5a3e 3bab f8bb
00000130: b101 c83d b2a6 e4bd 237c db3e db90 91bd
00000140: 8d3c b4bd fe4a bdbc 800c 203f cdcb 8f3e
00000150: edad 72be e9d9 0fbe 4e29 b33e 3c9d 3c3d
00000160: 7489 533e 0a2d 30bd ebc9 0e3e 6d9d d43e
00000170: 1148 2bbf 2baa ecba 3a2d a43e 882b a4be
00000180: 47f4 8cbe 4dec a83d e1a6 063f 02c1 873d
00000190: 5373 d8be 036b b4bd 307a 533d 54ff 5c3e
000001a0: 6e2e e4be 8ec7 e9be 6b66 733f c239 a33e
000001b0: d066 3e3e 5d89 e63e cd63 563e e8ef 903e
000001c0: f2b8 b8be 50a3 a93e dfc4 5f3e 8737 9cbe
000001d0: a79b 6c3e 21d2 843c 7cfe 95bd b748 0ebf
000001e0: 46ec 88bd 5515 e13e 66ea 233e d213 21be
000001f0: 75b5 39bf d80b 15bf 3325 a03d ab86 473e
00000200: bf6e 013f ef2a f6bd f081 db3e e3a0 debe
00000210: dbf8 473e 8a4c 62bd 133c 023f 999e 1b3d
00000220: 1e2c 043f c133 0c3e 57ad 2d3e 7b64 093f
00000230: 0524 b9bd 95de a93e 17ec 86bd a95e 85be
00000240: ca97 24be cb7e 95bd 9c15 b3be 32b1 b23d
00000250: 589b c03d 4bb4 753e cd0f ecbe 3391 cc3e
00000260: 9800 243e 3b65 c93e 8d77 19be c15e b7be
00000270: d07b db3e 94d3 8e3a 7bd8 883e bba0 e53c
00000280: c78b d63e b79f 523e 9d74 6bbe 85ca e6be
00000290: ce62 3a3e f8a3 57bf 60b3 1e3e 370a 143e
000002a0: f871 b63d 9f06 7cbe 5f4f 533e 1cd5 103e
000002b0: d408 12bf be81 acbe 57a4 0abe bb42 1ebf
000002c0: ffc3 1dbe 8cda 31bc bd9b 953e 0e69 3fbe
000002d0: fead dbbd 8f54 64be d15b b13d cf36 173e
000002e0: c358 28be b4ed c43d 291d 053f 06de 963e
000002f0: 911e 113f f9e9 d23e 0887 77be e7a8 90be
00000300: a3ce 7e3e f8f0 003f fad3 dabe 30de cc3e
00000310: 65c1 60bf 4c62 173f 07af a1be e8c1 733e
00000320: 2830 19bd 6766 06bd f9d2 85be c801 05bd
00000330: 2df0 9d3e 0e73 7c3e 7d8a 0c3e 4afe 5cbe
00000340: 58c7 cb3d e59a d63d 33ff 79be 2378 dabe
00000350: 6db9 a43e 294c a43d 7c5a 13be af5f 6fbf
00000360: dd9c 15bc 25d8 a9be b1fb 9e3e bcf8 c93e
00000370: 27a9 0cbe 0297 c83c 209b 56be dcc4 6c3e
00000380: 1b64 34bd 56a0 fcbd 53d6 a43e 94b5 813d
00000390: 5e60 b2be a7bc 86be 59e3 1f3e 0b29 c4be
000003a0: ac2e 223e 65e8 2bbe 3c60 2fbd ed34 a63e
000003b0: da63 dd3e a2ab aabe c7c9 753e f828 083f
000003c0: 1adc 2a3e df87 5b3f e29a 0dbf df38 0e3f
000003d0: 6c68 e13d 599f ce3e 4441 8cbe c01e 983e
000003e0: f7af d93e f1fa a23e 04d3 cebd 3f86 033f
000003f0: 1af6 bbbd dd7c b3bc a3ce 9abe fb56 933e
-0.16266192 -0.18834282 -0.06365668 -0.06789596 -0.011554032 0.03253612 0.03435563 -0.2268197
-0.18981002 -0.17618726 -0.15696283 -0.032669436 -0.100098245 -0.10201462 -0.16677663 0.03214573
0.042987198 -0.10198979 -0.018338768 -0.012518265 -0.03663493 -0.053570803 -0.1248738 0.030486438
0.024262937 -0.0630162 0.04201368 -0.17328179 -0.06274756 0.053478893 -0.07924271 -0.13605273
-4.4669636e-05 -0.14940739 -0.10208361 0.019393535 0.0053026625 0.07657239 -0.10955215 -0.1564452
-0.045945283 0.051787063 -0.13069925 -0.0031429182 -0.17205606 -0.17246601 -0.02544259 -0.015091904
-0.040905572 0.039686386 -0.10788308 0.027218858 -0.025647031 -0.01329575 -0.1474406 -0.0376381
-0.16655548 0.036478568 -0.11938908 -0.12027494 -0.04265936 -0.05356833 -0.15917641 -0.065383114
0.48512194 0.066871524 -0.32644123 -0.08606536 0.33893675 0.0415257 -0.27505213 0.42108527
-0.7261352 0.16946608 0.21306974 -0.0075887716 0.097659476 -0.11164607 0.42868146 -0.07107707
-0.08800612 -0.023107048 0.62519073 0.28085175 -0.2369916 -0.1404797 0.3499245 0.046048388
0.20657903 -0.043011703 0.13944213 0.41526356 -0.6690684 -0.0018056085 0.32065755 -0.32064462
-0.2753012 0.08248196 0.52598387 0.0662861 -0.42275485 -0.08809473 0.0516302 0.21581775
-0.44566673 -0.4566006 0.9507815 0.31880003 0.18593907 0.45026675 0.20936508 0.28308034
-0.36078602 0.3313241 0.21852444 -0.30511114 0.23106252 0.016213479 -0.0732393 -0.55579704
-0.066856906 0.43961588 0.16007385 -0.15730217 -0.72542506 -0.582212 0.07819595 0.19484966
0.5055961 -0.12019908 0.42872572 -0.43482122 0.19528525 -0.055248775 0.50872916 0.037993047
0.5162982 0.13691618 0.16960655 0.53668946 -0.09040073 0.3317763 -0.06587999 -0.26048782
-0.16073528 -0.072995745 -0.34977424 0.087252036 0.094046295 0.23994558 -0.46105805 0.39954528
0.16015851 0.39335045 -0.14987011 -0.3581448 0.428679 0.0010896795 0.26727661 0.028030744
0.41903517 0.20568739 -0.22993703 -0.45076385 0.18201753 -0.8423457 0.15498114 0.14457022
0.089084566 -0.24611901 0.20635746 0.14143795 -0.5704472 -0.33692735 -0.13539253 -0.6182057
-0.15406798 -0.010855328 0.2922038 -0.18692419 -0.10726546 -0.22297882 0.08660091 0.14767002
-0.1644011 0.09615651 0.5199762 0.29466265 0.56687266 0.41194132 -0.24172604 -0.28253862
0.24883513 0.5036769 -0.4273985 0.40013266 -0.87795097 0.59134364 -0.31578848 0.23804438
-0.03739944 -0.032812502 -0.26137522 -0.0324724 0.30847302 0.24653265 0.13724704 -0.21581379
0.09950131 0.104787625 -0.24413757 -0.42669782 0.3217272 0.08022339 -0.14389986 -0.93505377
-0.009131637 -0.33172718 0.310514 0.39447582 -0.13736401 0.024486069 -0.20957613 0.23121971
-0.04404078 -0.12335269 0.32194766 0.063334614 -0.34839147 -0.26315805 0.1561407 -0.38312563
0.15838116 -0.1678787 -0.042816386 0.32462254 0.43240243 -0.3333407 0.24002753 0.53187513
0.16685525 0.857542 -0.5531446 0.5555553 0.11006245 0.40355948 -0.27393544 0.2971096
0.42517063 0.31832078 -0.10098842 0.5137672 -0.091777995 -0.021910125 -0.30235776 0.28777298

gnn_list.1.nn.0.bias f4 [32]
00000000: f550 28be 3b36 aa3d 7e2e a0bb f769 26bf
00000010: 5e78 013e 6638 28be 1e1b 25bd b175 9b3d
00000020: 7704 443e c9dc 1d3f a438 50bd 76f9 043f
00000030: f84c b2bd b10b 483f 255a 253e f64e 963e
00000040: 0729 91bd 7895 aebd 87ad 0dbf 1ce6 05be
00000050: 9ea2 113e 075c 5c3f 03bf d9bd 2622 08bc
00000060: 3e6c 88be e75c f2be b18e b8be 5229 443e
00000070: 23dd 4f3e c899 33be 6afc 893c 5779 c6be
-0.16437133 0.08311125 -0.004888355 -0.6500544 0.12643573 -0.16427764 -0.040309064 0.07590807
0.19142328 0.61665016 -0.050835267 0.5194315 -0.08706087 0.7814284 0.16147669 0.29357117
-0.070879035 -0.08524603 -0.55342907 -0.13076061 0.1422219 0.8607792 -0.10632136 -0.008308923
-0.26645082 -0.47336504 -0.36046365 0.19156387 0.202992 -0.17539132 0.016843993 -0.3876445

gnn_list.1.nn.2.weight f4 [32, 32]
00000000: 1d77 923d 4f77 f3bd fd6e 19bf d55b b63d
00000010: 190a ea3d 1ebb 183b 8ce1 48be 8ee8 74be
00000020: 5344 0cbe 314c 293e c581 cc3e 4246 e33e
00000030: 55e5 143f 4d0f c0be c136 bdbe f378 d6bd
00000040: fd8c 1fbe cec1 e33d d0af b6be d1f1 14be
00000050: 9c4f 183e a355 0fbf 28d5 f13d d3d9 d5be
00000060: cdd8 033f 0c25 9f3c 3e8b e1be 0c15 ab3e
00000070: ca91 f9bd 2da8 90be 7d93 52be bff3 753e
00000080: ee81 38be 03c3 89bd 1cbd 51be ce19 1d3e
00000090: 7ef1 e23d 2e07 833d 7fdc 20be 0c70 6dbe
000000a0: c429 0abe f0cb 35be 74a6 d93e 057a 1c3e
000000b0: b081 7ebd daf3 9ebe e3b5 163e 0ba0 43be
000000c0: 934f 26bd 1dee 0abe bdc1 a8be 7f7e 1d3b
000000d0: 63bb a83d 023c 0e3e 2173 cc3d efcb 04be
000000e0: f1f9 58bd 5c45 853e 4fab 2dbe d426 373e
000000f0: 74e8 eb3d a061 763c 94f5 873e e291 d13e
00000100: 966b 52bc f392 f1bd d222 a1bd 62e5 cbbe
00000110: 47ab 93be a1c3 d43d 0d17 2ebe 13a2 47bd
00000120: 6138 a73e c6ce 09be d9a8 35bf 2782 033c
00000130: dbc2 183d d86c f3bd ec7e 1c3f 25d5 a5bd
00000140: 54eb 32be ad33 cf3e 8034 d1be 037b c53d
00000150: 7796 cf3e fde6 9a3f 6b23 6f3d b653 b3bd
00000160: ff06 6c3e 70f4 aabd a767 e7be e03e 90be
00000170: f549 87bf 24ae a5be 6ad2 343e 4317 343e
00000180: 9f2a 343c e307 623e 97ee 3abc 1c50 f5be
00000190: d5ca 333f 01f0 b6bc cefe 153e 8722 923d
000001a0: 39da 3f3e 4b20 ba3e 6225 29be 409f 94be
000001b0: 6472 03be 3897 6d3c 91c2 4abf 3859 f73e
000001c0: a98a 133d f345 febe 86af ab3d a848 d3bc
000001d0: e88d 213d 3139 2abf daf6 893e 40df 98be
000001e0: 3b0e 773d 2292 a6be 0351 6f3f bc22 ba3e
000001f0: 5dde 5cbe 11b0 b13e 8947 52be 676c a6be
00000200: a0df 22be 4ada 13bf 16b3 efbd 68e2 2dbc
00000210: b8e9 0cbf 0404 2e3d 74e7 d8bd 565c c6bd
00000220: 6a66 1d3e 4642 acbd 827b da3c 31c5 13be
00000230: eb53 1dbd f754 ffbc 01cb e73e 7529 4ebf
00000240: a6a4 0dbd c286 983e e5c5 6cbe 2f7e c73d
00000250: a9e7 3a3e 4abe 823e fe59 d2bd f9dc edbd
00000260: 71ed 963e 3dc9 fa3c 01fb 8dbc 055f c6be
00000270: a092 51bf bcfa cc3d b775 b7bf 7361 95bd
00000280: 1890 01bd 181e 47be e438 0fbe 5a04 8b3e
00000290: 1449 383e 08c9 933d 40d6 acbe 92d4 dabe
000002a0: 0ca7 323e a208 b1bd ab5b 8f3e 4956 ff3d
000002b0: 3b08 173e c5e1 40be b238 1cbd 4b5c a5be
000002c0: 11b5 843e 41ef 53be 19b1 b6be b660 ea3d
000002d0: 7dd7 4fbd 2519 603e dc70 023d 1212 183d
000002e0: d5be cfbe e67c 213e a2ba 8bbe 36b1 b53d
000002f0: a144 32be 058d 9bbe 5eb4 c83e 4b15 af3d
00000300: 6c19 603c 80ec edbe aab3 dd3e 3c73 d93c
00000310: d380 6f3d fe19 0ebe 5f5f 98bd 2479 b0be
00000320: ddf6 a33e af6e a3bd eef3 c83e 04ed 263e
00000330: 5580 5c3d 9567 af3d 9e3a 8ebd 3860 b4be
00000340: c747 963e 60d5 633d e9cf 15be b77f 28be
00000350: fa98 6abc d386 15bf b066 74bd 4d98 133f
00000360: f82c eebe aa18 173e 578b 9abe 0ac7 a73d
00000370: 42fa 913c b3b9 6cbe c29f bfbe e168 70be
00000380: 0ef5 293e 663c b8be 627c 163e f390 c13e
00000390: db48 4b3f 7626 953d 93e5 163f fc09 8ebc
000003a0: ada8 b3bc 4dcb 9f3e cdef 843e 1e20 953e
000003b0: 2660 01bf 62a2 b83e fc3d 5cbe 6b34 b03e
000003c0: c987 67bc fe60 c23e 7c90 2cbe 3721 ffbc
000003d0: f7f7 153f 274b 4f3d ae78 0e3c 677f 453e
000003e0: 33d2 bc3c 25d4 52bc 6c08 623e 4413 aa3e
000003f0: 38b7 273e 0ca7 f03d 613a a93e d3ff 2e3e
0.07151625 -0.11887991 -0.5993498 0.08904234 0.11427707 0.002330489 -0.1961729 -0.23916838
-0.13697939 0.16532971 0.39942756 0.4438954 0.5816243 -0.37511674 -0.36955836 -0.10472288
-0.15581127 0.1112095 -0.3568101 -0.1454537 0.14874119 -0.55990046 0.118082345 -0.4176775
0.51502687 0.019426845 -0.44051546 0.33414495 -0.1218601 -0.28253308 -0.20564075 0.24018763
-0.18018314 -0.06726649 -0.20482296 0.15341875 0.11081217 0.06397854 -0.15709113 -0.23187274
-0.13492495 -0.17753577 0.42509806 0.15280922 -0.0621354 -0.3104542 0.14717822 -0.1910402
-0.04060323 -0.13567396 -0.3296031 0.0024031696 0.08238866 0.13890079 0.099828966 -0.1296842
-0.052972738 0.2602948 -0.1695988 0.17885906 0.11518946 0.015037924 0.2655455 0.40931612
-0.012843033 -0.117956065 -0.078679696 -0.39823443 -0.28841612 0.10388876 -0.1700098 -0.04873855
0.326602 -0.13457784 -0.70960766 0.008026636 0.037295204 -0.11885995 0.6113117 -0.08097295
-0.17472583 0.40469113 -0.40860367 0.09642603 0.40544483 1.2101742 0.058383387 -0.08756201
0.23049544 -0.08347404 -0.45196268 -0.2817297 -1.0569445 -0.3235942 0.17658392 0.17586999
0.01099649 0.22073321 -0.011409423 -0.4791268 0.7023137 -0.02233124 0.14647982 0.07135492
0.18735589 0.36352763 -0.16518167 -0.29027748 -0.12836605 0.014501385 -0.79203135 0.48310256
0.03602091 -0.49662742 0.08383088 -0.025791481 0.039441973 -0.6649352 0.26946145 -0.29857826
0.060316306 -0.32533365 0.9348299 0.36354625 -0.215692 0.3470464 -0.20535101 -0.3250458
-0.15905619 -0.5775496 -0.1170408 -0.0106130615 -0.55044127 0.0424843 -0.10591021 -0.096855804
0.15371099 -0.08411078 0.026670221 -0.14430691 -0.03841011 -0.031168444 0.45272067 -0.8053201
-0.03458085 0.29790312 -0.23122366 0.097408645 0.18252434 0.25535804 -0.10271071 -0.11614413
0.29478028 0.030613536 -0.017331602 -0.3874437 -0.81864357 0.10008761 -1.4332799 -0.072939776
-0.03163156 -0.19445074 -0.13986546 0.27151757 0.17996627 0.07216078 -0.3375721 -0.42740303
0.17446536 -0.08644225 0.27999625 0.124676295 0.14749233 -0.18836124 -0.038140006 -0.32296976
0.25919393 -0.20696737 -0.3568199 0.114442274 -0.050742615 0.21884592 0.031845912 0.03712661
-0.4057528 0.15770301 -0.27290827 0.08871691 -0.17408992 -0.30381027 0.3920011 0.08548983
0.013677936 -0.46469498 0.43301135 0.026544206 0.058472466 -0.13877103 -0.074400656 -0.34467423
0.3202428 -0.079800956 0.39248604 0.16301352 0.053833324 0.085646786 -0.06944774 -0.3522966
0.29351637 0.055623412 -0.14630093 -0.1645497 -0.014318699 -0.5840885 -0.059668243 0.5765427
-0.46518683 0.14755502 -0.30184433 0.081922606 0.017819528 -0.23117714 -0.37426573 -0.23477508
0.16597387 -0.3598358 0.14695886 0.378059 0.79408044 0.072827265 0.5894405 -0.017338745
-0.021931017 0.31209794 0.25964203 0.29126066 -0.50537336 0.36061388 -0.2150802 0.34414992
-0.014131495 0.37964624 -0.16851991 -0.031143768 0.5858149 0.05060878 0.0086957645 0.19286881
0.02304945 -0.012867962 0.22073525 0.33217824 0.16378486 0.11750612 0.33052352 0.17089777

gnn_list.1.nn.2.bias f4 [32]
00000000: 3a60 45bd 0b37 0d3e 332b 9fbc 1d5c 213e
00000010: f772 3f3e 5916 103d afaf 313d 887d 20be
00000020: 3798 c43d 658a 9c3d c142 f3bd d526 93bc
00000030: a103 67bd b394 52ba df43 0abc b885 e03c
00000040: 697b 02be 6fc8 58bd 0fc2 103e 3144 05bd
00000050: e1e8 aebd f79a 64bb 1588 223e 763b 0dbe
00000060: 4860 5bbd d937 923c 218c 3abc a865 c23d
00000070: f904 25be 7d4e 003e 10d2 70bd 926c 0a3e
-0.048187472 0.13790528 -0.019429779 0.15757795 0.186962 0.035177562 0.043380436 -0.15672886
0.09599345 0.07643584 -0.11877967 -0.017962852 -0.056399945 -0.0008033022 -0.008439033 0.027407512
-0.1274239 -0.052925523 0.14136527 -0.032535736 -0.08540512 -0.0034882405 0.15872224 -0.13792214
-0.053558618 0.017848896 -0.011385948 0.09492046 -0.16115178 0.12529941 -0.05879408 0.13517979

gnn_list.1.nn.3.weight f4 [32]
00000000: 8217 973e 3a30 173f 3a86 ce3e 1e8f 763e
00000010: 959e c53e 21ae da3e f742 473e db40 fe3d
00000020: 2606 593d d0e8 1e3f 5130 963e 546e a03e
00000030: d499 7c3e 7f14 943e c448 0e3f 9326 c03e
00000040: 7f52 163f 2435 ea3e 726b 993e a140 863e
00000050: 4ba7 963c 565a bb3e b577 cc3e 64d9 123f
00000060: 3386 063e 905a 4f3e f7ea 363e 8bc6 083f
00000070: b702 6c3e ec9a 183f edb2 7d3e 8d9c 8f3e
0.29510123 0.5905796 0.40336782 0.24078032 0.3859755 0.42710975 0.19459139 0.12414714
0.05298438 0.62073994 0.29333737 0.31334174 0.24668056 0.28921887 0.5557978 0.3752943
0.5871963 0.45743668 0.29964787 0.26221183 0.018390318 0.36592358 0.3993508 0.5736296
0.1313713 0.2024939 0.1786307 0.5342795 0.2304791 0.5961139 0.24775286 0.28049126

gnn_list.1.nn.3.bias f4 [32]
00000000: 27e8 c4bd b440 6abf 93c3 09be c648 84be
00000010: 9b45 3f3d 00d9 0dbf 2040 85be 4278 5cbf
00000020: f7db d5be 16e3 32bf 0e64 7abe 474c d0bc
00000030: fe08 18be 7779 52be d6e8 15bf 20cb 0b3e
00000040: 4c74 f1be 76e8 a0bd f7d4 a0bd ec73 d4bd
00000050: 5ce2 2dbd 7979 89bd a270 e8bc 39c0 1cbf
00000060: e312 f63d 692a 643d 26a9 b1bb 58b0 b3be
00000070: 94ce 693c 0a91 27bf 841a b0bd 6c53 673d
-0.09614592 -0.9150498 -0.13453512 -0.25836772 0.04669724 -0.5540924 -0.26025486 -0.86121
-0.41769382 -0.69877756 -0.2445223 -0.025426997 -0.1484718 -0.20554148 -0.58558404 0.13651705
-0.4715904 -0.078568384 -0.0785312 -0.10373673 -0.0424522 -0.06712622 -0.02837402 -0.6123081
0.12015321 0.055704508 -0.0054217754 -0.35095477 0.0142704435 -0.6545569 -0.085988075 0.05647604

gnn_list.1.nn.3.running_mean f4 [32]
00000000: f16f 68c1 365f 23c1 afde 36c1 4d02 3f41
00000010: f5c4 a1c1 e845 83c1 3edb b9c0 bd91 b041
00000020: 037a e0c0 bdda 32c1 9f0e a9bf 8e7f 6dc1
00000030: a81e d4bf c634 8a40 4f55 bac1 bec8 e341
00000040: e9be 69c1 a689 8441 998f b2c1 09b9 b6c1
00000050: 1cfe 28c1 309b 47c1 fb30 8dc1 a8bd 97c1
00000060: 3c68 0741 6d1f a5c1 fdf0 22c1 6f84 6abf
00000070: b2f2 9fc1 6e01 71c1 dc75 90c1 0d41 b3c1
-14.527329 -10.210745 -11.429366 11.938062 -20.22117 -16.409134 -5.808013 22.071161
-7.014894 -11.178403 -1.3207587 -14.843641 -1.6571856 4.318942 -23.291655 28.473019
-14.609109 16.567211 -22.320116 -22.84035 -10.562038 -12.475388 -17.648916 -18.967606
8.462948 -20.640345 -10.183835 -0.9160833 -19.993504 -15.062849 -18.057549 -22.406763

gnn_list.1.nn.3.running_var f4 [32]
00000000: c4e3 9843 8afe 2e43 67e0 1643 5b8d a043
00000010: 53d5 7443 a8ad e143 105c 9b43 f34e 9343
00000020: 0747 4343 b999 3943 5d69 9443 861f 9943
00000030: df1c cf43 3b2c a743 9338 4544 0e70 1244
00000040: 9cb6 9a43 6f1b 4944 63e6 cb43 113a 7e43
00000050: 2c7f f242 a0d1 ab43 48c0 9244 6bc6 2444
00000060: 8641 6e43 e3d0 8943 e553 4e43 c301 a943
00000070: 0bd2 e343 81e8 5d43 309d e543 2410 b343
305.77942 174.9943 150.87657 321.10434 244.8333 451.3567 310.71924 294.6168
195.27745 185.60048 296.82315 306.24628 414.22556 334.34555 788.884 585.75085
309.42664 804.42865 407.7999 254.22682 121.24838 343.6377 1174.0088 659.1003
238.25595 275.63193 206.32771 338.01376 455.64096 221.90822 459.22803 358.1261

mlp_list_inner.0.mlp_list.0.weight f4 [64, 64]
00000000: 6f6d 23be 6b43 d6be 4593 f9be 7c44 49be
00000010: 084b 4b3e 460e 0fbf baf9 09bd fe3f 3dbe
00000020: 8b52 e4be 4716 dabe 2a09 703e fb1b 12be
00000030: cb61 273e 58e0 27be a26e a6bc f640 72be
00000040: ed76 013f 73a6 23bf c8f1 c33e 4dfb 173d
00000050: f9e6 253f 3818 babe 9b81 e5be 744d 10be
00000060: 8a36 a03d ee62 89bd b597 213e b1a0 e2be
00000070: 536f b9be 1de3 5fbe 703b 6dbe 47f2 66bd
00000080: bc8e 32bd f5bb efbd f23d 2cba a127 50bf
00000090: be47 833d da78 dbbe 5758 1ebe e6d2 ac3e
000000a0: 460d e3be 2912 823d 9fe6 113f 3821 d4be
000000b0: 2069 203f 9455 07bf 0be3 e3be 0224 47be
000000c0: e77c 0ebf b66d edbe 7eed 45bf bc75 dbbe
000000d0: b27c c43d 7779 cebc fe49 533f 620b c93e
000000e0: 3af6 02bf 5ceb febe 41a6 f53d 8bab 4a3e
000000f0: a8e1 983e fa0c 60be d0dd 0bbe 8f8c 523f
00000100: 3c35 823e 4409 463d 22cd 96be b9db b8bd
00000110: d906 ccbe 39b7 11be 729f a43d e3fd a33d
00000120: 3039 9f3e 2301 dd3d 713a 5abe 8832 b3be
00000130: 4543 b63e 02cc 003f 4933 8bbe bfeb ac3c
00000140: 4fa7 4f3e 44b8 a03e c2b9 c5bd 692c 1fbe
00000150: f085 353e 3947 16be b4bb d73d a1e0 f83d
00000160: 8e70 87bc c761 d13e f143 cfbe a064 fcbc
00000170: 6ac0 643e bebb 9ebe 69bb b93d eea6 9e3e
00000180: 0028 ca3d 07ee 9cbe 6edd 89be 2efd bcbd
00000190: d8f7 22bf 548e 0f3e 1a47 3e3d 5e7f ccbd
000001a0: 638f 34be 3f84 cabd a614 16bf a639 febd
000001b0: a0f9 103e 8cb5 95bd e455 ab3e 28a5 fdbe
000001c0: 5464 99be cf0c 99be 7427 abbe eba7 053e
000001d0: 2436 0e3d 356a 713d 5e3e 3cbf 3df7 483e
000001e0: 7c2e 073e ca15 d0bd 7494 0dbd ba45 223e
000001f0: a498 7abe 68b9 663d 4398 933e 1743 1b3e
00000200: 234f 943e ef18 d63d d794 ffba d756 5abe
00000210: 8aec 343b b520 ba3d 8539 e5be 07a7 4dbe
00000220: 0a21 503d 1220 76be fd22 6dbe 924a 8b3d
00000230: 5f3d ccbe 92a7 aebe c9d4 123d e402 9dbe
00000240: 317e 4bbe 2337 75be 476b 993d bb20 16be
00000250: c1f6 02bf c4db d83d 5b16 2d3e 20b7 6cbf
00000260: 24a3 aabe f935 00bf f590 3bbd 8e46 0b3d
00000270: 73a4 1a3e 80f0 35be dbd2 e8bd cb5e 71be
00000280: d8a8 173c c9b3 eabc 8f0c d0be 934d 683e
00000290: 2517 a9bc 760c 2e3d 1982 073c 7f92 21be
000002a0: a0e0 c9bd b36e 1abf 917e 7cbf 0377 eaba
000002b0: 0d65 493e a06b 22be f6f5 2abd 2371 9f3d
000002c0: 66ac 40bd 65d3 64be 9041 9dbd 2d77 023e
000002d0: 5bf0 f43d dbf5 0a3e f1b1 83be 66b7 3d3d
000002e0: 0f08 fb3c 8bf2 bdbe 9cb0 0b3d 7c16 9cbe
000002f0: 7427 4f3e a443 61bd 08c0 c53d 44bb 06bf
00000300: c7e7 50bd 97fe f8bd 7796 5f3d c656 b83d
00000310: a849 40be 57a8 b73c 971f 3fbe 137d 15be
00000320: 4021 783d c8a9 c33c f1c7 f0bc 1cee 6dbd
00000330: 4e5e 44bd 1221 b63d 979f 44bc c7d1 6cbc
00000340: 9202 c2bd d811 3fbe ed2e aa3c dee5 c2bd
00000350: 6763 1abd 84f1 dbbd da25 93bd 5306 9c3d
00000360: 2507 9a3d 791f 753a 9b20 793b 46d4 cc3c
00000370: bc0f ffbd a503 91bd 80dc 30be 13ff 013c
00000380: cdfb 38be 9f95 b3bc 03a9 0abd 90b2 30bd
00000390: 4be2 73be 2664 973c 1207 fdbd 6a51 bbbd
000003a0: 5c39 e5bd 0cff 0fbd 9777 fd3b d239 b1bc
000003b0: 5b7d 863c 53f6 e6bd 5eb3 a6bd b589 5dbd
000003c0: 3ad2 e0bc d706 263c fbbc 50be 1628 3ebd
000003d0: 2201 bebd 7803 15be 9114 71bd b491 fabc
000003e0: 4817 393d 4c29 39be 8e95 a13c 3a01 46be
000003f0: 7f1a 40be 0998 c5bd 8fa3 40be 1a75 743b
-0.15959714 -0.4184831 -0.4874517 -0.19655031 0.19852841 -0.55881155 -0.033685423 -0.18481442
-0.44594225 -0.4259512 0.23440996 -0.14268486 0.16345899 -0.16394174 -0.020316426 -0.23657593
0.5057209 -0.63925856 0.38270402 0.037104893 0.6480556 -0.36346602 -0.44825444 -0.14092046
0.078229025 -0.067083225 0.15780528 -0.44263223 -0.36217746 -0.2186398 -0.23167205 -0.056383397
-0.043593153 -0.11705772 -0.000657051 -0.8131047 0.06410168 -0.4286564 -0.15463386 0.33754653
-0.44346064 0.0635112 0.56992525 -0.41431594 0.6266041 -0.52864957 -0.44509158 -0.1944733
-0.55659336 -0.46372765 -0.7731551 -0.42863262 0.09594096 -0.025204403 0.8253478 0.39266497
-0.5115696 -0.4978894 0.11994601 0.19792001 0.29859662 -0.2187995 -0.13658834 0.82245725
0.2543124 0.04834868 -0.2945338 -0.09026284 -0.39848974 -0.1423005 0.08038224 0.080074094
0.31098318 0.107912324 -0.21311356 -0.3499949 0.35598198 0.5031129 -0.27187565 0.021108506
0.20278667 0.31390584 -0.09654571 -0.15544285 0.17726874 -0.14675607 0.105338484 0.121522196
-0.016533162 0.4089491 -0.40481523 -0.0308097 0.22339025 -0.3100261 0.09068949 0.30986732
0.09870911 -0.3065035 -0.2692675 -0.09227978 -0.6365943 0.14019138 0.046454526 -0.09985231
-0.17632823 -0.09888505 -0.58625257 -0.12413339 0.14157724 -0.07310018 0.33463967 -0.49540067
-0.29959357 -0.29892585 -0.33428538 0.13052337 0.0347196 0.058939178 -0.73532665 0.19625564
0.13201326 -0.10160406 -0.034565404 0.15846911 -0.2447229 0.05632916 0.28827104 0.15162311
0.28966627 0.104539745 -0.0019499314 -0.2132219 0.0027606809 0.090882696 -0.44770446 -0.20083247
0.05081276 -0.24035671 -0.23157878 0.068013325 -0.39890572 -0.3411222 0.03584746 -0.30666268
-0.19872357 -0.23946814 0.07491165 -0.14660923 -0.51157767 0.10588792 0.16903059 -0.92466927
-0.3332759 -0.50082356 -0.04579254 0.034002833 0.15101795 -0.17767525 -0.113683425 -0.23571317
0.009256564 -0.028650181 -0.4063458 0.22685842 -0.020640919 0.042492352 0.008270764 -0.1577854
-0.09857297 -0.60325164 -0.98630625 -0.0017888251 0.19667454 -0.15861368 -0.041738473 0.07785251
-0.047039412 -0.22346266 -0.07678521 0.12740774 0.11959907 0.13570349 -0.25721696 0.04631748
0.030643491 -0.37099108 0.034103975 -0.30485904 0.20229894 -0.054996148 0.09655768 -0.52629495
-0.05100229 -0.12157934 0.054586854 0.09000926 -0.18778098 0.022419138 -0.18664394 -0.14598493
0.060578585 0.023884669 -0.029392214 -0.058088407 -0.0479415 0.088930264 -0.01200094 -0.014454312
-0.094731465 -0.1865915 0.02077433 -0.095165 -0.037692454 -0.10739425 -0.07184954 0.07618394
0.07520894 0.0009350698 0.003801382 0.025003564 -0.12454173 -0.07080773 -0.17271614 0.00793435
-0.18064804 -0.02192193 -0.03385259 -0.04313904 -0.23816793 0.018480372 -0.12354864 -0.09146388
-0.11192581 -0.03515534 0.0077352035 -0.021634016 0.016417196 -0.11277451 -0.0813968 -0.054086406
-0.027443994 0.010133467 -0.2038459 -0.046424948 -0.0927756 -0.14552104 -0.058857504 -0.030587055
0.04518822 -0.1808216 0.019724634 -0.19336405 -0.18760107 -0.09648139 -0.18812393 0.0037301243

mlp_list_inner.0.mlp_list.0.bias f4 [64]
00000000: b45e 9bbe 932a d8bc f58f 143e a89c babd
00000010: dd56 51be bbca ad3e 43e8 11be ade8 e2bd
00000020: 6e51 21be 13a0 983d 693c 983e 1901 46be
00000030: e83c b23e 79e0 36be 86f2 683e 576e 693c
00000040: 26b0 a0bc 4cf3 753e e1fe 7ebe 6772 1bbe
00000050: 712d 433e 1767 8bbe 8531 143e f5fa 883c
00000060: 02b7 9d3c 8357 293f f70c 613e cc62 f13d
00000070: 305b 233e 8391 8b3d 85fd da3e e639 2c3e
00000080: 3314 193e 5261 05be 5316 f2be 55c8 ee3c
00000090: a37c 26be 02d0 503e 7f36 5c3e 47bf d33d
000000a0: 617e 51be 12b8 833f 5c02 b7bd 135c 0fbe
000000b0: cc0a e83c 7673 e63e df8d c5be 2d97 95bd
000000c0: 7c1f e73d 2095 e8bd 7216 23be 18bb ca3d
000000d0: b038 0a3e 6481 333e 76a4 24bd 3c0f eebd
000000e0: d9dd d33c 6c29 35be b97b c33c dff8 8b3e
000000f0: 9c1e a13e 39ed 3c3e 1cd0 abbd 042b 973c
-0.3034569 -0.026387488 0.1450804 -0.09111911 -0.20443292 0.33943734 -0.14248757 -0.11079536
-0.15753719 0.07452407 0.2973359 -0.19336356 0.34812093 -0.17859067 0.22748765 0.0142474985
-0.019615244 0.24018592 -0.24901916 -0.1518036 0.19060303 -0.2722709 0.14472015 0.016721228
0.019252304 0.6614916 0.21977602 0.11786422 0.15952754 0.068148635 0.42771545 0.16818962
0.14949112 -0.13025406 -0.47282657 0.02914826 -0.16258483 0.20391849 0.21505164 0.10339218
-0.20458366 1.0290549 -0.08935997 -0.13999967 0.02832546 0.45009965 -0.38584802 -0.07304225
0.11285302 -0.11356568 -0.15926531 0.098989666 0.13498187 0.17529827 -0.040195905 -0.116239995
0.025862621 -0.17691582 0.023862706 0.2733831 0.31468666 0.18449868 -0.08389303 0.018453129
