model_saved/IMDBMulti/2022-04-04_12-44-29/GSC_GNN_IMDBMulti_checkpoint.pth (torch, 516843 bytes, 53 tensors)

gnn_list.0.nn.0.weight f4 [64, 89]
-0.00608052 -0.61103714 -0.20020026 -0.068517275 -0.5042587 -0.083952434 0.22485995 0.2860769
0.13071005 0.17606911 0.25889567 -0.05251672 0.1509415 -0.075275026 -0.028939584 0.0011950531
-0.08649713 -0.06504885 0.16952026 -0.09677732 -0.35924637 -0.6606842 -0.36986613 -0.43773627
-0.35086808 -0.049871497 -0.2519524 -0.40406725 -0.23111856 -0.06283694 -0.07029215 -0.46086067
0.3358733 -0.56212866 -0.22410089 0.16091084 -0.3610781 0.12763989 -0.06175784 0.052131094
0.09309798 -0.09655975 -0.2841675 -0.10344686 -0.16474223 -0.21490791 0.031093394 -0.07113483
-0.02744248 0.15524216 -0.06585099 -0.02293281 -0.027386602 0.02365984 -0.09138448 -0.05113587
-0.10289122 0.031013925 -0.027145948 -0.038951468 0.002071231 0.056096185 -0.14801945 0.075868666
-0.10186409 -0.06469683 -0.036065936 -0.030913997 0.0790772 -0.0050953543 -0.016741067 0.082506336
-0.043060444 -0.032007154 -0.048421714 -0.07263046 -0.0028386475 0.012271114 -0.035446033 -0.029280951
-0.020640686 -0.100503035 0.0065090503 -0.074942246 0.07021074 -0.059750207 0.041158523 -0.051923204
-0.093044326 -0.05818512 -0.4617621 -0.11703995 0.5099395 -0.38959002 0.026831187 -0.12672818
0.03591055 -0.021211073 -0.07475965 -0.08647649 0.32058313 0.27836528 0.015234251 0.13822924
0.10358151 0.007571077 -0.02784792 0.1968659 0.12085801 -0.032979645 0.05472007 0.3028414
0.05278525 0.12981193 0.089175284 0.010628604 0.07770269 0.2913361 0.19643958 0.061060276
0.00041568556 0.17312711 -0.109365165 0.19323021 -0.13678317 -0.22276999 0.117390715 -0.2290197
-0.006796351 0.33292264 -0.07962858 0.13120991 -0.14924107 -0.0144097395 0.3669838 0.019492945
-0.16719502 -0.0356182 0.14732862 0.20203745 0.048398476 -0.032786917 -0.10527816 -0.06934863
0.015102801 0.1222269 0.03199315 -0.018525409 0.10015194 0.033426914 0.07815317 0.15075186
-0.003196746 0.03993288 -0.036385164 0.06565491 -0.084200785 -0.030281242 0.0730041 -0.09885312
-0.06898147 -0.00630672 0.10475392 -0.059646867 0.062313173 0.037366915 -0.029867774 -0.09482901
0.09237976 0.036055513 0.022298058 0.103804916 -0.06275249 0.058862746 0.011479888 0.10545066
0.035860106 0.2494175 -0.07726731 -0.026316123 0.34163132 -0.0929402 0.048647083 0.42098263
-0.0046529435 0.21862768 -0.10884434 0.35949868 0.08392753 -0.27734005 0.15601549 0.2306597
0.4960398 0.05505943 -0.018121637 -0.020841537 -0.114182204 0.0631258 0.029575339 -0.30441925
-0.07998211 0.022901136 0.15660177 -0.039931487 0.051369198 0.056503095 0.36717242 0.04448594
0.08269119 0.027731739 0.035459884 -0.22201358 -0.161192 -0.2043995 0.11168359 0.19892253
0.23981155 0.04555872 -0.26650363 0.02584398 0.18953405 -0.06598108 -0.08560002 -0.037717827
-0.08831359 0.39050615 0.1044886 0.06827045 0.16440037 -0.044515625 0.036181204 0.26427293
0.0317157 -0.0022504749 -0.06959248 0.03984703 -0.06912607 -0.14027318 -0.09535305 -0.046858404
-0.272635 0.0662458 0.010093284 0.09799585 0.022650948 0.090118624 0.0066451035 -0.06811872
0.067123674 -0.08542911 -0.008268382 -0.097708344 0.07036807 -0.013766654 -0.17078967 0.0814923
00000000: 193f c7bb ee6c 1cbf 4c01 4dbe c952 8cbd
00000010: 1917 01bf 41ef abbd b041 663e ac78 923e
00000020: dbd8 053e 764b 343e f98d 843e c61b 57bd
00000030: 6990 1a3e cb29 9abd b512 edbc 54a3 9c3a
00000040: 6825 b1bd 5538 85bd b896 2d3e 3033 c6bd
00000050: 24ef b7be 9a22 29bf 185f bdbe f81e e0be
00000060: fba4 b3be 0e46 4cbd e8ff 80be e7e1 cebe
00000070: 58aa 6cbe a7b0 80bd 55f5 8fbd eef5 ebbe
00000080: 96f7 ab3e aae7 0fbf b47a 65be d0c5 243e
00000090: 3bdf b8be 08b4 023e caf5 7cbd 6a87 553d
000000a0: 27aa be3d 1ec1 c5bd 677e 91be f3db d3bd
000000b0: 30b2 28be d210 5cbe 93b7 fe3c 23af 91bd
000000c0: 0dcf e0bc cdf7 1e3e e2dc 86bd 97dd bbbc
000000d0: de59 e0bc 48d2 c13c c927 bbbd d973 51bd
000000e0: a2b8 d2bd ea10 fe3c 2e61 debc 938b 1fbd
000000f0: 7dbd 073b 1dc5 653d 6992 17be 0861 9b3d
00000100: 1f9e d0bd c67f 84bd e0b9 13bd 5a3f fdbc
00000110: 3af3 a13d eef6 a6bb 9024 89bc 15f9 a83d
00000120: 2660 30bd ef19 03bd d955 46bd 47bf 94bd
00000130: 9a08 3abb c80c 493c dc2f 11bd 9bde efbc
00000140: a816 a9bc 89d4 cdbd df49 d53b 527b 99bd
00000150: a6ca 8f3d a2bc 74bd d795 283d 6dad 54bd
00000160: 068e bebd 8553 6ebd 156c ecbe a4b2 efbd
00000170: 658b 023f 5878 c7be 14cd db3c 08c5 01be
00000180: f116 133d d8c2 adbc 961b 99bd 961a b1bd
00000190: 7923 a43e e585 8e3e 1499 793c f78b 0d3e
000001a0: 8b22 d43d cc16 f83b 5221 e4bc 3797 493e
000001b0: 6884 f73d aa15 07bd 2722 603d 070e 9b3e
000001c0: 5935 583d 6bed 043e 88a1 b63d 9923 2e3c
000001d0: 9722 9f3d 012a 953e 7527 493e 571a 7a3d
000001e0: 5ff0 d939 3c48 313e d8fa dfbd 24de 453e
000001f0: e310 0cbe d11d 64be 8b6a f03d 2484 6abe
00000200: edb3 debb d674 aa3e 4f14 a3bd e45b 063e
00000210: a7d2 18be d416 6cbc 4de5 bb3e abaf 9f3c
00000220: 2c35 2bbe 64e4 11bd 50dd 163e e8e2 4e3e
00000230: 7b3d 463d 934b 06bd 139c d7bd a806 8ebd
00000240: bd71 773c 1952 fa3d 400b 033d 99c2 97bc
00000250: 761c cd3d a9ea 083d c50e a03d b25e 1a3e
00000260: 8080 51bb a990 233d 9c08 15bd 1576 863d
00000270: 7671 acbd 5e10 f8bc 2c83 953d 8173 cabd
00000280: 2846 8dbd 9aa8 cebb 3989 d63d 4650 74bd
00000290: 193c 7f3d 0d0e 193d 43ad f4bc b635 c2bd
000002a0: 9a31 bd3d f2ae 133d 6baa b63c ac97 d43d
000002b0: 6184 80bd 101a 713d 2416 3c3c 84f6 d73d
000002c0: 0ce2 123d 4d67 7f3e 533e 9ebd e994 d7bc
000002d0: 4dea ae3e 6e57 bebd 2a42 473d 098b d73e
000002e0: b877 98bb efdf 5f3e c8e9 debd 3610 b83e
000002f0: 32e2 ab3d 84ff 8dbe 86c2 1f3e 0e32 6c3e
00000300: eef8 fd3e ff85 613d d473 94bc dfbb aabc
00000310: 5cd8 e9bd 1948 813d fb47 f23c d7dc 9bbe
00000320: a9cd a3bd 2a9b bb3c 375c 203e 338f 23bd
00000330: 8268 523d ca6f 673d 06fe bb3e e436 363d
00000340: 005a a93d ac2d e33c 623e 113d 8757 63be
00000350: 840f 25be 1a4e 51be 5eba e43d 59b2 4b3e
00000360: 2991 753e c89b 3a3d 2a73 88be c1b6 d33c
00000370: 3715 423e 1721 87bd 104f afbd 027e 1abd
00000380: c1dd b4bd 6cf0 c73e 1efe d53d 61d1 8b3d
00000390: 9258 283e 0456 36bd be32 143d c84e 873e
000003a0: 52e8 013d b47c 13bb 8186 8ebd a436 233d
000003b0: f891 8dbd c6a3 0fbe 7648 c3bd 99ee 3fbd
000003c0: d196 8bbe e1ab 873d 4d5e 253c 0cb2 c83d
000003d0: 7b8e b93c 1d90 b83d 2bbf d93b d481 8bbd
000003e0: 2378 893d 75f5 aebd 1c78 07bc 501b c8bd
000003f0: 221d 903d 888d 61bc 7de3 2ebe 6fe5 a63d

gnn_list.0.nn.0.bias f4 [64]
0.12181473 0.11507892 -0.0316803 -0.050040714 0.13620967 -0.0842201 0.34462905 0.31534827
-0.006932267 0.096562274 0.15862016 -0.26586202 0.07854525 0.14848508 0.07629953 0.0043289177
0.16373168 0.03168496 0.23897162 0.34450337 0.25784928 -0.13294372 0.10791416 0.053663135
0.1093653 0.14099945 0.14463109 0.4053779 -0.060728934 0.045629706 0.23108715 0.02527607
-0.06354763 -0.17568994 0.262789 -0.00038176254 0.018037073 0.19547448 0.07041679 0.11385173
0.33231792 0.036797695 0.06621816 0.42831704 0.06313927 -0.05242407 0.30152118 0.34021348
0.14359869 0.24842446 -0.0713126 -0.012634783 0.2956819 0.079870604 0.027552767 -0.010408233
0.2128823 0.029187286 0.19303662 0.06471507 -0.011831879 -0.07798583 0.18257838 0.08344452
00000000: 007a f93d 7fae eb3d 34c3 01bd 7ef7 4cbd
00000010: 8c7a 0b3e 967b acbd 3873 b03e 5475 a13e
00000020: 1228 e3bb 71c2 c53d 536d 223e 111f 88be
00000030: 55dc a03d 790c 183e ee42 9c3d 98d9 8d3b
00000040: 47a9 273e 17c8 013d fab4 743e bf62 b03e
00000050: d204 843e 6622 08be 1902 dd3d e0cd 5b3d
00000060: eafa df3d 2962 103e 2c1a 143e b18d cf3e
00000070: e7be 78bd 37e6 3a3d 1ca2 6c3e c30f cf3c
00000080: 4325 82bd 10e8 33be 488c 863e 4d27 c8b9
00000090: 7cc2 933c 762a 483e ae36 903d 192b e93d
000000a0: 9325 aa3e 2eb9 163d 639d 873d 5f4c db3e
000000b0: 294f 813d 9fba 56bd fc60 9a3e 7630 ae3e
000000c0: 890b 133e fb62 7e3e 570c 92bd 1f02 4fbc
000000d0: 9e63 973e 3393 a33d 57b6 e13c 4b87 2abc
000000e0: d1fd 593e 2d1a ef3c 64ab 453e 5689 843d
000000f0: 7fda 41bc 09b7 9fbd d4f5 3a3e f6e4 aa3d

gnn_list.0.nn.2.weight f4 [64, 64]
0.56989133 0.17475186 0.060861293 0.10622309 0.2598705 -0.1501158 -0.12914251 0.37114498
0.004542184 0.034568045 0.23983817 0.2532582 -0.20315589 0.02367684 0.19938932 -0.038668208
0.41405493 0.06346192 -0.08858752 0.27752477 0.10375191 -0.0487944 0.06165773 -0.28017175
-0.009764105 0.16820414 -0.15154375 -0.022193108 0.346036 -0.15904209 -0.06020869 -0.005478643
-0.09038254 -0.08016934 0.019824829 -0.28394762 0.11486913 0.3112171 -0.09979096 0.31544143
0.07896361 -0.22618274 0.09694995 0.013196188 -0.008709661 0.051819053 -0.36815023 0.07656445
0.09036283 -0.15882823 -0.034377646 0.058076777 0.0721248 0.33307636 0.050074704 0.12710461
0.053990673 0.07408202 0.082028694 0.00983795 -0.21695909 0.19923636 0.009978041 0.29043615
0.27803493 -0.070560575 0.1241375 0.2524445 -0.10877861 0.014720735 -0.033004712 0.0055156737
0.1675464 0.029485852 0.023131013 0.21549574 0.4599675 -0.1454665 0.30033642 -0.03597798
0.037696667 -0.08473506 -0.0091001615 -0.108701244 0.03198136 0.14155611 -0.06840616 -0.006808082
0.048214864 -0.13340119 0.13078661 0.021494394 -0.0062569426 0.15549128 0.14199688 0.37929156
-0.08631546 0.03373771 -0.24456906 -0.0775733 -0.43976387 -0.30882746 -0.030609475 0.018034965
-0.17959648 -0.019430425 -0.08525176 -0.35646054 -0.021333594 -0.0646044 0.14990075 -0.08843115
0.009132463 0.11490456 0.24214946 -0.012777462 0.085603006 0.27033073 -0.11670474 -0.013852089
-0.20041564 -0.31141248 0.047552064 -0.1890597 0.41508552 0.15067433 -0.07749134 -0.37539366
-0.11217884 -0.0470859 -0.03405675 -0.13361509 -0.16481826 -0.23964144 -0.03973406 -0.025181983
0.41866404 0.14270663 0.058935326 -0.22042811 -0.3077332 -0.36140242 0.017502913 0.03652349
0.08683124 -0.12292991 0.33644345 0.17047845 -0.22892255 -0.069457166 0.39460358 0.066353746
0.009476982 0.12706551 0.33695325 -0.2741008 -0.0062265326 -0.15981367 -0.0451801 -0.08729067
-0.026940528 0.26169184 -0.30230954 -0.0038086907 -0.17060697 -0.09201008 0.089497626 0.086997226
0.13571565 -0.13482086 0.058014337 -0.2964727 -0.027182413 -0.077107996 0.004766374 0.101765215
-0.03109771 -0.12085967 -0.23141332 0.06549146 -0.020623412 -0.38380012 -0.09391115 -0.09935184
-0.24362081 -0.1541434 0.02404875 0.04584856 -0.3874473 0.3432724 -0.13641793 -0.39569595
-0.033276416 0.06571273 0.32846868 0.24058828 -0.3998546 -0.17129093 0.18710344 0.026088009
0.2483228 0.3014091 -0.41166958 0.111695975 0.15461873 -0.18005382 0.23504138 -0.040141173
-0.33849403 0.015280531 -0.2034137 -0.08041939 -0.0025209172 0.13407432 -0.022637114 0.021027362
-0.083504975 0.035061423 0.054138903 0.17689638 -0.066889115 -0.09478979 0.29329625 -0.11969076
0.08227285 0.08332333 0.14749083 -0.0617808 -0.12862438 -0.18736091 -0.067429736 -0.08403364
0.055299986 0.24388237 0.0036336055 -0.43543118 0.20008297 -0.04782525 0.088791944 0.2765046
-0.29866773 0.24817097 -0.12199129 -0.0041431487 0.031206936 0.124714166 0.020487683 0.19664301
0.049094815 -0.37559754 0.34725398 0.03834479 0.15294227 0.017434994 0.114434145 -0.10269414
00000000: 66e4 113f 27f2 323e b149 793d 7e8b d93d
00000010: bf0d 853e f5b7 19be ef3d 04be b706 be3e
00000020: 9ad6 943b 3997 0d3d 2398 753e 0fab 813e
00000030: 1908 50be eff5 c13c b72c 4c3e 8e62 1ebd
00000040: 02ff d33e 53f8 813d 606d b5bd ba17 8e3e
00000050: e27b d43d a3dc 47bd d18c 7c3d ac72 8fbe
00000060: a0f9 1fbc b53d 2c3e 492e 1bbe 52ce b5bc
00000070: a12b b13e eedb 22be 639d 76bd 3086 b3bb
00000080: 7b1a b9bd d32f a4bd ae67 a23c 9561 91be
00000090: 8240 eb3d d957 9f3e 345f ccbd 8a81 a13e
000000a0: acb7 a13d 739c 67be b28d c63d d334 583c
000000b0: f7b2 0ebc 3740 543d 307e bcbe d3cd 9c3d
000000c0: 2610 b93d dea3 22be 93cf 0cbd eae1 6d3d
000000d0: 2bb6 933d fc88 aa3e 221b 4d3d b627 023e
000000e0: 5325 5d3d 50b8 973d a9fe a73d 5a2f 213c
000000f0: 862a 5ebe 9e04 4c3e f07a 233c 0cb4 943e
00000100: 985a 8e3e 1082 90bd cd3b fe3d 6840 813e
00000110: 52c7 debd 3d2f 713c f32f 07bd d3bc b43b
00000120: 4991 2b3e 508c f13c 407d bd3c eaaa 5c3e
00000130: dc80 eb3e 2cf5 14be b2c5 993e a55d 13bd
00000140: d267 1a3d 9389 adbd d818 15bc c29e debd
00000150: e3fe 023d 16f4 103e 8718 8cbd 5516 dfbb
00000160: f37c 453d 529a 08be edec 053e 0315 b03c
00000170: 0a07 cdbb 1b39 1f3e a167 113e 8132 c23e
00000180: 29c6 b0bd 8e30 0a3d 5070 7abe c0de 9ebd
00000190: bb28 e1be a21e 9ebe b9c0 fabc 10be 933c
000001a0: 24e8 37be 8e2c 9fbc 7a98 aebd ff81 b6be
000001b0: cac3 aebc 504f 84bd 957f 193e 641b b5bd
000001c0: 53a0 153c 1553 eb3d 07f6 773e 8f58 51bc
000001d0: a150 af3d ca68 8a3e e502 efbd dff3 62bc
000001e0: c239 4dbe 7571 9fbe f4c5 423d de98 41be
000001f0: 1786 d43e 5f4a 1a3e c8b3 9ebd 9933 c0be
00000200: 05be e5bd 25dd 40bd 177f 0bbd 65d2 08be
00000210: 1ec6 28be 9164 75be 2fc0 22bd 724a cebc
00000220: 225b d63e b021 123e 2b66 713d e8b7 61be
00000230: 358f 9dbe bd09 b9be 4562 8f3c a899 153d
00000240: 94d4 b13d adc2 fbbd 5142 ac3e e791 2e3e
00000250: ac6a 6abe 8f3f 8ebd 7b09 ca3e 79e4 873d
00000260: 5845 1b3c 761d 023e 2385 ac3e f156 8cbe
00000270: f107 ccbb 32a6 23be c50e 39bd 73c5 b2bd
00000280: 62b2 dcbc 79fc 853e 51c8 9abe 3a9b 79bb
00000290: 98b3 2ebe c86f bcbd 884a b73d 9a2b b23d
000002a0: 0bf9 0a3e 7b0e 0abe 71a0 6d3d 45cb 97be
000002b0: a7ad debc ccea 9dbd 3e2f 9c3b 486a d03d
000002c0: a0c0 febc 4685 f7bd 9df7 6cbe 6320 863d
000002d0: 6ef2 a8bc 7381 c4be 7d54 c0bd fa78 cbbd
000002e0: bc77 79be c4d7 1dbe e201 c53c b3cb 3b3d
000002f0: 7e5f c6be 66c1 af3e 24b1 0bbe a998 cabe
00000300: da4c 08bd 6594 863d 0c2d a83e c65c 763e
00000310: beb9 ccbe e466 2fbe 0b98 3f3e 85b6 d53c
00000320: 5548 7e3e 4b52 9a3e 5bc6 d2be dcc0 e43d
00000330: 5f54 1e3e 0760 38be b0ae 703e 126b 24bd
00000340: 174f adbe 315b 7a3c ae4b 50be ecb2 a4bd
00000350: f935 25bb c74a 093e 7871 b9bc 9341 ac3c
00000360: a804 abbd 919c 0f3d c1c0 5d3d 5324 353e
00000370: 29fd 88bd 2621 c2bd ed2a 963e 6e20 f5bd
00000380: ab7e a83d 6ca5 aa3d d607 173e dd0d 7dbd
00000390: 1cb6 03be 8adb 3fbe 9a18 8abd d419 acbd
000003a0: 3d82 623d 4dbc 793e c921 6e3b d6f0 debe
000003b0: 8de2 4c3e 69e4 43bd 8dd8 b53d 0392 8d3e
000003c0: faea 98be 8820 7e3e 92d6 f9bd 40c3 87bb
000003d0: b0a5 ff3c 246a ff3d c9d5 a73c c95c 493e
000003e0: a517 493d 524e c0be 46cb b13e 6d0f 1d3d
000003f0: e69c 1c3e d5d3 8e3c 735c ea3d 4e51 d2bd

gnn_list.0.nn.2.bias f4 [64]
0.10951384 0.07121355 -0.08249761 0.09778464 -0.06615044 0.059144102 0.020321205 -0.17182462
-0.059502184 0.1269107 0.12961824 0.23829252 -0.09212447 -0.03873794 0.063102834 0.054919522
0.06929306 0.06811273 0.13414693 0.09915239 0.21573551 0.08373446 0.13220417 -0.077361085
0.061234377 0.12986048 0.14937797 0.008221256 0.010728278 -0.02929676 0.13396424 0.05987563
-0.081619345 0.0313374 0.06747616 0.07707159 0.127451 0.06363658 -0.15577887 0.15753162
0.22078897 -0.09408593 -0.18381906 0.10625382 0.12747204 0.122682124 -0.08869203 0.0038998716
0.06355122 -0.024833633 -0.076924145 -0.021852508 -0.13196126 0.08350037 0.118942894 -0.04587744
-0.100900345 0.025479352 -0.061826218 -0.06698949 0.28890687 0.15557227 0.1067382 0.027374364
00000000: cb48 e03d 69d8 913d 82f4 a8bd 5043 c83d
00000010: e279 87bd 1641 723d a878 a63c cbf2 2fbe
00000020: 90b8 73bd e1f4 013e a5ba 043e f402 743e
00000030: c1ab bcbd adab 1ebd 0f3c 813d 4bf3 603d
00000040: 85e9 8d3d b07e 8b3d d05d 093e 6910 cb3d
00000050: c5e9 5c3e f97c ab3d 8860 073e 7d6f 9ebd
00000060: e6d0 7a3d 25fa 043e 8af6 183e 72b2 063c
00000070: a9c5 2f3c c2ff efbc ec2d 093e 2640 753d
00000080: 0b28 a7bd a55b 003d f130 8a3d b6d7 9d3d
00000090: 8482 023e e553 823d 7f84 1fbe f84f 213e
000000a0: 8116 623e 20b0 c0bd 103b 3cbe 9a9b d93d
000000b0: 0888 023e c440 fb3d 2ba4 b5bd fd94 7f3b
000000c0: 2427 823d e76f cbbc 688a 9dbd 0804 b3bc
000000d0: da20 07be 3e02 ab3d 5598 f33d fce9 3bbd
000000e0: d7a4 cebd 13ba d03c 7d3d 7dbd c931 89bd
000000f0: 9aeb 933e 564e 1f3e 8f99 da3d 3440 e03c

gnn_list.0.nn.3.weight f4 [64]
1.1654091 0.8538928 1.0285964 1.0269511 1.016044 1.2132313 0.8507997 1.0760865
1.1272267 1.1087501 1.0322487 1.0259469 1.1341764 1.2948669 0.61809915 0.98124766
0.9572964 0.71192634 1.372819 1.3528677 0.7166063 0.98717594 1.0681617 1.0231422
0.81982154 1.0298724 1.1715814 0.9892373 1.3245339 1.2303655 0.94745773 0.95556664
0.7123544 1.1327517 1.0363485 1.1077123 1.1262343 1.0603918 0.95091426 1.1937678
0.9590352 1.0263027 1.0748268 0.8846991 0.7862115 1.0792085 1.4140605 1.2254535
0.96020323 0.6183618 1.0121753 1.0537277 1.2875553 0.8258829 0.7097664 1.117165
0.8941286 0.98534536 0.992398 1.0517273 1.231347 0.8273072 1.080321 0.9272984
00000000: 202c 953f b898 5a3f 0ca9 833f 2273 833f
00000010: bb0d 823f 2a4b 9b3f 02ce 593f 34bd 893f
00000020: f748 903f 86eb 8d3f ba20 843f 3a52 833f
00000030: b12c 913f 33be a53f bf3b 1e3f 0c33 7b3f
00000040: 6011 753f ce40 363f 88b8 af3f c52a ad3f
00000050: 8373 373f 90b7 7c3f 86b9 883f 53f6 823f
00000060: d3df 513f dcd2 833f 61f6 953f a83e 7d3f
00000070: 548a a93f 9e7c 9d3f 978c 723f 04a0 743f
00000080: dc5c 363f 02fe 903f 11a7 843f 84c9 8d3f
00000090: 7228 903f ebba 873f 1e6f 733f 62cd 983f
000000a0: 5583 753f e35d 833f ed93 893f a47b 623f
000000b0: 2845 493f 8123 8a3f efff b43f a9db 9c3f
000000c0: e1cf 753f f54c 1e3f f68e 813f 8de0 863f
000000d0: 9dce a43f 106d 533f 40b3 353f 43ff 8e3f
000000e0: 9de5 643f 983f 7c3f cc0d 7e3f 009f 863f
000000f0: c79c 9d3f 68ca 533f f547 8a3f 6e63 6d3f

gnn_list.0.nn.3.bias f4 [64]
0.114316985 -0.021733884 0.039094966 -0.027074419 0.13006486 0.18596484 0.059480447 0.21676247
0.16361122 0.1431754 0.005207085 0.04429403 0.15155354 0.25415394 -0.45256102 -0.08696262
0.12547809 -0.12606867 0.31771168 0.056557436 0.010170275 0.1225988 0.0460979 -0.017621694
-0.31968153 0.10282813 0.13988827 -0.0864716 0.047433764 0.07464961 -0.07972766 0.045403536
-0.40282345 0.15694195 0.119297564 0.1302585 0.32124192 0.067227796 0.032663025 0.24284525
-0.08572841 -0.04992129 0.035317227 -0.31353998 -0.38002127 0.0343157 0.23448806 0.14968234
0.008885807 -0.27526736 0.021471454 0.19231266 0.30108073 -0.42639682 -0.32930776 0.12382785
-0.22229895 0.06972176 0.12490005 -0.034860417 0.06338592 -0.08484548 -0.03092209 0.0609031
00000000: 061f ea3d 420b b2bc 0b22 203d 2ccb ddbc
00000010: b92f 053e 916d 3e3e c5a1 733d fbf6 5d3e
00000020: b389 273e 929c 123e 32a0 aa3b a86d 353d
00000030: da30 1b3e 7720 823e 14b6 e7be 7519 b2bd
00000040: 547d 003e 2518 01be 1bab a23e c5a8 673d
00000050: 3aa1 263c 1415 fb3d 27d1 3c3d 5f5b 90bc
00000060: 4cad a3be 8e97 d23d df3e 0f3e 0618 b1bd
00000070: e849 423d e5e1 983d 4148 a3bd 0ff9 393d
00000080: e03e cebe 64b5 203e 4852 f43d 7c62 053e
00000090: d279 a43e baae 893d aac9 053d 6dac 783e
000000a0: 6092 afbd 447a 4cbd cca8 103d 5088 a0be
000000b0: 2692 c2be 9f8e 0c3d a31d 703e 5446 193e
000000c0: c795 113c d8ef 8cbe e7e4 af3c 9ced 443e
000000d0: 4127 9a3e af50 dabe 079b a8be 7599 fd3d
000000e0: 56a2 63be 48ca 8e3d 99cb ff3d ccc9 0ebd
000000f0: 7ad0 813d 78c3 adbd 5350 fdbc 8775 793d

gnn_list.0.nn.3.running_mean f4 [64]
3.2484276 0.9022301 -2.3267448 0.87509614 -2.4638708 -0.7673422 -0.44291544 -5.1009684
1.3383057 1.8404795 -0.34928256 -7.5963936 -5.3312616 -3.1718569 5.2395535 -0.27568144
-1.6830288 1.212643 -1.6710864 0.90232795 -6.3575788 0.89373815 -2.4928129 0.7531872
2.5950613 -1.6420634 3.4218323 -5.37358 -3.4009874 0.07409079 -5.4439254 1.0071667
2.8024452 2.3091147 -4.0123715 -4.0449247 -3.133289 -0.63670933 -7.4951935 0.10222456
-4.1876116 -5.53659 -8.316539 3.1905792 -2.574599 -6.9876413 -7.772027 -4.435614
-3.8751822 1.2430652 2.265387 -2.768893 -4.857831 0.9924579 2.1958797 0.28242072
-4.1451077 -1.8508092 -2.6711981 0.80572766 5.293361 -4.070342 -6.3080845 1.1685419
00000000: 3de6 4f40 8df8 663f 63e9 14c0 4d06 603f
00000010: 0fb0 1dc0 8a70 44bf d0c5 e2be 223b a3c0
00000020: 9a4d ab3f d594 eb3f 2ad5 b2be a815 f3c0
00000030: b299 aac0 b4ff 4ac0 6caa a740 1e26 8dbe
00000040: 7d6d d7bf e337 9b3f 29e6 d5bf f7fe 663f
00000050: 4971 cbc0 06cc 643f 3f8a 1fc0 e0d0 403f
00000060: 7c15 2640 222f d2bf 4dff 5a40 5ef4 abc0
00000070: c7a9 59c0 e9bc 973d a334 aec0 d7ea 803f
00000080: 435b 3340 89c8 1340 5965 80c0 0670 81c0
00000090: cf87 48c0 62ff 22bf a0d8 efc0 1c5b d13d
000000a0: ea00 86c0 bf2b b1c0 8b10 05c1 7332 4c40
000000b0: 3bc6 24c0 c29a dfc0 72b4 f8c0 8df0 8dc0
000000c0: fc02 78c0 c31c 9f3f 1afc 1040 8b35 31c0
000000d0: 5a73 9bc0 b911 7e3f 4b89 0c40 7399 903e
000000e0: b9a4 84c0 51e7 ecbf e9f4 2ac0 2b44 4e3f
000000f0: 3763 a940 3e40 82c0 d4db c9c0 c892 953f

gnn_list.0.nn.3.running_var f4 [64]
13.292403 11.524637 15.357711 18.244461 18.063429 11.147643 12.865262 13.084355
16.351091 12.2407255 15.797011 24.572388 19.395351 13.81316 11.527211 17.37436
10.945847 18.022148 8.776222 13.110359 22.18818 11.972651 15.660646 15.153064
10.41112 19.318298 14.06587 8.751602 11.690428 11.946555 17.152763 18.495749
12.795557 17.450342 17.288223 19.321487 13.759893 20.356735 10.750931 14.208092
6.0495133 10.591761 13.887108 13.511969 14.105087 20.061495 15.666697 10.503317
10.1744175 11.244797 18.282166 16.617014 11.10841 6.535742 12.393386 12.782675
8.489699 18.545109 21.562695 10.815955 10.577016 14.582087 11.963008 14.311433
00000000: afad 5441 ea64 3841 2fb9 7541 a8f4 9141
00000010: e781 9041 bf5c 3241 1dd8 4d41 8559 5141
00000020: 09cf 8241 03da 4341 8fc0 7c41 4094 c441
00000030: ae29 9b41 b402 5d41 756f 3841 b0fe 8a41
00000040: 3022 2f41 5c2d 9041 686b 0c41 08c4 5141
00000050: 6581 b141 fa8f 3f41 0292 7a41 f372 7241
00000060: f393 2641 e08b 9a41 ce0d 6141 9006 0c41
00000070: fe0b 3b41 1725 3f41 dc38 8941 4bf7 9341
00000080: 9aba 4c41 4d9a 8b41 484e 8a41 6892 9a41
00000090: 8628 5c41 98da a241 d003 2c41 5854 6341
000000a0: 9d95 c140 da77 2941 9831 5e41 0631 5841
000000b0: 70ae 6141 f17d a041 caaa 7a41 960d 2841
000000c0: 6aca 2241 b0ea 3341 e041 9241 a5ef 8441
000000d0: 0cbc 3141 cc24 d140 4f4b 4641 d685 4c41
000000e0: cfd5 0741 625c 9441 6680 ac41 270e 2d41
000000f0: 753b 2941 3a50 6941 7b68 3f41 a1fb 6441

gnn_list.1.nn.0.weight f4 [32, 64]
-0.049798977 -0.55124474 0.31422687 -0.016773961 -0.18894991 0.18707876 0.16476779 0.15296231
0.051687233 0.08227957 -0.012047774 0.11909959 -0.31018162 -0.18727803 -0.21114907 -0.26695627
0.014217727 0.050945055 0.1303952 -0.08530484 0.07490009 0.122644834 0.026132122 0.17477153
-0.11587304 0.023418022 -0.13151777 -0.037090067 -0.21141271 -0.015200934 -0.022575155 0.18397544
-0.10770933 0.35951394 0.1101164 0.18852842 -0.3356718 -0.095145315 -0.20485353 0.18532729
0.18082964 -0.11551801 -0.1716757 0.35352635 -0.096739754 0.41467232 -0.17014879 -0.10591448
-0.02900647 0.075712055 0.02519169 -0.3068571 -0.21441251 -0.12462405 -0.19552276 -0.021278996
0.08196458 -0.36668026 0.16380388 -0.018856071 0.2441383 -0.0023483376 0.0075082984 0.29397738
-0.026645772 0.046598665 0.13836652 -0.14566013 -0.13765831 -0.024605112 -0.32275888 -0.1947384
-0.050117925 -0.08446424 0.1078953 -0.2925362 0.08149673 0.1107494 0.11000177 -0.08081685
-0.16407073 -0.02882237 0.026031898 -0.57478 0.08796103 0.0075075966 -0.14674002 -0.071448594
-0.17385538 -0.18070461 -0.030159762 -0.09750188 0.02506128 -0.09518846 -0.049675036 -0.06528732
-0.078734726 -0.100940146 -0.023199208 0.0078104287 -0.11052267 0.2847991 -0.038657937 0.04960866
0.017318442 -0.15017396 -0.1767752 0.13595526 -0.1105326 0.07343517 -0.25065145 0.0102177905
-0.15801851 0.0052009486 0.113979265 -0.119878255 0.19566451 0.031783987 0.0065208906 0.011829436
-0.06295439 -0.08744013 -0.17347838 -0.10058339 -0.20428672 -0.21122672 -0.10239343 -0.097594135
0.26493207 0.118042916 -0.17693095 -0.6118953 0.052886024 0.051421568 0.07231427 -0.22759387
-0.22686276 -0.041195184 -0.12959667 0.050720464 -0.24361746 -0.6030971 0.073973104 -0.1912554
0.08574354 0.008990582 0.067578055 -0.43507177 0.061204694 -0.20713449 -0.0764643 0.05082493
-0.17052695 0.19014716 0.09764718 -0.028021513 0.4485962 -0.21616045 -0.022715956 -0.029817535
0.035504952 0.15731685 0.055853613 -0.09665622 -0.15500188 0.21871102 -0.08807191 -0.11325212
-0.32087043 0.10792136 0.050431646 0.20113902 0.02238826 0.38024887 -0.19892128 -0.3164619
0.107892305 -0.35740244 -0.010137105 -0.18119141 0.12655045 0.15506224 -0.0963372 0.19540924
-0.11406282 0.39213273 0.06518976 0.08573472 0.048420038 0.3649147 0.31562838 -0.07659548
-0.10628697 0.26443887 -0.515356 0.19844487 0.069853485 -0.1025384 -0.17978854 -0.029852247
-0.12060914 -0.008272498 0.18385918 -0.00443455 -0.4505812 -0.26461408 0.17694938 0.061169256
0.24025673 -0.1392608 0.108245954 -0.32113504 -0.0625991 0.4209374 -0.41481465 -0.11195798
-0.042377308 -0.14369468 -0.2263979 0.09980787 0.30750746 -0.31447473 -0.09025501 -0.29704908
0.057156216 -0.3044073 0.13785604 0.17356348 -0.04095402 -0.0457368 0.19942446 0.21136492
-0.022425357 0.010527696 0.16951141 -0.008000948 -0.041867137 0.07996302 -0.115404785 0.066526234
0.17365 -0.31988055 -0.06365735 -0.07360851 0.3268736 0.022315998 -0.31978753 0.2762572
0.19868833 0.17260346 0.03141436 -0.1238513 0.045719445 -0.1076375 0.20029737 -0.20860124
00000000: 03fa 4bbd 601e 0dbf 58e2 a03e 8c69 89bc
00000010: 167c 41be 9391 3f3e e3b8 283e 27a2 1c3e
00000020: feb5 533d 3182 a83d 0764 45bc 7cea f33d
00000030: 20d0 9ebe d0c5 3fbe 7637 58be 7eae 88be
00000040: 78f1 683c c3ab 503d 5286 053e 4eb4 aebd
00000050: 3865 993d 372d fb3d 0813 d63c 4ff7 323e
00000060: d84e edbd 27d7 bf3c 98ac 06be c1eb 17bd
00000070: 937c 58be 570d 79bc 88ef b8bc 0f64 3c3e
00000080: b696 dcbd 3612 b83e b584 e13d 980d 413e
00000090: 2ddd abbe 8cdb c2bd 20c5 51be 70c6 3d3e
000000a0: 682b 393e b594 ecbd c1cb 2fbe 6801 b53e
000000b0: 7e1f c6bd ee4f d43e 7c3b 2ebe b1e9 d8bd
000000c0: fa9e edbc ec0e 9b3d ce5e ce3c 601c 9dbe
000000d0: f48e 5bbe e53a ffbd 1e37 48be 4a51 aebc
000000e0: 0cdd a73d 84bd bbbe 34bc 273e 0c78 9abc
000000f0: 64ff 793e 91e6 19bb 2c08 f63b 3484 963e
00000100: 3c48 dabc 3ede 3e3d f4af 0d3e ee27 15be
00000110: 4df6 0cbe a990 c9bc a740 a5be 8169 47be
00000120: 7448 4dbd 96fb acbd 36f8 dc3d 4ec7 95be
00000130: c2e7 a63d 95d0 e23d 9c48 e13d 4e83 a5bd
00000140: 2802 28be e41c ecbc d940 d53c c824 13bf
00000150: ea24 b43d 4902 f63b 0443 16be a453 92bd
00000160: 2507 32be a10a 39be 9b11 f7bc 11af c7bd
00000170: 504d cd3c 2bf2 c2bd 0d78 4bbd 5cb5 85bd
00000180: ac3f a1bd b5b9 cebd 440c bebc a0ee ff3b
00000190: b659 e2bd 30d1 913e c957 1ebd 7332 4b3d
000001a0: 68df 8d3c 34c7 19be 8f04 35be db37 0b3e
000001b0: ea5e e2bd 2e65 963d 6355 80be 8568 273c
000001c0: 9bcf 21be b86c aa3b f66d e93d bb82 f5bd
000001d0: 475c 483e ed2f 023d 32ad d53b 40d0 413c
000001e0: 3bee 80bd d013 b3bd 51a4 31be aafe cdbd
000001f0: 8a30 51be d14b 58be a6b3 d1bd 6fdf c7bd
00000200: 2da5 873e 7cc0 f13d 632d 35be 2ca5 1cbf
00000210: 049f 583d 6c9f 523d 8119 943d 5e0e 69be
00000220: b64e 68be 48bc 28bd fdb4 04be 43c0 4f3d
00000230: db76 79be 9264 1abf 367f 973d 75d8 43be
00000240: 4f9a af3d 3c4d 133c 5d66 8a3d bac1 debe
00000250: c6b1 7a3d 101b 54be 5199 9cbd cd2d 503d
00000260: 9e9e 2ebe f0b5 423e 3ffb c73d 5f8d e5bc
00000270: 67ae e53e 2a59 5dbe d016 babc e743 f4bc
00000280: a46d 113d ab17 213e c2c6 643d b2f3 c5bd
00000290: d0b8 1ebe c8f5 5f3e 0c5f b4bd baf0 e7bd
000002a0: 2149 a4be e005 dd3d 6a91 4e3d 63f7 4d3e
000002b0: 9667 b73c fbaf c23e 05b2 4bbe 4b07 a2be
000002c0: a4f6 dc3d 74fd b6be 1a16 26bc 3e8a 39be
000002d0: 7196 013e a3c8 1e3e 704c c5bd 5c19 483e
000002e0: c599 e9bd 9fc5 c83e 3582 853d af95 af3d
000002f0: 1754 463d 19d6 ba3e 0b9a a13e 17de 9cbd
00000300: fcac d9bd 8864 873e 5fee 03bf 2235 4b3e
00000310: 580f 8f3d a7ff d1bd 7d1a 38be b38c f4bc
00000320: ed01 f7bd 5f89 07bc 9545 3c3e b44f 91bb
00000330: 94b2 e6be 7f7b 87be 3832 353e 9d8c 7a3d
00000340: dc05 763e 629a 0ebe 0eb0 dd3d d06b a4be
00000350: f533 80bd 1b85 d73e 9662 d4be 3a4a e5bd
00000360: d493 2dbd b324 13be dad4 67be 1268 cc3d
00000370: 9e71 9d3e d502 a1be 9ed7 b8bd d116 98be
00000380: a31c 6a3d 46db 9bbe 222a 0d3e a0ba 313e
00000390: 67bf 27bd 8356 3bbd ed35 4c3e 0c70 583e
000003a0: 62b5 b7bc 5c7c 2c3c 6694 2d3e 6816 03bc
000003b0: e07c 2bbd a7c3 a33d 5859 ecbd e83e 883d
000003c0: 4ed1 313e 62c7 a3be c95e 82bd 0fc0 96bd
000003d0: fa5b a73e 0ad0 b63c 31bb a3be 9571 8d3e
000003e0: f474 4b3e f6be 303e 58ac 003d c0a5 fdbd
000003f0: 5044 3b3d 0d71 dcbd c11a 4d3e 909b 55be

gnn_list.1.nn.0.bias f4 [32]
0.3427 -0.2756977 0.26956186 0.048518375 0.16704288 -0.08594137 0.37505504 0.02646289
0.5447615 0.34266368 -0.02586909 0.21037756 -0.008254983 0.12150516 -0.23026025 0.0038403834
0.19142647 0.23898579 0.21735042 0.12183448 0.12618002 0.19598298 0.20516022 0.3272671
0.2373498 -0.043727186 0.32439205 0.19096337 0.20771046 0.04512047 0.56599927 -0.326599
00000000: 6076 af3e 4028 8dbe 0304 8a3e 34bb 463d
00000010: 4a0d 2b3e 0702 b0bd 3707 c03e b4c8 d83c
00000020: 7d75 0b3f 9d71 af3e 6aeb d3bc 376d 573e
00000030: e93f 07bc b3d7 f83d 58c9 6bbe f1ae 7b3b
00000040: 4d05 443e b1b8 743e 1c91 5e3e 5b84 f93d
00000050: 5635 013e c3af 483e 8515 523e 8e8f a73e
00000060: d30b 733e 471b 33bd b716 a63e e78b 433e
00000070: 0db2 543e 3ed0 383d 54e5 103f fc37 a7be

gnn_list.1.nn.2.weight f4 [32, 32]
-0.3467173 -0.31522354 0.33528832 0.1409595 0.15824655 0.5875912 0.0050462666 -0.5009472
-0.21228737 0.01977531 -0.06664624 0.1543278 0.16280462 -0.017526213 -0.17251377 -0.37780064
-0.34664991 0.06600568 -0.08198806 -0.12004736 0.12266518 -0.32219657 0.044159777 0.1442404
-0.05382859 0.11696141 0.17543858 0.31047395 -0.18831207 0.13872696 -0.36338812 -0.056873377
-0.15719528 -0.03459521 -0.34228262 0.0044410853 -0.35616693 -0.011479194 -0.12340142 -0.36186552
-0.2493559 -0.15512007 -0.048784595 -0.13203385 0.1624582 0.07475169 -0.010906158 0.24953651
-0.3426585 -0.06873544 -0.12300693 -0.34040067 -0.10486678 0.32227522 -0.19917715 -0.06290871
-0.5571495 -0.13112058 0.19854106 -0.24144423 0.0530802 -0.010207629 0.0007843761 0.08502462
0.11810526 -0.2648608 -0.10528441 -0.30348232 0.09990916 0.13213556 -0.1299168 0.22006884
-0.2691749 -0.14061418 -0.17017345 -0.011295753 -0.30971244 -0.17120168 -0.061028272 0.23142645
-0.29599014 -0.16258319 -0.0433801 -0.13139698 0.05246027 -0.060950175 -0.09109028 0.14381132
-0.14904667 -0.27889964 0.60170376 0.13823089 -0.2578344 -0.5783726 -0.09389829 -0.09330447
-0.12269374 -0.12588468 0.31428903 0.27512774 0.4831024 0.2146485 0.1453251 0.2476769
0.24416518 0.021811612 0.010498569 0.39392418 -0.14956453 -0.030508008 -0.06745403 -0.20941767
-0.06922921 -0.10839111 0.036143873 -0.3115572 -0.21427874 0.3112719 0.033703927 -0.16144732
0.1312854 -0.34532177 -0.2569317 -0.006555982 -0.44727594 -0.09314918 -0.02950104 0.04166532
0.18730511 -0.10827932 0.08660987 -0.14753664 0.014966863 -0.013679843 0.07006163 -0.45629382
0.08779757 0.29258797 0.13600044 0.09545618 0.23902728 0.3568857 0.53447026 0.17877202
0.1644573 -0.012760251 -0.0029796236 0.114794314 0.14011046 0.057053994 0.53900087 0.27356547
0.16482832 0.22794417 0.18306467 -0.14906222 -0.2851273 -0.045164738 -0.09088882 0.0919213
0.19757602 0.104261704 0.36212745 -0.09977512 0.19237392 0.3606698 0.12914307 0.003999757
0.26032844 0.08051909 -0.33790135 -0.026579544 -0.12823045 -0.013405274 -0.27534202 0.4450236
0.12113641 0.2686649 -0.3602343 0.05720304 -0.17708667 -0.17902914 -0.19077231 -0.1233304
0.19331668 0.0746645 0.3008426 0.056728818 0.3040538 -0.31896573 0.31052086 0.19160573
0.21844052 0.0021283256 0.21134736 -0.22299589 0.030212574 -0.027471023 0.010010452 -0.17982589
0.14020422 0.071037225 0.096900515 -0.07901892 -0.3263033 0.0025727514 0.091039695 0.028900087
0.1389538 0.7195218 -0.24129108 0.08910039 -0.24336597 -0.15999298 0.08872204 0.07514495
0.1486984 -0.050400224 0.115490735 -0.12622516 0.25427705 -0.3537009 0.17287704 -0.06076349
-0.38016585 -0.08732638 -0.13384368 -0.21640792 0.21859355 -0.20605294 0.11432866 -0.3822445
0.19554268 -0.29590228 -0.1197129 -0.16001993 -0.2745018 -0.09064703 -0.2605183 -0.30851647
0.2365613 0.08386668 -0.12058867 0.1528895 0.04589276 -0.1393383 -0.12321866 0.025279695
0.2125415 -0.26871923 -0.27565297 -0.23497356 0.15608494 -0.10755843 -0.17702584 -0.30195376
00000000: ee84 b1be fb64 a1be e9aa ab3e b057 103e
00000010: 620b 223e 606c 163f 275b a53b 133e 00bf
00000020: dc61 59be d5ff a13c d37d 88bd 1b08 1e3e
00000030: 41b6 263e 2293 8fbc 73a7 30be 166f c1be
00000040: 197c b1be fc2d 873d 5be9 a7bd 64db f5bd
00000050: e237 fb3d f3f6 a4be e2e0 343d c1b3 133e
00000060: 5e7b 5cbd 7789 ef3d 2ca6 333e 71f6 9e3e
00000070: e1d4 40be 710e 0e3e 020e babe 0ff4 68bd
00000080: cdf7 20be b5b3 0dbd ab3f afbe 8686 913b
00000090: 835b b6be 3b13 3cbc e2b9 fcbd 7046 b9be
000000a0: 2757 7fbe ccd7 1ebe 5bd2 47bd e233 07be
000000b0: 715b 263e 6a17 993d beaf 32bc 8086 7f3e
000000c0: ef70 afbe 2bc5 8cbd 0feb fbbd ff48 aebe
000000d0: 65c4 d6bd 4201 a53e 18f5 4bbe 48d6 80bd
000000e0: 5aa1 0ebf 7944 06be 594e 4b3e 283d 77be
000000f0: a06a 593d e63d 27bc 979e 4d3a 6321 ae3d
00000100: 2ce1 f13d d69b 87be 5a9f d7bd 0962 9bbe
00000110: 2c9d cc3d 8b4e 073e e908 05be ba59 613e
00000120: 4bd1 89be 2afd 0fbe f341 2ebe d211 39bc
00000130: a192 9ebe 7e4f 2fbe c8f8 79bd 0efb 6c3e
00000140: 058c 97be 357c 26be 55af 31bd ee8c 06be
00000150: 94e0 563d e4a6 79bd 8a8d babd 4643 133e
00000160: b19f 18be efcb 8ebe 4209 1a3f 668c 0d3e
00000170: df02 84be 3a10 14bf bf4d c0bd 6a16 bfbd
00000180: db46 fbbd eae7 00be 7eea a03e 8bdd 8c3e
00000190: 3359 f73e d1cc 5b3e 1ad0 143e 039f 7d3e
000001a0: 7006 7a3e 44ae b23c 3102 2c3c 6eb0 c93e
000001b0: 7227 19be eeeb f9bc 5725 8abd 9671 56be
000001c0: 0bc8 8dbd 29fc ddbd 990b 143d 6d84 9fbe
000001d0: e36b 5bbe 085f 9f3e 210d 0a3d 7252 25be
000001e0: ae6f 063e 04ce b0be 8d8c 83be 90d3 d6bb
000001f0: 5a01 e5be ffc4 bebd 2aac f1bc 41a9 2a3d
00000200: e9cc 3f3e 8cc1 ddbd 8460 b13d d813 17be
00000210: 9337 753c 6c21 60bc 797c 8f3d 589f e9be
00000220: 36cf b33d 17ce 953e b343 0b3e 887e c33d
00000230: 91c3 743e b9b9 b63e 0bd3 083f 0310 373e
00000240: 7f67 283e 5f10 51bc ca45 43bb 4819 eb3d
00000250: 1e79 0f3e 73b1 693d f6fb 093f c610 8c3e
00000260: c1c8 283e 326a 693e 4e75 3b3e c4a3 18be
00000270: 35fc 91be a9fe 38bd eb23 babd 3c41 bc3d
00000280: 5e51 4a3e 2987 d53d c568 b93e e656 ccbd
00000290: abfd 443e b6a9 b83e 153e 043e 6510 833b
000002a0: c549 853e 31e7 a43d 6801 adbe 58bd d9bc
000002b0: d84e 03be cba1 5bbc a1f9 8cbe 22da e33e
000002c0: 5e16 f83d 728e 893e a170 b8be bc4d 6a3d
000002d0: 3556 35be 6a53 37be d159 43be a694 fcbd
000002e0: cff4 453e b4e9 983d 0b08 9a3e 7a5c 683d
000002f0: f1ac 9b3e 7a4f a3be 97fc 9e3e 4b34 443e
00000300: dfae 5f3e 617b 0b3b 716b 583e 0959 64be
00000310: 5c80 f73c e90a e1bc e102 243c 4724 38be
00000320: b291 0f3e f77b 913d c773 c63d acd4 a1bd
00000330: 3a11 a7be 9b9b 283b 0573 ba3d e0bf ec3c
00000340: e849 0e3e 9532 383f 0215 77be 447a b63d
00000350: ee34 79be 33d5 23be e7b3 b53d 98e5 993d
00000360: 6544 183e 7770 4ebd 6886 ec3d 2b41 01be
00000370: 9a30 823e 4918 b5be ae06 313e 23e3 78bd
00000380: 19a5 c2be 2cd8 b2bd 510e 09be 0a9a 5dbe
00000390: fdd6 5f3e 8bff 52be 2525 ea3d 8db5 c3be
000003a0: 573c 483e 8180 97be 092c f5bd 44dc 23be
000003b0: 808b 8cbe 26a5 b9bd a862 85be dff5 9dbe
000003c0: 203d 723e 4bc2 ab3d 31f7 f6bd 118f 1c3e
000003d0: 0cfa 3b3d b3ae 0ebe 115a fcbd 5d17 cf3c
000003e0: 7ba4 593e 9195 89be 6322 8dbe e99c 70be
000003f0: bbd4 1f3e 9847 dcbd 4346 35be af99 9abe

gnn_list.1.nn.2.bias f4 [32]
-0.02180874 -0.048394207 -0.106599726 0.15960409 -0.18142532 -0.049290467 0.043206405 -0.028752334
-0.11862453 -0.05000937 0.05583237 0.1889473 -0.11788971 -0.04390727 0.10803207 0.067715555
0.07382655 -0.1486745 0.044216838 -0.17264222 -0.0009469683 -0.09840215 0.12583578 -0.018913353
0.09022297 0.018886037 0.19010778 -0.11081276 0.026577221 0.11714474 -0.11441164 -0.03390357
00000000: 3ea8 b2bc 0139 46bd f550 dabd 416f 233e
00000010: 8fc7 39be cde4 49bd 33f9 303d 048a ebbc
00000020: 6bf1 f2bd a0d6 4cbd 7cb0 643d 677b 413e
00000030: 2970 f1bd 1cd8 33bd eb3f dd3d 74ae 8a3d
00000040: 6032 973d 213e 18be b71c 353d 1fc9 30be
00000050: f83d 78ba 1187 c9bd 18db 003e 2df0 9abc
00000060: d2c6 b83d e4b6 9a3c 9dab 423e cdf1 e2bd
00000070: 79b8 d93c 95e9 ef3d a650 eabd 78de 0abd

gnn_list.1.nn.3.weight f4 [32]
0.39197478 0.3169223 0.606185 0.50786144 0.7606112 0.7211119 0.552964 0.57974553
0.6293373 0.8097281 0.5355384 0.5694926 0.77812684 0.6787341 0.69704354 0.8091314
0.6842483 0.5837965 0.4894839 0.505092 0.6357329 0.47067827 0.603132 0.5120205
0.5944197 0.7828151 0.51799685 0.6660044 0.75702465 0.54817355 0.51162535 0.4813504
00000000: ebb0 c83e a443 a23e f12e 1b3f 3503 023f
00000010: 6ab7 423f ca9a 383f 0c8f 0d3f 346a 143f
00000020: 401c 213f 574a 4f3f 0b19 093f 44ca 113f
00000030: 5233 473f 85c1 2d3f 7271 323f 3c23 4f3f
00000040: e62a 2f3f b073 153f a29d fa3e b64d 013f
00000050: 64bf 223f befc f03e dc66 1a3f c713 033f
00000060: e42b 183f 9266 483f 719b 043f 447f 2a3f
00000070: 5ecc 413f 1a55 0c3f e1f9 023f 8f73 f63e

gnn_list.1.nn.3.bias f4 [32]
-0.080561206 -0.27025428 -0.2977794 0.017856954 -0.046106573 -0.5257576 -0.4709664 -0.014424332
0.010469443 -0.6220767 -0.5062231 0.036064252 -0.6818629 0.020255774 0.1251691 0.05764088
-0.64410216 -0.33994728 -0.04892319 0.039217334 -0.52826875 0.03609803 0.06339438 -0.07178577
0.013685053 -0.46187693 -0.039730918 0.16405328 -0.31638792 -0.019829368 -0.5419179 -0.6219981
00000000: 46fd a4bd c55e 8abe 8b76 98be bf48 923c
00000010: 3fda 3cbd 0d98 06bf 8222 f1be 0954 6cbc
00000020: 0788 2b3c 6b40 1fbf d697 01bf 1cb8 133d
00000030: 918e 2ebf 70ef a53c 542c 003e d818 6c3d
00000040: e1e3 24bf 920d aebe af63 48bd 5ba2 203d
00000050: 9f3c 07bf 87db 133d ead4 813d 6b04 93bd
00000060: 4637 603c 227b ecbe e3bc 22bd 95fd 273e
00000070: 99fd a1be 3371 a2bc 22bb 0abf 443b 1fbf

gnn_list.1.nn.3.running_mean f4 [32]
-0.30988088 -66.85757 -35.566063 -7.1394835 46.164246 7.46874 -2.1312008 -28.262331
-27.639612 10.251897 68.490135 -46.035587 -28.798574 -23.805973 36.889812 34.067463
46.639553 -49.461784 16.035543 -26.818192 11.704994 -39.76147 -4.5912323 -9.977424
-20.021824 50.45535 -35.889812 -48.87274 -57.04171 46.938896 26.181047 4.3905473
00000000: b5a8 9ebe 13b7 85c2 a643 0ec2 a676 e4c0
00000010: 30a8 3842 ebff ee40 9865 08c0 4119 e2c1
00000020: ed1d ddc1 c507 2441 f3fa 8842 7124 38c2
00000030: 7b63 e6c1 a272 bec1 2b8f 1342 1545 0842
00000040: e78e 3a42 ded8 45c2 cb48 8041 a88b d6c1
00000050: a847 3b41 bf0b 1fc2 60eb 92c0 87a3 1fc1
00000060: b22c a0c1 47d2 4942 2b8f 0fc2 b07d 43c2
00000070: b62a 64c2 6ec1 3b42 c972 d141 5d7f 8c40

gnn_list.1.nn.3.running_var f4 [32]
879.11975 3045.0256 2866.855 1554.869 7706.4565 3424.0972 1794.7516 2110.075
1680.4827 2065.2527 8776.05 1410.3354 3813.062 1943.9626 4620.4546 6028.558
3320.058 3187.3132 1309.1625 1853.9785 2217.3813 1054.6364 1248.2844 4059.455
2289.7087 10708.577 1306.066 1518.0406 2755.6416 10035.116 822.3385 2517.0688
00000000: aac7 5b44 6950 3e45 ae2d 3345 cf5b c244
00000010: a7d3 f045 8e01 5645 0d58 e044 33e1 0345
00000020: 720f d244 0b14 0145 3320 0946 bc4a b044
00000030: fe50 6e45 cefe f244 a363 9045 7764 bc45
00000040: ee80 4f45 0335 4745 33a5 a344 50bf e744
00000050: 1a96 0a45 5dd4 8344 1a09 9c44 48b7 7d45
00000060: 571b 0f45 4f52 2746 1d42 a344 4dc1 bd44
00000070: 443a 2c45 77cc 1c46 aa95 4d44 1a51 1d45

mlp_list_inner.0.mlp_list.0.weight f4 [64, 64]
0.19455646 0.09229903 0.04962162 -0.15589593 -0.14017318 -0.16331135 0.11758986 0.11011636
0.15182215 -0.07270168 -0.18888299 -0.17902614 0.26075736 0.01923369 -0.08648589 -0.216549
0.1596622 -0.043646235 0.05388814 0.031956375 0.15637718 0.021098552 -0.11020036 -0.27610072
0.01574755 0.11341517 -0.0030226924 0.36379308 0.109253794 0.1744171 -0.041879542 0.17205004
-0.27423367 -0.067533806 -0.25597543 0.1807344 -0.15428694 0.0023231874 0.035390135 -0.12528807
0.04338446 0.10446868 0.120579965 -0.021989705 0.021102397 -0.07302782 -0.15797895 0.29113925
0.07587936 0.074590854 -0.09921202 0.43789268 -0.026371276 -0.11670872 0.007511482 0.16217399
-0.030811407 0.26785812 -0.1413574 0.16927403 -0.059293434 0.019113598 0.09250988 -0.15372674
-0.08195166 0.006626771 0.019608874 0.15925817 -0.11960349 -0.4886863 0.2848663 0.13520896
-0.0079447655 -0.20220937 -0.013568208 -0.10374146 0.16417217 0.16894002 0.09632907 0.10063514
0.22968347 0.12314509 -0.30457437 -0.10481239 -0.19767794 0.18426631 -0.02420049 0.08168278
-0.065771975 -0.036911756 -0.16164333 0.029380472 -0.27958545 0.15102755 -0.065776154 0.10261912
-0.027494969 -0.03411536 -0.051745366 0.22629797 -0.35345533 -0.09731415 0.2855186 0.07727537
0.3687404 0.11853515 0.3840209 0.03823707 0.14298078 -0.119241565 -0.09196961 0.33784622
-0.15043968 0.009464436 -0.101514935 -0.079339996 0.09265565 0.2509731 0.077743515 -0.03695392
0.14925519 -0.326998 0.22093491 0.035961017 -0.28224567 -0.32274252 0.15370014 -0.0012424972
-0.0001010548 -0.20529942 -0.2432332 0.017871108 -0.085106894 -0.3465584 0.22471084 0.14275531
0.023156447 -0.05266541 0.14567679 0.13071226 0.20621642 -0.0011161584 0.10244577 0.04458289
0.034878977 0.21273926 -0.25026298 0.02599509 0.027676363 -0.21787629 0.0702822 0.114872046
0.32259396 0.15291601 -0.06222571 0.39908758 -0.03415194 -0.036836904 0.08809928 -0.20135999
-0.018546913 0.009172028 -0.026104614 -0.06347577 0.12761071 -0.32262504 0.0939721 -0.1851312
-0.05055086 0.24286728 0.31524292 0.19354896 0.24333118 -0.024974937 0.052342378 0.2747049
0.27759078 0.1817571 0.10136434 0.23563756 -0.34760714 -0.038516775 0.07842019 -0.28884158
-0.10021539 0.070512354 -0.057723727 0.13937505 -0.09164232 -0.07572058 0.23845336 -0.09860209
0.026799334 -0.1064671 0.27714694 0.2663174 -0.23255329 0.32798418 0.49838495 -0.10853444
-0.020429358 0.05659539 -0.013041526 0.12263974 -0.3178505 0.34850132 -0.21578093 0.32855788
0.1406016 0.15499373 -0.20038298 -0.22461438 0.18449844 0.3680586 -0.078848496 -0.06100041
-0.009273344 -0.4016949 0.16224284 -0.37372515 0.24040572 0.33892795 -0.15699434 0.40665662
0.0027644248 -0.08715604 0.1784627 0.34501445 -0.32205918 0.06517803 0.1618679 -0.06610195
0.15594596 -0.12317156 -0.25474715 0.14478709 0.19691469 -0.09416949 0.114223786 0.02051946
-0.18294165 0.1895663 0.051082984 -0.059278157 -0.2067797 -0.046888005 0.043165848 0.12933093
0.058110904 0.108477615 0.24850613 0.06485452 -0.097128 -0.29545838 -0.02008851 0.25278312
00000000: cf39 473e 4607 bd3d 0a40 4b3d 2fa3 1fbe
00000010: 8f89 0fbe 173b 27be f4d2 f03d b084 e13d
00000020: 4477 1b3e 9ee4 94bd 8b6a 41be a152 37be
00000030: fd81 853e f98f 9d3c 841f b1bd 05bf 5dbe
00000040: 7d7e 233e 65c6 32bd cfb9 5c3d b0e4 023d
00000050: 5721 203e dfd6 ac3c bab0 e1bd 135d 8dbe
00000060: 0201 813c 3646 e83d 5d18 46bb 1643 ba3e
00000070: 74c0 df3d 659a 323e e289 2bbd e32d 303e
00000080: 5b68 8cbe 2a4f 8abd 360f 83be 7012 393e
00000090: 65fd 1dbe 9e40 183b 3ff5 103d 844b 00be
000000a0: e7b3 313d adf3 d53d a1f2 f63d c123 b4bc
000000b0: efde ac3c 9c8f 95bd 3cc5 21be 3410 953e
000000c0: a366 9b3d 17c3 983d ac2f cbbd 7833 e03e
000000d0: 9308 d8bc fb04 efbd e122 f63b f010 263e
000000e0: 3468 fcbc b324 893e ffbf 10be 2c56 2d3e
000000f0: acdd 72bd 1f94 9c3c d275 bd3d 8b6a 1dbe
00000100: 46d6 a7bd 6225 d93b caa2 a03c 9314 233e
00000110: adf2 f4bd 1735 fabe ffd9 913e 3874 0a3e
00000120: c32a 02bc f90f 4fbe 304d 5ebc 6776 d4bd
00000130: c01c 283e 9dfe 2c3e 2d48 c53d cc19 ce3d
00000140: 2532 6b3e 7e33 fc3d 2cf1 9bbe e1a7 d6bd
00000150: 166c 4abe 4fb0 3c3e 1b40 c6bc 4d49 a73d
00000160: 75b3 86bd c830 17bd d485 25be 51af f03c
00000170: d325 8fbe f7a6 1a3e a6b5 86bd f929 d23d
00000180: 213d e1bc 8cbc 0bbd f3f2 53bd a8ba 673e
00000190: 19f8 b4be a44c c7bd 7e2f 923e 8d42 9e3d
000001a0: 8bcb bc3e 8fc2 f23d 639e c43e 799e 1c3d
000001b0: 8e69 123e ec34 f4bd 905a bcbd 2efa ac3e
000001c0: dc0c 1abe b910 1b3c 10e7 cfbd 027d a2bd
000001d0: 3fc2 bd3d 8c7f 803e fe37 9f3d fe5c 17bd
000001e0: 5ad6 183e 486c a7be c33c 623e dc4b 133d
000001f0: 8182 90be 823e a5be 9263 1d3e 4adb a2ba
00000200: 62ed d3b8 033a 52be 2012 79be 6e66 923c
00000210: 864c aebd 1a70 b1be 991a 663e 732e 123e
00000220: 97b2 bd3c afb7 57bd 4c2c 153e 6fd9 053e
00000230: 662a 533e 104c 92ba 16cf d13d 8c9c 363d
00000240: 42dd 0e3d 52d8 593e 7822 80be a8f3 d43c
00000250: 8ab9 e23c f61a 5fbe 1df0 8f3d 0942 eb3d
00000260: 092b a53e 0496 1c3e 63e0 7ebd 3555 cc3e
00000270: e8e2 0bbd 4be2 16bd 656d b43d 5031 4ebe
00000280: b2ef 97bc 4646 163c 58d9 d5bc 96ff 81bd
00000290: 62ac 023e 1c2f a5be 7274 c03d 0993 3dbe
000002a0: 6b0e 4fbd 33b2 783e 8567 a13e b331 463e
000002b0: cf2b 793e 3d98 ccbc f664 563d 1fa6 8c3e
000002c0: 6120 8e3e 891e 3a3e 1b98 cf3d f94a 713e
000002d0: 90f9 b1be c4c3 1dbd c49a a03d 0be3 93be
000002e0: ba3d cdbd c868 903d b76f 6cbd 55b8 0e3e
000002f0: f8ae bbbd 6413 9bbd 1e2d 743e e4ef c9bd
00000300: 478a db3c 6c0b dabd 34e6 8d3e c15a 883e
00000310: 7322 6ebe 8bed a73e 502c ff3e 4e47 debd
00000320: 785b a7bc 91d0 673d 20ac 55bc 8b2a fb3d
00000330: 4dbd a2be c46e b23e adf5 5cbe bd38 a83e
00000340: def9 0f3e adb6 1e3e 3231 4dbe 5001 66be
00000350: 29ed 3c3e 2d72 bc3e 527b a1bd 91db 79bd
00000360: 39ef 17bc f4aa cdbe fd22 263e e758 bfbe
00000370: eb2c 763e f787 ad3e 20c3 20be 4c35 d03e
00000380: 5a2b 353b de7e b2bd edbe 363e bca5 b03e
00000390: f1e4 a4be 0f7c 853d b3c0 253e 7660 87bd
000003a0: 4cb0 1f3e 5f41 fcbd 386e 82be 1143 143e
000003b0: 01a4 493e efdb c0bd 29ee e93d 6d18 a83c
000003c0: 0e55 3bbe ab1d 423e 643c 513d a7cd 72bd
000003d0: 0fbe 53be a30d 40bd acce 303d 546f 043e
000003e0: b305 6e3d 8329 de3d 6478 7e3e 72d2 843d
000003f0: 0beb c6bd 5246 97be a990 a4bc ca6c 813e

mlp_list_inner.0.mlp_list.0.bias f4 [64]
0.1928401 0.03629418 0.023147652 0.28245258 0.028622983 -0.1464355 0.13130462 -0.08456648
-0.021105275 -0.028437773 -0.044853367 0.12526 0.13208874 -0.010905822 -0.13185534 0.2090676
0.13217899 -0.07270112 0.119107604 0.087785386 -0.09461802 0.21033357 0.028677411 0.15978017
-0.16692299 -0.16523498 0.09319651 0.08180672 0.06936677 -0.05449369 -0.015809314 0.10242489
0.16547436 0.07235037 -0.088133074 0.2856662 0.11228677 -0.081278935 0.23120165 0.23047726
-0.14381684 0.018233282 0.17530476 -0.08322399 -0.038442116 -0.14573435 -0.091919035 -0.017550403
0.050836902 0.2580102 0.15467875 0.31476805 0.15131038 0.07104052 -0.19722581 0.33167028
-0.063875586 0.1817481 0.09237159 -0.101311535 0.023187209 -0.034515258 0.094338216 0.06878251
00000000: e077 453e 35a9 143d 25a0 bd3c a09d 903e
00000010: bf7a ea3c 30f3 15be b874 063e 3131 adbd
00000020: f8e4 acbc 55f6 e8bc 2ab8 37bd 2844 003e
00000030: 4542 073e 55ae 32bc 1605 07be d115 563e
00000040: ee59 073e 53e4 94bd b0ee f33d d3c8 b33d
00000050: 18c7 c1bd af61 573e e4ec ea3c 6a9d 233e
00000060: dced 2abe 5c33 29be d0dd be3d 488a a73d
00000070: 2a10 8e3d c734 5fbd 8982 81bc 24c4 d13d
00000080: 1c72 293e 6e2c 943d 1d7f b4bd d742 923e
00000090: 9bf6 e53d 9275 a6bd 20c0 6c3e 3b02 6c3e
000000a0: b944 13be f75d 953c 1783 333e 5771 aabd
000000b0: 7b75 1dbd 633b 15be 0c40 bcbd ddc5 8fbc
000000c0: 5b3a 503d ea19 843e 1b64 1e3e 4729 a13e
000000d0: 1cf1 1a3e b17d 913d 90f5 49be b0d0 a93e
000000e0: 34d1 82bd 2d1c 3a3e 512d bd3d 6c7c cfbd
000000f0: 1af3 bd3c df5f 0dbd 6534 c13d d8dd 8c3d
